checkpoint/_ckpt_06-27_11-12-25.pt (torch, 29322 bytes, 54 tensors)

encoder.0.weight f4 [10, 12]
000000 69 cc 14 3c 11 04 43 bd 4f 69 81 3e b7 0e 72 be
       0.009081938 -0.0476113 0.25275657 -0.23638426
000010 3e c6 d1 3c f3 2f b3 bd e2 ef 41 be cf c1 13 bd
       0.025607225 -0.0874938 -0.18939164 -0.036073502
000020 23 b9 57 be 9f ce 40 be a8 1a 46 be 4b 49 50 bd
       -0.21066718 -0.1882882 -0.19346106 -0.050851148
000030 6b f8 47 be f7 56 1e be 5d da 42 3e 11 de 04 be
       -0.19528358 -0.15462862 0.19028611 -0.12975337
000040 cf b4 93 be af 29 2f 3d 3d 9e a6 bd f5 cd 49 3e
       -0.28848884 0.042764362 -0.0813565 0.19707473
000050 d8 be 0a be a6 1e 9a bd 86 b1 46 be 3b c6 c1 3d
       -0.13549364 -0.07525377 -0.19403657 0.094616376
000060 ff 98 99 3d bc 43 a0 bd d6 f7 c0 3c 1b 8b 84 be
       0.07499885 -0.07825419 0.023555677 -0.2588738
000070 3e ef ba bd cb c6 61 be df 1c 62 3d c0 ae 8f bd
       -0.09127663 -0.2204849 0.055203315 -0.07015753
000080 e2 45 98 3e 55 ee 18 3e ee e7 5e be bd 77 80 be
       0.29740816 0.14934666 -0.21768162 -0.25091353
000090 b2 b7 83 be d8 fe 64 be 54 2e ca 3c ae af 41 3e
       -0.25726086 -0.2236284 0.024680294 0.18914673
0000a0 94 7c 25 be 7d cc 17 3e 77 8a cb 3d 48 03 87 3e
       -0.16160804 0.148241 0.099385194 0.2636969
0000b0 53 3e 4a be 0b 11 19 3d a5 17 13 be 22 1e 5d be
       -0.19750337 0.03736977 -0.14364488 -0.21593526
0000c0 e3 d1 00 3e 7e c7 34 3d fc 49 16 3e 3b d8 f1 bd
       0.12580065 0.044135563 0.1467666 -0.11808821
0000d0 8d 70 4a be a9 9a b2 bd 3d be 82 be 04 b8 c4 3c
       -0.19769497 -0.08720905 -0.25535765 0.024013527
0000e0 8a 38 1b 3d ba 13 07 be 8f 2a 8b bd 20 b4 e4 3d
       0.037895717 -0.13191119 -0.06795227 0.111671686
0000f0 e0 64 8a 3b 0b 93 12 be 0a 48 87 be ab bd 78 be
       0.004223451 -0.14313905 -0.2642215 -0.24291103
000100 53 1a be 3d 6e 90 a6 3d 0f 03 3f bd ff 5d 13 3e
       0.09282365 0.081330165 -0.046633776 0.14391325
000110 94 c9 23 3e 02 37 5b 3d 11 9a a6 3d 8e 88 d7 bd
       0.15994865 0.053519256 0.081348546 -0.105240926
000120 d6 69 6c 3d 29 04 3e 3e 8e a2 5d be 47 c7 09 be
       0.05771812 0.18556274 -0.21644041 -0.13454925
000130 2e 7a 83 3e d3 fb 86 3e dd 37 ac bd e5 7f 23 be
       0.25679153 0.26364002 -0.084090926 -0.15966757
000140 1e 2d 9d bc 44 3f 67 3e 91 b3 13 3d 8b fe 8c 3e
       -0.019186553 0.22582728 0.03605992 0.2753795
000150 8a f4 ca bd f3 c2 76 be 38 fe 41 be 9e a9 72 be
       -0.099099234 -0.24097805 -0.18944633 -0.23697516
000160 90 c6 45 3e 09 7c 38 3e 45 75 40 be 8f d7 61 3e
       0.19314027 0.18016066 -0.18794735 0.22054885
000170 e6 0d 7c bd a4 54 c5 3d 82 00 47 3e 2d 6f 7c be
       -0.061536692 0.096352845 0.19433787 -0.24651785
000180 9d 7b 4a 3e 28 7b 84 be eb b9 83 be 00 1e 82 3e
       0.19773717 -0.2587521 -0.25727782 0.25413513
000190 5c 75 10 3e e8 b4 81 be b4 de 39 be e6 eb be 3d
       0.14107269 -0.25333333 -0.18151361 0.09322338
0001a0 b5 95 34 3e 12 00 7e be 62 06 49 be 9a c0 70 3d
       0.17635234 -0.24804714 -0.19631341 0.05877743
0001b0 a0 73 03 3e ea 35 dd 3c cb 13 0a be aa 43 ed bc
       0.12837076 0.027003247 -0.13484113 -0.028962929
0001c0 b6 ff 78 3e 2c 89 1d bd 6b f4 d1 3d a1 df 88 be
       0.24316296 -0.038460895 0.10251697 -0.26733115
0001d0 99 2c 90 be 9b 9f 60 be 41 03 5e be 64 5f 2c 3e
       -0.28159025 -0.21935885 -0.21680929 0.16833264

encoder.0.bias f4 [10]
000000 1b ba 7b 3d 4b f3 15 be c0 11 74 3e 46 bc 28 3d
       0.06145678 -0.1464359 0.23834896 0.041195177
000010 94 aa 94 3e b6 65 55 be 67 0a 3e 3e 9e 71 c4 3b
       0.2903639 -0.20839581 0.18558656 0.0059949895
000020 3c c6 85 3d 30 d6 5f 3e
       0.06531951 0.2185905

encoder.3.weight f4 [10, 10]
000000 0a 9a 47 be b7 9c 8e 3e f4 99 83 3e f4 80 9b 3d
       -0.19492355 0.2785394 0.25703394 0.07592955
000010 f0 8c a5 3e 92 dc ff 3b 34 ae 9a be 64 ba 34 be
       0.3233409 0.0078082765 -0.3021103 -0.17649227
000020 5a cf 2e bd 53 1f 8d be 4e c3 9d bd c5 01 27 3e
       -0.042678215 -0.2756296 -0.07703267 0.16309269
000030 44 36 87 bc 0c 86 91 3d a8 40 ea 3d 1c 9f 86 3d
       -0.016505368 0.071056455 0.114381135 0.065733165
000040 c0 59 05 3e 3b 08 74 3e 9b 66 66 3e ef ec c6 3d
       0.13022518 0.23831265 0.22500078 0.0971316
000050 6f ac f4 bd 05 bd 65 3e 4c 8d 6a 3e be 9b 0b 3e
       -0.119469516 0.22435386 0.22905463 0.1363363
000060 0f bb 9e 3e de 26 4c be 34 ee 03 3e 89 ad 29 3e
       0.3100209 -0.19936702 0.12883836 0.16570105
000070 f4 c6 90 be 7f 0b 01 3e d4 85 6f 3e 50 a4 03 3e
       -0.2827679 0.12602042 0.23390895 0.12855649
000080 4b 59 49 3e 70 7f 8f be 4c 3e 97 3e 3b bb 51 3e
       0.19662969 -0.28026915 0.29539716 0.20481579
000090 33 53 91 3e 17 ea 9b be a2 dd 8d 3e 1a 43 45 bd
       0.28383788 -0.30452034 0.27708155 -0.048159696
0000a0 ca c2 41 3d 9b 76 43 3e ed 03 d9 3c 9a 28 a2 3d
       0.047304906 0.19088213 0.02649113 0.079179004
0000b0 d6 d2 99 be 6f 7d 4d 3e 45 df 75 3e 6b a8 d5 3d
       -0.30043668 0.2006738 0.24010952 0.10432514
0000c0 30 00 0f be f5 19 44 3e 22 d8 83 be f4 a8 84 bc
       -0.13964915 0.19150527 -0.25750834 -0.016193844
0000d0 ea cf 50 be 19 0b f6 3d c0 31 d6 3a dc d4 65 3e
       -0.20391813 0.120138355 0.0016341731 0.2244448
0000e0 f3 02 f2 bd 31 e2 d3 3d da ae 0d be 46 f9 2d bd
       -0.11816969 0.10345877 -0.13836232 -0.042474054
0000f0 90 30 47 3e 70 a7 25 bd 69 6e e4 3d c3 af 8f 3e
       0.19452119 -0.040442884 0.111538716 0.28063783
000100 80 d3 4d 3e 14 19 61 be 16 32 22 be 48 8e 31 3e
       0.20100212 -0.21982223 -0.15839419 0.17339432
000110 e5 0f 81 be 10 99 03 be b0 11 6d 3d 3c 24 5f be
       -0.2520744 -0.12851357 0.057878196 -0.21791166
000120 9f 4f b2 3d 5f 06 95 be 0a a6 8e 3e 82 74 30 be
       0.08706593 -0.29106423 0.27861053 -0.17231944
000130 26 1e 95 be f2 0c a4 3e d4 d6 eb bd d0 db 6b be
       -0.29124564 0.32041126 -0.115155846 -0.2303307
000140 27 f6 98 be 64 e2 9f be 2a 6c 5d 3e d0 47 7f be
       -0.298753 -0.3122741 0.21623293 -0.24929738
000150 50 85 9f 3d 50 6c 26 3e d6 cb 86 3e 6c 0e 64 3b
       0.07789099 0.16252255 0.2632739 0.0034798635
000160 5e 0c 48 bc ac e6 9b bd b6 8b b8 3b d7 b7 44 3c
       -0.01220998 -0.076123565 0.005631889 0.012006721
000170 e1 52 8b 3e e4 2e b0 3d 77 e7 62 bd 6d 1b 83 be
       0.2721167 0.08602694 -0.055396523 -0.25606862
000180 30 cf 35 be 78 5d 8a 3d ea 0d 5c be f6 65 6c 3e
       -0.17754817 0.06756109 -0.21489683 0.2308577

encoder.3.bias f4 [10]
000000 d3 d9 84 be 1a 18 23 be 41 d5 5c be 42 7d 53 be
       -0.25947437 -0.15927163 -0.21565725 -0.20653251
000010 88 22 72 bc 9d 88 03 3e 2d 45 9b bd 6a 55 82 bc
       -0.014778741 0.12845083 -0.075815536 -0.01590987
000020 38 76 0e 3e cf 55 85 3d
       0.13912284 0.06510507

encoder.6.weight f4 [6, 10]
000000 d2 25 27 be 70 1d eb 3d 07 15 70 3d 50 7d 37 3e
       -0.16323021 0.11480224 0.058613803 0.17918897
000010 72 fb b5 bd d8 79 8c 3e bb 72 77 3e 20 18 a6 be
       -0.0888585 0.2743671 0.2416486 -0.3244028
000020 70 14 2e 3e e9 82 62 be 92 21 a0 3d 2a 03 49 be
       0.16999984 -0.22120251 0.07818903 -0.19630113
000030 6d 2d 4c 3d ac fd 2e 3d 76 c1 74 3e ad 43 6e be
       0.04984801 0.04272239 0.23901924 -0.23268004
000040 3c 0e ba bd 8f be 04 be ca d0 95 be ad d1 29 3e
       -0.09084746 -0.12963317 -0.29260856 0.16583891
000050 a8 b7 97 bc 57 78 97 3e be 16 f2 3b 5a 24 70 3c
       -0.018520191 0.29584 0.007387965 0.014657104
000060 62 23 40 3e d7 07 77 3e b5 7a d3 3d 8e cf bf bd
       0.18763497 0.24124084 0.10326139 -0.0936576
000070 a5 23 32 be 6b a5 80 be b6 38 f5 bd 6a 65 02 3e
       -0.1739641 -0.25126204 -0.119737074 0.12733999
000080 48 84 f5 bc c7 d5 94 3d bd 0a 54 3e d3 23 8d 3e
       -0.029970303 0.07267337 0.20707221 0.27566394
000090 7f 44 bb 3c cc e3 81 bb 04 e6 8c 3e c0 83 b0 3d
       0.02285981 -0.003963923 0.27519238 0.08618879
0000a0 0d ba 42 be 1d 5e 33 be d7 c8 3e 3e 66 db b0 bd
       -0.19016285 -0.1751637 0.18631302 -0.08635597
0000b0 3d fc 86 bc 9c 80 93 3e 6e 97 8d 3e 69 97 98 be
       -0.016477698 0.2880906 0.27654594 -0.29803017
0000c0 70 34 8e 3d 76 df 8f be bd d5 b2 bd e6 5b 92 be
       0.069435954 -0.28100175 -0.087321736 -0.28585738
0000d0 c5 c9 dd bd dd c4 8b be e1 c6 19 bd fb c4 52 be
       -0.108295 -0.27298632 -0.03754318 -0.20582955
0000e0 a0 81 45 3e d6 9a 70 3d 5e c5 84 3e 41 0b 65 be
       0.1928773 0.058741413 0.2593183 -0.22367574

encoder.6.bias f4 [6]
000000 cb 97 52 be 21 63 96 3e 2f 7c ee bc 24 db 5f be
       -0.20565717 0.29372504 -0.02911195 -0.2186094
000010 dc 23 14 3b 6c 17 60 bb
       0.0022604382 -0.0034193648

decoder.0.weight f4 [10, 6]
000000 93 ff 66 be 3c ff 7d 3e c7 97 8f be 46 72 8a 3e
       -0.22558431 0.24804395 -0.28045484 0.2704031
000010 e0 08 d4 39 5e b9 ba bd 5f 18 31 bd f8 b5 6e 3e
       0.00040442403 -0.09117387 -0.043236133 0.23311603
000020 3a 7b cb 3d e1 4d 12 3d db e3 1a 3e 90 c3 06 be
       0.09935613 0.035718802 0.15125982 -0.13160539
000030 fc ff 6c be 13 95 77 3e c5 e3 23 be bf 4b f0 3d
       -0.23144525 0.24177961 -0.16004856 0.117331974
000040 58 e4 33 3e a2 34 67 be ed 8a 7d 3e 46 40 fc bc
       0.17567575 -0.22578672 0.24760027 -0.030792367
000050 32 27 92 be da 5f 7d 3e a7 23 4d be ec 27 1f be
       -0.2854553 0.24743596 -0.20033132 -0.15542573
000060 2f c5 30 3e f3 76 16 3e 21 7f 68 be 7f 6e 58 be
       0.1726272 0.14693813 -0.22704746 -0.21135901
000070 3a da 4e bd 4e 44 b6 be f6 73 b0 bd 02 b6 c4 3c
       -0.050501086 -0.35598987 -0.08615868 0.02401257
000080 00 5d d4 be 6a 50 39 be 51 e1 64 be de 7e 1e be
       -0.41477203 -0.18097082 -0.22351576 -0.15478083
000090 68 2e 9a be 14 fc 7a 3d aa d5 1e 3e 95 5e 90 3e
       -0.3011353 0.061275557 0.15511194 0.2819716
0000a0 d4 c4 e1 3d c0 06 df bd be e9 c5 bc 75 ba e4 3d
       0.1102387 -0.10889959 -0.024159309 0.11168376
0000b0 6b b7 4c be 02 fd a1 be 0d 88 26 be e7 e2 08 3e
       -0.19991843 -0.31638342 -0.16262837 0.13367806
0000c0 6a c9 89 be 1a ba ad 3e e7 fc 23 3c 82 03 f2 3d
       -0.2691148 0.33931047 0.010009027 0.11817075
0000d0 4e 61 3c be 3c cf 44 3e 75 79 37 3d ee 8a e3 bd
       -0.18396494 0.19219679 0.044793565 -0.11110483
0000e0 18 85 c9 3e 1f d3 74 3e a0 93 e4 3d 1f aa bf be
       0.39359355 0.23908661 0.1116097 -0.3743448

decoder.0.bias f4 [10]
000000 7f 9b d3 3d 42 8d 02 3e c5 7e 82 3e 0d 72 4f be
       0.10332393 0.12749198 0.25487342 -0.2025835
000010 fa ea b9 bd 73 23 ba be ac c7 e4 bd 5f 3a 9a 3e
       -0.09078021 -0.3635517 -0.11170897 0.3012266
000020 93 00 4b be b6 7f dc bd
       -0.19824438 -0.107665464

decoder.3.weight f4 [10, 10]
000000 58 dc 45 3d 7c 17 50 bd 1f a4 58 be 76 da fb 3d
       0.04830584 -0.050803646 -0.21156357 0.122975275
000010 9e 29 99 be eb 2f 3f be e5 60 d0 bd 2e 34 4b 3e
       -0.29914564 -0.18670623 -0.10174731 0.19844124
000020 47 90 5a 3e c1 51 71 3d 7e 9b 3a bd ac dc 31 bd
       0.213441 0.058915857 -0.045558445 -0.04342334
000030 44 e0 a0 3e 80 ba c4 bb 16 f5 93 3e 2e 2b 90 be
       0.314211 -0.006003678 0.28897923 -0.28157943
000040 d3 11 9b be db 34 37 be eb c7 96 3c 98 8e 59 3d
       -0.30287036 -0.17891257 0.018405875 0.053114504
000050 c7 e9 1b be 59 c1 a4 be b0 be 8c be 6a 17 c5 bd
       -0.15225898 -0.32178763 -0.27489233 -0.096236065
000060 6b 43 b8 3d 33 ee 0b 3e 26 d0 97 be fc 10 4a be
       0.08997234 0.13665085 -0.29650992 -0.19733042
000070 36 72 0d bd 38 d3 da 3b 6c 2f 89 be e3 f3 67 3e
       -0.03453275 0.0066780113 -0.26793993 0.22651629
000080 cb ea 3c 3c e8 4c 53 3d e6 db 4b 3e 79 0f 89 3e
       0.011530588 0.051587015 0.19908103 0.26769617
000090 7c 41 07 3e 03 a7 7c be cf 89 39 be 8d 7a 70 be
       0.13208574 -0.24673085 -0.18118976 -0.2348425
0000a0 48 cd e8 bb 7c 5f a9 bd b6 4d 83 be 2f c9 06 bc
       -0.0071045496 -0.08270165 -0.25645226 -0.008226677
0000b0 41 0c 83 3e 2e 5b d2 3c 44 5b 8a 3e 36 8a 76 3e
       0.25595286 0.025678243 0.27022755 0.24076161
0000c0 22 fc 6b be 00 e1 5b 3d a8 58 4d bd d2 6c 08 3e
       -0.230454 0.053681374 -0.050133377 0.13322762
0000d0 b4 51 cb 3d a0 b3 65 3d 50 cb 2b 3e e8 1f 9b be
       0.09927693 0.056079507 0.16776776 -0.3029778
0000e0 9f e0 82 3e f3 14 1a 3e f7 f7 56 3e 1b 5e 2a be
       0.25561997 0.15047054 0.20993029 -0.16637461
0000f0 d6 eb 9c be 66 7f 86 3e 0b 66 08 be c6 8b db 3c
       -0.3064868 0.26269072 -0.13320176 0.026800048
000100 e0 f5 90 3d 9e 52 c8 bd ac b0 8a 3d 87 8e cb 3c
       0.07078147 -0.09781383 0.06771979 0.024848236
000110 e4 16 55 3e 80 3c 46 bb 83 2a 7f be 71 9e 07 be
       0.20809513 -0.0030248463 -0.2491856 -0.13244034
000120 81 d8 5f be 60 89 2b 3e e3 26 74 3e 38 34 3a 3d
       -0.21859933 0.16751623 0.23842959 0.045459956
000130 9e 7f e0 bd db 00 e5 bd bd 42 8c be f5 27 3d bd
       -0.10961841 -0.11181804 -0.27394667 -0.046180684
000140 9d a2 9e be de 34 f1 bd 94 9b 9b be bc 5d dc 3d
       -0.3098344 -0.11777662 -0.30392134 0.10760066
000150 70 a8 b9 bd a4 e7 9e bd e2 9f 7d be b8 9c e5 3d
       -0.0906533 -0.07759026 -0.24768022 0.11211532
000160 c9 68 2d be e8 e0 90 be ec 74 93 bd 3f ee 82 be
       -0.16934504 -0.2829659 -0.072000355 -0.25572392
000170 27 69 9a 3e fc 8d b6 3d 4d 44 6a 3e 39 09 c0 bc
       0.3015835 0.089138 0.22877617 -0.023441898
000180 0c c7 59 3d ec 12 a4 3d 17 5a 8d 3e c4 43 43 be
       0.05316834 0.080114216 0.27607796 -0.1906882

decoder.3.bias f4 [10]
000000 4a c5 94 3e 61 a3 78 be 85 2e 44 3e 04 dd 8e bd
       0.2905677 -0.24281074 0.19158371 -0.06975749
000010 02 31 41 3e 65 f8 5f be 2c 45 a0 3d 5f 36 8b 3e
       0.18866351 -0.21872099 0.078256935 0.2718992
000020 42 5d 09 be 06 9f 86 be
       -0.13414481 -0.262932

decoder.6.weight f4 [12, 10]
000000 17 bd 3d be 77 39 67 be a4 b5 7d bb e8 71 fc bb
       -0.18529163 -0.22580515 -0.0038713003 -0.0077040084
000010 fa bb af 3d 39 7a 87 be 40 75 8b 3e 15 5a 5e 3e
       0.085807756 -0.26460436 0.27237892 0.21714051
000020 92 86 1f 3e a4 0a 8a 3b ed db 06 be 65 ca d7 bd
       0.15578678 0.0042126942 -0.13169833 -0.105366506
000030 db ce 90 be a1 45 cf bd 56 bd 67 bd 00 46 8a be
       -0.28282818 -0.101207025 -0.05657705 -0.2700653
000040 70 fd 28 3e 6f 8f 63 be 69 e8 a0 3e 61 25 8e 3e
       0.16502929 -0.22222684 0.31427315 0.27762893
000050 dc 22 44 be f4 0a 28 be bb 57 36 3e c5 79 3e bd
       -0.19153923 -0.16410428 0.17806904 -0.046502847
000060 b0 7d 5d 3e 0e 98 52 be a3 01 84 bd 6c a6 7c be
       0.21629977 -0.20565817 -0.06445625 -0.2467286
000070 14 75 c4 bd 4c 82 a8 3c f0 a3 5e 3d 3e b9 8d 3e
       -0.095926434 0.020569943 0.05435556 0.2768039
000080 8e b6 80 bd ac ab 18 be 08 ac a5 bc ca 3e 40 be
       -0.062848195 -0.14909238 -0.020223632 -0.18773952
000090 44 66 d4 3d e4 a5 d3 bd de 4d 0e 3e 73 b1 a0 3d
       0.10371068 -0.103343755 0.13896891 0.07846346
0000a0 10 a2 1e 3e 3a 6f 96 be a9 0a 1f be f3 96 2b 3d
       0.1549151 -0.29381734 -0.1553141 0.041892003
0000b0 91 3e 0f be 2d 06 80 be aa 16 46 be 4a a8 e3 3c
       -0.13988711 -0.25004712 -0.19344583 0.027790207
0000c0 31 ff 20 be f7 c7 56 bd 8c 21 85 be 24 fc 88 3e
       -0.15722348 -0.052436795 -0.26002157 0.26754868
0000d0 09 cb 94 3e 46 d7 5a 3e a3 dc 65 bc 6a 2e 73 be
       0.29061154 0.21371183 -0.014029655 -0.23748174
0000e0 c2 11 6b 3e 54 e8 6a be 46 24 ff bd 41 a4 8e be
       0.22955993 -0.22940189 -0.124580905 -0.2785969
0000f0 94 7e 0c be aa e6 92 be a1 5d 8b 3e f3 49 80 3e
       -0.1372016 -0.28691608 0.2721987 0.2505642
000100 9d 63 95 bd fa dc 98 3e a6 02 01 bd 0f f7 26 3e
       -0.0729439 0.29856092 -0.031496666 0.16305183
000110 74 d1 9f 3d 06 64 a6 be e1 c8 8a 3e d5 f0 22 be
       0.07803622 -0.32498187 0.27106383 -0.15912183
000120 f8 8c 95 bd 08 f7 4c be 94 f0 1d bc 4d 18 22 be
       -0.07302278 -0.2001611 -0.009639878 -0.15829583
000130 3e bb 05 be 47 72 95 be 3e 49 5d 3e 84 e7 07 be
       -0.13059708 -0.2918875 0.21609971 -0.1327191
000140 31 92 6c be 7b de 27 be c4 78 90 3c c0 3f 2a bd
       -0.23102643 -0.16393463 0.01763571 -0.041564703
000150 fa 85 6a be 89 1a 82 be a6 6b f2 3d 7e d1 3f 3e
       -0.2290267 -0.2541087 0.118369386 0.18732259
000160 fb 98 9c 3e 83 4c be 3d 7b c0 24 3e 7f 15 5c be
       0.30585465 0.09291937 0.1608905 -0.21492575
000170 46 28 01 3c 82 8e 0c be dd 76 51 3e c1 03 58 3e
       0.007883137 -0.13726237 0.20455499 0.21095182
000180 ca 6c b8 bd 81 83 13 be 17 01 8f 3e 40 9e cf 3c
       -0.09005125 -0.14405634 0.2793052 0.025344014
000190 af 8f e4 bd 23 86 7a be b4 af 97 3b f6 eb 32 be
       -0.11160218 -0.24465232 0.0046290997 -0.17472824
0001a0 ba 7a 1f 3e d9 59 5c be 24 75 c8 3d c6 c6 32 be
       0.1557416 -0.21518649 0.09787968 -0.17458639
0001b0 90 c6 87 3c 17 51 b8 3d 12 12 4d 3e 7c 16 98 be
       0.016574174 0.08999842 0.20026425 -0.29704654
0001c0 65 43 92 be 9c 32 77 3e 70 00 79 be ba 4e 5a be
       -0.28567043 0.241404 -0.24316573 -0.21319094
0001d0 04 eb 6e be be 31 82 be ce 43 a7 bd 80 ee c0 bc
       -0.23331839 -0.25428575 -0.081672296 -0.023551226

decoder.6.bias f4 [12]
000000 8e e8 7c be fc 0b d5 bc 1c 06 84 bc 2d d1 55 be
       -0.24698088 -0.026006691 -0.016116194 -0.20880575
000010 6e 1d 37 bd c0 c4 11 be d5 05 85 3e 80 da c8 3b
       -0.0447058 -0.1423521 0.25981012 0.006129563
000020 a2 3f 68 3d e3 14 68 be b2 d1 54 3c d5 d1 76 3e
       0.05670131 -0.22664218 0.012989448 0.24103482

mlp.0.weight f4 [10, 12]
000000 b4 d1 66 3e 81 bc 17 be d2 02 15 be 3c 38 63 3e
       0.22540933 -0.14818002 -0.14551857 0.2218942
000010 80 be 00 bd 30 0c 18 be 04 0b f3 3d d8 6f 8a 3e
       -0.031431675 -0.14848399 0.118673354 0.27038455
000020 3c 0f 5e bd 7c 51 b7 3d 14 fe 3d 3e 93 49 8a be
       -0.054213747 0.08951089 0.18553954 -0.27009258
000030 9a ac 80 be 40 fd b1 bd 31 fb aa bc ee 4e 37 be
       -0.25131685 -0.08690882 -0.02087173 -0.17901203
000040 01 9e 08 be 3a 07 04 bd 85 f3 ca 3c 15 ac 85 3d
       -0.13341524 -0.032233454 0.024774322 0.06526963
000050 47 7b e6 bd 98 e6 a4 3d 5d 04 3e be f7 1d 03 be
       -0.11253982 0.08051795 -0.18556352 -0.128044
000060 0a d1 46 3d 00 ee 02 be cf 4c 88 3d b3 f3 93 be
       0.0485392 -0.12786102 0.06655275 -0.28896865
000070 e2 5d 8d be b3 b9 87 3e 76 df 9f 3d 1f f3 8a be
       -0.2761069 0.26508865 0.07806294 -0.27138612
000080 e3 6e 71 3e 79 e9 4c be bc 29 79 bd b9 28 07 bd
       0.23577456 -0.20010938 -0.060830817 -0.03299782
000090 e0 b4 90 3e 48 4b 77 3e b0 a0 bc 3d 26 7f 3d 3e
       0.28262997 0.24149811 0.09210336 0.18505535
0000a0 dc 38 ec 3d a8 9f 76 3d f2 d0 21 3e 3f 09 8c be
       0.115342826 0.060210854 0.15802363 -0.27350804
0000b0 92 35 0a 3e 36 7a 44 3e 70 c4 44 3d 58 38 82 3d
       0.13496998 0.19187245 0.0480389 0.06358403
0000c0 a7 ca 78 be 5f 13 5a bd c4 9b 13 3e 8e da 14 be
       -0.24296056 -0.05324113 0.14414889 -0.14536497
0000d0 f2 c4 94 3e ab 06 43 be 04 19 a4 bd af 9e 2e be
       0.29056507 -0.19045512 -0.08012584 -0.1705272
0000e0 70 95 4d 3e 9b 73 10 3e 7a c2 33 be 00 2f 9a b8
       0.20076537 0.141066 -0.17554656 -7.352047e-05
0000f0 72 9b d3 bc 58 68 0f bd 0c cb 83 be 43 aa 4c 3e
       -0.025830958 -0.03501162 -0.2574085 0.19986825
000100 41 35 87 3e 4e 76 28 be 93 95 5d be 8f 53 33 be
       0.26407817 -0.1645138 -0.2163909 -0.17512344
000110 ff 13 0a 3e 82 b0 59 be 4f d9 48 3e ba 67 50 3e
       0.1348419 -0.21258739 0.19614147 0.20352069
000120 57 33 87 3d 25 63 8e 3e ba 02 e6 bd c2 9f 77 3e
       0.06601589 0.27810016 -0.11230989 0.24182037
000130 1e 01 c6 bd 80 d7 98 3e 08 ff ba bc 08 d6 8a be
       -0.09668182 0.29851913 -0.022826687 -0.27116418
000140 6e cd 83 be 14 a9 61 be a8 40 c6 ba f8 2a 26 be
       -0.25742668 -0.22037154 -0.001512547 -0.16227329
000150 96 d7 35 3d 63 d9 83 be d7 50 24 be 12 31 57 3e
       0.044395052 -0.2575179 -0.16046463 0.21014813
000160 96 11 f6 bc 63 1a c0 bd 2e 7e 28 3e ad 5e 6a be
       -0.030037683 -0.09380033 0.16454384 -0.22887678
000170 b1 4f dd 3d d9 84 6d be c7 37 fe bd e4 ee 95 3d
       0.108062156 -0.23195209 -0.124129824 0.073209554
000180 08 c2 50 3e c0 d7 ae 3b 0a ed 17 be 7c ee e8 3d
       0.20386517 0.005335778 -0.14836517 0.11373612
000190 58 3c 8b 3d 80 97 4e 3e 5c 46 85 3e 02 4b 87 bd
       0.06798619 0.2017498 0.26030242 -0.066061035
0001a0 4c 8e b2 3d d0 ad 37 3e 74 3a c9 3d e8 18 2c bd
       0.08718547 0.17937398 0.09825602 -0.04201594
0001b0 fc 5b b6 bd f8 b5 88 be 42 03 a8 bd 6e 1c 29 3e
       -0.089042634 -0.2670133 -0.082037464 0.16514751
0001c0 f4 90 48 bd b4 34 bc 3d 60 60 5f 3e 18 01 96 3d
       -0.048966363 0.0918974 0.21814108 0.07324427
0001d0 fc f3 63 3e e6 61 1e 3e e8 c8 80 3e ae 8c 35 3e
       0.22261041 0.15467033 0.2515328 0.17729446

mlp.0.bias f4 [10]
000000 b2 3e 5e be 27 f4 b1 bd da ce ac bd ed 5d 8e be
       -0.21703604 -0.086891465 -0.08437891 -0.27806035
000010 6a 44 13 bd 0c df 08 bd 0e 89 72 3e e0 52 fa bd
       -0.035953917 -0.03341584 0.23685095 -0.122228384
000020 14 9c 78 be 67 61 67 be
       -0.24278289 -0.2259575

mlp.3.weight f4 [8, 10]
000000 78 40 c4 bd 12 ef dd bd 30 c2 35 3e 42 87 dd bd
       -0.09582609 -0.10836615 0.17749858 -0.10816814
000010 3c 81 98 3e 09 2d 22 3d fd ec 8c 3d de 37 83 3c
       0.29786098 0.03959373 0.068811394 0.01601785
000020 f0 40 c8 3c 09 38 8e 3e cc 0e 8a 3d a5 13 82 3e
       0.024445027 0.27777126 0.067411035 0.25405613
000030 c8 db c1 3d 24 a8 98 3d 95 d7 93 3e 82 cb 12 3e
       0.09465748 0.07453945 0.28875414 0.14335445
000040 e4 67 32 be a1 86 4f be 45 3e 5d be 89 64 9d be
       -0.17422444 -0.202662 -0.21605785 -0.30740765
000050 b4 6e fb 3d 80 47 a6 3c ea 4d 2b be 3c d6 48 be
       0.12276974 0.020297766 -0.1672894 -0.19612974
000060 e7 77 93 3e 34 0a fe 3d a0 57 49 3d 3c 12 28 be
       0.28802416 0.1240429 0.04915583 -0.16413206
000070 08 9f cb 3d 3a 36 da bd 57 c4 97 3e a4 f5 5c 3e
       0.09942442 -0.10654874 0.29641983 0.2157808
000080 5d 9d 80 3e e4 ea dd 3d ca 85 3c 3e 78 83 83 bd
       0.2512006 0.108358175 0.18410411 -0.0642156
000090 e0 78 dd bb bc 63 fa 3d 1c ec 9f bd 50 9d fc 3c
       -0.006758794 0.12226054 -0.07808706 0.030836731
0000a0 00 e8 6f bc 5c 55 1c be 82 a3 6c 3e 4a 51 eb bd
       -0.014642715 -0.15266937 0.23109248 -0.11490114
0000b0 95 ad 89 be 35 59 84 be 4c cd ac 3d e4 db ca bd
       -0.26890245 -0.2584931 0.08437595 -0.09905222
0000c0 5f 03 53 be 80 55 05 3e 05 16 8e 3e 1d 6a 99 be
       -0.20606755 0.13020897 0.27751175 -0.2996377
0000d0 3e bb 46 be 66 85 9b be 44 9e 11 be 35 27 8a be
       -0.19407365 -0.30375212 -0.1422053 -0.26983038
0000e0 a6 07 66 3e de 1b 79 3e 91 a0 4b be 11 6f 7d be
       0.22463855 0.24327037 -0.1988547 -0.247494
0000f0 78 1c 20 3d 92 09 87 3d b8 43 07 3e 77 40 99 3e
       0.03908965 0.06593622 0.13209426 0.29931995
000100 d4 fd 86 3e f8 c7 43 bd 20 23 18 bc 1a c8 82 be
       0.2636553 -0.047798127 -0.009285718 -0.2554329
000110 2a ea 07 be 44 cf 81 bd 20 3c 31 3e 6a 2e 49 be
       -0.1327292 -0.06338361 0.17308092 -0.19646612
000120 f1 f6 61 be 7e b8 10 3e 58 29 20 3d 18 d4 1b be
       -0.22066857 0.14132878 0.03910193 -0.15217626
000130 71 bf a1 3e 20 79 93 3d 25 a4 89 3e d8 5f 3a bd
       0.3159137 0.07200837 0.26883045 -0.04550156

mlp.3.bias f4 [8]
000000 cd 99 4e 3e cc 7a d0 bd 45 e3 96 be 36 16 9d 3e
       0.20175858 -0.10179672 -0.29470268 0.30681008
000010 72 2b 9f be 94 92 73 3e d6 77 cd bd 5a 1f 5f be
       -0.31087834 0.23786384 -0.100326225 -0.21789303

mlp.6.weight f4 [5, 8]
000000 98 f3 3f be f9 58 72 3e e3 34 ae be a0 c4 49 3d
       -0.18745267 0.23666753 -0.34024724 0.04925978
000010 ac d3 89 3d 5a cf 08 bc 64 0a fb 3d dc c0 be bd
       0.06729826 -0.008350218 0.12257841 -0.09314129
000020 69 dc ad be 40 78 06 3e 4a 49 08 3e 17 a5 9f 3e
       -0.33957222 0.13131809 0.13309208 0.3118064
000030 20 70 5d 3d b8 61 8b be 47 5e d5 3d c6 1d fb bd
       0.05406201 -0.2722299 0.104183726 -0.12261538
000040 c3 5d 57 3e fc 1f a5 bc 96 91 af be 7e 2b 88 be
       0.21031861 -0.020156853 -0.3429076 -0.26595682
000050 c4 40 be bd 21 35 d0 bd a6 14 45 3d a7 a0 25 be
       -0.09289697 -0.101663835 0.048115395 -0.16174565
000060 a8 07 81 3e 36 ab 62 3e 34 bd d9 bd 7b dd 91 be
       0.25201154 0.22135624 -0.10631791 -0.2848929
000070 2c 75 0d 3e 95 1c 00 be 9d 85 27 3e b0 98 6c be
       0.13814229 -0.12510903 0.16359563 -0.2310512
000080 f3 b7 a5 bc ca a2 c6 3d 77 19 95 3e 79 74 5c bd
       -0.020229315 0.09699018 0.2912099 -0.053822014
000090 2e b9 4f 3e 89 e3 7d be c5 c4 3f be d2 de 69 be
       0.20285484 -0.24793829 -0.18727405 -0.22838905

mlp.6.bias f4 [5]
000000 e2 6a 22 3e 98 2c a6 be 5e ea 4c 3e a5 e7 68 bd
       0.15861085 -0.32455897 0.20011279 -0.05686154
000010 e2 39 fc 3d
       0.12315728

exp_avg f4 [10, 12]
000000 de 73 02 b5 df 3d 38 35 b7 77 ff 34 28 66 8c b4
       -4.859738e-07 6.8635376e-07 4.7584555e-07 -2.615136e-07
000010 fd e6 e8 b2 b5 24 d2 34 9a 5c 8e b1 81 e6 10 35
       -2.7113396e-08 3.9142256e-07 -4.1432715e-09 5.397961e-07
000020 88 61 fd 33 9a 09 63 2e 0d be f1 34 e1 60 02 35
       1.17989714e-07 5.1622352e-11 4.5028028e-07 4.856975e-07
000030 e3 f3 b9 b4 4d 3d a2 35 cd 4c cf b4 60 77 65 b5
       -3.4636386e-07 1.2087781e-06 -3.8612635e-07 -8.548286e-07
000040 6f 2c 2b 34 cb 1a 83 35 43 f1 30 34 5b 1d 89 34
       1.5941781e-07 9.768058e-07 1.6479048e-07 2.5539597e-07
000050 23 9c 56 b5 05 83 24 b4 9b 0c 26 35 a8 91 7c b4
       -7.994842e-07 -1.5321355e-07 6.185816e-07 -2.3522318e-07
000060 1f c5 d0 b5 19 53 2b 34 6b 18 46 b4 95 00 20 b5
       -1.5554577e-06 1.5955847e-07 -1.844907e-07 -5.960549e-07
000070 d5 ab 21 34 93 34 40 b4 60 81 f9 b4 f4 8c 30 b5
       1.5056806e-07 -1.790052e-07 -4.6473997e-07 -6.5770223e-07
000080 85 88 26 b5 ea fb 8c 34 dd b4 5b 33 aa 79 a6 b4
       -6.203848e-07 2.6260324e-07 5.1154405e-08 -3.1008432e-07
000090 1d af c3 b4 15 2e f1 b4 00 89 53 34 56 dd 09 b4
       -3.6448992e-07 -4.4923277e-07 1.9700747e-07 -1.2839641e-07
0000a0 ac f3 88 b4 4f a5 13 b3 3d 84 8c 34 83 3a ba b4
       -2.550927e-07 -3.4376452e-08 2.6173248e-07 -3.4687773e-07
0000b0 36 51 47 b4 2d b2 bd b4 6b 34 8a 33 d0 29 6a 34
       -1.8562864e-07 -3.5333633e-07 6.4356605e-08 2.180816e-07
0000c0 c5 cc ee 34 c0 8a aa 34 95 c5 fd b5 6b 40 3b 34
       4.4479944e-07 3.1765921e-07 -1.8907473e-06 1.7439167e-07
0000d0 70 aa 4f 34 79 dc b4 b4 2b d9 9a 34 ea 07 62 b5
       1.9340382e-07 -3.3688028e-07 2.8842746e-07 -8.420308e-07
0000e0 32 e7 85 b5 fa 33 51 34 9a 77 a5 34 77 d6 a5 b5
       -9.976559e-07 1.9483551e-07 3.0820667e-07 -1.2355875e-06
0000f0 bf c5 8c b4 87 de 15 35 55 6f 41 b4 cf c3 1d 35
       -2.622091e-07 5.5830645e-07 -1.8015028e-07 5.8771997e-07
000100 00 ea 7e 35 c4 eb b6 34 3d b1 4a b4 7f f2 29 34
       9.496289e-07 3.4071684e-07 -1.8877195e-07 1.5827571e-07
000110 54 dd 2a 34 ed 98 86 33 e2 7b da 34 77 70 eb b4
       1.5913002e-07 6.267678e-08 4.06958e-07 -4.385399e-07
000120 8f 10 fb 34 ce a0 93 35 1f 98 f0 34 ed a8 4d 33
       4.676444e-07 1.0999154e-06 4.4814166e-07 4.788392e-08
000130 c0 83 d0 35 df 64 90 35 ae 54 a5 32 b7 84 57 35
       1.5535552e-06 1.0758193e-06 1.9247036e-08 8.0286867e-07
000140 55 64 05 34 d7 1d 3d b4 73 9d 45 b5 ad 29 23 34
       1.2423091e-07 -1.7612852e-07 -7.361734e-07 1.519572e-07
000150 c7 11 3d 35 20 60 01 35 f0 70 04 b4 b3 7c 7f b4
       7.0433856e-07 4.8196125e-07 -1.2334544e-07 -2.3794091e-07
000160 f7 8d b6 35 9a 8a d7 35 08 86 a7 b4 33 f6 b6 35
       1.3601374e-06 1.6059087e-06 -3.1203695e-07 1.363171e-06
000170 c8 90 05 35 98 eb 40 b5 6a 36 6f b3 01 f8 3d b4
       4.9757045e-07 -7.186841e-07 -5.5696013e-08 -1.769222e-07
000180 0d 7d 67 35 84 7b 24 36 ea 6d d9 b5 1d 3c 88 b5
       8.623618e-07 2.45098e-06 -1.6199749e-06 -1.0150285e-06
000190 05 21 dc 35 bb dd ac 35 5b 9a f1 b2 24 e1 32 35
       1.6400887e-06 1.2879531e-06 -2.8126285e-08 6.663779e-07
0001a0 d2 b0 96 b5 23 f3 68 b2 0d ff db 33 95 87 e5 b5
       -1.1227332e-06 -1.355946e-08 1.0244376e-07 -1.7101289e-06
0001b0 8c 95 a3 b5 2b 39 d0 34 58 fd e5 34 0b a6 36 b5
       -1.218797e-06 3.8784614e-07 4.2838906e-07 -6.804191e-07
0001c0 da 1a db 35 23 d0 a0 35 13 d7 27 34 d3 86 50 35
       1.6324586e-06 1.1981505e-06 1.563133e-07 7.7682233e-07
0001d0 05 16 d3 34 b7 d7 f8 b4 02 be 11 b4 53 bf 00 34
       3.9317834e-07 -4.6350553e-07 -1.3573302e-07 1.1990532e-07

exp_avg_sq f4 [10, 12]
000000 39 b9 d4 28 01 28 54 29 f8 f2 cb 28 0f 66 f6 27
       2.3617056e-14 4.7108154e-14 2.2642898e-14 6.838937e-15
000010 c9 82 a9 24 32 00 8a 28 f4 55 fd 21 ce 39 03 29
       7.3513626e-17 1.5321162e-14 1.7166698e-18 2.913798e-14
000020 8a a1 c8 26 d2 14 a1 1b 82 9f b6 28 51 7b d4 28
       1.3921573e-15 2.664867e-22 2.0275235e-14 2.3590208e-14
000030 70 1d 58 28 a0 82 24 2a a3 4a 86 28 d5 8b a4 29
       1.1996792e-14 1.4611446e-13 1.4909357e-14 7.30732e-14
000040 a0 20 37 27 fd da d6 29 cd ad 43 27 61 01 eb 27
       2.5414038e-15 9.5414975e-14 2.7155904e-15 6.5227098e-15
000050 ef ed 8f 29 9c 26 29 27 c4 53 2c 29 df 58 c7 27
       6.3917506e-14 2.3474392e-15 3.8264327e-14 5.532995e-15
000060 ef 33 88 2a 64 73 37 27 da 42 75 27 2a 01 20 29
       2.419449e-13 2.5458905e-15 3.403682e-15 3.5528146e-14
000070 22 5c 23 27 a5 e4 66 27 58 8a c2 28 2f d0 42 29
       2.267074e-15 3.204286e-15 2.1598324e-14 4.3257224e-14
000080 55 55 2d 29 cb 74 f8 27 c2 d8 96 25 6a 36 2d 28
       3.848773e-14 6.8960455e-15 2.6167733e-16 9.615228e-15
000090 96 53 6f 28 3d c6 b5 28 b3 d5 8b 27 43 95 ed 26
       1.328529e-14 2.0181009e-14 3.8811943e-15 1.6485636e-15
0000a0 96 72 ea 27 d2 3e 08 25 b0 cf f6 27 ba c1 58 28
       6.507228e-15 1.1817404e-16 6.850389e-15 1.2032416e-14
0000b0 c5 4b 78 27 51 e7 60 28 c8 c1 ee 25 f9 59 ab 27
       3.4457989e-15 1.2484657e-14 4.141773e-16 4.7559583e-15
0000c0 4e 34 b2 28 51 c7 35 28 1a 40 c9 2a 15 25 5b 27
       1.9784653e-14 1.0090738e-14 3.5749252e-13 3.0412458e-15
0000d0 0f c4 86 27 40 71 4c 28 cc dc 15 28 fb a7 9f 29
       3.740504e-15 1.1348832e-14 8.319039e-15 7.0901584e-14
0000e0 22 20 e0 29 ba c4 88 27 06 1f 2b 28 74 e3 2b 2a
       9.9531725e-14 3.7960874e-15 9.499134e-15 1.5266765e-13
0000f0 06 b6 f7 27 44 61 0c 29 4b db 69 27 9d 8f 1b 29
       6.875362e-15 3.117061e-14 3.2454125e-15 3.454148e-14
000100 f2 10 cb 29 20 20 51 28 59 63 80 27 4f 83 34 27
       9.0179505e-14 1.1608797e-14 3.563485e-15 2.50512e-15
000110 85 77 36 27 a5 74 e2 25 2e 2c 95 28 56 39 ad 28
       2.5322365e-15 3.9283792e-16 1.6561483e-14 1.9231724e-14
000120 c7 fa c4 28 82 36 08 2a 76 e4 b4 28 c9 2c 84 25
       2.1869129e-14 1.2098138e-13 2.0083094e-14 2.2928697e-16
000130 b1 de 87 2a 6c 4f 02 2a d3 d6 2a 24 8d 26 91 29
       2.413534e-13 1.1573874e-13 3.7044837e-17 6.445981e-14
000140 e6 6a de 26 1e 88 5f 27 b9 12 74 29 5c 63 26 27
       1.5433319e-15 3.1021256e-15 5.4195123e-14 2.309099e-15
000150 9c 6b 5f 29 a8 39 d1 28 1e 42 db 26 ef fa cb 27
       4.9609283e-14 2.3228666e-14 1.5214099e-15 5.661588e-15
000160 dc 49 50 2a 7b 2e 91 2a a1 66 2f 28 fb 37 51 2a
       1.8499736e-13 2.5789426e-13 9.7367056e-15 1.8582351e-13
000170 39 ff de 28 2e 9d 68 29 1e d2 b2 25 03 8d 61 27
       2.4757636e-14 5.165068e-14 3.102046e-16 3.1301465e-15
000180 89 75 a7 29 2e 17 29 2b 6b bc 93 2a c3 ff e7 29
       7.436679e-14 6.007303e-13 2.6243187e-13 1.0302828e-13
000190 6a 6d 97 2a 51 c4 3a 2a 98 69 b6 24 94 fc 47 29
       2.689891e-13 1.658823e-13 7.91088e-17 4.4405953e-14
0001a0 4d ec 0d 2a 79 94 a9 23 b3 3e 97 26 13 a3 a4 2a
       1.2605299e-13 1.8385897e-17 1.0494724e-15 2.9245408e-13
0001b0 a6 3f 27 2a 8f 7d 87 28 2f 4c a5 28 d4 80 50 29
       1.4854662e-13 1.5042463e-14 1.835172e-14 4.629702e-14
0001c0 8f 05 96 2a 56 a1 21 2a 7f 10 30 27 b2 e2 87 29
       2.664921e-13 1.4355647e-13 2.443385e-15 6.03453e-14
0001d0 d8 3d 8b 28 20 82 c1 28 45 c1 04 27 d4 32 cf 26
       1.545892e-14 2.1483737e-14 1.8423452e-15 1.4377287e-15

exp_avg f4 [10]
000000 93 cd b0 33 48 07 21 b5 27 e4 b1 32 90 4d f0 34
       8.2330324e-08 -5.998777e-07 2.0709264e-08 4.4759918e-07
000010 71 de 9a b5 ca 95 e5 34 c3 7b 04 36 38 b2 9f 35
       -1.1538633e-06 4.276356e-07 1.9741572e-06 1.1898292e-06
000020 8b 9d db b4 97 41 ff 34
       -4.0906556e-07 4.7545174e-07

exp_avg_sq f4 [10]
000000 e7 5e 43 26 41 10 22 29 74 c8 45 24 6b 74 b4 28
       6.778283e-16 3.5985324e-14 4.2887356e-17 2.0034503e-14
000010 02 e7 15 2a 76 b7 a4 28 f5 65 db 2a 96 64 1f 2a
       1.3314005e-13 1.8287221e-14 3.8972962e-13 1.4156935e-13
000020 be b8 96 28 96 9c cb 28
       1.6733465e-14 2.2605436e-14

exp_avg f4 [10, 10]
000000 d3 04 ab b4 60 3c d1 b4 82 8b 43 b3 6e e3 91 b4
       -3.1854742e-07 -3.8973212e-07 -4.5528857e-08 -2.7173832e-07
000010 39 bb c4 b4 a8 cf 2b b2 c2 16 f4 b2 b7 55 92 b3
       -3.6644067e-07 -1.0000726e-08 -2.8415688e-08 -6.814246e-08
000020 c7 ad 66 b4 a2 b2 d4 32 e3 12 94 b3 70 49 02 34
       -2.1483639e-07 2.4761281e-08 -6.8952225e-08 1.213391e-07
000030 6b 8f 79 b4 a0 8a 43 34 7b 53 fb b4 f3 f7 0f 33
       -2.3242107e-07 1.8211222e-07 -4.6813133e-07 3.352029e-08
000040 1b e8 4f 36 3a 90 f3 35 2b 4d 9c b5 cf a5 cc b3
       3.0980507e-06 1.8146886e-06 -1.1645365e-06 -9.529651e-08
000050 4f 77 29 35 b6 20 86 34 fe 79 2c 35 81 05 0d 34
       6.3131023e-07 2.4983245e-07 6.4252515e-07 1.313365e-07
000060 f5 96 fe b4 f0 57 77 33 d2 df e9 34 d5 a5 fd 34
       -4.7421022e-07 5.7589148e-08 4.3562483e-07 4.724558e-07
000070 33 08 1b 34 84 02 0b 35 72 82 f6 34 48 4f 7d 33
       1.4438483e-07 5.1785196e-07 4.5915982e-07 5.897826e-08
000080 dd 6b 5a b5 ef 4b 60 34 40 b4 a0 b4 b0 93 8e 33
       -8.136829e-07 2.088925e-07 -2.9933472e-07 6.6392545e-08
000090 2a 2d 78 35 0a ad 75 34 e1 57 c6 b5 6e c1 3e b5
       9.245292e-07 2.2880354e-07 -1.4777726e-06 -7.1061993e-07
0000a0 ff 35 ec 35 85 ad f8 34 13 5c 82 35 13 77 e3 35
       1.7599085e-06 4.6319852e-07 9.712552e-07 1.6947473e-06
0000b0 47 50 ee 34 f8 2a 4a 34 52 52 f7 35 2f 1a 0a 36
       4.4389364e-07 1.8828348e-07 1.8426892e-06 2.0578843e-06
0000c0 4f 47 07 b5 7d 50 16 36 c0 45 a1 34 ee df a3 b5
       -5.0395187e-07 2.2398592e-06 3.0039337e-07 -1.2209618e-06
0000d0 28 d0 ad 33 f0 69 73 34 6e 20 8e b5 5d 54 4a 34
       8.093804e-08 2.2669678e-07 -1.0589263e-06 1.8843407e-07
0000e0 2f 1d 21 35 24 5e 33 36 d5 47 dc 34 4f 75 2e 35
       6.001964e-07 2.6727876e-06 4.1030458e-07 6.499076e-07
0000f0 bf c4 67 b4 bb ed 41 b3 fb 8e 89 b5 b5 b0 03 b5
       -2.1585127e-07 -4.515253e-08 -1.0248908e-06 -4.9058445e-07
000100 3f 5b 6d b5 85 ed 7e 33 2c 41 87 b4 e7 de 91 31
       -8.842216e-07 5.9355006e-08 -2.5193128e-07 4.2453965e-09
000110 4a 91 cf b3 5d 63 cf 33 aa 7d 66 b5 ec ee c4 b2
       -9.6656166e-08 9.657263e-08 -8.586454e-07 -2.2926052e-08
000120 7e d2 11 b5 12 0c 8a b4 e5 a5 de b4 b0 ab ac b3
       -5.4323016e-07 -2.5713285e-07 -4.1471426e-07 -8.040604e-08
000130 40 13 40 b4 4f 21 28 b5 68 0a 61 34 b5 16 50 34
       -1.7888397e-07 -6.263335e-07 2.0958544e-07 1.937977e-07
000140 bf 05 86 34 e3 01 d2 33 97 e3 b9 34 1d 48 9b b4
       2.4963626e-07 9.77923e-08 3.462453e-07 -2.892347e-07
000150 62 24 1d b5 8f 36 83 b3 3e f4 3a b5 c4 b6 1b b5
       -5.854e-07 -6.110087e-08 -6.964582e-07 -5.800796e-07
000160 8f a9 6f 35 2d 98 77 b2 a8 22 51 35 bb 4b 92 b5
       8.928118e-07 -1.4411893e-08 7.7909e-07 -1.0899888e-06
000170 ea e5 b7 34 15 2a 3b 33 63 fc dc b4 e0 8b 45 34
       3.425369e-07 4.3577604e-08 -4.116183e-07 1.8397941e-07
000180 c5 0f b0 b3 a3 3c a1 33 cb d0 f7 b4 6f 73 a6 b5
       -8.198507e-08 7.5081765e-08 -4.6159252e-07 -1.2401559e-06

exp_avg_sq f4 [10, 10]
000000 ea cb 36 28 b6 cf 88 28 86 fc 6e 25 7a 05 05 28
       1.0147246e-14 1.5189113e-14 2.0728768e-16 7.384171e-15
000010 27 e5 71 28 85 7e 38 23 83 2f ba 24 37 d6 05 26
       1.3427877e-14 1.00014515e-17 8.074513e-17 4.643396e-16
000020 2c 4a a6 27 47 60 8d 24 58 09 09 26 f0 2e d4 26
       4.6154673e-15 6.13121e-17 4.7544086e-16 1.4723178e-15
000030 3f a0 c2 27 5f fa 6e 27 d9 63 c5 28 1b 8b 01 25
       5.4019556e-15 3.3164861e-15 2.1914696e-14 1.1236097e-16
000040 26 14 87 2b 7f 62 b9 2a 3a b0 18 2a 8a e0 82 26
       9.597919e-13 3.2930947e-13 1.3561453e-13 9.081424e-16
000050 fd 7d 33 29 d4 e0 e0 27 0b ed 39 29 9a 96 f8 26
       3.9855262e-14 6.241625e-15 4.1283854e-14 1.7249278e-15
000060 b9 8c ca 28 0d 2f bf 25 c0 ed aa 28 c2 0d c9 28
       2.2487534e-14 3.31651e-16 1.8976899e-14 2.232145e-14
000070 e4 37 16 27 f2 8b f1 28 91 e5 bd 28 a4 84 c8 25
       2.084698e-15 2.6817066e-14 2.1082774e-14 3.478435e-16
000080 4e 16 95 29 2d 37 9d 27 4c 69 21 28 28 1a fe 25
       6.6207985e-14 4.3636075e-15 8.960128e-15 4.40797e-16
000090 3b 79 c0 29 55 9d bc 27 17 e0 75 2a 4e 6c 63 29
       8.547543e-14 5.235106e-15 2.1838118e-13 5.0498065e-14
0000a0 7a 5c ae 2a 86 40 c1 28 a9 6b d4 29 50 b0 a1 2a
       3.0972778e-13 2.1455287e-14 9.433367e-14 2.8721686e-13
0000b0 b0 7a b1 28 f1 72 7f 27 5d 26 bf 2a 2d 67 ee 2a
       1.9704155e-14 3.5450669e-15 3.3955036e-13 4.2348885e-13
0000c0 e9 c0 e4 28 13 37 0d 2b 18 8e 22 28 e1 d7 27 2a
       2.5396746e-14 5.0169694e-13 9.023618e-15 1.4907478e-13
0000d0 99 d1 3c 26 3b 28 b9 27 f9 7f fc 29 97 db 7f 27
       6.550966e-16 5.1391433e-15 1.1213248e-13 3.5507399e-15
0000e0 5b 3c 22 29 75 14 49 2b d5 a2 97 28 15 39 3e 29
       3.6023576e-14 7.1437935e-13 1.6834985e-14 4.2237986e-14
0000f0 53 dd a7 27 4d 0d 6b 25 84 87 ec 29 71 c7 d8 28
       4.659177e-15 2.0387507e-16 1.05040136e-13 2.4067311e-14
000100 75 0e b0 29 8e 16 cb 25 2a ac e4 27 39 fd 04 22
       7.818478e-14 3.523017e-16 6.3469373e-15 1.802339e-18
000110 6d a3 86 26 df 67 86 26 d5 04 a6 29 5b 64 72 24
       9.342414e-16 9.326272e-16 7.372719e-14 5.256039e-17
000120 99 e6 04 29 72 36 ee 27 b7 e9 9a 28 40 58 3a 26
       2.95099e-14 6.61173e-15 1.7198792e-14 6.4651314e-16
000130 9d 94 66 27 5f ac 30 29 a3 42 9e 27 ba 50 87 27
       3.1999475e-15 3.922936e-14 4.3926057e-15 3.755755e-15
000140 74 86 e0 27 7b d2 89 26 90 f7 57 28 d9 b3 16 28
       6.2318264e-15 9.563335e-16 1.1988579e-14 8.365671e-15
000150 d5 55 1a 29 05 36 d7 25 eb 72 5a 29 ed 8a 17 29
       3.4269317e-14 3.733316e-16 4.85054e-14 3.3649234e-14
000160 6d 7e b3 29 68 92 bf 23 16 ae 88 29 f4 c3 05 2a
       7.971128e-14 2.0770267e-17 6.0698124e-14 1.1880758e-13
000170 9e 5d 53 28 d0 f0 5a 25 cf 9b 98 28 53 e7 73 27
       1.1733153e-14 1.8990076e-16 1.6942961e-14 3.3848425e-15
000180 4d bc 41 26 b8 7b 22 26 0f ea bf 28 74 29 2d 2a
       6.721552e-16 5.637271e-16 2.1306767e-14 1.5379869e-13

exp_avg f4 [10]
000000 d9 8d 11 b5 d3 e1 a2 34 cf d3 58 35 b7 f5 fa b4
       -5.4223125e-07 3.033916e-07 8.077449e-07 -4.674491e-07
000010 33 a1 5c 36 a8 cc 98 b4 c8 c9 4e b5 90 6b 82 b5
       3.2876385e-06 -2.8461113e-07 -7.703461e-07 -9.71706e-07
000020 c5 c0 6a b5 37 0a 4f b5
       -8.745231e-07 -7.7128374e-07

exp_avg_sq f4 [10]
000000 97 69 04 29 f1 d0 25 28 49 eb 92 29 aa d0 c4 28
       2.9401472e-14 9.204647e-15 6.524518e-14 2.1850865e-14
000010 f8 1d 98 2b 46 ec 11 28 17 a1 85 29 25 9e d4 29
       1.0808568e-12 8.1003506e-15 5.934331e-14 9.442125e-14
000020 2e 37 ac 29 6a f4 85 29
       7.6479066e-14 5.9487856e-14

exp_avg f4 [6, 10]
000000 be d4 8b b5 db 03 41 b4 60 3d 61 b2 c3 f6 8a 34
       -1.0418223e-06 -1.7975928e-07 -1.3110679e-08 2.5884046e-07
000010 ae 26 bf b5 9a 1a 68 b5 72 52 9b b5 26 5b 01 35
       -1.4241866e-06 -8.6465445e-07 -1.1572395e-06 4.8188883e-07
000020 ba 66 6b 34 97 4f b9 b5 97 df 01 b2 f3 fc 4d b5
       2.1923452e-07 -1.3806738e-06 -7.559627e-09 -7.673654e-07
000030 f8 83 5a b5 23 2f c0 b4 65 5b be 35 2e 7a 0f 35
       -8.140337e-07 -3.5797083e-07 1.4182702e-06 5.3449446e-07
000040 c9 58 07 36 93 da 15 b5 c5 ca e6 34 83 aa 3a 35
       2.0168247e-06 -5.582489e-07 4.2988373e-07 6.9538527e-07
000050 5c 8d 83 34 af f6 08 36 18 b0 bd 35 47 26 a4 35
       2.4503504e-07 2.0409168e-06 1.4132847e-06 1.2230092e-06
000060 f8 81 48 36 60 06 e8 34 1d 99 8b 34 7b 42 b9 35
       2.9877974e-06 4.3218006e-07 2.6002172e-07 1.3802922e-06
000070 4b 1d ac 35 df 3f 03 36 28 66 ca 35 b2 c5 d8 33
       1.2823524e-06 1.95577e-06 1.5079904e-06 1.00942444e-07
000080 1f a9 a2 b4 eb 75 f9 b4 68 f0 c8 35 89 2e 27 35
       -3.0297903e-07 -4.646566e-07 1.4971129e-06 6.2280066e-07
000090 ef 70 7f 35 33 88 ff b4 67 8a b1 34 cc 14 04 36
       9.515924e-07 -4.759655e-07 3.306952e-07 1.9681638e-06
0000a0 4b 69 a9 b4 0b 67 05 35 a0 fb 8c 34 b0 cb b6 b3
       -3.1555314e-07 4.969631e-07 2.6260113e-07 -8.512086e-08
0000b0 13 ab f2 35 b5 46 fb 34 e5 7a 7e 35 04 a6 ba 34
       1.8080194e-06 4.680384e-07 9.480121e-07 3.4765992e-07
0000c0 4e 3d 29 35 4b d3 ba 35 11 2a 96 35 c3 95 db 34
       6.3046616e-07 1.3919574e-06 1.1188114e-06 4.0900895e-07
0000d0 15 ee cd 34 69 7d 81 35 e0 0a 0e b6 c5 32 bf b4
       3.8357453e-07 9.647748e-07 -2.116598e-06 -3.5613462e-07
0000e0 81 9b ab b5 c6 9f a5 33 c7 35 12 b5 c1 08 09 b5
       -1.278575e-06 7.712474e-08 -5.4467495e-07 -5.1049216e-07

exp_avg_sq f4 [6, 10]
000000 b0 68 f4 29 b3 d7 68 27 5b 8a 9e 23 1c 63 f1 27
       1.0853937e-13 3.2313398e-15 1.718899e-17 6.699839e-15
000010 fc 5d 64 2a c8 59 a8 29 e7 c7 16 2a 8f 29 d1 28
       2.0283075e-13 7.476273e-14 1.3392031e-13 2.3221684e-14
000020 02 2b ad 27 34 a0 56 2a b7 d6 d2 22 e0 98 84 29
       4.8063775e-15 1.90626e-13 5.7147952e-18 5.888497e-14
000030 39 37 95 29 96 d7 66 28 44 79 62 2a 29 a9 00 29
       6.626509e-14 1.28143125e-14 2.0114905e-13 2.8568432e-14
000040 09 fc e4 2a dd 59 0c 29 fc 73 a6 28 c1 c6 59 29
       4.067582e-13 3.116419e-14 1.8480002e-14 4.835607e-14
000050 22 53 d8 27 e7 7c ea 2a 61 e2 60 2a 1c 68 28 2a
       6.0042176e-15 4.1653418e-13 1.9973738e-13 1.4957518e-13
000060 55 45 7b 2b 72 3c a8 28 6a 98 f3 27 d7 81 56 2a
       8.926933e-13 1.867796e-14 6.7611296e-15 1.9052065e-13
000070 66 25 39 2a 93 54 d7 2a 4d 04 80 2a 2a d8 92 26
       1.6444276e-13 3.8250357e-13 2.2740352e-13 1.0189376e-15
000080 92 5d 25 28 7b 78 c2 28 6f 5a 7c 2a 98 af 2e 29
       9.17963e-15 2.1590577e-14 2.2413472e-13 3.8788065e-14
000090 24 e8 cb 29 4d 0d cc 28 15 01 45 28 74 11 da 2a
       9.055281e-14 2.2654318e-14 1.0935931e-14 3.873669e-13
0000a0 4d 60 33 28 ef 73 de 28 c8 73 f8 27 ce d6 50 26
       9.957378e-15 2.469723e-14 6.8959358e-15 7.245561e-16
0000b0 4f 06 b8 2a c9 4f c5 28 15 60 ca 29 43 bc 59 28
       3.2689343e-13 2.1905995e-14 8.9872696e-14 1.20867426e-14
0000c0 32 03 33 29 f1 25 5a 2a eb ee 0c 2a 10 ae 96 28
       3.9748756e-14 1.9375453e-13 1.2517389e-13 1.6728833e-14
0000d0 bc 85 84 28 6a 98 d1 29 6a 33 fc 2a e0 7a 64 28
       1.4712942e-14 9.307904e-14 4.4799868e-13 1.2683187e-14
0000e0 95 0e 38 2a 28 72 2b 26 d1 9b 05 29 ca ba ea 28
       1.6347542e-13 5.9482253e-16 2.966708e-14 2.6060226e-14

exp_avg f4 [6]
000000 63 f3 6d b6 5b 17 a5 35 1b 4a 82 36 7d b7 5d 36
       -3.5457422e-06 1.2300255e-06 3.882929e-06 3.303837e-06
000010 68 89 a8 35 8d 52 87 35
       1.2556966e-06 1.0082309e-06

exp_avg_sq f4 [6]
000000 72 f0 b0 2b 2e 58 2a 2a 1b 31 d4 2b a8 9e 99 2b
       1.2572289e-12 1.5129627e-13 1.5077136e-12 1.091534e-12
000010 6a 87 31 2a f1 e6 e4 29
       1.5767739e-13 1.0165296e-13

exp_avg f4 [10, 6]
000000 6b 00 53 b4 c7 99 02 35 12 a0 cd b5 c4 c4 15 b6
       -1.9651058e-07 4.865255e-07 -1.5320277e-06 -2.2317263e-06
000010 51 83 8f 35 54 48 11 36 df 8d 25 b5 85 92 dc 35
       1.0692548e-06 2.1648784e-06 -6.167374e-07 1.643392e-06
000020 d3 19 7c 35 7c 65 39 36 ed 8f e3 34 b3 95 09 33
       9.3914895e-07 2.762622e-06 4.2386765e-07 3.203395e-08
000030 ee a1 a4 35 c8 d7 59 b5 3c 49 b8 34 e2 44 4e 35
       1.226608e-06 -8.11528e-07 3.4325956e-07 7.684122e-07
000040 29 ed 2a 35 30 52 e4 b4 67 a1 6f 34 73 6b 71 b4
       6.367505e-07 -4.252811e-07 2.2317327e-07 -2.2483964e-07
000050 19 76 ab 33 01 f0 a3 34 3b 3a 68 b4 3d 24 6a b4
       7.98429e-08 3.0535742e-07 -2.1627868e-07 -2.1806132e-07
000060 e5 ef ab 35 03 db 9d b5 0a 98 a2 34 11 43 9a 35
       1.2810311e-06 -1.1761152e-06 3.0285474e-07 1.1493413e-06
000070 13 a3 b4 35 b2 c9 e8 35 a9 f0 38 34 d4 9e 8c b4
       1.3458506e-06 1.7344048e-06 1.7223887e-07 -2.6192595e-07
000080 f0 50 f2 33 00 b9 7f 32 20 83 9b 34 21 6f ba 34
       1.12837256e-07 1.4885018e-08 2.8966406e-07 3.4726057e-07
000090 81 d9 17 b6 7f 6a 68 36 15 62 08 36 13 d4 ae 35
       -2.2627357e-06 3.4632683e-06 2.032267e-06 1.3025732e-06
0000a0 2e 09 b3 b4 87 da 09 b6 7f 27 38 35 16 33 86 b4
       -3.3348027e-07 -2.054179e-06 6.8602816e-07 -2.4996615e-07
0000b0 db ff 0f 35 37 5b d7 b4 3d 8c e3 34 6f c5 d6 b4
       5.364397e-07 -4.0113238e-07 4.2384082e-07 -4.0004258e-07
0000c0 fa b5 3a b4 b7 5b 42 35 0a fc b4 31 a0 e0 97 b4
       -1.7388803e-07 7.2404094e-07 5.267343e-09 -2.8289378e-07
0000d0 24 c1 40 33 ba cc d9 b3 75 c8 a8 b3 e0 c3 46 34
       4.4879144e-08 -1.01420895e-07 -7.8595725e-08 1.8511446e-07
0000e0 da 5b 30 b4 d7 37 fd b1 4a 21 84 33 0c 44 ca 33
       -1.6424693e-07 -7.3696174e-09 6.152784e-08 9.418736e-08

exp_avg_sq f4 [10, 6]
000000 5a 21 8b 27 ed 34 d5 28 67 21 84 2a 06 31 0c 2b
       3.861641e-15 2.3670703e-14 2.3471088e-13 4.9806025e-13
000010 8d b9 00 2a 3a eb 03 2b 1a 4d 2b 29 ba 09 98 2a
       1.143306e-13 4.686699e-13 3.8036502e-14 2.7007373e-13
000020 e3 9b c6 29 f0 d2 56 2b a6 d3 a1 28 9c 9e ec 24
       8.8200084e-14 7.632081e-13 1.7966379e-14 1.0261738e-16
000030 32 66 29 2a 6d 4c 94 29 2c 42 54 28 8b f5 84 29
       1.5045671e-13 6.585778e-14 1.1782713e-14 5.9045725e-14
000040 57 99 36 29 67 e8 a2 28 36 72 b3 27 ca 22 b6 27
       4.054512e-14 1.8086401e-14 4.980631e-15 5.0552866e-15
000050 60 be 37 26 d1 f8 27 28 ad 87 a8 27 d1 51 ab 27
       6.3748885e-16 9.324316e-15 4.6776467e-15 4.755074e-15
000060 c8 c3 38 2a 61 bd 1b 2a d7 3a 25 28 d0 ba 14 2a
       1.6410408e-13 1.383247e-13 9.172099e-15 1.3209854e-13
000070 92 ef 4b 2a 27 58 a9 2a 89 c4 55 27 23 2d f7 27
       1.811314e-13 3.0081599e-13 2.966623e-15 6.860521e-15
000080 b3 7d b7 26 43 5b cc 23 7a 26 17 28 47 3c 59 28
       1.2732247e-15 2.2156375e-17 8.390527e-15 1.205899e-14
000090 4b 1d 10 2b c2 cd a8 2b 27 81 e8 2a f5 07 3f 2a
       5.119973e-13 1.1994227e-12 4.1301096e-13 1.6966968e-13
0000a0 24 56 48 28 95 8b ed 2a 7a f4 53 29 77 1e e1 27
       1.1120909e-14 4.2196512e-13 4.706346e-14 6.2483075e-15
0000b0 56 99 01 29 ab ee 90 28 67 ce a1 28 57 25 90 28
       2.8776752e-14 1.6090717e-14 1.7964103e-14 1.6003405e-14
0000c0 81 e1 59 27 38 18 6c 29 a3 b8 4c 22 d0 2a 10 28
       3.0237045e-15 5.2423533e-14 2.7744901e-18 8.002889e-15
0000d0 d9 36 68 25 5f 3d 94 26 58 0c 32 26 21 ec 76 27
       2.0141375e-16 1.0286198e-15 6.1772885e-16 3.4267364e-15
0000e0 e1 63 42 27 89 5f c8 22 b5 3a da 25 55 b2 7f 26
       2.6977053e-15 5.431126e-18 3.7856753e-16 8.871258e-16

exp_avg f4 [10]
000000 2a 23 c3 b5 83 31 ef 36 85 16 40 b6 c8 f1 60 35
       -1.4538866e-06 7.128519e-06 -2.8623338e-06 8.379834e-07
000010 58 5b ad b6 43 68 f7 b4 de f3 28 37 62 e1 e1 35
       -5.1664356e-06 -4.6083196e-07 1.007036e-05 1.6829401e-06
000020 c7 c8 84 35 99 b6 02 b5
       9.8932e-07 -4.869449e-07

exp_avg_sq f4 [10]
000000 bd fd 6d 2a ca ca b2 2c 76 9c 66 2b 03 20 9e 29
       2.1137862e-13 5.0815784e-12 8.192955e-13 7.022163e-14
000010 23 d4 3b 2c 4b 48 bf 28 f9 67 32 2d 91 71 9f 2a
       2.6692058e-12 2.1236612e-14 1.0141215e-11 2.8322876e-13
000020 57 65 dc 29 12 93 d5 28
       9.787542e-14 2.3711532e-14

exp_avg f4 [10, 10]
000000 2f 0b 51 b5 fb 03 4f b6 af a3 29 37 8c 74 98 b3
       -7.787484e-07 -3.084772e-06 1.01112955e-05 -7.099251e-08
000010 96 d4 27 34 6d 5b f9 31 6b b0 d3 b5 d7 3f 8c 36
       1.5630425e-07 7.2572477e-09 -1.577207e-06 4.179757e-06
000020 16 1b 30 35 d8 b3 fc b5 7b 6b 1f b5 60 d2 8f 34
       6.5604524e-07 -1.8827805e-06 -5.938852e-07 2.6788894e-07
000030 10 ba 50 b5 00 00 00 00 f6 63 0a 34 63 23 a2 32
       -7.7756795e-07 0.0 1.2888617e-07 1.8875374e-08
000040 2f f6 c5 b3 00 00 00 00 ec 37 4c 34 00 00 00 00
       -9.218308e-08 0.0 1.9019325e-07 0.0
000050 07 b2 9d b5 7d 08 8c 35 8c ba 94 b3 87 79 2f b4
       -1.1749224e-06 1.0433283e-06 -6.92572e-08 -1.6342356e-07
000060 03 13 15 b4 a9 57 aa b1 9e 72 c4 b4 a2 45 a7 b6
       -1.3883623e-07 -4.957617e-09 -3.659124e-07 -4.985094e-06
000070 e5 fd ca b4 8b 34 59 35 8a 17 67 35 a8 e2 68 36
       -3.7810165e-07 8.091526e-07 8.608846e-07 3.4702625e-06
000080 73 4d 6f b5 00 00 00 00 c9 0e 8d 34 00 00 00 00
       -8.914714e-07 0.0 2.6274054e-07 0.0
000090 83 49 28 b3 15 1e a6 b2 ab d4 e5 33 22 6b 0c b3
       -3.9182407e-08 -1.9338623e-08 1.07023276e-07 -3.2693727e-08
0000a0 5f f1 16 36 98 4a b0 b5 ea 09 74 b6 52 33 03 b4
       2.2492238e-06 -1.3134731e-06 -3.6364604e-06 -1.2218996e-07
0000b0 8f d1 67 b5 7a df 3d b0 2f 73 54 35 ff 97 97 b6
       -8.6359154e-07 -6.907538e-10 7.914377e-07 -4.5178454e-06
0000c0 9d 87 15 b4 60 47 14 35 f6 0d 83 b5 9f eb 0a b5
       -1.3926042e-07 5.523816e-07 -9.764324e-07 -5.175188e-07
0000d0 bf 95 50 b5 00 00 00 00 ee 2b 91 b4 00 00 00 00
       -7.770395e-07 0.0 -2.7040318e-07 0.0
0000e0 9e a0 34 35 b0 4f 37 b4 c3 3f 19 35 e0 ba fc b1
       6.7288954e-07 -1.7072193e-07 5.7089727e-07 -7.3554105e-09
0000f0 07 45 53 36 5a 56 84 36 c3 67 2d b6 90 b6 62 34
       3.148163e-06 3.943959e-06 -2.5839406e-06 2.1114306e-07
000100 1b 3a 91 b3 00 00 00 00 41 90 ad 35 da 1f 2b b7
       -6.762658e-08 0.0 1.2931488e-06 -1.019981e-05
000110 37 c4 5b b5 a7 84 2e 35 0b 9a 25 b6 57 66 5b 35
       -8.186939e-07 6.5013086e-07 -2.467658e-06 8.173278e-07
000120 51 67 31 b6 ba c7 11 34 f0 d6 00 b5 00 00 00 00
       -2.6435193e-06 1.3576837e-07 -4.799649e-07 0.0
000130 b8 a8 cb b4 ef 40 0b 36 4b 52 31 34 10 1e 65 35
       -3.7934456e-07 2.075041e-06 1.6514348e-07 8.5352895e-07
000140 00 00 00 00 00 00 00 00 00 00 00 00 00 00 00 00
       0.0 0.0 0.0 0.0
000150 00 00 00 00 00 00 00 00 00 00 00 00 00 00 00 00
       0.0 0.0 0.0 0.0
000160 00 00 00 00 00 00 00 00 c0 76 06 34 33 a2 d4 31
       0.0 0.0 1.2522923e-07 6.188452e-09
000170 3d 55 ec b5 00 00 00 00 d3 31 02 b4 b6 88 82 b3
       -1.7608178e-06 0.0 -1.212532e-07 -6.078464e-08
000180 e7 d4 09 b4 0f 5a 93 b5 34 e8 36 b4 33 72 cd b2
       -1.2836573e-07 -1.0978564e-06 -1.7034546e-07 -2.3917073e-08
