checkpoint/AE_ckpt_train_model3.pt (torch, 30218 bytes, 54 tensors)

linear1.weight f4 [10, 12]
000000 de 37 c9 3e 80 19 f1 be 96 1b 29 bd da 5d 6a 3e
       0.39300436 -0.47089767 -0.041286074 0.22887364
000010 0b 3c 2a 3f 82 d3 d2 3e c7 20 42 3f 75 cb 93 be
       0.6649787 0.41176993 0.75831264 -0.28866163
000020 00 1f c6 be 71 f4 94 3e b3 ed 2e 3e 7a 0d ce be
       -0.38695526 0.29092744 0.17082863 -0.40244657
000030 d9 57 dd be 6f a4 29 be 21 62 61 be 94 a5 03 be
       -0.43231085 -0.16566633 -0.2201009 -0.12856132
000040 d7 88 ce 3e 7d a1 b4 3e d7 97 0a bf df a3 10 3f
       0.40338776 0.35279456 -0.5413794 0.5650005
000050 74 b5 b8 3d 67 15 34 bf 06 29 fa 3d 64 35 84 bf
       0.090189844 -0.7034516 0.12214856 -1.0328794
000060 a0 e4 18 bf 71 c0 7e bc 0b 75 e9 3e 53 c4 8c bf
       -0.59723854 -0.015548811 0.4559711 -1.0997413
000070 0a d4 29 3c 63 4c b5 3d 98 c6 02 bd 27 fd 9e 3e
       0.010365495 0.0885246 -0.031927675 0.31052515
000080 c5 3d c1 3e 8a b4 d1 bd c6 a3 68 3f 84 a8 7b bd
       0.3774244 -0.10239513 0.908749 -0.061440006
000090 1f 77 73 bf 99 93 94 3c 41 be 37 be 52 21 4c bf
       -0.9510364 0.018136786 -0.1794367 -0.7973834
0000a0 27 9d b0 3e 05 5a be 3e a3 da a9 be 18 98 aa 3e
       0.34494898 0.37178054 -0.3317462 0.33319163
0000b0 4f 6b 16 bf 2b 4d 01 3e 06 b0 b7 be 4c 1f d8 bd
       -0.5875749 0.12627093 -0.35876483 -0.105528444
0000c0 48 13 1d bf cf b9 ab 3d e3 ab 57 be 39 d6 5d 3f
       -0.61357546 0.083850496 -0.21061663 0.86655
0000d0 bb 8b de 3d ce 1e 81 bf 35 3f a3 bf be 45 dc 3e
       0.10866495 -1.0087526 -1.2753664 0.4302196
0000e0 98 47 19 3f 98 d1 27 be 7d 2c 48 bf b1 0e 99 bf
       0.5987487 -0.16388547 -0.78192884 -1.1957608
0000f0 83 a2 4b bf 61 59 06 be 72 e4 4e bf a2 e2 44 be
       -0.7954485 -0.13120033 -0.8081733 -0.19227079
000100 35 b2 cd 3d 2a 91 f4 3e 69 c4 d8 3e ec 1c 47 be
       0.10043756 0.47767 0.4233735 -0.19444627
000110 c6 6e 2d bf 4f ed 33 3e 33 16 cc 3e c1 f9 36 bf
       -0.6774715 0.17570995 0.39860687 -0.71474844
000120 ff d6 24 bf 97 66 be be bf 7c c8 be 9c 87 95 bf
       -0.6439056 -0.37187645 -0.39157674 -1.168201
000130 6e e6 f6 be 6f e3 30 be 08 43 09 3f 2a 15 45 3b
       -0.4822268 -0.17274259 0.53617907 0.003007243
000140 88 39 f5 3e 46 b7 02 bf cc cf 63 3e de 71 99 bf
       0.47895455 -0.51060903 0.22247237 -1.1987875
000150 32 2e c8 be 77 59 c9 bd 84 d5 6a bf 5d 25 85 be
       -0.39097744 -0.09831517 -0.9173205 -0.26005068
000160 0e 8d aa 3e ea e6 f8 be ee 9c 36 3e 6b 11 58 bf
       0.3331074 -0.48613673 0.17833301 -0.8440158
000170 77 d8 1a bd a3 ce 0a be ed 3c 7d 3e e5 13 00 bf
       -0.037804093 -0.13555388 0.24730273 -0.50030357
000180 b9 be c3 be bd 7c d0 3e fd 3e 6b bf c7 30 ec bc
       -0.38231447 0.40720168 -0.9189299 -0.028831853
000190 dc 17 17 3f 52 ac 6f 3e ae e9 58 bf 1e 73 ef 3e
       0.5902078 0.23405579 -0.84731567 0.46767515
0001a0 fa a3 22 bc ed eb 6e be 88 9d 0b 3f 31 3e f4 be
       -0.00992679 -0.23332186 0.5453725 -0.47703698
0001b0 0a d5 ce be 18 46 fa be 7a d5 0f be b7 e6 06 3f
       -0.4039691 -0.48881602 -0.14046279 0.5269579
0001c0 d8 f5 84 3f e4 e0 28 3e 29 5e 32 3f 33 e1 82 3e
       1.0387526 0.16492039 0.69674927 0.25562438
0001d0 dd 39 72 3f ad 88 12 3d b3 be 59 bd bf 82 df 3e
       0.9461954 0.035774875 -0.05316038 0.4365444

linear1.bias f4 [10]
000000 12 1c 11 bf 27 9b 09 bf 3c 07 4f bf bd 46 59 be
       -0.56683457 -0.5375237 -0.80870414 -0.21218391
000010 c4 a5 e2 3e c7 20 55 3f ff 40 de be 33 84 bf bd
       0.44267094 0.8325314 -0.43408963 -0.09351387
000020 87 54 3e bf 0d df 9d be
       -0.7434773 -0.30834237

linear2.weight f4 [8, 10]
000000 07 27 63 be 9c 9e 18 bf 19 ff de 3c aa 7d ec bd
       -0.22182857 -0.5961702 0.02722125 -0.11547406
000010 92 48 89 bf 8f e4 0a 3f 0e ea 56 be fc 1b ec 3d
       -1.0725272 0.54255 -0.20987722 0.11528775
000020 da 9b 3f 3f 82 c0 86 be 08 ea 2b bf e2 cb 1f 3f
       0.74847186 -0.26318747 -0.6715398 0.62420475
000030 b2 d8 af 3f 19 98 54 3f fc e3 48 be be 51 c3 bf
       1.3738005 0.8304458 -0.19618219 -1.5259321
000040 ef 35 b4 3f e4 cd d5 bf 08 d0 98 bf 78 3b a8 bf
       1.4078959 -1.6703458 -1.1938486 -1.3143148
000050 05 01 35 bf 91 76 82 bf 3c 49 aa 3f 68 0c 18 3f
       -0.7070468 -1.0192434 1.3303599 0.5939393
000060 fa 4b 33 3f b3 65 ea be 4a 02 bc 3e 5a 27 52 be
       0.70037806 -0.45780715 0.36720496 -0.20522824
000070 43 bf 73 be b3 cb 9e be ae e9 5b 3d 4b ba 60 be
       -0.2380343 -0.31014785 0.05368965 -0.21946065
000080 d7 94 d4 be 43 d3 9f be ed e5 53 bf 0b bb 1d 3f
       -0.41519806 -0.31215867 -0.82772714 0.6161353
000090 06 76 4d bf 40 cd f9 3e 5b 89 62 bd 24 a9 f2 3e
       -0.80258214 0.48789406 -0.055306774 0.4739467
0000a0 b0 17 10 be 39 30 85 3f da 39 00 3e b0 be ac bf
       -0.14071536 1.0405341 0.12522069 -1.3495693
0000b0 9b ae 7e 3e 4d ae 01 3f b9 85 a2 be 3c dc 88 3e
       0.24871294 0.50656587 -0.31742647 0.26730525
0000c0 b8 94 3b 3f 27 37 7d 3e 8b 24 8e bf 98 78 72 3f
       0.732738 0.2472807 -1.1104902 0.9471526
0000d0 90 62 68 bf ba b2 00 bf 21 b5 0f 3f 83 eb 9f 3e
       -0.90775394 -0.50272715 0.56135756 0.3123437
0000e0 ca a6 1c bf d9 9e 0f 3f f1 4f 25 3f fa 58 ce 3e
       -0.61192 0.5610176 0.64575106 0.4030226
0000f0 22 63 ec be 19 56 b6 3f 74 e2 46 bf 28 d7 5c bf
       -0.46169382 1.4245025 -0.7768929 -0.862658
000100 42 44 10 be 17 1e de 3a 11 71 c2 3d 8a 6f d6 3e
       -0.14088538 0.0016946223 0.09494222 0.41881973
000110 e5 e7 96 3f 70 df 94 3d 56 e7 0d bf c5 94 e4 bd
       1.1789519 0.0726918 -0.55431116 -0.11161188
000120 b1 9a 24 3e ef 28 e3 be 80 d2 67 3f 4e 7d 4a 3f
       0.16074635 -0.44367167 0.9055557 0.7909745
000130 e8 b3 ef be 5f c5 4b 3e 37 a9 93 3e ec 89 05 3f
       -0.46816945 0.1989951 0.28840038 0.5216358

linear2.bias f4 [8]
000000 72 1b 0c 3f 4b 78 34 bf 4d d3 fc 3e 48 5b 87 3e
       0.5472938 -0.7049605 0.4937996 0.2643683
000010 fc d9 11 bf c1 71 1f bf a6 bc 67 bf 1c c4 73 3f
       -0.5697324 -0.6228295 -0.9052223 0.95221114

linear3.weight f4 [6, 8]
000000 df 83 89 3f d2 67 06 c0 95 9d 68 3e e4 75 99 be
       1.0743369 -2.1000867 0.22716363 -0.29972756
000010 e3 21 dc 3e ac ba 98 be 15 d5 89 bf b6 56 45 3f
       0.42994604 -0.2982992 -1.0768152 0.77085435
000020 47 e4 93 3e 1b 68 68 40 a9 c5 30 3f ae af 92 3d
       0.288851 3.631354 0.69051605 0.071624145
000030 9f 0e 32 bf 51 cf 15 bb 8a ee a5 be 44 4c 07 3f
       -0.6955356 -0.0022859166 -0.32408553 0.5285075
000040 02 d0 10 3e 6f 4d 6e 40 ec f3 7f 3e eb b1 e5 be
       0.14141849 3.7234762 0.24995393 -0.44862303
000050 be 0b 5a 3f c5 8b 86 3f c4 20 fd 3f 77 d7 9e be
       0.8517417 1.0511404 1.9775624 -0.31023762
000060 30 83 88 3d b2 cc f9 3c dd 82 94 3c 3c 86 c5 3d
       0.06665647 0.030493114 0.018128807 0.09644744
000070 81 f0 07 3e 8a 67 3c be 8a 25 58 bd c2 20 8e be
       0.13275339 -0.18398872 -0.052770175 -0.27759367
000080 ce 74 5a be e3 a2 a2 be 3e 6a 8f bf 54 87 ba 3d
       -0.2133362 -0.31764898 -1.1204298 0.09107843
000090 24 ba 87 3f 2c 37 0e 3f b8 9e 05 40 fa ab a1 be
       1.0603681 0.55552936 2.0878124 -0.3157652
0000a0 04 bf ce be b3 bd 6b 40 ba 05 f1 3e a6 ee c5 3e
       -0.40380108 3.6834533 0.47074682 0.38658637
0000b0 43 b0 12 bf e5 6c 1e 3f 71 80 9c be ee e5 11 be
       -0.57300204 0.6188491 -0.30566743 -0.14247867

linear3.bias f4 [6]
000000 0c 0a 3d 3e c7 58 1a 3f c7 77 57 be b7 ee a7 be
       0.18460864 0.60291713 -0.21041785 -0.32799312
000010 2d b3 d6 be 47 e6 05 3f
       -0.41933575 0.523045

linear4.weight f4 [8, 6]
000000 9e 56 96 bf 21 b2 6a bf 5c 9a d7 3f d6 66 e4 3d
       -1.1745183 -0.91678053 1.6843982 0.11152427
000010 92 3d 0b 40 17 72 a3 bf d1 b5 52 bf 26 4f 75 3f
       2.175633 -1.2769192 -0.8230868 0.95823896
000020 02 67 0d 40 9d 67 83 3e c2 e2 35 bf 13 2b 99 3f
       2.209412 0.25664988 -0.7104913 1.196627
000030 d0 c2 82 bc 59 c5 a5 be 51 00 78 3d 57 0d 17 3b
       -0.015962034 -0.32377127 0.060547177 0.0023048723
000040 ad c7 6b bd ee 12 4f be 49 ab 21 3f 77 b1 02 3f
       -0.057563473 -0.20222065 0.63151985 0.5105204
000050 f8 12 31 3e 39 14 86 bc 92 bc 17 be c5 02 0a be
       0.17292392 -0.016367065 -0.14818028 -0.13477619
000060 70 2e e4 bc 59 d0 d9 3d 99 1b 76 be 32 a1 bc 3e
       -0.027854174 0.10635442 -0.24033965 0.36841732
000070 39 cd be 3c bb a5 87 bd c7 2e cb be 1f 27 b0 bf
       0.023291217 -0.066234075 -0.39684126 -1.3761939
000080 5b fa 59 3f 4d b0 4e be 28 98 b5 3f e1 f5 27 bf
       0.8514764 -0.20184441 1.4187059 -0.65609556
000090 1a b5 10 bf ae cc 50 bf ef 40 ad 3f 64 a1 1d 3c
       -0.5652634 -0.81562316 1.3535441 0.009620998
0000a0 fb dd a9 3f 12 62 80 bf a4 76 18 bf 0c 18 c3 be
       1.3270868 -1.0029929 -0.5955603 -0.38104284
0000b0 5c 9d a0 3e 86 fd f2 bd a4 d4 e7 bd 55 cf 81 bd
       0.31370056 -0.11864762 -0.11319855 -0.063383736

linear4.bias f4 [8]
000000 50 2a 02 bf e0 5b ca bd 00 1e b3 be 48 d3 e6 3e
       -0.50845814 -0.09880805 -0.34983826 0.4508307
000010 59 2b b8 be 82 a5 ae be 00 93 17 bf 99 e4 77 be
       -0.35970572 -0.34110647 -0.5920868 -0.24208297

linear5.weight f4 [10, 8]
000000 1e d5 bc 3d e6 3a c7 bf 9b a7 86 bf 95 a5 93 3e
       0.092203364 -1.5564849 -1.0519899 0.28837267
000010 17 ea a3 3f e8 96 af 3e e6 d0 ff be 45 66 47 3f
       1.2805814 0.3429482 -0.49964064 0.77890426
000020 ee a0 13 40 35 23 20 bf c4 47 8c bf 6f 51 a0 bf
       2.3066974 -0.6255372 -1.0959401 -1.2524852
000030 7a 14 0d 3f 9c 2f d5 3f 14 c0 00 40 6f 53 03 bf
       0.5510937 1.6655154 2.0117235 -0.51299185
000040 f7 39 52 3e 55 64 3d bf 80 7b 74 bf b6 68 04 3f
       0.20529924 -0.7398122 -0.95500946 0.51722276
000050 ea 56 15 3f 0b 23 2e 3f bf 31 95 bf 66 b0 38 3f
       0.58335745 0.6802222 -1.1655806 0.7214416
000060 73 80 15 bf 14 0c de 3f b9 a2 ca 3e 82 7f 9c 3e
       -0.5839912 1.7347436 0.39577273 0.3056603
000070 42 b3 3e bf 3b a0 78 3c de ba e5 3c 24 1d e5 be
       -0.74492276 0.015174921 0.028043207 -0.44748795
000080 27 6c 28 bf 68 d8 84 bb 6b 52 21 bf cd ff a3 bd
       -0.6579003 -0.004054118 -0.63016385 -0.080077745
000090 6f fa 97 bd 55 be d4 bc 03 67 a1 be f5 14 9b be
       -0.07420813 -0.025969664 -0.31523904 -0.30289426
0000a0 24 f2 8c 3f b2 4a af bf 54 1f b5 bf f1 91 fe 3d
       1.1011395 -1.369467 -1.4150186 0.1243018
0000b0 21 af c6 3e af 0b 9d be e8 72 28 3f 45 13 03 3f
       0.38805488 -0.30672976 0.65800333 0.5120128
0000c0 13 0f 23 be 7f 10 38 be 3f 38 74 be d3 49 1e 3e
       -0.15923719 -0.17975043 -0.23849581 0.15457849
0000d0 be 49 31 be cd 40 a5 3d 9f eb bd bd e0 9b 9b be
       -0.17313287 0.080690004 -0.09273457 -0.3039236
0000e0 d1 ca 01 bf dc 72 f8 bc 2e ab 06 bf 24 e6 13 bf
       -0.507001 -0.030328207 -0.5260495 -0.5777304
0000f0 c5 ee f3 3d 25 97 22 be e9 10 99 be 8c 86 d2 bd
       0.11910776 -0.1587797 -0.29895714 -0.10279569
000100 7f e3 90 be a0 a7 82 be 66 83 2c 3e 83 81 5d be
       -0.28298566 -0.25518513 0.16847 -0.21631436
000110 98 f2 2a be b5 0b a3 3e 44 06 a2 be 18 72 a6 3d
       -0.16694105 0.3184487 -0.31645405 0.081272304
000120 7f 80 03 3f 25 5c 9a be b0 f8 5d 3f c6 ed e3 3e
       0.51367944 -0.30148426 0.8670759 0.44517344
000130 3b 7f cb 3d 07 cd 1c be c5 b0 01 3f 3b a7 77 3f
       0.09936377 -0.15312587 0.50660354 0.9673955

linear5.bias f4 [10]
000000 64 c0 94 3e 29 89 14 bf 9e 6d ba 3e 91 5e ef 3c
       0.29053032 -0.5802179 0.36411756 0.029219897
000010 8a 2a b7 be d1 73 08 3b b0 51 ae be 6b 67 d8 be
       -0.35774642 0.0020820985 -0.34046698 -0.42266402
000020 c2 78 9a be 8a 24 90 3e
       -0.30170256 0.28152877

linear6.weight f4 [12, 10]
000000 0e d6 6b be 4a dc 56 3f db e8 8b 3f 1c 95 66 bd
       -0.23030874 0.83929884 1.0930437 -0.056294546
000010 fc 03 c7 bf 33 b0 b4 bd 31 2f f0 3e 1d bd de be
       -1.5548091 -0.0882267 0.46911004 -0.43503657
000020 0a e8 b0 3e 4f 06 04 bf b4 88 2f bf 63 fb f4 3d
       0.34552032 -0.51572126 -0.6856797 0.11962011
000030 4c 7c 3e bd ab 83 6a 3e b3 2b 6d 3f 46 49 d8 be
       -0.046505257 0.2290179 0.92644805 -0.42243403
000040 03 68 fe 3d a8 bf 45 3f 92 9e 00 bf c4 3f 64 bc
       0.124221824 0.7724557 -0.5024196 -0.013931219
000050 5d fc 74 3e 99 3f 7d 3f 40 1c 3a bf c6 f9 80 bf
       0.23924394 0.9892517 -0.72699356 -1.0076225
000060 d6 74 52 3f 83 5b 83 3f a0 f7 df be a2 7e 2f be
       0.8220953 1.0262302 -0.4374361 -0.1713815
000070 49 a8 d9 3e c8 c5 1f 3f e1 3f 99 3d cb f2 17 3f
       0.42511204 0.62411165 0.07482887 0.5935485
000080 45 ea 80 bf 4e 4b 65 bf ff 1d 8e 3f a1 4e 72 3f
       -1.0071493 -0.8956803 1.1102904 0.9465123
000090 cb d7 d8 be 3a f5 8e 3d ea b5 80 3e 96 24 46 3f
       -0.42352137 0.06980367 0.2513879 0.77399576
0000a0 61 9a 01 bd 1f f2 bb bf ea bd 45 3e 56 47 98 3f
       -0.031641368 -1.4683264 0.19310728 1.189677
0000b0 81 68 d6 3e d2 0f 5c bf 91 7c ae 3e bb 27 1e 3e
       0.41876605 -0.8596164 0.34079412 0.15444843
0000c0 82 9f 92 bf cc 3c 10 be dc 9c 1d bf c7 d4 d8 3f
       -1.1454928 -0.14085692 -0.61567473 1.6939934
0000d0 0e 67 51 be d0 30 a5 3c 8c 54 04 3f dc 0c ce be
       -0.20449468 0.020164877 0.5169151 -0.40244186
0000e0 1d d9 e5 bd 95 17 68 3e f9 08 de 3e da 36 15 3d
       -0.11223052 0.22665246 0.4336622 0.036429264
0000f0 29 b4 1e be 1f b6 fe be e9 8b 23 3f e6 6e a4 3e
       -0.15498413 -0.49748322 0.6388536 0.3211586
000100 3b 26 a3 bf 55 5c 1f be 9b b2 c8 3e 19 02 0d 3e
       -1.2746042 -0.15562566 0.39198765 0.13770331
000110 f6 4d ef be ac 86 34 bf 27 68 be 3d 87 f1 80 bf
       -0.46739167 -0.7051799 0.09297209 -1.0073708
000120 9a b0 26 3f 2b 6b 23 3f 82 c1 91 be 38 a1 dd be
       0.6511322 0.638354 -0.28467947 -0.43287063
000130 0b a7 04 3f 7c 44 6c 3d 4f a7 c3 be 95 53 0d bf
       0.5181739 0.0576825 -0.38213584 -0.5520566
000140 d0 89 7e 3c eb 8a a5 3c a8 e2 89 3e 68 f4 04 3e
       0.015535787 0.020207843 0.26930737 0.12983859
000150 18 cc 61 bf f4 b3 4c 3d b9 92 ac 3e 35 94 90 be
       -0.8820205 0.049976304 0.3370569 -0.28238073
000160 74 a6 0c 3d 4d 86 4c be f1 e2 1c bf 2f b6 64 3f
       0.03433843 -0.19973107 -0.61283785 0.8934049
000170 b9 68 8d bf 35 83 60 be f3 13 bc 3f 3b 8d a0 be
       -1.1047584 -0.21925052 1.4693588 -0.3135775
000180 ac a0 47 bf d5 35 26 3f b7 86 58 3e 28 bd b8 3e
       -0.7797954 0.6492589 0.2114514 0.36081815
000190 5a 2c c4 be 69 f5 78 3f 44 43 b4 bd b4 87 4c 3e
       -0.38315088 0.97249466 -0.088018924 0.19973642
0001a0 6b 0e 0a be cf fa 1c bf db de 2d be ee 53 f5 bd
       -0.13482063 -0.61320204 -0.16979544 -0.11978899
0001b0 81 eb ac be 39 c0 da 3c cd 8d 9d be db 68 8e 3f
       -0.33773425 0.026702987 -0.30772248 1.1125749
0001c0 94 66 8c bf 9c f1 b2 3c 3f 33 c6 3f ae 5a 9b 3e
       -1.0968804 0.021843724 1.5484389 0.3034262
0001d0 13 5b ee be ed b5 25 3f 74 d1 cf 3e 1c f5 b8 3e
       -0.4655386 0.6473072 0.40589488 0.36124504

linear6.bias f4 [12]
000000 0c 64 13 bf 72 20 fe bd 4a 88 17 3e 9e 60 39 3f
       -0.57574534 -0.12408532 0.14798084 0.7241305
000010 62 8a de be 3e e2 d0 be 11 5d aa be 19 60 b1 3d
       -0.43464953 -0.4079761 -0.3327413 0.08660907
000020 d5 1c 13 be 98 84 2a 3e bc e3 28 be 67 d2 a8 3d
       -0.14366467 0.16652143 -0.16493124 0.08243256

mlp.0.weight f4 [10, 24]
000000 0c ce 16 3f 20 b1 84 bd a3 d8 65 3f a1 58 49 3f
       0.5890815 -0.064790964 0.89783686 0.7865086
000010 bd ea 88 bf 58 f3 3c 3f 87 6c bc be 00 35 de be
       -1.0696636 0.73808813 -0.3680155 -0.4339981
000020 55 72 ea bd ad 41 bb 3e 12 0c cf 3e 98 72 e8 3e
       -0.11447588 0.36573544 0.40438896 0.45399928
000030 c7 66 34 3e 34 a3 71 bf 18 f5 4c bf 0e 21 6a bf
       0.17617331 -0.94389653 -0.80061483 -0.9145669
000040 fe 0b 2b 3e 00 3c 05 3d 93 95 e9 be 8d 2b b8 3e
       0.16703793 0.032527924 -0.4562193 0.35970727
000050 af 35 53 bf e3 81 cd 3c 40 26 5c 3e 17 ce 3c bd
       -0.8250379 0.025086349 0.21498966 -0.04609498
000060 8b f7 a9 3d 6d c9 6f bf ec 53 b0 3e cd 92 94 3e
       0.08299168 -0.93666726 0.34439027 0.2901825
000070 de 8b a7 be 69 b8 90 bf f1 27 31 3d db 0a cc 3d
       -0.32723898 -1.1306278 0.04325098 0.09963008
000080 ee 56 27 3d 10 ac ae bf d5 de 2f bf 4f c2 6d bf
       0.040854387 -1.3646259 -0.6869939 -0.92874616
000090 0b 03 4e be 57 01 12 bf 2f de f8 be e7 be a3 bf
       -0.20118348 -0.57033294 -0.48607013 -1.2792634
0000a0 6c 0c 63 bf b4 62 f9 3e 32 d0 60 3f 28 5d 95 bd
       -0.8869083 0.48708117 0.8781768 -0.07293159
0000b0 26 a8 a6 be 37 ec 85 3d b2 f2 95 3f 31 0f 72 be
       -0.32550162 0.06539195 1.171469 -0.23638608
0000c0 a1 3c 58 3f 1d 39 18 be a7 de 2c bf 60 7d 90 bf
       0.8446751 -0.14865537 -0.6752724 -1.1288261
0000d0 22 78 6b 3e ab dc 61 be 01 51 ed 3e 8b 0a dc 3e
       0.22995046 -0.22056834 0.46350864 0.42976794
0000e0 5f 04 16 3e 57 7e 5a bf b8 ca 28 3e d4 f6 aa bf
       0.14650105 -0.8534903 0.16483581 -1.3356576
0000f0 78 9f 3c be 43 14 90 be 9b 52 fe be 4e e9 81 bf
       -0.18420208 -0.28140458 -0.49672398 -1.0149324
000100 75 68 8c bd d9 12 c6 3e 79 49 2e be 3c a2 22 3f
       -0.06855861 0.38686255 -0.17020215 0.635288
000110 e4 40 95 bd 20 c4 a6 bf d4 cc 4f 3f cf 05 fa bd
       -0.072877675 -1.3028603 0.8117192 -0.12208139
000120 90 60 b0 3e fc e4 20 be 86 6c 15 3f 0c f3 24 3f
       0.3444867 -0.1571235 0.5836872 0.6443336
000130 24 ef 38 bf 44 ad 54 3e ce 4d 52 be 28 6e 9b be
       -0.722399 0.2076922 -0.20537493 -0.3035748
000140 b1 6d ea 3d c1 01 74 3a 34 ef cf bb d5 1f 49 bd
       0.11446703 0.00093081227 -0.006345654 -0.049102623
000150 de f9 26 3d 9c 65 af bd 5a 38 d9 be 51 e3 4f 3e
       0.040765636 -0.08564302 -0.42425805 0.20301558
000160 d8 88 99 3e 3a ea 9e 3f b0 2b 24 3e 0a c0 c6 bd
       0.29987216 1.241523 0.1603229 -0.09704597
000170 e1 1c 92 be ea 25 06 c0 48 fe a2 3e 6a bc 12 bd
       -0.28537658 -2.096064 0.31834626 -0.035824217
000180 8d 25 59 3f da 94 59 3d a1 f5 94 bf 59 1d c9 bf
       0.8482292 0.05312047 -1.163746 -1.5712081
000190 ba 30 b7 3e 18 cb 62 be b9 45 96 3f b8 ca 66 3f
       0.35779363 -0.22147787 1.1740028 0.90153074
0001a0 d4 e5 0d 3f 13 2d 66 bf 00 70 37 bd 0f 7e b1 bf
       0.55428815 -0.8991253 -0.044784546 -1.3866595
0001b0 75 a8 0b bf 87 c2 4b be d2 e3 c6 be 5b 94 36 bf
       -0.5455392 -0.19898425 -0.38845688 -0.7132012
0001c0 08 08 ac be 87 91 a4 3e 01 b6 ab 3d 58 c0 e5 3d
       -0.33599877 0.3214228 0.08384324 0.11218327
0001d0 5f 8a 1d be 5e aa 2e bf ee 78 29 3f 99 1f 80 3e
       -0.15384816 -0.6822871 0.6620015 0.25024107
0001e0 5f 58 03 3e bd d7 aa be d2 4a 08 3f 07 2b 06 3f
       0.1282668 -0.3336772 0.53239167 0.52409405
0001f0 7f 61 c8 be e4 90 4d bf 4f a1 25 3e 3e 3c 97 bd
       -0.39136884 -0.8029921 0.16174816 -0.07384537
000200 94 68 f5 3b eb 4c 36 bf e9 dd 84 bf 68 7c 21 bf
       0.0074892733 -0.7121112 -1.0380222 -0.63080454
000210 3c 7e 89 3e 23 dd e0 be 09 5b b5 be 7d ff fe be
       0.26854122 -0.43918714 -0.35421017 -0.49804297
000220 ee dd d6 bd fb e2 6b bd 87 f2 24 3f 2e 63 98 be
       -0.104915485 -0.057589512 0.6443257 -0.29763168
000230 8d 9d 1e bf f4 07 d9 3e 50 b3 f5 bc a4 bf 55 3e
       -0.61959153 0.4238888 -0.02999273 0.20873886
000240 f5 3f 4a 3f bb ce 1d 3e 00 fc 1d 3f 04 ef fc 3e
       0.7900384 0.15410893 0.61712646 0.49401104
000250 69 00 6c bf 8c 53 4c 3f 2c 66 be 3e c6 b3 51 bf
       -0.92188126 0.7981498 0.37187326 -0.8191494
000260 73 ef 0e 3b 8e 9b 56 3f 3a 81 7d 3e 33 e0 b5 3e
       0.0021810203 0.8383111 0.24756327 0.35522613
000270 9f a9 c5 3d 42 db e4 3d 89 95 86 be b2 07 fb 3c
       0.09651493 0.111746326 -0.2628596 0.030643318
000280 51 47 ab 3e d1 84 4b be 9c 3a ef be db af b8 3e
       0.33452848 -0.19874884 -0.46724403 0.36071667
000290 cf fa 80 be 5d 1b 0e bf 56 cd 0a 3e 50 2f f5 be
       -0.25191352 -0.55510503 0.13554892 -0.4788766
0002a0 72 4a 6a 3f 27 fd cf 3c ff ea 7d bf 05 ff bb bf
       0.91519845 0.025389267 -0.991867 -1.4687201
0002b0 ac 6b 8f 3e d1 ce ad bd 72 e7 14 3e c7 3a ed 3e
       0.28011835 -0.08486713 0.14541414 0.46333906
0002c0 91 da c8 3d 1c f7 47 bf c7 c7 87 3d 95 2c 97 bf
       0.09807313 -0.78111434 0.066299014 -1.181048
0002d0 44 a5 e5 be 7c 20 0f bd 90 c4 03 bf cd 85 8f bf
       -0.4485265 -0.03494309 -0.51471806 -1.1212708
0002e0 b7 05 67 be ef 01 28 bf e7 25 11 3e 20 f8 b8 3e
       -0.22560774 -0.6562795 0.14174615 0.36126804
0002f0 5d db ef be 5f 1e bd be a0 5f 28 3e 2d 5d c1 3e
       -0.46847048 -0.36937234 0.16442728 0.377664
000300 77 e6 1b 3f 5e 76 0c be a4 70 13 3f 34 68 bc 3e
       0.60898536 -0.13717028 0.5759375 0.3679825
000310 d6 24 66 bf c0 ff b1 3e b1 50 f3 3a bf ab 24 bf
       -0.8989996 0.34765434 0.0018563477 -0.64324564
000320 5e 33 39 3e e4 33 c6 3e 23 fa a8 3e 78 be e4 3d
       0.18086001 0.38711464 0.3300334 0.111691415
000330 ce 8e d7 3e 11 55 96 be 2a e6 d7 be 94 90 d2 bd
       0.4210114 -0.29361776 -0.4216779 -0.10281482
000340 c7 a1 16 3f 6d 05 fb bd 4e 57 33 bf 17 5f 97 3e
       0.588406 -0.12256894 -0.7005509 0.29564735
000350 a2 51 e5 be dd c1 62 bd ce 69 a6 be ea 3a d2 3b
       -0.44788843 -0.055360664 -0.32502598 0.0064157145
000360 d6 46 55 3f 18 05 3e 3d ef e4 22 bf 82 ad 88 bf
       0.8331121 0.046391577 -0.63630575 -1.067795
000370 6f 11 9e 3e a8 fc 42 3d da 21 c0 3f 1f 45 3d 3f
       0.30872676 0.047604233 1.5010331 0.73933595
000380 4e b0 b6 3e a6 40 47 bf 85 0b 8c bd 6e 36 25 bf
       0.35681385 -0.7783302 -0.06838135 -0.6453618
000390 97 65 fb be 6b bd 85 3d 5d fa ec bd f8 38 55 3f
       -0.49100944 0.06530269 -0.115711905 0.8329005
0003a0 ce 08 31 3f 2a 46 0a bf be 9b 12 3d 0d 48 18 bf
       0.6915406 -0.5401331 0.03579306 -0.5948494
0003b0 02 e4 de 3e 87 86 14 3f fd 1e fa bb f1 5d 70 bf
       0.4353333 0.5801777 -0.0076330886 -0.93893343

mlp.0.bias f4 [10]
000000 1b cf d4 bd cf bb eb 3e f6 0d 95 be e6 5a 03 3f
       -0.10391065 0.46041724 -0.29112214 0.51310575
000010 72 12 9b be fa 0b 96 3d 4c f4 d7 bd dd 1a 53 be
       -0.3028751 0.07326503 -0.10544643 -0.20615716
000020 65 19 b4 3d 70 a1 de be
       0.08793906 -0.43482542

mlp.3.weight f4 [8, 10]
000000 b3 74 35 bf ca 77 81 bf e3 9d 4d bf c7 c8 4f bf
       -0.70881194 -1.0114682 -0.8031904 -0.81165737
000010 48 94 19 bf 2c 90 0b be cb 1d a6 bd 13 17 1f bf
       -0.59991884 -0.13629216 -0.08111151 -0.62144583
000020 a5 b8 65 bf b2 81 68 3e 5b 60 14 c0 3d 09 0a 3f
       -0.8973487 0.22705725 -2.318381 0.53920346
000030 86 21 a7 3f 1e 09 cd bf c8 18 9f 3f 6a 48 95 3c
       1.3057106 -1.6018407 1.2429438 0.018223006
000040 81 b1 ca bd 9e 3e be 3f 22 e6 97 bf f4 05 6b 3f
       -0.098971374 1.4862859 -1.1867106 0.9180596
000050 82 cd b4 be d2 83 8a 3c 5a 32 a7 3f ae 92 09 bf
       -0.3531304 0.01690856 1.3062241 -0.5373944
000060 00 23 8c 3f 8c ed a6 bc 06 5c ee be a2 43 75 3f
       1.0948181 -0.020376943 -0.46554583 0.95806324
000070 6f 78 c0 be 85 d0 aa 3f 29 54 bc be 3c a8 22 3f
       -0.37591884 1.3344885 -0.3678296 0.63537955
000080 97 e0 2a be e8 87 36 3f aa 00 d2 be 3e f2 95 3f
       -0.16687237 0.71301126 -0.41016132 1.1714551
000090 4a 7e cb be 79 77 18 bf ee f0 89 be 74 9a 8d be
       -0.39744788 -0.595573 -0.26941627 -0.276569
0000a0 cd ea c2 bd bd 6e bb 3f 60 41 cb bc a1 56 ed bc
       -0.09517441 1.464317 -0.024811447 -0.028971972
0000b0 fd e7 5f be 2a 89 b1 3f 4e f7 66 be 2f 70 23 be
       -0.2186584 1.3869984 -0.22555277 -0.15960763
0000c0 0a 42 36 be 1e 1d 8f bf 2f 70 e3 3d 7c ec 32 bf
       -0.1779863 -1.1180761 0.11105382 -0.69892097
0000d0 99 69 23 bf 72 37 85 3d 07 b9 0c bf 3d b6 83 3b
       -0.63833004 0.06504716 -0.5496983 0.004019527
0000e0 b3 ae 21 3f 85 f7 10 be f6 8d 43 3e 72 08 3e bf
       0.63157195 -0.14156921 0.19097123 -0.74231637
0000f0 1b 02 b4 3e 17 30 bd 3d 35 63 2d 3e 6b 34 4b 3e
       0.35157856 0.09237688 0.16932376 0.19844215
000100 9a 10 15 3e 0d da 01 3e 0b 59 52 3f 4d 4b 2b 3e
       0.14557114 0.12680836 0.8216712 0.16727944
000110 be 9c 78 3f 93 1b 09 bf 31 94 81 3f 15 ae 32 3e
       0.9711417 -0.535577 1.012335 0.1744922
000120 e6 46 f4 bd 90 de 5a 3f cd d9 2c 3f 33 03 70 3e
       -0.11927585 0.85495853 0.6751984 0.2343872
000130 ea 62 1a 3f d5 09 5b be 0e 60 b0 3f 5c 53 ac 3e
       0.6030718 -0.2139047 1.3779314 0.33657348

mlp.3.bias f4 [8]
000000 af b8 b2 3f 0c 7d 21 bb 82 c4 77 ba 1e 96 50 bf
       1.3962611 -0.0024641184 -0.0009451584 -0.8147906
000010 38 05 30 bd 9d 29 11 bb c7 dc f3 bc 1c 02 71 bf
       -0.042973727 -0.0022150048 -0.02976836 -0.94143844

mlp.6.weight f4 [5, 8]
000000 88 38 a6 3f 61 2a b8 bf 82 d9 72 bf 91 12 34 c0
       1.2986002 -1.4387933 -0.9486314 -2.8136332
000010 75 46 36 c0 3f 66 5c c0 28 85 ca c0 4b d0 94 c0
       -2.8480504 -3.4437406 -6.3287544 -4.6504264
000020 3a 35 f4 be 7f b3 75 3e 9a 6b 08 3f 5d 25 b5 be
       -0.4769686 0.23994254 0.53289187 -0.35380068
000030 19 11 40 bf dd 03 71 bf d2 a2 3d bb 00 f0 80 ba
       -0.7502609 -0.9414652 -0.002893616 -0.000983715
000040 a6 20 96 bf ef c1 5b 3e ec 90 fc 3e d2 06 1e 3f
       -1.1728714 0.21460699 0.49329317 0.61729157
000050 8a f5 d6 3e 89 ee 32 c0 2e e1 28 3d ab 22 46 bd
       0.41984206 -2.795809 0.041230373 -0.048372906
000060 e1 97 11 c0 a9 b8 0d be de 6c 44 bf a0 68 5d 3f
       -2.274895 -0.13839974 -0.7672862 0.8648777
000070 1a df f5 3e be 17 63 3e f6 b7 da 3e 9b 0d f3 3e
       0.48021775 0.22177026 0.42718476 0.47471318
000080 ac 03 a7 bf da 53 9c bf c7 cf 16 bf c9 a1 6a bf
       -1.3047996 -1.221309 -0.58910793 -0.91653115
000090 50 84 aa bd 63 c8 ee 3e ab 04 e2 3e 2a 80 f5 3e
       -0.08326018 0.46637258 0.44144186 0.47949344

mlp.6.bias f4 [5]
000000 f5 4d e7 40 6f 5a 79 c0 fe fa 51 40 ae a2 bf bf
       7.2282662 -3.8961446 3.2809443 -1.4971521
000010 5b ae cf c0
       -6.4900336

exp_avg f4 [10, 12]
000000 dc fd 3e b8 18 ac 5b b7 da d2 9f 38 0a 02 7a b8
       -4.5535955e-05 -1.3093486e-05 7.620985e-05 -5.9606544e-05
000010 51 d6 6d b8 68 45 e8 38 c4 84 b4 b7 04 d6 fb 38
       -5.67048e-05 0.0001107555 -2.1519496e-05 0.00012008476
000020 9c 29 bd 37 90 91 ad 36 4c a5 1b 37 ac 81 29 b6
       2.2549932e-05 5.1727475e-06 9.277206e-06 -2.5258441e-06
000030 36 07 06 38 3c c8 13 b7 c6 7a 57 b7 ee a6 e1 b6
       3.1954805e-05 -8.8085035e-06 -1.2843584e-05 -6.7249557e-06
000040 6c 90 b1 38 95 79 de 38 36 2a ce 37 7f 5b 99 b8
       8.4669184e-05 0.00010608431 2.457677e-05 -7.312651e-05
000050 fb c4 b2 b8 ea 0a d8 36 df 4c 9c 38 0d 4d 2b 39
       -8.524392e-05 6.438572e-06 7.452978e-05 0.00016336534
000060 0a 4a 89 39 88 c6 0b 39 52 81 aa 38 3e 8b 11 38
       0.0002618584 0.00013330032 8.1303195e-05 3.4700373e-05
000070 ee d2 3a 38 df 98 61 39 20 2b c4 37 a0 99 d7 b6
       4.45423e-05 0.00021514621 2.3385102e-05 -6.4253836e-06
000080 da 8d 77 b9 f1 f2 2f 38 89 3f d8 39 ba 7a 19 39
       -0.000236086 4.1949508e-05 0.00041246068 0.00014636936
000090 e6 6e 13 39 3a 21 11 b9 bb f1 2a 38 b0 40 14 b9
       0.00014060325 -0.00013840655 4.0756287e-05 -0.00014138478
0000a0 20 4c 6c b8 0a e7 b5 39 47 60 21 b8 90 cb fc 35
       -5.633768e-05 0.00034695148 -3.8475056e-05 1.8834708e-06
0000b0 62 20 bc b8 eb 60 80 b8 6c 73 48 38 0c 0c 4c 39
       -8.97057e-05 -6.121568e-05 4.779121e-05 0.00019459444
0000c0 3f 93 a1 b8 9c 51 a1 b8 bd 87 c6 37 44 f9 1e b8
       -7.704505e-05 -7.692279e-05 2.3666647e-05 -3.7902282e-05
0000d0 30 cd 67 39 cd 31 bd b7 4b 3b 53 b8 0e 64 70 b8
       0.00022106315 -2.2553746e-05 -5.036154e-05 -5.7313642e-05
0000e0 d9 d6 45 b8 6f 2a a8 b6 bc e5 92 b8 27 de c5 37
       -4.7168553e-05 -5.01173e-06 -7.004614e-05 2.3587678e-05
0000f0 f4 dc a3 b7 e5 7e 54 b9 2f 8e a1 b9 d8 d7 82 39
       -1.9534004e-05 -0.00020265167 -0.00030814248 0.00024956348
000100 42 a1 6d 39 0a c7 bb b9 b5 2e e6 38 3c 44 5d b9
       0.00022662155 -0.00035815715 0.000109759545 -0.00021101622
000110 87 65 6c 39 10 cd 66 38 ee ab b4 b9 40 4e c5 b9
       0.00022544536 5.5027253e-05 -0.00034460373 -0.0003763307
000120 86 4c 94 39 3c 61 99 38 38 28 df b8 6c f3 9d b7
       0.00028285774 7.31372e-05 -0.0001064096 -1.882921e-05
000130 bc 8a e2 b7 51 b4 95 39 14 9a 05 38 e4 a8 8f b7
       -2.7005903e-05 0.0002855384 3.1853167e-05 -1.7125574e-05
000140 72 6c bb b8 58 fa 26 b7 5a 39 6b 39 a1 62 f1 38
       -8.9370544e-05 -9.952659e-06 0.00022432712 0.000115101466
000150 24 1a f7 37 92 60 88 b7 d7 88 d0 b6 72 34 0e 38
       2.9456867e-05 -1.6257432e-05 -6.2148133e-06 3.390428e-05
000160 54 7d 5d 38 95 2b 20 38 50 fa 80 b6 6a d7 bd b7
       5.2807227e-05 3.818756e-05 -3.8438375e-06 -2.2630866e-05
000170 6b f5 4b b7 ec 4c 7c b6 23 df 0b 38 be 2b bb 37
       -1.2156884e-05 -3.75957e-06 3.3347995e-05 2.2312506e-05
000180 6a b5 d9 38 2e a7 01 37 4e 0f 29 37 24 d2 ed b7
       0.00010381157 7.727924e-06 1.0076748e-05 -2.8350456e-05
000190 ce 9d 3c 38 ad dc 68 b8 80 6b f6 37 d8 e1 29 36
       4.496966e-05 -5.551863e-05 2.9375544e-05 2.531442e-06
0001a0 28 0b 92 38 e8 92 06 38 e4 2f 9b b8 27 01 97 b8
       6.9639005e-05 3.2084907e-05 -7.399896e-05 -7.200456e-05
0001b0 21 5c f8 b7 ed 6e 8c 38 3c 74 10 37 31 32 84 36
       -2.9606805e-05 6.696382e-05 8.610132e-06 3.9397496e-06
0001c0 c3 e1 5c b8 aa 76 09 b8 ee 5e 66 b7 2c 47 35 b7
       -5.2662344e-05 -3.277386e-05 -1.3731171e-05 -1.0805012e-05
0001d0 ec c0 f4 b8 ff 7c 2f 37 d2 d4 5c b8 ce 7f 4d b8
       -0.00011670761 1.0459916e-05 -5.265029e-05 -4.8994836e-05

exp_avg_sq f4 [10, 12]
000000 12 7f 43 36 85 9e 6b 36 f0 78 ab 35 2e 9b d2 35
       2.913123e-06 3.511e-06 1.277569e-06 1.5691382e-06
000010 b5 fa 94 36 19 29 68 36 7f 36 02 35 5d b4 c1 35
       4.43993e-06 3.4594616e-06 4.8508076e-07 1.4432113e-06
000020 5e 7f 74 35 0c 0e 77 36 b9 05 4e 35 2a 53 b6 35
       9.1082427e-07 3.6814045e-06 7.674931e-07 1.3584261e-06
000030 4c 80 92 38 18 2d 70 38 7c 8b 11 38 65 f0 a0 37
       6.98572e-05 5.7262456e-05 3.47006e-05 1.9185429e-05
000040 af 4b 3e 38 b0 84 d0 37 1e b5 ad 36 2f 6b d2 37
       4.5370016e-05 2.485732e-05 5.1768866e-06 2.5083862e-05
000050 f5 40 62 38 37 a3 d2 35 ac ae 9a 37 d5 34 15 38
       5.3943095e-05 1.5693721e-06 1.8439569e-05 3.5573572e-05
000060 ae 1f 0d 39 e0 f8 27 39 0b ea c9 38 cb e9 da 37
       0.0001345861 0.00016019074 9.628021e-05 2.6096493e-05
000070 4c 7f 6a 37 04 70 a5 38 1f 90 3d 37 aa 08 55 38
       1.39771255e-05 7.888678e-05 1.1298834e-05 5.0791226e-05
000080 ba 1e 01 39 9a b2 0b 36 28 ab a4 38 66 b0 51 38
       0.00012313845 2.0816574e-06 7.85201e-05 4.9993767e-05
000090 b4 e7 55 38 ea 2c 95 38 1c 54 25 38 52 10 51 37
       5.0998948e-05 7.1132396e-05 3.94174e-05 1.2461171e-05
0000a0 82 d0 af 37 95 f9 28 38 e9 1f 9a 36 8a 1f bf 37
       2.095872e-05 4.0286763e-05 4.5932725e-06 2.278366e-05
0000b0 59 77 22 38 a4 e7 dc 35 6e d1 f9 37 a7 8a ff 37
       3.873496e-05 1.6458694e-06 2.9780636e-05 3.0462934e-05
0000c0 09 e3 e3 36 af d5 15 37 92 b6 8c 36 59 f1 04 36
       6.7915576e-06 8.930844e-06 4.193579e-06 1.9810016e-06
0000d0 0b 7d ec 36 9d 2f 61 36 2b 36 0c 35 37 05 45 36
       7.047905e-06 3.3555327e-06 5.223289e-07 2.9358323e-06
0000e0 4e 5d 9b 36 0b 1d 41 36 76 24 64 36 ab cd d1 36
       4.630222e-06 2.8776146e-06 3.399587e-06 6.2526283e-06
0000f0 a4 96 68 38 67 2d 62 38 11 87 fe 37 9f 09 cc 37
       5.5453405e-05 5.3924883e-05 3.0342055e-05 2.4323175e-05
000100 5d 59 d1 37 ff 6c 6f 38 fe 9f c1 36 93 29 5b 37
       2.4956355e-05 5.708355e-05 5.7704738e-06 1.3063097e-05
000110 18 2e a2 37 d6 a6 01 37 93 95 f3 37 0e b4 c7 37
       1.9333369e-05 7.727844e-06 2.9037508e-05 2.3806493e-05
000120 bf 3c 01 39 fa cb 34 39 3c fd ba 38 46 8b f0 37
       0.00012325028 0.00017242125 8.91634e-05 2.8675084e-05
000130 55 33 85 37 51 a3 a6 38 47 8b 52 37 02 e8 3a 38
       1.5878739e-05 7.945917e-05 1.2549403e-05 4.456193e-05
000140 e8 ef 0a 39 dd 2c 31 36 f5 90 a0 38 fc 79 30 38
       0.00013250078 2.640117e-06 7.656395e-05 4.2075277e-05
000150 8e 1d 19 39 d1 09 4b 39 de 74 ba 38 1a 82 7b 37
       0.00014602227 0.00019363246 8.890939e-05 1.49910575e-05
000160 49 dc 3e 37 aa f6 81 38 e5 36 76 37 f4 b0 36 38
       1.1376172e-05 6.197144e-05 1.4675524e-05 4.3556982e-05
000170 ac 8b ee 38 9b 2b e7 36 e4 07 a9 38 de 5b 44 38
       0.0001137474 6.889413e-06 8.060018e-05 4.68156e-05
000180 62 1d aa 37 f6 10 10 37 46 02 df 36 ba 27 0f 37
       2.0279262e-05 8.587018e-06 6.6461826e-06 8.532714e-06
000190 16 54 99 37 21 6f ae 36 50 21 85 35 a8 fa e0 36
       1.8278177e-05 5.198541e-06 9.918967e-07 6.7049004e-06
0001a0 79 bd 4e 37 1d 6f fb 35 7e 60 17 36 35 c2 22 37
       1.2322672e-05 1.8733296e-06 2.255692e-06 9.70117e-06
0001b0 67 40 eb 38 d0 d1 17 39 cf 70 a8 38 28 c9 2a 37
       0.00011217669 0.00014478643 8.0318765e-05 1.0179625e-05
0001c0 80 b4 48 37 56 f8 71 38 ef 8a 21 37 45 a6 3d 38
       1.1962955e-05 5.769016e-05 9.628696e-06 4.5215962e-05
0001d0 71 f7 e7 38 58 c5 8e 35 b2 ed 78 38 9a 44 43 38
       0.00011061028 1.0637259e-06 5.934918e-05 4.6555513e-05

exp_avg f4 [10]
000000 84 bb 1d b8 c6 2e 2f b8 22 52 df 38 b9 f9 38 39
       -3.7606354e-05 -4.1766813e-05 0.00010648767 0.00017640636
000010 82 50 27 39 02 31 f0 b9 d2 7a 17 b8 85 67 85 37
       0.00015956353 -0.0004581288 -3.611559e-05 1.590304e-05
000020 d4 99 ae b8 cc 9f 04 b8
       -8.325619e-05 -3.1620075e-05

exp_avg_sq f4 [10]
000000 6e d4 3e 36 cd 6c 5d 38 fa 7c 0a 39 b0 2f 74 38
       2.8435857e-06 5.2791835e-05 0.00013207263 5.8218546e-05
000010 dd 48 1d 37 ac 8d 89 38 26 68 0b 39 6b 1a 09 39
       9.374894e-06 6.5590575e-05 0.00013294871 0.0001307518
000020 56 a0 44 37 7d c4 d0 38
       1.17198415e-05 9.954812e-05

exp_avg f4 [8, 10]
000000 f3 42 22 38 10 91 82 b8 43 77 04 b9 b4 47 61 b9
       3.868616e-05 -6.225903e-05 -0.0001263293 -0.00021484384
000010 f0 24 b7 35 c2 de 75 b9 88 33 0e 38 78 6b fc b7
       1.3645313e-06 -0.00023448005 3.390343e-05 -3.0090785e-05
000020 ae 70 c6 b7 f9 a9 25 37 3a 8a ba b1 9e 3b 05 b9
       -2.365591e-05 9.874341e-06 -5.429027e-09 -0.00012706078
000030 14 41 0a b7 7b 2c 0f b9 09 3e 0b ba ba ec b0 b7
       -8.240593e-06 -0.00013654113 -0.0005311673 -2.109107e-05
000040 bf e5 46 b9 5e f1 96 35 2d 84 33 b7 37 30 05 39
       -0.00018968339 1.1246118e-06 -1.0700006e-05 0.0001270183
000050 f9 95 82 b7 ef b2 81 b7 4e f2 f9 38 40 d5 df 37
       -1.5567044e-05 -1.546132e-05 0.00011918378 2.6682974e-05
000060 c4 97 e9 b7 b4 fe 06 38 3a b6 b0 b7 2c 54 59 37
       -2.7846436e-05 3.21853e-05 -2.106569e-05 1.2953806e-05
000070 92 ea 90 36 de f2 61 b8 c4 7b 62 b8 b2 d3 67 38
       4.318842e-06 -5.3870368e-05 -5.3997865e-05 5.527185e-05
000080 ad d6 c0 37 5c 6b f0 38 50 10 35 b4 1a d8 23 38
       2.298815e-05 0.00011464089 -1.6862873e-07 3.906349e-05
000090 9c fe 23 b8 b4 56 2f b8 35 09 09 b6 a5 b4 88 38
       -3.9099352e-05 -4.1804e-05 -2.041995e-06 6.518633e-05
0000a0 b9 6a 3d 38 11 22 7a b7 bc f0 18 37 15 15 99 b6
       4.5160505e-05 -1.4909093e-05 9.115956e-06 -4.5622096e-06
0000b0 a0 de ff b7 48 5b 31 38 ae 2c c6 b7 dc d5 f0 37
       -3.0502037e-05 4.22851e-05 -2.3624245e-05 2.8709816e-05
0000c0 18 9e 0d 37 54 ab e8 b7 39 98 60 38 c4 ac 42 b7
       8.441064e-06 -2.7736336e-05 5.354753e-05 -1.1603526e-05
0000d0 96 8a af 37 7a fd c9 b7 c6 34 50 b8 ea be c9 38
       2.092616e-05 -2.4079101e-05 -4.9640214e-05 9.6199874e-05
0000e0 6c 2a 0f b8 b2 8d 9f 38 d9 34 1f 38 f5 cf f0 38
       -3.4133365e-05 7.6081036e-05 3.7957772e-05 0.00011482827
0000f0 d4 a2 2c b5 34 81 90 b7 4c 2a 8b 33 27 b8 23 33
       -6.431194e-07 -1.7226303e-05 6.480386e-08 3.811888e-08
000100 78 fa 77 b8 a2 b0 c9 b7 c5 c4 b1 b7 da 09 da b7
       -5.9122656e-05 -2.4043318e-05 -2.1191672e-05 -2.5992213e-05
000110 72 cc d8 b6 39 0f 32 b7 d2 f6 dc 38 a0 68 55 b6
       -6.461102e-06 -1.0613171e-05 0.00010536391 -3.1800373e-06
000120 56 78 ac b8 9f 5e de b8 81 96 54 38 ca f9 56 38
       -8.2240134e-05 -0.000106034095 5.0684906e-05 5.125421e-05
000130 50 c2 97 37 8a d5 b2 37 08 b4 92 b4 32 71 12 b8
       1.8091087e-05 2.131869e-05 -2.732561e-07 -3.4914534e-05

exp_avg_sq f4 [8, 10]
000000 b5 45 92 37 c7 24 88 35 36 24 14 36 8d 82 a1 37
       1.7437016e-05 1.0143493e-06 2.2074796e-06 1.9253488e-05
000010 cc 5b b0 34 0b d6 ff 37 8e 90 53 35 16 4d 25 36
       3.2849346e-07 3.049804e-05 7.881398e-07 2.4631786e-06
000020 cb 99 80 34 bc 05 cb 37 b7 11 09 35 d3 55 13 37
       2.3953757e-07 2.4202156e-05 5.1062256e-07 8.781865e-06
000030 44 5c 79 37 f4 ed 81 38 52 a9 25 3a 94 d8 35 37
       1.4863039e-05 6.1955216e-05 0.0006319481 1.0838867e-05
000040 ff a9 05 39 60 bf 7b 36 21 09 91 33 27 db 54 38
       0.00012747197 3.751331e-06 6.753749e-08 5.074884e-05
000050 3a 68 a0 35 22 e2 b7 35 d9 ce d7 35 e7 56 2c 37
       1.1951263e-06 1.3700376e-06 1.6078949e-06 1.0272232e-05
000060 52 3f ac 37 d4 a1 09 37 4a 42 14 36 ed a4 7b 36
       2.0533484e-05 8.203515e-06 2.2092304e-06 3.7497914e-06
000070 80 44 78 35 d3 4b 52 37 1c fa 80 37 06 af 69 35
       9.248688e-07 1.253463e-05 1.5375255e-05 8.7053957e-07
000080 7a a4 e2 35 d1 2f 7a 37 8d e9 ca 34 e1 71 aa 37
       1.6886181e-06 1.4912294e-05 3.7795363e-07 2.0318608e-05
000090 c6 5c ae 34 82 36 e1 35 da b1 eb 33 d3 63 e0 37
       3.2477527e-07 1.677967e-06 1.0975391e-07 2.6749365e-05
0000a0 3a bd 1f 38 17 7c 5e 35 96 9d fc 33 f0 5e db 34
       3.8084785e-05 8.288202e-07 1.1763329e-07 4.0861005e-07
0000b0 7f 39 97 37 31 c1 0e 38 b6 0c 18 37 34 6c d6 37
       1.8027376e-05 3.403536e-05 9.0628655e-06 2.5561174e-05
0000c0 ab 60 98 35 64 42 28 38 ec 59 de 34 4a 8c dd 34
       1.1353017e-06 4.0116152e-05 4.141615e-07 4.1266532e-07
0000d0 cd c8 cd 34 a9 73 a5 35 98 6b 09 38 64 82 32 36
       3.8330327e-07 1.232712e-06 3.276355e-05 2.6599964e-06
0000e0 ec cb 9f 36 c1 88 ca 35 17 ac 55 34 c4 4c b4 36
       4.762309e-06 1.5089973e-06 1.9899777e-07 5.3733547e-06
0000f0 45 16 87 34 ab 96 47 35 8d 2b 05 33 9c b5 ce 34
       2.5161913e-07 7.435253e-07 3.1006085e-08 3.8502628e-07
000100 42 ea c5 37 0f e5 55 36 bc 33 b1 35 52 23 e3 36
       2.3593315e-05 3.1872803e-06 1.3202584e-06 6.769239e-06
000110 be fa e4 35 8e a2 3e 37 15 2f 42 37 16 b9 12 35
       1.7060299e-06 1.136273e-05 1.1574263e-05 5.4658574e-07
000120 73 d2 72 35 a6 5b d2 36 be aa 83 37 05 27 33 37
       9.045827e-07 6.269157e-06 1.5695925e-05 1.0678316e-05
000130 cc e2 86 36 72 4a 97 36 10 23 44 34 cd 0e 94 37
       4.019914e-06 4.5088173e-06 1.8266678e-07 1.7649867e-05

exp_avg f4 [8]
000000 d7 2b 86 b8 52 af 67 b8 a7 f9 bf 39 30 0c 0a b9
       -6.397784e-05 -5.523797e-05 0.00036616364 -0.00013165246
000010 49 18 96 37 5f 37 ad 38 72 c7 82 b7 86 45 b3 b8
       1.7892702e-05 8.2595965e-05 -1.5590082e-05 -8.548335e-05

exp_avg_sq f4 [8]
000000 e5 2f 3f 38 c7 c1 ad 38 f7 9f 62 37 fc 14 21 38
       4.5582554e-05 8.285377e-05 1.3507894e-05 3.8404934e-05
000010 bb 8c 01 37 fb 4a 9c 36 10 d7 6b 36 77 0d 38 37
       7.7217655e-06 4.657891e-06 3.5142912e-06 1.097039e-05

exp_avg f4 [6, 8]
000000 b1 d9 71 37 68 00 a1 36 88 05 09 b9 06 43 d4 38
       1.4415405e-05 4.798221e-06 -0.00013067399 0.00010121432
000010 a5 cd 34 37 26 80 29 37 a4 56 16 36 c3 c7 86 37
       1.0776716e-05 1.0103022e-05 2.2402173e-06 1.6067066e-05
000020 a2 79 5f b8 77 6b db b7 84 cb 29 b8 e0 05 75 b8
       -5.3280623e-05 -2.6156877e-05 -4.048228e-05 -5.8418023e-05
000030 c9 3a db 37 28 24 58 37 67 4c 49 36 45 ed 87 b8
       2.6134208e-05 1.2883022e-05 2.9995806e-06 -6.4814965e-05
000040 fa a3 a9 37 df 11 6d b8 4b bc 86 b8 90 34 dc 34
       2.0222727e-05 -5.6521847e-05 -6.42469e-05 4.1016438e-07
000050 22 14 b8 b6 e2 dc 46 b7 c4 f1 1b b6 93 08 51 b8
       -5.485971e-06 -1.1853148e-05 -2.3237526e-06 -4.983747e-05
000060 00 00 00 00 04 00 00 00 04 00 00 00 04 00 00 80
       0.0 6e-45 6e-45 -6e-45
000070 04 00 00 00 04 00 00 00 04 00 00 00 04 00 00 80
       6e-45 6e-45 6e-45 -6e-45
000080 60 0b 9e b5 04 00 00 00 bb 2f b9 b6 1a 86 e6 36
       -1.1775228e-06 6e-45 -5.518986e-06 6.8701456e-06
000090 f8 17 3a b7 71 b5 83 b7 48 25 d7 b6 5c d2 b3 b7
       -1.1092045e-05 -1.5700907e-05 -6.4118394e-06 -2.1436419e-05
0000a0 a2 23 37 b8 e5 37 f9 b7 ce 8a 6d 38 18 39 e4 b8
       -4.3663786e-05 -2.9709141e-05 5.6634475e-05 -0.00010882522
0000b0 91 7d 69 37 78 98 cc 36 30 b0 17 36 16 92 4e b8
       1.3917118e-05 6.0974235e-06 2.2603308e-06 -4.925028e-05

exp_avg_sq f4 [6, 8]
000000 5c 6d 2c 36 0d a4 ad 32 71 a0 0f 37 c4 64 86 37
       2.5693653e-06 2.0214452e-08 8.56082e-06 1.6020967e-05
000010 38 80 4f 35 c5 3e fa 34 18 03 e5 32 22 d3 35 38
       7.730009e-07 4.66118e-07 2.6660516e-08 4.3350396e-05
000020 ab 93 6b 37 6e 24 f0 32 65 fe dc 37 e8 67 61 38
       1.4041473e-05 2.7956244e-08 2.6344505e-05 5.374095e-05
000030 15 05 04 36 db 13 3c 36 b4 ec fe 33 b5 b9 2e 39
       1.967249e-06 2.802574e-06 1.1870853e-07 0.00016663114
000040 15 ba 10 34 19 00 90 33 bb b8 c0 37 03 54 6b 34
       1.3478741e-07 6.70554e-08 2.2974205e-05 2.1916644e-07
000050 93 09 03 35 22 04 0d 36 4d f4 93 33 aa 7b c8 37
       4.8815235e-07 2.1013043e-06 6.889659e-08 2.3899443e-05
000060 00 00 00 00 e5 12 1a 29 9d 06 2a 2a 13 2d 34 26
       0.0 3.4211258e-14 1.5101328e-13 6.251113e-16
000070 c8 13 2b 28 94 03 dc 28 20 91 e0 2a 1f f5 0a 20
       9.496696e-15 2.4426458e-14 3.9891094e-13 1.1770158e-19
000080 86 99 18 35 f0 f8 bb 30 d9 57 a5 35 38 2d 79 37
       5.684782e-07 1.3676793e-09 1.2319025e-06 1.4852085e-05
000090 99 89 a1 36 b7 6e 4f 36 0f de 62 34 ef c2 99 37
       4.8141924e-06 3.0909848e-06 2.1128675e-07 1.8329794e-05
0000a0 d0 39 22 37 88 bc f8 32 0b ea b4 37 e7 54 39 38
       9.669413e-06 2.8956734e-08 2.1566657e-05 4.418651e-05
0000b0 0f a1 c2 35 74 32 25 36 d4 44 07 34 c8 b4 0b 39
       1.4501001e-06 2.4616284e-06 1.2597894e-07 0.00013323419

exp_avg f4 [6]
000000 5a 94 59 b7 98 5b de b8 ea 20 68 b7 04 00 00 00
       -1.2968749e-05 -0.000106028456 -1.3835941e-05 6e-45
000010 41 32 58 b6 ce b1 7c b8
       -3.221576e-06 -6.0247075e-05

exp_avg_sq f4 [6]
000000 ed a7 63 37 32 91 74 38 9c c1 4e 36 ff 9d 81 2a
       1.3569353e-05 5.8309357e-05 3.0809088e-06 2.3024635e-13
000010 ba 22 de 35 cc 22 3b 38
       1.6550396e-06 4.461668e-05

exp_avg f4 [8, 6]
000000 2d b5 4e b6 21 cc 01 b6 b6 31 f1 b6 04 00 00 80
       -3.080185e-06 -1.9341317e-06 -7.188147e-06 -6e-45
000010 1a f2 91 b6 c4 68 24 b5 37 98 d5 b7 de 1c 2c b9
       -4.349521e-06 -6.1247215e-07 -2.546246e-05 -0.00016413952
000020 fe ff bf b8 04 00 00 80 47 7d 1e 36 df 03 04 b9
       -9.155272e-05 -6e-45 2.3616756e-06 -0.00012589943
000030 00 00 00 00 04 00 00 00 04 00 00 00 04 00 00 00
       0.0 6e-45 6e-45 6e-45
000040 04 00 00 00 04 00 00 00 15 c6 ee b8 02 bf 5b b9
       6e-45 6e-45 -0.0001138562 -0.00020956623
000050 c5 03 30 b7 04 00 00 80 32 10 21 36 8b 67 c6 b8
       -1.0491295e-05 -6e-45 2.4000296e-06 -9.460662e-05
000060 00 00 00 00 04 00 00 00 04 00 00 00 00 00 00 00
       0.0 6e-45 6e-45 0.0
000070 04 00 00 00 04 00 00 00 0e b4 e9 b5 c6 e7 97 b5
       6e-45 6e-45 -1.7412256e-06 -1.1317832e-06
000080 ad 06 75 b6 04 00 00 80 4e 76 09 b6 8e d8 c0 b4
       -3.651173e-06 -6e-45 -2.0483453e-06 -3.592035e-07
000090 e0 1c 20 b6 c2 12 ca b5 4a b9 b6 b6 04 00 00 80
       -2.3858665e-06 -1.5055632e-06 -5.445593e-06 -6e-45
0000a0 4c 5a 5a b6 56 0d 00 b5 42 cc 2b b3 15 c7 f0 b0
       -3.253709e-06 -4.770312e-07 -3.999981e-08 -1.7518881e-09
0000b0 8f 6c c5 b4 04 00 00 80 b9 16 af b4 ee 9d 06 12
       -3.6773096e-07 -6e-45 -3.2612823e-07 4.247761e-28

exp_avg_sq f4 [8, 6]
000000 b3 d9 b5 34 2b 02 05 34 09 d2 24 34 9a 7d c5 25
       3.3872274e-07 1.2387379e-07 1.53501e-07 3.4259163e-16
000010 81 b4 8a 34 a7 92 70 32 14 bd 06 39 c3 61 25 39
       2.5835837e-07 1.40031835e-08 0.00012849673 0.00015772045
000020 6c a2 a4 35 15 55 a6 24 1f c1 71 34 9b c1 8c 37
       1.2266223e-06 7.213516e-17 2.2515131e-07 1.6779455e-05
000030 00 00 00 00 fc 41 8b 29 ca a9 a0 2c bc 23 83 24
       0.0 6.1842865e-14 4.566324e-12 5.687273e-17
000040 7d 28 31 2c 17 b5 d7 29 41 95 14 38 8e 2e 36 38
       2.5175688e-12 9.579332e-14 3.5424953e-05 4.343554e-05
000050 22 d0 94 34 4a d1 8b 26 ea 94 26 34 fe 1f 92 36
       2.7718585e-07 9.70179e-16 1.551413e-07 4.3548634e-06
000060 00 00 00 00 ea 23 13 2b 5b 5e 9e 2a 00 00 00 00
       0.0 5.227473e-13 2.813191e-13 0.0
000070 51 92 d6 29 8c c9 38 2a 4b c3 b5 34 d9 48 f4 33
       9.528891e-14 1.6412409e-13 3.3855972e-07 1.1375386e-07
000080 f9 33 4c 34 ce c0 b3 23 61 1b 1a 34 4b 4d 92 32
       1.9017888e-07 1.9488875e-17 1.4352328e-07 1.7031786e-08
000090 02 26 7d 35 ec e5 be 34 e5 68 23 35 fb 20 99 24
       9.4305153e-07 3.5557548e-07 6.0874873e-07 6.6409044e-17
0000a0 01 14 e2 34 a0 87 62 33 c9 8b 7c 2f f0 16 6f 30
       4.2110335e-07 5.2743076e-08 2.2968928e-10 8.698029e-10
0000b0 a9 d1 92 32 aa eb d4 25 c8 b5 8c 32 17 a1 4e 2f
       1.709198e-08 3.693583e-16 1.638081e-08 1.8792821e-10

exp_avg f4 [8]
000000 94 27 78 b5 2a 4e 84 b8 04 00 00 00 c2 d2 c2 b8
       -9.2444793e-07 -6.30881e-05 6e-45 -9.2898976e-05
000010 04 00 00 00 40 12 08 b5 3b a4 3e b5 de 92 c6 b2
       6e-45 -5.0690505e-07 -7.10195e-07 -2.3117021e-08

exp_avg_sq f4 [8]
000000 c4 20 84 33 7e 9c 38 38 72 2a c3 2c bd b6 43 37
       6.152689e-08 4.4014763e-05 5.5469457e-12 1.1665453e-05
000010 be 88 80 2b b2 4a 4f 33 57 18 15 34 00 2c 50 31
       9.132901e-13 4.826388e-08 1.3885561e-07 3.0292995e-09

exp_avg f4 [10, 8]
000000 c5 e5 3d 38 d2 dc b7 37 93 69 66 37 65 f9 2c 39
       4.52751e-05 2.1918127e-05 1.3733649e-05 0.00016496105
000010 8d 92 25 37 1f fa e1 35 71 01 d8 b0 e0 ae 9f 38
       9.868888e-06 1.6836601e-06 -1.5716478e-09 7.614284e-05
000020 ef a1 9a b6 97 29 8f b6 24 77 ec b4 60 d4 bc b5
       -4.608409e-06 -4.266574e-06 -4.4045112e-07 -1.4068901e-06
000030 32 fc 6d b5 64 cb 67 b6 ee 47 82 b6 c2 9d fe b5
       -8.865637e-07 -3.4540071e-06 -3.8826756e-06 -1.8970388e-06
000040 bb 06 c7 38 cb 38 b6 b9 be c9 b2 b9 7c 31 51 39
       9.490313e-05 -0.0003475606 -0.00034101115 0.00019950228
000050 2a b3 c0 38 02 12 0f 38 a4 7a 4a 32 f7 e5 1e 39
       9.188645e-05 3.4110628e-05 1.1785833e-08 0.00015153723
000060 20 b6 c7 b8 a2 c7 ca b9 e2 7c c4 b8 3e 41 d6 b9
       -9.522983e-05 -0.0003867718 -9.3692695e-05 -0.0004086587
000070 6e 98 52 36 b8 d1 19 36 8b b2 18 36 f1 4f 17 b9
       3.1381164e-06 2.292085e-06 2.275369e-06 -0.00014430263
000080 04 00 00 00 04 00 00 00 04 00 00 00 04 00 00 00
       6e-45 6e-45 6e-45 6e-45
000090 04 00 00 00 04 00 00 80 04 00 00 00 04 00 00 00
       6e-45 -6e-45 6e-45 6e-45
0000a0 c7 55 42 b9 bf 69 60 37 80 7c 3d b5 4e a6 1d ba
       -0.00018533236 1.3376061e-05 -7.058916e-07 -0.0006013856
0000b0 9f 6c 36 b8 3f e3 63 b7 fe 5a bd b5 8e eb 8d b9
       -4.3493343e-05 -1.3583164e-05 -1.410808e-06 -0.00027069118
0000c0 04 00 00 00 04 00 00 00 04 00 00 00 04 00 00 00
       6e-45 6e-45 6e-45 6e-45
0000d0 04 00 00 00 04 00 00 00 04 00 00 00 04 00 00 00
       6e-45 6e-45 6e-45 6e-45
0000e0 04 00 00 00 04 00 00 00 04 00 00 00 04 00 00 00
       6e-45 6e-45 6e-45 6e-45
0000f0 04 00 00 00 04 00 00 80 04 00 00 80 04 00 00 00
       6e-45 -6e-45 -6e-45 6e-45
000100 00 00 00 00 00 00 00 00 00 00 00 00 00 00 00 00
       0.0 0.0 0.0 0.0
000110 00 00 00 00 00 00 00 00 00 00 00 00 00 00 00 00
       0.0 0.0 0.0 0.0
000120 3b f9 b6 b8 73 07 23 39 c4 6e 0f 39 30 bb 88 b9
       -8.724859e-05 0.00015547666 0.00013678806 -0.00026079407
000130 d3 f8 5c b8 2e bf a4 b7 eb 3d ab b5 1b ea 1c b9
       -5.2683823e-05 -1.9639348e-05 -1.2758513e-06 -0.0001496453

exp_avg_sq f4 [10, 8]
000000 b1 59 da 34 ca e8 b8 34 6c f5 f1 33 cf bc c8 36
       4.0670923e-07 3.4442047e-07 1.1267079e-07 5.9824447e-06
000010 78 29 de 32 98 96 ed 33 c1 93 fe 33 a2 b8 de 35
       2.586306e-08 1.1063565e-07 1.1854673e-07 1.6594024e-06
000020 45 d2 44 34 09 cd f4 34 34 e5 44 33 eb 50 42 35
       1.8330418e-07 4.5597724e-07 4.5843265e-08 7.2388383e-07
000030 38 95 ad 33 2d 5c 8a 34 0d c0 48 34 84 39 e4 34
       8.083083e-08 2.577157e-07 1.8696319e-07 4.2510158e-07
000040 1f 6b 9b 37 be e9 4d 38 29 ee f4 37 b0 8e 10 3a
       1.8527322e-05 4.9093498e-05 2.9197969e-05 0.0005514426
000050 0a d5 b1 34 f1 ae b7 34 7f 69 96 33 f0 d2 0a 39
       3.3123825e-07 3.4213693e-07 7.004109e-08 0.00013239286
000060 47 e1 d3 36 44 ab ca 37 a3 49 58 37 89 87 59 39
       6.3145158e-06 2.4160028e-05 1.2891748e-05 0.00020745223
000070 78 f7 8d 33 c9 9c b4 34 70 bf 83 33 e7 95 5c 38
       6.6108385e-08 3.364169e-07 6.134985e-08 5.2591695e-05
000080 d3 26 21 30 a3 68 3d 34 ef fd 09 32 1a f8 de 33
       5.862663e-10 1.7640063e-07 8.032187e-09 1.038281e-07
000090 c2 0e a3 2d 73 2c d1 27 44 98 a5 23 b4 79 d4 32
       1.8537508e-11 5.8057345e-15 1.7953823e-17 2.4735392e-08
0000a0 d2 53 d2 35 76 19 fb 35 a0 24 14 34 dc a2 85 38
       1.5670614e-06 1.8708367e-06 1.3796898e-07 6.372269e-05
0000b0 3b d1 4d 34 ed 62 81 34 99 93 66 34 4c 75 ad 37
       1.916823e-07 2.41001e-07 2.1474115e-07 2.0677828e-05
0000c0 3c 6d dc 2b 5b 59 00 2c 04 23 02 2b d2 8f cc 2c
       1.5662259e-12 1.8239496e-12 4.623387e-13 5.813996e-12
0000d0 b7 ca 84 28 ad 5b 8e 2d a2 d0 51 2d 76 6d b1 2b
       1.4742857e-14 1.6184243e-11 1.19266e-11 1.2606988e-12
0000e0 45 24 05 27 fa e6 8b 30 72 38 25 2d 65 08 26 2e
       1.847712e-15 1.0179229e-09 9.3916975e-12 3.7751486e-11
0000f0 75 12 7c 28 75 06 3e 28 b1 89 1a 28 8b c0 46 2c
       1.3992812e-14 1.0548519e-14 8.578574e-15 2.8244375e-12
000100 00 00 00 00 00 00 00 00 00 00 00 00 00 00 00 00
       0.0 0.0 0.0 0.0
000110 00 00 00 00 00 00 00 00 00 00 00 00 00 00 00 00
       0.0 0.0 0.0 0.0
000120 17 90 d3 36 81 e9 b8 37 c1 e1 47 37 51 c4 47 39
       6.3050643e-06 2.2043243e-05 1.1913887e-05 0.00019051252
000130 ad bf 0b 34 74 fe 4e 34 ba e2 b1 32 8b 3c 41 38
       1.3015115e-07 1.9277815e-07 2.0708615e-08 4.607117e-05

exp_avg f4 [10]
000000 38 f6 4b 38 35 33 ac b4 70 8b e5 b8 85 48 0b b9
       4.862828e-05 -3.2074755e-07 -0.00010945543 -0.00013283089
000010 04 00 00 00 64 d1 00 b9 04 00 00 00 04 00 00 00
       6e-45 -0.00012285035 6e-45 6e-45
000020 00 00 00 00 78 4e 3c 37
       0.0 1.1223943e-05

exp_avg_sq f4 [10]
000000 94 fb 23 35 d0 75 6b 33 30 2f 6e 38 35 ec b5 37
       6.1088326e-07 5.482235e-08 5.678757e-05 2.1686874e-05
000010 65 cb a9 31 70 55 ab 36 a5 82 6d 2d 9a e3 99 2b
       4.9416706e-09 5.1061434e-06 1.3500899e-11 1.0934476e-12
000020 00 00 00 00 9a 0b a5 37
       0.0 1.9674935e-05
