checkpoint/AE_ckpt_train_model1.pt (torch, 29322 bytes, 54 tensors)

encoder.0.weight f4 [10, 12]
000000 20 aa 33 bd 65 6f 99 3c a3 b6 c7 3c bd c2 ee 3d
       -0.043863416 0.018729875 0.02437908 0.11658237
000010 ce c4 74 bc 0c 0e 5c 3e 54 96 45 3f d0 f0 31 bf
       -0.0149395 0.21489733 0.7718251 -0.69508076
000020 fa 32 cf be 7c 1c 18 bf 20 d0 16 3e 2f 4d dd 3e
       -0.4046858 -0.59418464 0.14727831 0.4322295
000030 19 fd 93 3e 01 10 25 be f0 b1 28 be 80 03 81 bd
       0.28904036 -0.16119386 -0.16474128 -0.06299496
000040 b9 e6 2a be b0 fc a8 3c 52 47 94 3f 3d 54 1b bf
       -0.16689576 0.020628303 1.1584265 -0.6067541
000050 17 d1 a3 be 0b 46 02 3f 6c 4b 21 be 1a 27 35 3f
       -0.3199546 0.5088813 -0.15751427 0.7076279
000060 63 69 91 bd 8c d1 98 3d 0f 88 70 be 6b ff 8a 3d
       -0.07100179 0.07461843 -0.23489402 0.06786998
000070 e0 d5 90 3e f4 fa 64 3d 7b a2 d2 3f fe f4 8b bf
       0.28288174 0.05590339 1.6455835 -1.0934141
000080 79 12 52 bf 4d d6 ac 3e 91 fa 9f 3e ee 2d 21 3f
       -0.8205944 0.3375725 0.31245854 0.6296071
000090 ef e3 58 bf cb 5d 45 be 3e ca 87 3e c7 65 c9 be
       -0.847228 -0.1927406 0.26521486 -0.39335462
0000a0 20 47 ef be 4e f7 01 3f c0 3d 4a be 43 35 68 3f
       -0.46733952 0.5076798 -0.19750118 0.9070627
0000b0 b4 8c 9d 3e 22 b7 b9 be 1b e0 34 bf b9 4b 65 3d
       0.3077141 -0.36272532 -0.7065446 0.055980418
0000c0 7b 2a 18 3e 76 21 d0 bd c9 ee 6f be 08 a8 50 3e
       0.14859955 -0.10162632 -0.23430933 0.20376599
0000d0 5e 5f 70 be e8 21 90 3d 96 48 bc 3f 88 15 48 bf
       -0.2347388 0.07037717 1.4709651 -0.78157854
0000e0 8f 65 23 3d fc dc 4e 3f 01 58 9e bd f0 38 f9 3e
       0.039891776 0.80805945 -0.07731629 0.48676252
0000f0 44 24 28 3e 5c 9c 0a 3e 72 03 5a 3d 96 01 83 be
       0.16420084 0.13536209 0.053225942 -0.25587147
000100 9d d1 fc 3d 68 f4 9a bc 73 51 b3 3e 2a f6 23 3c
       0.12344668 -0.01891537 0.35023078 0.010007421
000110 90 ef d8 3d c5 69 dd 3d 9d 97 3e be be eb 8a be
       0.10592568 0.108111896 -0.18612523 -0.27132982
000120 9a f2 c2 be be 14 b9 3d 0c ad 6d 3f 27 8f cd be
       -0.38075715 0.090371594 0.92842174 -0.4014828
000130 37 a7 28 bf 98 3f c2 bd a2 98 9e 3e a2 72 ab 3e
       -0.6588015 -0.09484786 0.30975825 0.33485895
000140 68 8f 25 3f a1 a7 f7 be 13 60 94 be 74 35 0f be
       0.64671946 -0.48370078 -0.2897955 -0.13985234
000150 53 b2 1d be 4d c7 37 be b5 f1 ea be b8 25 97 3d
       -0.15400057 -0.17947121 -0.45887533 0.07380241
000160 ef 93 5d be 77 8b 49 3e 61 e6 8d 3f cc 42 a5 be
       -0.21638463 0.19682108 1.1085931 -0.32277524
000170 d0 12 89 be f5 bd 78 3f 7e 0d df be 54 8c a6 be
       -0.26772165 0.9716485 -0.4356498 -0.32528937
000180 54 b9 16 3f 34 fb 0c 3f ad 18 44 bd 1f c7 38 3e
       0.5887654 0.55070806 -0.047875095 0.18044709
000190 8b 1f a8 bc c9 95 f9 bd 38 d3 01 3f d5 30 30 3f
       -0.020522853 -0.121867724 0.5071292 0.6882451
0001a0 35 04 93 3c f5 b1 05 3d 23 b7 06 be 34 e7 da 3e
       0.017946342 0.032640416 -0.13155799 0.4275452
0001b0 e6 11 2a 3d ae 51 e4 be 22 a5 85 be b2 32 2f 3d
       0.041520976 -0.44593567 -0.2610255 0.042772956
0001c0 1d a8 49 be fe d8 0b 3e 8f 0c 9c 3f 17 fc 1c bf
       -0.19693036 0.13656995 1.2191333 -0.6132216
0001d0 96 a4 ff be fb 0a 48 3f 71 7c 8f be 10 de 3f 3e
       -0.49930257 0.78141755 -0.2802463 0.18737054

encoder.0.bias f4 [10]
000000 92 28 7f bf 8f b1 64 bf 1b 04 86 bf 02 65 af 3e
       -0.9967128 -0.8933343 -1.0470003 0.3425675
000010 be 80 6c bf bd 22 f6 be 31 f2 d7 bd ca 87 78 bf
       -0.92383945 -0.48073378 -0.10544241 -0.970822
000020 a4 a7 77 bf b5 14 22 bf
       -0.96740174 -0.63312846

encoder.3.weight f4 [10, 10]
000000 52 a1 27 3e 06 ae 0a bf 07 e3 0b bf 12 c9 17 3f
       0.16370133 -0.5417179 -0.5464329 0.59291184
000010 4f 1f ff be 48 36 81 be 8b f9 76 3e 17 e5 d7 be
       -0.49828574 -0.25236726 0.2411863 -0.4216697
000020 f7 17 d7 bd 22 bb 4e be 96 b0 18 bf aa e9 93 be
       -0.10502618 -0.20188573 -0.5964445 -0.2888921
000030 7f d6 bb be 33 a2 80 be 4a 6c d9 3d 12 aa ac bd
       -0.36687085 -0.25123748 0.106163576 -0.08430876
000040 8e ab 50 3d 62 2f a4 be 6f 1b 91 be f2 05 10 bf
       0.050944857 -0.320674 -0.28341243 -0.5625907
000050 79 87 93 3d c9 50 18 3f 0e 5d 8d 3e 3c 2d e5 be
       0.07203574 0.5949827 0.27610058 -0.44761074
000060 b8 b9 83 3f 09 20 35 3e db ac a5 be d7 3e 55 3e
       1.0291052 0.17688002 -0.3235844 0.20824753
000070 9e e4 17 bf 67 af 00 3f 29 db d0 be 5a f0 6e be
       -0.5933322 0.5026764 -0.40792206 -0.23333874
000080 e1 39 df bc 7f a5 07 bf 70 90 f3 bd 69 ef 65 3e
       -0.027249279 -0.529869 -0.11892784 0.22454609
000090 78 8d 25 3e 3d 96 ca bd d6 0e b2 bd ef 4e c3 be
       0.16167247 -0.09891937 -0.08694236 -0.3814616
0000a0 6b 5b 7c 3e 96 54 fb bb f5 d5 55 3f 11 15 cb be
       0.24644248 -0.0076699955 0.835296 -0.3966451
0000b0 0a ea a0 3e 80 38 8c 3e e4 1f 88 be 07 ae 5d 3e
       0.31428558 0.27386856 -0.2658683 0.21648417
0000c0 c3 8a c4 3c dd cf 4e 3f 1b 60 9c 3e a1 88 a3 3e
       0.023991948 0.80785924 0.30542073 0.31940177
0000d0 9c 44 3f 3f 5b 88 b7 be 6b 7e 12 3f 91 79 c3 be
       0.74714065 -0.35846218 0.5722415 -0.38178685
0000e0 27 f6 9e be c8 b3 3c 3e 98 ce ca be 31 50 15 3e
       -0.31047174 0.18427956 -0.39610744 0.14581372
0000f0 9d c2 4d 3f 2e b2 34 3f 53 e6 96 3e ff c5 23 bd
       0.8037508 0.7058438 0.29472598 -0.039983746
000100 f9 90 18 3f 88 b3 a6 3b 37 60 f2 be aa 92 56 3e
       0.5959621 0.0050873198 -0.4733903 0.20954385
000110 5d 65 5f bf 9b 59 ba 3e fe fb 86 be 0f b8 84 be
       -0.87264043 0.3639649 -0.2636413 -0.25921676
000120 89 88 75 bc b0 b1 9a 3e 6f 09 06 be d8 a3 f4 bc
       -0.014986166 0.3021369 -0.13089536 -0.029863283
000130 04 a9 2e 3f 9a 71 f8 be 68 10 02 3f 93 50 f5 be
       0.6822665 -0.4852417 0.50806284 -0.47913036
000140 f7 df 9d 3e 85 50 99 3e 9c 0b 3c 3f 85 cd c7 be
       0.30834934 0.29944244 0.73455215 -0.39023986
000150 d2 b8 8d 3d 41 62 d9 3c d1 01 19 bf 53 af 86 3e
       0.06920017 0.026536109 -0.59768397 0.26305637
000160 be 73 f1 3c e1 b0 50 3d 0d 86 60 3f 55 9b 96 3e
       0.029474135 0.050949935 0.87704545 0.29415384
000170 e4 99 d7 3e 21 7b ae be 9b 68 70 3e 01 6c 34 3d
       0.42109597 -0.34078315 0.23477404 0.044048313
000180 85 04 06 bf ac b2 0f 3f 6b 96 0a bf d9 aa d9 3e
       -0.52350646 0.56132007 -0.5413577 0.4251316

encoder.3.bias f4 [10]
000000 0c 5e 13 3f fa c6 9c 3e 51 0a 18 bf 5c 7f a5 be
       0.5756538 0.30620557 -0.5939074 -0.3232373
000010 8b d1 1b bf ef 4e 2c bf 04 c5 1c bf 8a 36 40 3f
       -0.6086661 -0.67307943 -0.6123812 0.7508322
000020 fc 49 81 bf 72 17 0d bf
       -1.0100703 -0.551139

encoder.6.weight f4 [6, 10]
000000 37 3b 50 3f 74 ca ac 3d 32 db fd 3d 38 8a b0 bd
       0.81340355 0.08437052 0.12395324 -0.08620113
000010 ad 6d 64 3e d4 c9 aa 3b c1 95 f5 be c8 f5 5c 3f
       0.22307463 0.005212048 -0.47965816 0.8631253
000020 3f 46 0b bf 2e de b4 bc 68 d5 2e 3f 98 01 da 3e
       -0.5440406 -0.0220786 0.6829438 0.4257934
000030 88 8c 2f bf 67 ec ee 3e 47 7c 51 bf 4c 29 95 be
       -0.6857381 0.46664736 -0.8183026 -0.2913307
000040 fd a5 29 bf 7a 54 3d 3f 22 42 cf bd fa ea b8 bd
       -0.66268903 0.73957026 -0.10120036 -0.09029193
000050 0c ea ce be 06 42 2e 3e 59 f4 be 3e 8d 90 67 bd
       -0.4041294 0.17017373 0.37295797 -0.05653434
000060 7d 89 54 3f 85 92 91 3e 4b 4d 33 3f f9 62 6d be
       0.8302229 0.28432098 0.70039815 -0.23182286
000070 ce 7f ad 3e 30 c6 60 3d d3 67 5d be bf c0 2a bd
       0.3388657 0.054876506 -0.21621637 -0.041687723
000080 a1 8a 15 3f 59 14 48 3e 95 2a 38 3f 26 c2 3f 3f
       0.58414656 0.19539012 0.71939975 0.7490562
000090 d5 54 ef 3e 0d a3 ac be 79 38 ab 3c b3 f3 dc 3d
       0.4674441 -0.33718148 0.020900952 0.107886694
0000a0 e5 80 2a bf e9 2d 8e be 35 4e 1c 3f 4f fe 16 3e
       -0.6660293 -0.27769402 0.61056834 0.14745449
0000b0 b5 52 33 3f af 05 2e 3f c9 ad c0 3e aa bd 19 bf
       0.70048076 0.6797742 0.37632588 -0.6005503
0000c0 a0 12 b6 3d 09 f7 8c 3e b8 51 21 3e 4f 0c 28 be
       0.08890271 0.27532223 0.1575383 -0.16410945
0000d0 86 4f a3 be 0b 66 38 3e a4 06 54 bf f2 27 38 bf
       -0.3189661 0.18007676 -0.8282263 -0.7193595
0000e0 e6 8a 4d bf 57 67 86 3e f3 85 fa be 45 7d 93 be
       -0.8029007 0.26250717 -0.4893032 -0.2880651

encoder.6.bias f4 [6]
000000 71 93 04 3f 83 71 27 3f 56 8e 19 bf b7 f4 94 be
       0.5178748 0.6540758 -0.5998281 -0.29092953
000010 71 92 31 bf c9 e0 1f 3f
       -0.69364077 0.6245237

decoder.0.weight f4 [10, 6]
000000 eb a9 0f be a7 25 dc be 97 de 51 3e 99 31 8f 3e
       -0.14029662 -0.42997476 0.20495068 0.27967528
000010 be b8 4a 3f 37 ea 6b be 90 43 56 be 2e 59 ea bd
       0.79188144 -0.23038565 -0.2092421 -0.11442791
000020 2a a4 33 3f d1 3f 98 3e 12 30 ac 3d 3c f9 72 bf
       0.7017237 0.29736188 0.08407606 -0.9491155
000030 d4 b4 22 bf 9e 7b ec be cd 54 2e 3d 85 27 e9 3c
       -0.6355717 -0.46188062 0.04256134 0.028461227
000040 5b fe eb 3d 4e ce 6f bc 54 b6 8a be 84 3e c7 bd
       0.11523124 -0.014636589 -0.2709223 -0.09728721
000050 9b 66 43 3f 5e 2b 93 3e 80 1b 4b 3f 55 07 a0 be
       0.7632844 0.28744024 0.79338837 -0.31255594
000060 53 03 08 bf 66 22 58 bf 32 cd e3 3e dc c8 15 be
       -0.5313007 -0.8442749 0.4449249 -0.14627403
000070 7b 13 79 3e 8b 3a 1f 3d 39 e8 ab 3e cd c7 f2 be
       0.24323837 0.03887419 0.3357561 -0.4741806
000080 0b c5 a9 3e 71 ce 3f 3f 42 e8 80 3f 9e b7 44 bf
       0.33158144 0.7492438 1.007088 -0.7684268
000090 1d 0b 50 bf 0a 33 ee be 6a 65 5c 3f f3 24 43 3d
       -0.8126696 -0.46523315 0.86092246 0.04764266
0000a0 83 24 0a 3f 31 f0 ce be 89 48 51 3e 36 d9 0b bd
       0.5396196 -0.40417627 0.20437826 -0.034142695
0000b0 34 03 82 3f c5 be 65 3f 37 cc 95 3f b2 14 9b bf
       1.0157228 0.89744216 1.1702946 -1.2115691
0000c0 0d 6e 45 bf de b5 5e bf cd 27 01 3f 8a d8 30 3e
       -0.7712105 -0.8699626 0.50451356 0.17270103
0000d0 cf ab cc 3e 47 37 96 be 2f cb 87 3c 67 c6 b2 be
       0.3997483 -0.29339048 0.016576378 -0.34916994
0000e0 e4 34 e5 3d cc 4e 30 3f b3 df b8 3f ca 1f 26 bf
       0.11191729 0.68870234 1.4443268 -0.64892256

decoder.0.bias f4 [10]
000000 c3 b2 ae be 15 d5 37 3f d7 6c 24 bf 24 69 6b 3c
       -0.3412076 0.7180951 -0.64228576 0.014368329
000010 41 3f a5 3a 49 1c 8e 3e a1 83 20 be 38 47 aa 3e
       0.0012607352 0.27755955 -0.15675212 0.3325746
000020 14 a1 5b be 00 d5 c5 3d
       -0.21448165 0.09659767

decoder.3.weight f4 [10, 10]
000000 3a d4 c0 3e b1 4b 8a be 39 25 e9 bd 0a a2 81 3e
       0.37661916 -0.27010873 -0.11384053 0.25318938
000010 4d 3e 88 3c b9 b5 17 3f 63 62 ad 3e 95 a8 ba 3e
       0.01663127 0.5926166 0.33864126 0.36456743
000020 b2 83 af 3e 82 ba 0e 3f 8e f1 4a 3e 17 4a 38 3e
       0.34280163 0.5575334 0.19818708 0.17997013
000030 75 78 11 3e 75 40 13 3f 81 03 0a bd 07 26 02 3f
       0.14206107 0.5752023 -0.033694748 0.50839275
000040 a4 e1 23 3f 20 e6 86 3f 36 6b 78 3e 2b f8 43 3e
       0.64016175 1.0538979 0.24259648 0.19137637
000050 3e 45 8c 3e a0 5e 17 bf 2e 82 2e bd 6c 6d 22 3f
       0.27396578 -0.5912876 -0.042604618 0.63448215
000060 cf bd 7e 3e e0 7d 9f 3e 9e ed 3a 3f a7 b0 be be
       0.24877094 0.31150723 0.73018825 -0.3724415
000070 20 8d f4 3e bd 6c 9b 3e 26 13 af 3e b6 eb 54 bf
       0.4776392 0.30356398 0.34194297 -0.83172166
000080 63 c3 89 be ad 1e 14 3e 16 82 be 3e b5 d2 83 3e
       -0.2690688 0.14464827 0.37208623 0.25746694
000090 bf 94 24 3f 2c b4 31 be 2b 7b 47 3d 6e 20 92 3e
       0.6428947 -0.17353886 0.048701447 0.28540367
0000a0 66 5a 0f 3f ab c5 3d be 52 6d 4a 3e 4a 50 88 3d
       0.5599731 -0.18532436 0.19768265 0.06655939
0000b0 d2 1f 0b 3f c1 2f 8f 3f d6 75 d9 3e 0e dd 73 3f
       0.5434543 1.1186448 0.42472714 0.9525918
0000c0 e6 ed 18 3f d5 ec 0c 3f 99 6e fb 3e 0d f9 19 3f
       0.59738004 0.55048877 0.49107817 0.60145646
0000d0 b3 d3 a1 bd ef 76 68 bd 8c e7 bb 3e 40 26 37 3f
       -0.079017065 -0.05675405 0.36700094 0.7154274
0000e0 75 80 28 3f 59 46 c5 3e 3d 50 e7 3c b5 70 fa 3d
       0.6582101 0.38530234 0.028236503 0.122285284
0000f0 92 18 fc 3e fb 40 bf bd 97 4d 09 bd 70 65 b7 3e
       0.49237496 -0.09338566 -0.03352126 0.35819578
000100 38 58 ab 3d f9 25 9d 3e d7 66 17 3f 36 e4 80 3e
       0.08366436 0.30693033 0.59141296 0.2517411
000110 9a 6e 7b 3e 5e fb ff 3e 76 a3 20 3e 15 c2 bf be
       0.2455391 0.49996465 0.15687355 -0.3745276
000120 50 31 cc 3e 19 48 fe bd cd 71 2e 3e 6e 92 0c bd
       0.39881372 -0.12416095 0.17035599 -0.034319334
000130 39 29 ec 3d 63 7d 88 3e 19 67 c4 bd 18 c5 6d be
       0.115313 0.26658162 -0.09589977 -0.23219717
000140 e0 b2 59 3e e3 93 79 be 58 36 31 3f 37 54 06 3f
       0.21259642 -0.2437282 0.69223547 0.5247225
000150 9d e1 85 3e 04 69 73 3f 82 76 72 3f ba 4d a1 3d
       0.26148692 0.95082116 0.9471208 0.07876153
000160 fd 9e 20 3e 14 20 02 3f dc 94 b6 3e 85 1d 1b be
       0.15685649 0.508302 0.35660446 -0.1514798
000170 d8 55 a5 bd 71 16 93 3e 61 05 10 3f 77 74 81 3f
       -0.08073014 0.2872806 0.5625821 1.0113667
000180 4f 3b 27 3f c8 84 51 3f 04 a6 19 3e 99 45 0c 3f
       0.6532487 0.81843233 0.15004736 0.547937

decoder.3.bias f4 [10]
000000 f1 17 88 be e8 62 cf be 31 be b4 be 43 76 bf be
       -0.26580766 -0.40505147 -0.35301355 -0.37394914
000010 13 93 d4 be 51 d1 02 be 5e e2 ea be 56 ac 80 be
       -0.4151846 -0.1277516 -0.4587583 -0.25131482
000020 e4 da 86 be a6 24 11 bd
       -0.26338875 -0.03543534

decoder.6.weight f4 [12, 10]
000000 a5 25 c4 bd a5 cc fc 3d 07 b3 44 be 66 c5 69 bd
       -0.095774926 0.1234372 -0.19208919 -0.05707302
000010 92 f0 f7 3e da 30 97 3e 33 05 3b 3e 88 cd 2d 3d
       0.48425728 0.29529458 0.18263702 0.042432338
000020 b9 15 ad 3e da 97 6e 3e d9 93 be 3d e1 30 ee bd
       0.33805636 0.23300114 0.093055435 -0.11630417
000030 78 25 c2 be 93 c3 86 be f3 8e 16 bf ba f2 3d be
       -0.3791921 -0.26321086 -0.58811873 -0.18549624
000040 64 e4 c4 be b5 53 04 3e 3e 1a 4f bf 24 7b 41 bf
       -0.38455498 0.12922557 -0.8089942 -0.7557852
000050 11 c4 0d be 5b 63 0e bf 84 80 71 be d3 cb 55 3c
       -0.13844325 -0.55620354 -0.23584181 0.013049084
000060 9f 2b a1 bd e9 88 12 bf 51 2b 17 bf 24 9b 22 bf
       -0.07869648 -0.5724016 -0.5905047 -0.63517976
000070 55 76 bb be 8c 2f c0 be b0 20 a2 3e 02 e4 cb 3e
       -0.36613718 -0.37536275 0.31665564 0.39822394
000080 d0 54 26 be 76 3f 7f 3e 87 6f 28 be c3 f2 f0 bd
       -0.16243291 0.24926552 -0.16448794 -0.11765053
000090 36 a6 9b 3e a9 39 bc bd fb 67 8c 3d 73 56 df 3c
       0.30400246 -0.09190685 0.0685577 0.027262902
0000a0 2a 96 56 3e 53 65 8a bc 73 c5 27 be 41 ff 69 3e
       0.2095572 -0.016894018 -0.16383915 0.22851278
0000b0 e7 fc 42 3e 1e 75 00 3d 94 b3 d2 3e 5b c9 80 3e
       0.19041787 0.03136169 0.41152632 0.25153622
0000c0 3e c7 f0 3e cb af 8c 3e 43 49 24 3f 4f 28 2d 3f
       0.4702701 0.2747787 0.6417429 0.6763963
0000d0 9c 77 18 bd 8f 52 81 3e 89 b7 11 3f 99 88 d5 3e
       -0.037223443 0.252583 0.5692068 0.41705778
0000e0 75 c4 1c 3f 73 eb 5a 3e 28 3d ea 3e 72 91 a3 3e
       0.6123727 0.21378879 0.45749784 0.31946903
0000f0 17 79 0f 3f 66 d9 ed 3e b2 ee 7b 3e dc 6f 44 3e
       0.56044143 0.46454924 0.24602774 0.19183296
000100 d5 5b 83 3f 01 67 34 3f 56 2e 03 be 80 1e f4 3e
       1.02624 0.7046967 -0.12810645 0.4767952
000110 ab 53 57 3e ca 8d 2f 3f 13 fe 1c bf df 59 6c be
       0.2102801 0.6857573 -0.61325186 -0.23081158
000120 2b ac 31 bf bc 82 c5 be b2 ee 62 bf cd e7 a1 be
       -0.6940333 -0.38576305 -0.8864547 -0.31622162
000130 89 04 09 bf bb 7e f2 bd 9c e0 1b bf ec 35 15 bf
       -0.53522545 -0.11840578 -0.608896 -0.58285403
000140 2d 8e 93 be 4e 74 a4 bd cd 40 66 be 45 77 a9 be
       -0.2881941 -0.08029996 -0.22485657 -0.33098808
000150 24 40 15 3d f3 86 f2 be 59 9a 09 3e 00 36 e8 be
       0.036438122 -0.47368583 0.13437785 -0.453537
000160 f6 10 22 be b1 e8 a4 bd 42 42 92 be fd bd 7e be
       -0.15826783 -0.08052195 -0.28566176 -0.24877162
000170 ce c1 fb bc 2e 3d 2e be 92 89 1e 3e ec 37 34 be
       -0.030732062 -0.17015526 0.15482166 -0.17599458
000180 94 0d 80 bc fe 87 7e be 2f 20 29 bf a4 47 13 be
       -0.015631475 -0.24856564 -0.66064733 -0.14382797
000190 09 10 3e be 38 d8 5b 3d 49 98 43 be bf ad fa bd
       -0.18560804 0.053673 -0.19101061 -0.12240171
0001a0 1f be 89 3e 2f 28 a8 3e 9c c4 ab bd 53 b6 84 bd
       0.26902863 0.32843158 -0.0838711 -0.06480088
0001b0 bf ef af 3e 54 bd c2 3e 87 54 0c bd 2d c7 89 3e
       0.343626 0.3803507 -0.0342603 0.26909772
0001c0 be 43 bf 3c 78 88 b1 3e c2 ba 19 3e 40 2d 1d 3d
       0.023347732 0.3467443 0.15012649 0.038373232
0001d0 dc ed 80 3e b8 c1 55 3e cc 82 1e 3f b7 d8 44 3e
       0.25181472 0.20874679 0.6191833 0.19223295

decoder.6.bias f4 [12]
000000 f1 c6 4b be 18 f4 da 3b e9 23 46 be 0b 47 22 bc
       -0.19900109 0.0066819303 -0.19349636 -0.009904633
000010 65 4c 1a be 06 ea fd 3d 15 3e 21 3e d0 07 fc 3e
       -0.15068205 0.12398152 0.15746339 0.4922471
000020 29 d1 82 3d 66 e0 e7 bd b9 0d d4 3d b1 15 d1 3d
       0.063875504 -0.113220975 0.1035418 0.102092154

mlp.0.weight f4 [10, 12]
000000 1d 2e cf bf 47 9a 00 3e 0b df 31 3f c9 a0 96 bf
       -1.6185948 0.12558852 0.6948096 -1.1767818
000010 90 22 63 bf e2 7f ab bf eb a1 7f 3e b6 56 55 3f
       -0.88724613 -1.3398402 0.2496411 0.83335435
000020 c7 e4 c4 3f e9 ee 78 bd d4 34 49 3f d7 4c fb be
       1.5382317 -0.060774717 0.78596234 -0.49082062
000030 8d f6 cd bc d8 ef de 3e 89 81 3c bc f7 1b 07 40
       -0.025141979 0.4354236 -0.011505493 2.1110818
000040 bc 16 2a 3e 7a 9b 04 c0 8b 4f 03 c0 85 f7 a2 3b
       0.16610235 -2.0719895 -2.05173 0.0049733543
000050 56 84 8d 3e 5b e5 a2 3f 5a 05 f0 bf ec ba 76 bf
       0.27640027 1.2726244 -1.8751633 -0.9637897
000060 69 0e 24 3c 55 82 b8 3e 28 a9 4d 3c 1f 3e eb 3f
       0.010013201 0.36036935 0.012552537 1.8378333
000070 2d 43 49 3e 8a 64 ec bf 01 46 d9 bf e4 8e 98 3c
       0.19654532 -1.8468182 -1.6974488 0.018622823
000080 15 ac 50 3e 43 81 83 3f d7 6e ce bf 3e d7 55 bf
       0.20378144 1.0273823 -1.6127576 -0.8353156
000090 1c 8d 79 3e 9e 58 7b 3c 7f b8 b2 3f 7f 12 65 bf
       0.24370235 0.015340952 1.3962554 -0.8948135
0000a0 1e 2d c1 bd e8 12 4f bf ba 04 82 be 39 06 60 3e
       -0.094324335 -0.80888224 -0.2539423 0.21877374
0000b0 44 d7 b5 be a3 5c 8d 3f 1f f4 9a be c6 9b 0d 3f
       -0.35515797 1.1043895 -0.30264375 0.55315816
0000c0 6d c9 3e 3d bb 10 c8 3e 69 82 06 bc ce 4a fc 3f
       0.046578813 0.39075264 -0.008209803 1.9710329
0000d0 da a7 44 3e 1e 1f 01 c0 ad f4 ec bf 5c 4a 32 3d
       0.19204655 -2.0175242 -1.8512169 0.043527946
0000e0 74 4e 9c 3e ac 40 76 3f 31 e6 d4 bf 4c 16 62 bf
       0.30528605 0.9619243 -1.6632749 -0.8831527
0000f0 ce 62 b2 3e 50 25 f8 3c 41 36 d4 be 5f cd a1 3e
       0.34841007 0.03029123 -0.41447642 0.31601998
000100 22 f6 14 bf 05 e9 01 3f 66 cc 98 3f 96 c5 ec bf
       -0.5818807 0.50746185 1.1937377 -1.8497798
000110 29 28 8f bf 01 6c a2 3f fc 8f 01 bd 53 cc 9b 3f
       -1.1184131 1.268921 -0.031631455 1.217173
000120 64 aa fc bf 91 8e d4 3e 20 7c 8b 3f 4d 7a 12 c0
       -1.9739499 0.4151502 1.0897255 -2.2887146
000130 76 a8 8b bf e1 35 18 bf 1a b0 2e bf 9e be 36 bd
       -1.0910785 -0.5945721 -0.6823746 -0.04461538
000140 80 6a 1e 40 c9 ed a1 3f f7 5f 6f 3f 74 9f ab bf
       2.4752502 1.2650691 0.93505806 -1.3408036
000150 ec 2e d7 bf 1f c7 6e 3d c0 84 af 3f f4 7d 30 bf
       -1.6811194 0.058295365 1.3712387 -0.6894219
000160 76 1b 17 bf 4b 1f de bf 63 71 07 3f 2f af 65 3f
       -0.5902628 -1.73533 0.5290739 0.89720434
000170 f6 84 51 3f 88 ac 84 be 57 98 0a bf 87 99 06 bf
       0.8184351 -0.2591288 -0.541387 -0.52578014
000180 e7 05 e7 be 50 95 0e be 13 0b be bd e9 72 27 3e
       -0.4512169 -0.13924146 -0.09279456 0.16352428
000190 8f db 65 be 58 8c aa be 6d 7a 9d 3f 12 4d 3b c0
       -0.22447036 -0.333102 1.2302986 -2.926579
0001a0 b2 43 cb be 06 15 f6 3e bc b6 5b 3e 14 b3 7b 3f
       -0.39700085 0.48062915 0.21456426 0.98320127
0001b0 42 42 95 bf 9a 2c 11 3f ea c6 6a 3f 47 83 0c bf
       -1.1660845 0.5670868 0.9170977 -0.54887813
0001c0 c9 0f b3 bd 92 54 33 c0 21 6c d3 3e 98 9c 85 3f
       -0.08743245 -2.8020368 0.41293433 1.0438414
0001d0 2f c7 ce 3e 13 96 8f be 93 ee dc be 6a bc 43 3e
       0.4038634 -0.28044185 -0.43150768 0.19114843

mlp.0.bias f4 [10]
000000 ed 48 ee 3e 83 f0 7e 3e 9f 1d f0 3d e5 a8 8a 3f
       0.46540013 0.24896435 0.117244 1.0832793
000010 a4 b5 22 3e 5a 77 40 bf 06 f7 27 bf 00 b1 46 3e
       0.15889603 -0.75182116 -0.656113 0.19403458
000020 b3 8e 4d bf ae 13 00 bf
       -0.80295867 -0.5003003

mlp.3.weight f4 [8, 10]
000000 c1 b9 69 be 1d e9 a5 bf 0f 96 e1 bf 45 f8 1c 3c
       -0.22824766 -1.2961766 -1.7623919 0.009580676
000010 73 af d7 bf 4a 51 a9 3f aa 56 19 bf b6 6d 68 be
       -1.6850418 1.3227932 -0.59897864 -0.22698101
000020 6a 7f 45 3d d5 2b 94 be 16 71 49 40 13 90 09 3e
       0.048217215 -0.2893969 3.1475272 0.13433866
000030 a3 d3 1a 3e d2 ea b2 3f e2 26 0d 3e c8 51 fd bf
       0.15119796 1.3977911 0.13784364 -1.9790583
000040 51 46 b6 40 1a 9c 46 40 33 d3 fe bf 6f 72 6f 40
       5.6960835 3.1032777 -1.9908203 3.7413595
000050 3a 59 e1 3f ee 66 f7 bc cb 2d 2d bd 2c 33 78 3f
       1.7605355 -0.030200448 -0.04228 0.9695308
000060 fa c9 56 bd 10 07 b9 bf 1e 7e 8e 40 bd 8d eb 3f
       -0.052438714 -1.445528 4.452895 1.840263
000070 a2 7f a3 bf 94 ab 17 40 90 c2 d1 3f 09 bb 69 bd
       -1.2773325 2.3698473 1.6387501 -0.057063136
000080 78 43 4b bd b0 ef 50 3f 43 7a 92 bc 5b 00 a6 bf
       -0.04962489 0.81615734 -0.017880565 -1.2968858
000090 3d e3 7c 40 c5 ed d7 3f 21 59 a6 bf 51 b3 07 40
       3.9513695 1.6869437 -1.299595 2.1203196
0000a0 49 24 88 bd 50 03 d8 3f 0a b3 04 40 2f e8 dd 3c
       -0.06647546 1.6876011 2.0734277 0.027088253
0000b0 5e d1 e8 3f 01 3c a4 3f d1 27 19 be ec 3b ad bd
       1.8188894 1.2830812 -0.14956595 -0.08458695
0000c0 f3 39 24 40 79 b0 97 bd c5 be e2 3f 85 71 56 bd
       2.566037 -0.07406706 1.7714468 -0.052354354
0000d0 83 fb 3d bd ba ab 4e 3f e8 79 bc bc ba 79 b2 bf
       -0.04638244 0.80730784 -0.023007348 -1.3943398
0000e0 33 27 81 40 c3 7e da 3f 66 01 b4 bf 86 51 06 40
       4.036035 1.7069935 -1.4062927 2.0987258
0000f0 c4 c6 d4 bb 29 1a 07 40 6c 68 24 40 d9 30 17 ba
       -0.0064934213 2.1109717 2.5688734 -0.0005767472
000100 53 61 06 40 d6 f8 4f bf a0 13 ad 3d 5e 81 14 3d
       2.0996902 -0.8123907 0.08451009 0.036256187
000110 38 9d 64 be 7c 39 5c 3d e7 f9 11 3d 85 42 04 40
       -0.22325599 0.05376576 0.035638716 2.06656
000120 36 dd 11 40 5c b2 3e bc e4 1f 0e 40 99 e9 1b bf
       2.2791266 -0.011639204 2.2206964 -0.60903317
000130 cb 8f 0d bd de 17 10 bc 00 0d 80 be 46 d0 b3 bb
       -0.03456096 -0.008794753 -0.25009918 -0.0054874746

mlp.3.bias f4 [8]
000000 f6 e8 10 40 c0 08 ab 3c 5d 4d db 3c 10 de 9f 3d
       2.2642188 0.020878196 0.026770288 0.07806027
000010 35 f7 12 3f a3 40 ac 3d 86 c7 6b be 9f 25 76 be
       0.5740846 0.08410766 -0.23025331 -0.24037789

mlp.6.weight f4 [5, 8]
000000 85 c7 76 bf 57 e4 fa 3e 2b 2d 0d 3f d5 ac 03 3f
       -0.9639819 0.49002334 0.55147046 0.51435596
000010 ea 28 06 3f ab 31 ce 3e 43 2b 80 3f 20 7d 88 3f
       0.5240618 0.4027227 1.0013202 1.0663185
000020 34 08 20 c0 4c 3e 0a 3f d7 78 1a 3f 12 33 12 3f
       -2.5005007 0.5400131 0.60340637 0.5710918
000030 f8 23 9e c0 4c 74 f6 3e 4b 73 34 bf 4f 15 3c c0
       -4.9418907 0.48135602 -0.70488423 -2.9388006
000040 3d 76 4e 3f 43 c4 fe 3e 17 fa 0b 3f a6 7b 00 3f
       0.8064917 0.4975911 0.5467848 0.5018867
000050 0c 7a fc be d9 20 cd 3e d0 00 bd c0 89 07 2c c0
       -0.49311864 0.40064123 -5.906349 -2.68796
000060 1a 17 ab 3f 3e 49 c5 c0 a0 39 8a c0 17 de 93 c0
       1.3366425 -6.1651907 -4.3195343 -4.6208606
000070 14 01 26 3f a4 f2 98 c0 97 26 9a be 07 74 ac be
       0.64845395 -4.779619 -0.30107567 -0.33682272
000080 a0 c4 68 bf 91 7f b8 3d a4 09 52 c0 c1 26 65 c0
       -0.90925026 0.09008706 -3.2818384 -3.5804904
000090 81 41 12 3f 82 f1 64 c0 ee 75 7d 3f 2f f3 86 3f
       0.571312 -3.5772405 0.9900807 1.0542964

mlp.6.bias f4 [5]
000000 64 fc b9 c0 7a e2 84 c0 e0 43 c9 3e 39 16 c9 40
       -5.8120594 -4.152646 0.39309597 6.2839627
000010 55 98 5f 40
       3.4936726

exp_avg f4 [10, 12]
000000 69 0b e8 b9 54 4b 67 39 3a 33 3a 39 90 df c9 37
       -0.0004425899 0.00022057939 0.00017757426 2.4065172e-05
000010 3f 5d f0 b8 39 fb 82 b9 0f 3f 53 38 07 b4 88 b9
       -0.0001146146 -0.00024982708 5.0365048e-05 -0.00026074072
000020 1f f4 57 b9 d1 ff 30 b7 6e 87 5b b9 87 7b a9 38
       -0.0002059494 -1.0549979e-05 -0.00020935919 8.081557e-05
000030 3b 0a 14 b9 f2 8b 91 38 ed 31 8a 38 d1 95 ed b7
       -0.00014118191 6.940206e-05 6.589652e-05 -2.8322365e-05
000040 97 3c 06 b8 e4 c4 9e b8 8c 25 66 b6 6d e2 d2 b8
       -3.200452e-05 -7.570701e-05 -3.4294526e-06 -0.000100557554
000050 6f 49 c8 b8 65 0b 21 b7 72 19 7b b8 0c a2 4e 38
       -9.550421e-05 -9.599001e-06 -5.986676e-05 4.9265145e-05
000060 d2 1b 77 b9 0f b1 f9 38 c6 a8 b5 38 4b 5d bb 38
       -0.0002356612 0.00011906225 8.662189e-05 8.934232e-05
000070 72 c6 01 b8 18 8a 10 b9 77 6d 81 38 01 7f aa b8
       -3.0940813e-05 -0.00013784354 6.171589e-05 -8.129888e-05
000080 a9 f9 0e b8 6f b2 72 36 9e 33 ea b8 8a 98 2c b6
       -3.4087952e-05 3.6164672e-06 -0.00011167604 -2.5718787e-06
000090 a9 24 01 39 37 56 7d b8 6f 8c 2d b8 d9 7a 36 b8
       0.00012316056 -6.0400194e-05 -4.1377203e-05 -4.3506592e-05
0000a0 c5 07 fc 37 52 41 96 38 b8 ab 0a b8 64 91 75 38
       3.0044359e-05 7.164724e-05 -3.306169e-05 5.8547957e-05
0000b0 df a5 fb 37 c5 18 fd 35 60 93 7d 38 16 13 cb b5
       2.9998771e-05 1.8857178e-06 6.0457154e-05 -1.5130233e-06
0000c0 a0 3e cb 3a bf 0b eb 3b e8 cd 44 3b 4b bd 90 bc
       0.0015506335 0.007173031 0.0030029956 -0.017668387
0000d0 17 47 a4 3b eb 76 6a 3b 1b 74 ee 3a 5b d6 6b 3b
       0.0050133574 0.0035776447 0.0018192561 0.003598592
0000e0 81 7c 84 3b 90 55 05 bd 33 c7 1b bb 13 6a e4 3b
       0.0040431623 -0.032552302 -0.0023769855 0.006970653
0000f0 4a b2 13 b5 f1 fb 78 b4 c3 d8 c3 34 da 9b 42 34
       -5.502121e-07 -2.3188456e-07 3.6479295e-07 1.8124356e-07
000100 30 34 f2 33 f5 0a e9 b3 94 3d ed 32 31 93 06 35
       1.1278496e-07 -1.0851901e-07 2.7618434e-08 5.013308e-07
000110 f6 f7 e5 34 95 77 07 34 76 37 c3 33 8b 54 8b 34
       4.283499e-07 1.2616358e-07 9.0904834e-08 2.595228e-07
000120 bb 75 2f b7 a1 73 a4 36 33 95 a4 36 8d c8 0d b6
       -1.0458224e-05 4.901042e-06 4.90495e-06 -2.1127373e-06
000130 c9 f3 22 b6 b3 71 c3 b6 17 05 cf b4 49 cd 03 b7
       -2.4281783e-06 -5.824689e-06 -3.8560458e-07 -7.856005e-06
000140 64 70 f2 b6 07 a2 0e b5 80 c3 98 b6 b0 dc 7b 36
       -7.225246e-06 -5.3134903e-07 -4.552712e-06 3.7530372e-06
000150 e7 98 af b5 e2 77 b3 34 b8 8b aa 35 d9 a5 19 35
       -1.3083016e-06 3.3428574e-07 1.270665e-06 5.723828e-07
000160 52 5f f6 34 83 80 34 b5 7f 16 00 b4 cb 50 0f 36
       4.5890425e-07 -6.7242235e-07 -1.1929113e-07 2.1355688e-06
000170 92 45 c7 35 0a a8 07 35 ba 0f 07 35 6b 2a 06 35
       1.4846903e-06 5.053595e-07 5.0314304e-07 4.9980616e-07
000180 e0 69 0a aa ed eb 80 2a 8b 77 7b aa b4 56 91 2a
       -1.2293595e-13 2.2901074e-13 -2.2334753e-13 2.5817337e-13
000190 19 e3 7a aa 2e 7f 03 2a d4 36 a7 2b c2 40 1a ab
       -2.2283251e-13 1.1679262e-13 1.1881282e-12 -5.480166e-13
0001a0 ea af 0c 29 27 8a 81 29 75 4d b1 2a 1c 1d ec 29
       3.1238826e-14 5.7527164e-14 3.1495263e-13 1.0485555e-13
0001b0 89 7b c4 b9 28 cd 8b b9 70 41 37 b8 20 cd 83 3a
       -0.00037476074 -0.00026665 -4.3691543e-05 0.0010055639
0001c0 7b 47 be b9 7a 16 be b9 00 70 f6 b8 8c c4 db b9
       -0.0003629288 -0.0003625637 -0.00011751056 -0.00041917374
0001d0 2a 61 e2 b9 13 2b fe 3a 15 12 d4 37 9f c9 a4 b9
       -0.00043178472 0.0019391499 2.528079e-05 -0.00031430737

exp_avg_sq f4 [10, 12]
000000 a2 50 37 37 56 83 57 38 37 44 1f 38 f0 d3 ee 37
       1.0926424e-05 5.138231e-05 3.7972084e-05 2.8470502e-05
000010 75 7b 39 39 c0 7e 03 37 0e 37 6b 36 61 ab a2 37
       0.00017688966 7.83772e-06 3.5049775e-06 1.939171e-05
000020 ae 92 8d 37 21 28 17 37 1b e6 8e 38 21 26 32 38
       1.6876813e-05 9.009645e-06 6.813948e-05 4.2474017e-05
000030 1c 1a 89 38 71 d9 8e 38 ac 67 62 39 ca b4 2a 39
       6.537532e-05 6.811589e-05 0.0002159166 0.00016279813
000040 b9 4a 88 38 ad 45 84 38 1d 25 72 37 13 39 a4 37
       6.4989035e-05 6.3072286e-05 1.4432965e-05 1.95769e-05
000050 ec 88 4f 38 fd a2 22 39 cd 28 0a 3a dd e3 e5 38
       4.9480164e-05 0.00015510242 0.0005270362 0.00010962014
000060 d4 82 ac 38 41 d3 4c 3b 1a d7 c4 3a 40 5d 72 38
       8.225968e-05 0.0031253847 0.0015017719 5.7784142e-05
000070 b3 df 97 3b 99 39 b0 37 0b f7 06 38 d8 f0 98 3a
       0.0046348213 2.1007656e-05 3.2178166e-05 0.0011668457
000080 d6 99 14 39 c0 70 ad 38 61 ec 7e 39 3f 45 46 3b
       0.00014171688 8.270284e-05 0.00024311386 0.0030253676
000090 a4 5b 58 35 10 d4 81 36 ec b9 fc 35 d1 a4 08 36
       8.0599625e-07 3.869187e-06 1.8829573e-06 2.0361515e-06
0000a0 6d 72 c9 35 c6 6e ee 35 09 a2 d2 33 ca 39 15 35
       1.5008969e-06 1.7764621e-06 9.808361e-08 5.559092e-07
0000b0 3f 25 87 35 d1 e8 7e 35 f0 04 ec 34 b4 87 52 36
       1.0069124e-06 9.4961166e-07 4.3962018e-07 3.1371428e-06
0000c0 76 fd f0 38 98 0a 8f 39 0c f0 91 39 d8 27 d7 39
       0.000114913026 0.00027282978 0.00027835404 0.00041037682
0000d0 63 a9 aa 38 07 1f a3 39 30 2c 5f 37 8f b0 d0 37
       8.1377824e-05 0.000311129 1.3302124e-05 2.4877749e-05
0000e0 7b 30 eb 38 2d 48 28 3a 62 14 ce 39 dd b4 18 39
       0.000112147034 0.00064194464 0.00039306568 0.00014563226
0000f0 3f 87 58 33 28 e2 15 34 30 e1 66 33 44 dd b1 33
       5.0414425e-08 1.3958982e-07 5.3755855e-08 8.282453e-08
000100 e9 7d 17 34 e3 53 2a 33 f6 45 1a 32 6e 49 26 34
       1.4108777e-07 3.9657504e-08 8.979887e-09 1.5486668e-07
000110 42 a3 df 34 d0 47 06 35 39 34 52 33 b9 58 c8 33
       4.1655773e-07 5.002339e-07 4.894193e-08 9.329364e-08
000120 f0 67 dc 34 9e b3 80 37 26 ab 43 36 3c f5 85 34
       4.1053818e-07 1.534243e-05 2.9156886e-06 2.4951612e-07
000130 87 96 3d 38 88 e8 ce 35 58 ac 9b 34 86 34 27 36
       4.52013e-05 1.5415872e-06 2.8996396e-07 2.4915512e-06
000140 62 df 43 35 7e 50 bf 34 5a 28 19 36 cd 2f d0 36
       7.2968226e-07 3.5635088e-07 2.2822264e-06 6.204448e-06
000150 f6 e2 2b 38 93 34 b8 37 ed 60 cc 35 71 a3 73 35
       4.098095e-05 2.1958991e-05 1.5227394e-06 9.076239e-07
000160 80 b0 c1 37 ba 85 c5 37 cc 08 e6 34 37 cc 2c 36
       2.3089582e-05 2.3546501e-05 4.284724e-07 2.5748866e-06
000170 26 17 cf 36 80 71 98 35 17 c3 12 37 3a d4 b9 36
       6.1717756e-06 1.1357915e-06 8.747701e-06 5.538136e-06
000180 ba aa 60 35 e7 bc ee 36 b4 e2 a2 35 9b 6e 9a 34
       8.369494e-07 7.114944e-06 1.213592e-06 2.876521e-07
000190 32 df be 37 44 da 21 34 69 66 0f 34 14 4d 13 35
       2.2753698e-05 1.5073698e-07 1.335517e-07 5.487393e-07
0001a0 a3 9c 3a 35 6c 87 05 35 b4 53 46 35 69 83 62 36
       6.9518336e-07 4.9743426e-07 7.388255e-07 3.3753115e-06
0001b0 eb 7e fc 38 08 6f 21 39 9c d6 ca 38 d4 cd b7 38
       0.00012039937 0.00015395519 9.672085e-05 8.7644585e-05
0001c0 3b e0 54 39 df 50 a3 38 55 bf 0d 37 e2 e6 c7 37
       0.00020301428 7.787509e-05 8.448803e-06 2.3830162e-05
0001d0 3b 96 14 38 ab cf 8f 38 6d 56 97 39 e0 67 ac 38
       3.5425863e-05 6.8574525e-05 0.00028865357 8.220947e-05

exp_avg f4 [10]
000000 97 93 83 39 5d 01 a7 38 d3 39 f5 38 7c e5 99 b8
       0.0002509623 7.9634345e-05 0.00011693281 -7.338353e-05
000010 1f 30 bc bb 72 4e 9c b4 dd 36 d0 36 cc a1 bc b5
       -0.005743041 -2.911434e-07 6.20527e-06 -1.4054181e-06
000020 6b 9b 9d 2a 96 18 03 3a
       2.7996645e-13 0.0005000917

exp_avg_sq f4 [10]
000000 ee 0d 34 38 d9 53 b9 38 96 68 05 3b d4 e7 34 36
       4.2928317e-05 8.837105e-05 0.0020356528 2.6957032e-06
000010 f5 30 60 39 a9 61 ce 33 30 52 28 37 14 7c 76 37
       0.00021380543 9.610387e-08 1.0032716e-05 1.4691632e-05
000020 c6 3b 9f 36 24 1b f8 38
       4.745528e-06 0.00011830617

exp_avg f4 [10, 10]
000000 fa 25 ec b6 44 5c df 32 63 95 e0 b7 5b f1 35 b7
       -7.037769e-06 2.6002574e-08 -2.6772444e-05 -1.0844636e-05
000010 fa a8 ab 32 46 d6 04 29 fd c5 e7 ac a4 45 dc 31
       1.9983862e-08 2.949574e-14 -6.587396e-12 6.41076e-09
000020 ea 44 ac 99 39 db 86 36 3e 7f 46 1d 16 c5 03 35
       -1.7812217e-23 4.019032e-06 2.6270864e-21 4.90881e-07
000030 6f 40 76 26 54 a6 06 aa 6e 3c 67 35 51 4f 15 1f
       8.543572e-16 -1.1959297e-13 8.614214e-07 3.1617586e-20
000040 ee 61 9c 1e 41 00 38 b0 f7 bc c8 16 3a 6f 8e a2
       1.6557645e-20 -6.693917e-10 3.2430996e-25 -3.8606943e-18
000050 d9 77 89 b5 5d 2a 55 b5 95 70 4a b7 4c cb 71 b4
       -1.0242176e-06 -7.941033e-07 -1.2066351e-05 -2.2518833e-07
000060 f6 39 b4 b5 d2 d9 ba b3 ed 09 00 27 67 3b 36 b5
       -1.3427914e-06 -8.700921e-08 1.776895e-15 -6.7886725e-07
000070 f5 3e 92 a5 c4 00 9a b6 55 f5 eb 80 f5 f3 54 8f
       -2.5369624e-16 -4.589647e-06 -2.166935e-38 -1.04993914e-29
000080 b7 c0 78 8e 23 2e d3 18 c7 42 34 01 90 82 f6 85
       -3.0661149e-30 5.4588808e-24 3.310869e-38 -2.318169e-35
000090 26 7d c4 1a 04 00 00 80 67 90 a3 97 04 00 00 80
       8.126589e-23 -6e-45 -1.057008e-24 -6e-45
0000a0 da 0c d0 38 a0 d0 7d 36 cd d1 78 38 8e df d5 37
       9.920607e-05 3.7821374e-06 5.93232e-05 2.549568e-05
0000b0 97 30 0e b4 cf a6 4c b1 ec b0 ad b6 62 ce 50 b3
       -1.3242457e-07 -2.9780727e-09 -5.176398e-06 -4.8616478e-08
0000c0 f6 87 56 1d 3b 3f 15 38 e2 89 e5 b4 f6 59 35 b5
       2.8392954e-21 3.5583256e-05 -4.2754897e-07 -6.7558665e-07
0000d0 e1 cb f7 b6 fd 77 52 af d5 39 0a bd b7 8b 2e b3
       -7.3849083e-06 -1.9142017e-10 -0.03374656 -4.0639602e-08
0000e0 ee 21 24 2d f2 93 56 b3 c2 8a 53 aa 25 2e 90 bd
       9.329855e-12 -4.9960313e-08 -1.8788706e-13 -0.07040051
0000f0 b0 40 97 38 8a 25 2a 36 7e da 33 38 48 c0 c6 37
       7.21229e-05 2.5353825e-06 4.2880412e-05 2.3692977e-05
000100 eb 0e b1 b5 b9 43 cd b3 42 6b 38 2d e0 bc 81 b3
       -1.3191869e-06 -9.558375e-08 1.0483005e-11 -6.041387e-08
000110 0e 2d c5 a5 1f 44 06 38 a4 54 7d b6 66 9f 60 35
       -3.4204583e-16 3.2011532e-05 -3.7749205e-06 8.367846e-07
000120 1b 7f a9 b7 01 e8 3a b7 cd 44 89 33 6f 86 71 28
       -2.0205558e-05 -1.1140482e-05 6.3920744e-08 1.3407338e-14
000130 a9 bc 71 36 9e a7 37 33 28 e4 5b 1b 34 80 8e 36
       3.6021613e-06 4.2760455e-08 1.8188977e-22 4.2468546e-06
000140 b3 3d a7 b5 8a 9d a6 b5 e8 e3 c9 b6 7b 37 02 b3
       -1.2460426e-06 -1.2413814e-06 -6.0167986e-06 -3.0318443e-08
000150 0c 88 f5 b5 43 1d 3a ad 23 10 09 b6 09 a2 a6 b3
       -1.8293517e-06 -1.0579373e-11 -2.0423984e-06 -7.7594514e-08
000160 f6 9b f8 aa 59 2a 20 b5 73 2d 5e 36 45 3a ce b5
       -4.416187e-13 -5.966627e-07 3.3107033e-06 -1.5365155e-06
000170 aa 19 03 37 cb 75 c1 36 52 ab 19 b6 52 83 ae b3
       7.814184e-06 5.765561e-06 -2.2898498e-06 -8.1263934e-08
000180 b1 cc 64 b2 08 29 96 b4 d6 16 95 25 6a 5d e7 b5
       -1.3317888e-08 -2.796953e-07 2.5862854e-16 -1.7238028e-06

exp_avg_sq f4 [10, 10]
000000 02 28 7e 36 f4 f2 ce 36 fc d9 cd 35 e1 25 a9 34
       3.7872237e-06 6.167562e-06 1.5337132e-06 3.1506264e-07
000010 1b 6d 99 34 cc c5 b1 35 6d 9b ba 33 24 40 f9 33
       2.8577855e-07 1.3245094e-06 8.689572e-08 1.1606633e-07
000020 c4 01 e9 2f dd 98 17 38 d7 fd 95 2d ac 04 c6 31
       4.2383708e-10 3.614357e-05 1.7052066e-11 5.7630896e-09
000030 ab 54 2c 2e 9a 10 cf 30 37 1f 09 35 ba 75 cb 2d
       3.9183472e-11 1.5065951e-09 5.10819e-07 2.313071e-11
000040 b5 13 1f 35 2c 00 78 2f e1 45 0e 2e ef 7a 95 2d
       5.9260793e-07 2.255553e-10 3.2349127e-11 1.6993932e-11
000050 04 d6 10 36 1a 7d af 36 cd 49 7e 38 35 e7 bd 35
       2.1582246e-06 5.22997e-06 6.062705e-05 1.4148887e-06
000060 ec 17 19 36 65 63 70 35 b0 68 b4 32 69 12 f1 34
       2.28127e-06 8.9551605e-07 2.1002364e-08 4.4903143e-07
000070 ba 0e fe 32 80 3c d8 37 81 6c ba 2b 8a 87 26 2e
       2.9576189e-08 2.5777379e-05 1.3246211e-12 3.7864413e-11
000080 ff 39 a1 2c 54 dc 95 31 16 83 a2 2f 1b 32 1f 31
       4.582334e-12 4.361519e-09 2.956077e-10 2.3166027e-09
000090 d7 90 9e 35 f4 6e 0c 31 6a c5 45 31 55 88 48 2d
       1.1814071e-06 2.043575e-09 2.877949e-09 1.13989556e-11
0000a0 a6 f5 09 35 04 b5 9f 35 2a 2c 1f 37 71 d9 15 35
       5.139394e-07 1.1899106e-06 9.487421e-06 5.5823244e-07
0000b0 c3 2d 26 36 ec a0 06 35 19 17 04 34 79 f8 6a 35
       2.4762564e-06 5.015306e-07 1.2301861e-07 8.753337e-07
0000c0 12 be 82 34 9a 68 c4 37 fc 93 97 36 71 86 51 37
       2.435268e-07 2.341373e-05 4.5173783e-06 1.2488673e-05
0000d0 54 64 4f 36 2e e1 8e 33 7f fd 22 3a 96 33 9f 2f
       3.0903802e-06 6.65335e-08 0.00062175834 2.8958586e-10
0000e0 f5 69 41 33 d4 3c 8b 35 cc 40 8a 30 0f 3a 2f 3b
       4.503268e-08 1.037401e-06 1.0059238e-09 0.0026737486
0000f0 4c 15 59 36 b0 9c b8 36 5d 78 d8 38 34 71 35 34
       3.2347916e-06 5.501868e-06 0.00010322102 1.6898122e-07
000100 60 ca 95 34 0a 79 83 35 9c bf d1 34 74 09 8c 35
       2.790066e-07 9.795488e-07 3.9068698e-07 1.0433564e-06
000110 38 fd e5 30 5d 04 50 37 fb 60 a8 34 2f 84 ba 36
       1.6733912e-09 1.2398782e-05 3.1363e-07 5.55862e-06
000120 d9 40 25 37 44 5c c8 33 42 7c e1 36 db 54 af 35
       9.849865e-06 9.330009e-08 6.719988e-06 1.3063212e-06
000130 83 d2 fe 33 91 cb 1d 34 c6 73 96 32 b8 3b 45 37
       1.18660886e-07 1.4695821e-07 1.7514946e-08 1.1756019e-05
000140 c2 44 7b 34 93 c8 9a 37 d2 a1 0b 38 a7 81 25 35
       2.340121e-07 1.845163e-05 3.329089e-05 6.165596e-07
000150 2a 75 32 37 30 9f 61 2f 1a f3 98 35 7b 2b 88 32
       1.0636906e-05 2.0520186e-10 1.1395634e-06 1.5852256e-08
000160 50 55 fd 33 c5 a6 57 34 e2 bd 07 35 21 53 18 37
       1.1796749e-07 2.0084106e-07 5.0567735e-07 9.079261e-06
000170 35 a9 1b 38 98 70 0d 35 c6 dd 38 37 2c a3 2d 33
       3.7112466e-05 5.269044e-07 1.101889e-05 4.0428105e-08
000180 35 1d 19 35 20 65 1c 35 56 d4 9d 33 45 aa 2c 37
       5.7039443e-07 5.8261685e-07 7.349506e-08 1.0291643e-05

exp_avg f4 [10]
000000 92 53 92 b7 36 f8 20 34 5a 0b 08 b7 9e 30 a5 19
       -1.7443472e-05 1.499146e-07 -8.108875e-06 1.7080236e-23
000010 25 3f 02 39 31 ca e8 bb c9 74 c3 38 50 c9 6b b7
       0.0001242129 -0.007104181 9.3200775e-05 -1.4053963e-05
000020 8e 90 3d b6 28 b5 d0 36
       -2.8247337e-06 6.2199724e-06

exp_avg_sq f4 [10]
000000 38 8b 93 37 49 04 a2 35 52 73 ae 38 a8 ca 72 33
       1.7588594e-05 1.2071188e-06 8.3184466e-05 5.652933e-08
000010 8c d6 78 37 7c f5 8b 38 60 df 0e 39 0c bf 9c 37
       1.4831905e-05 6.6737615e-05 0.00013625389 1.8685612e-05
000020 ed 1b 65 38 f1 29 a3 38
       5.4623863e-05 7.780258e-05

exp_avg f4 [6, 10]
000000 62 62 39 b5 8f a3 7c b2 90 d7 09 35 9d eb 5d 9a
       -6.9061036e-07 -1.47055195e-08 5.135016e-07 -4.5892056e-23
000010 39 91 a1 b4 dd 8a 88 ba 0e f3 02 36 0f 70 3c b6
       -3.009425e-07 -0.0010417361 1.9512986e-06 -2.807941e-06
000020 93 5d b4 b4 a4 1c 64 b5 43 ce bf b4 eb 4d 57 33
       -3.3595697e-07 -8.4978296e-07 -3.5726598e-07 5.0129454e-08
000030 1d b3 92 35 69 ab f1 99 2b 8b 0d b5 17 58 31 3b
       1.0929976e-06 -2.4988048e-23 -5.272911e-07 0.0027060562
000040 97 45 41 b6 a8 b9 6b b5 76 6b d6 35 75 02 1a 36
       -2.8799748e-06 -8.781449e-07 1.5975518e-06 2.2949218e-06
000050 ff ec 39 36 51 62 48 b3 42 48 92 b5 8e f4 f8 99
       2.7705098e-06 -4.6655547e-08 -1.0898877e-06 -2.5741374e-23
000060 cc eb 10 37 d7 06 ed ba 32 fa 27 37 65 d4 3f 37
       8.63797e-06 -0.0018083703 1.0012229e-05 1.1433939e-05
000070 1b 97 f1 b5 8e 71 79 35 4d 8d b7 35 74 88 74 b3
       -1.7999877e-06 9.292497e-07 1.3675686e-06 -5.693478e-08
000080 2e 10 63 b5 af 2e 06 9a 89 22 b1 36 a8 88 39 bb
       -8.4587634e-07 -2.774826e-23 5.2790315e-06 -0.0028310213
000090 98 a7 15 37 53 c4 bc 36 83 c6 ec b5 9d b0 8d b5
       8.920113e-06 5.6256918e-06 -1.7641145e-06 -1.055672e-06
0000a0 4e f8 0c 34 7e 2a c9 b3 de 35 b1 b5 f9 4f a4 99
       1.3128849e-07 -9.367521e-08 -1.3203205e-06 -1.6989503e-23
0000b0 02 0c 1d 35 ae 7e aa bb f4 77 53 37 e5 9f e6 b4
       5.850453e-07 -0.0052030897 1.2604509e-05 -4.2957177e-07
0000c0 3d 5d ad b4 47 de 97 b6 be 4a 87 b6 b4 e4 9a 33
       -3.22916e-07 -4.526027e-06 -4.0320147e-06 7.212785e-08
0000d0 f6 74 a5 35 5a f9 09 1a fb c6 6f b7 0b 35 42 3b
       1.2327498e-06 2.853236e-23 -1.4291839e-05 0.0029633667
0000e0 2a 6a 5c b7 fd 07 99 b7 ae 62 1a 36 c7 ad e6 b5
       -1.313774e-05 -1.8242741e-05 2.3005227e-06 -1.7186911e-06

exp_avg_sq f4 [6, 10]
000000 15 50 ba 35 b0 42 f5 34 40 28 1b 35 e0 b7 e5 34
       1.3881387e-06 4.5683328e-07 5.780057e-07 4.278836e-07
000010 cc 14 de 33 42 7c 6c 35 92 e6 8a 33 65 bf 88 35
       1.03414635e-07 8.809767e-07 6.468066e-08 1.0188493e-06
000020 a8 41 8b 34 e5 46 13 35 8d b2 0a 35 c8 84 2b 34
       2.593854e-07 5.486493e-07 5.166883e-07 1.5973922e-07
000030 27 c7 e6 34 a6 f2 1e 34 43 f5 20 34 fc 8a 89 36
       4.298574e-07 1.4803172e-07 1.4990387e-07 4.099098e-06
000040 85 b3 89 33 1c 68 dc 34 33 25 40 34 07 6d c9 34
       6.412214e-08 4.1053943e-07 1.7894926e-07 3.7518495e-07
000050 37 97 4b 35 c5 06 17 34 c3 c7 69 35 98 c7 0b 34
       7.584344e-07 1.4065434e-07 8.7089956e-07 1.3017996e-07
000060 46 7f b6 34 aa 50 08 36 53 8c 0e 35 6d c3 83 35
       3.3992745e-07 2.0312532e-06 5.310332e-07 9.817137e-07
000070 69 67 17 35 1c 50 8d 35 cb 8a 30 35 e4 4a 2f 34
       5.6402365e-07 1.0528634e-06 6.576708e-07 1.632539e-07
000080 44 5c 01 35 e1 bc 20 34 e4 d0 f4 34 7a c7 91 36
       4.819051e-07 1.4969875e-07 4.560053e-07 4.344559e-06
000090 ec ad 20 35 37 89 a3 35 43 8e de 34 dc ee 96 35
       5.9857734e-07 1.2184381e-06 4.145423e-07 1.1245388e-06
0000a0 72 6e 65 35 47 14 91 33 f5 31 15 36 62 36 6e 33
       8.5469867e-07 6.755777e-08 2.223181e-06 5.5463154e-08
0000b0 eb 72 b8 35 da fa 7a 37 6f a2 37 36 d0 dc 84 36
       1.3742514e-06 1.4959567e-05 2.7363674e-06 3.9596125e-06
0000c0 c7 b9 20 36 63 a3 a3 36 70 95 70 35 b8 08 3a 34
       2.3949995e-06 4.8767993e-06 8.962443e-07 1.7325772e-07
0000d0 9c d6 6e 35 39 a1 2b 34 f4 e6 19 35 28 de a3 36
       8.8974207e-07 1.5984268e-07 5.733302e-07 4.883641e-06
0000e0 7b 35 22 35 48 a5 9b 35 e7 a5 0f 35 8f a3 7e 35
       6.042753e-07 1.1596503e-06 5.351307e-07 9.486038e-07

exp_avg f4 [6]
000000 84 0e 18 ba 84 90 c5 3a 3d 1b 82 ba 5d 6f cd ba
       -0.0005800503 0.0015072976 -0.000992633 -0.0015673448
000010 b3 6d 3d bb c5 c0 d5 3a
       -0.0028904497 0.001630806

exp_avg_sq f4 [6]
000000 80 39 2c 36 c2 7e 52 36 22 0f a8 36 fb 07 d9 36
       2.5663467e-06 3.1366221e-06 5.008552e-06 6.468033e-06
000010 40 09 c8 37 d5 c9 cb 36
       2.3846165e-05 6.073368e-06

exp_avg f4 [10, 6]
000000 e1 08 27 b5 89 0f bd b4 f6 ae 9e 34 d4 d6 b1 b5
       -6.222527e-07 -3.5215297e-07 2.9557094e-07 -1.3250051e-06
000010 2c 7f 23 b5 9f 6f 50 35 e4 6c 80 38 05 4b b8 38
       -6.090729e-07 7.764847e-07 6.123798e-05 8.787777e-05
000020 a9 2a 80 b8 f4 aa c5 38 ee 28 13 37 64 39 27 b8
       -6.111462e-05 9.4255345e-05 8.7714125e-06 -3.9869352e-05
000030 dc 22 04 b4 f8 87 32 35 93 79 50 b5 bf ce 88 b5
       -1.230614e-07 6.650803e-07 -7.766295e-07 -1.0192961e-06
000040 39 a7 6b b5 61 6e 9f 35 99 e1 61 b6 c0 55 53 b4
       -8.7787663e-07 1.1878548e-06 -3.3658928e-06 -1.9682102e-07
000050 8a 46 a3 b5 9c 08 88 b5 ee cf 9c 33 f8 f8 aa 35
       -1.2164976e-06 -1.0135295e-06 7.302138e-08 1.2738446e-06
000060 1d b1 27 31 b6 5d 0e b1 84 13 e7 b2 67 47 a5 b1
       2.4402376e-09 -2.0716988e-09 -2.6900814e-08 -4.8102495e-09
000070 22 c0 93 31 09 79 f2 32 59 9c f4 b9 7d 71 8c ba
       4.300106e-09 2.8227548e-08 -0.00046655795 -0.0010714974
000080 f6 99 60 3a 05 57 af ba e9 b0 9d b9 f8 af 13 3a
       0.0008567864 -0.0013377374 -0.00030077182 0.00056338264
000090 f2 0a 4b b3 2f 26 3e 33 ea d7 95 b3 36 b6 b8 b3
       -4.7274575e-08 4.427255e-08 -6.977628e-08 -8.601312e-08
0000a0 40 35 ac b2 f6 9c b2 33 aa a2 0a 36 0e 7b 6e 35
       -2.004765e-08 8.317322e-08 2.0658285e-06 8.884098e-07
0000b0 8e 9d 0e 35 0c 42 91 35 b1 09 44 b6 b4 9a 32 b5
       5.3128394e-07 1.0822564e-06 -2.9211917e-06 -6.653529e-07
0000c0 f3 0d 8b b4 33 7a 4b 34 8a 05 cd b2 88 c3 97 b4
       -2.5900917e-07 1.8950304e-07 -2.386766e-08 -2.826821e-07
0000d0 2a 6b 60 b4 85 0c a8 33 69 7b 3e b9 ad b0 d9 b9
       -2.0900612e-07 7.825387e-08 -0.00018165786 -0.000415211
0000e0 64 78 ae 39 e0 53 08 ba 69 1a f4 b8 66 f1 64 39
       0.00033277564 -0.00052004866 -0.00011639746 0.00021833702

exp_avg_sq f4 [10, 6]
000000 7a 74 d2 36 16 71 e7 36 1e 4a 08 33 bb f2 ab 35
       6.2720474e-06 6.8975014e-06 3.1732377e-08 1.2811137e-06
000010 ff ea 3f 34 fd 38 30 35 4f 45 6f 35 b3 85 92 35
       1.7873752e-07 6.564804e-07 8.9135295e-07 1.0916759e-06
000020 a4 c5 99 33 34 68 4a 34 c5 45 d7 33 da 6f 8b 34
       7.160568e-08 1.8850625e-07 1.0024409e-07 2.597215e-07
000030 a6 cf 0b 37 e5 13 90 37 25 7d 3f 37 59 03 04 37
       8.3333925e-06 1.7175402e-05 1.1413625e-05 7.868593e-06
000040 52 18 c1 37 dd 0e 11 37 91 cc 2a 31 97 94 22 32
       2.3018718e-05 8.646134e-06 2.4854538e-09 9.4634265e-09
000050 e9 45 fe 30 00 db 43 32 4d e2 70 31 f2 c9 74 31
       1.8500802e-09 1.1400289e-08 3.5053234e-09 3.5621466e-09
000060 09 b5 d0 31 4a d1 53 33 a3 fa 35 32 79 ab 9a 33
       6.074178e-09 4.9317613e-08 1.0592575e-08 7.2023745e-08
000070 87 42 41 33 48 05 11 33 27 18 bc 35 c8 bd a3 35
       4.499682e-08 3.3765247e-08 1.4014121e-06 1.219968e-06
000080 06 d7 46 35 48 7c 97 35 3d 5a 75 34 0c 45 0d 35
       7.407365e-07 1.1286547e-06 2.2850232e-07 5.262707e-07
000090 b4 6b f1 33 50 d3 3e 34 d1 22 44 32 23 53 a4 34
       1.1242028e-07 1.7772004e-07 1.1416618e-08 3.060787e-07
0000a0 2d dc 6f 33 6a e3 21 33 89 a2 d5 34 2d f0 80 34
       5.5846773e-08 3.7692566e-08 3.9792602e-07 2.401661e-07
0000b0 82 a9 a2 31 47 6a 12 33 d5 38 4c 33 00 b1 c4 32
       4.7340913e-09 3.4089933e-08 4.754914e-08 2.2897893e-08
0000c0 c4 ce 28 32 52 83 b3 32 cb 11 f1 31 61 04 20 33
       9.8259e-09 2.089806e-08 7.016046e-09 3.7256886e-08
0000d0 8a b9 9e 31 03 22 20 32 9c f1 aa 34 3f 73 c7 34
       4.6194986e-09 9.320959e-09 3.1840761e-07 3.715049e-07
0000e0 73 07 c1 33 72 5d a8 34 70 a6 28 33 16 51 22 34
       8.988618e-08 3.136043e-07 3.9266922e-08 1.5116925e-07

exp_avg f4 [10]
000000 5a 3c cb b5 e3 62 1e 39 18 95 ce b4 aa b8 a4 b5
       -1.5142243e-06 0.00015104892 -3.847897e-07 -1.2272696e-06
000010 1a 62 bc b2 36 82 02 bb f5 d1 37 b4 0c b6 07 37
       -2.1930692e-08 -0.0019914038 -1.7119585e-07 8.089013e-06
000020 e4 20 cd b4 11 d3 4a ba
       -3.8208157e-07 -0.000773714

exp_avg_sq f4 [10]
000000 84 b2 32 37 48 44 f0 35 be 96 a8 34 aa 97 77 33
       1.0651191e-05 1.7901266e-06 3.1402118e-07 5.7647107e-08
000010 63 9c 24 35 6f 83 f6 36 f2 e8 f8 35 98 5e 83 34
       6.1322334e-07 7.346672e-06 1.8545236e-06 2.4469477e-07
000020 fe 40 76 34 02 bf eb 35
       2.293418e-07 1.7564455e-06

exp_avg f4 [10, 10]
000000 fc b1 d3 b0 46 17 8f b3 fa c9 06 ac 34 1f 2a b3
       -1.5402857e-09 -6.66319e-08 -1.9154665e-12 -3.960959e-08
000010 7b 83 32 b1 de 1e 89 b3 76 41 25 b3 b8 76 16 b4
       -2.5977147e-09 -6.385174e-08 -3.8476593e-08 -1.4013028e-07
000020 5f f1 b8 b2 f1 09 19 b2 69 28 02 b2 89 29 f0 b5
       -2.1530182e-08 -8.9080325e-09 -7.576184e-09 -1.7893482e-06
000030 bc 68 95 b0 ea f2 fd b4 e9 58 c5 b3 e4 2b 0d 33
       -1.0870944e-09 -4.7301666e-07 -9.1897e-08 3.286904e-08
000040 60 da 26 b2 02 b8 1e 35 ad 03 fd b3 32 72 f9 b2
       -9.712124e-09 5.9127353e-07 -1.1781899e-07 -2.9039345e-08
000050 6c 0e 1b b3 55 38 f2 b0 60 9e 87 ae eb a8 35 b4
       -3.6101866e-08 -1.7623828e-09 -6.167222e-11 -1.691839e-07
000060 a2 a1 1b ae 10 98 c3 b4 7e 71 84 b0 35 76 09 b5
       -3.538648e-11 -3.643222e-07 -9.63652e-10 -5.120849e-07
000070 51 c6 29 ad f2 46 b7 b4 21 cb ad 2b ff 5c bc 2c
       -9.650573e-12 -3.4138026e-07 1.2348769e-12 5.353606e-12
000080 40 7b 64 b0 7e cf 4d b2 cc 84 f0 b0 1b 57 da b0
       -8.3121066e-10 -1.1979749e-08 -1.7500041e-09 -1.5886344e-09
000090 b7 af 36 b2 51 4c 08 af 2c 93 8f ad 08 70 c5 af
       -1.0633747e-08 -1.2396241e-10 -1.6322575e-11 -3.5913694e-10
0000a0 64 8c 0f b3 bc 0c 6c ba f3 56 52 b2 76 cc 29 b3
       -3.3422467e-08 -0.0009004583 -1.2243379e-08 -3.9534335e-08
0000b0 e9 66 79 af 50 f6 01 ba 36 5c 92 b1 ff f8 38 35
       -2.2682979e-10 -0.0004957663 -4.2596424e-09 6.890768e-07
0000c0 16 8a 95 b2 6c 9f f1 b9 c4 5a 10 b1 98 57 f5 b9
       -1.7408677e-08 -0.0004608588 -2.1006352e-09 -0.00046795304
0000d0 68 09 64 b0 19 1a a3 b2 ca 16 b5 b1 7d bd 87 b9
       -8.2959284e-10 -1.8987565e-08 -5.270384e-09 -0.00025890386
0000e0 8a af 88 b2 e7 4f 18 b3 6e ec 4a b0 12 e6 7d b9
       -1.591231e-08 -3.546293e-08 -7.382316e-10 -0.00024213668
0000f0 53 61 87 b1 57 c9 0e b3 0b 9d 58 b0 98 23 61 b2
       -3.9400816e-09 -3.324507e-08 -7.8803514e-10 -1.3104817e-08
000100 c6 52 47 b1 3a d2 dc b0 89 fb 30 b2 66 38 a5 b2
       -2.9005363e-09 -1.6066857e-09 -1.0301741e-08 -1.9234175e-08
000110 32 08 1c b0 a2 d2 d1 b2 c9 e9 2d ad 1a 29 e9 2b
       -5.6764116e-10 -2.4426587e-08 -9.885822e-12 1.6567054e-12
000120 5d c3 c3 b3 d1 b0 16 ae fc b6 96 b0 56 e7 44 b0
       -9.1159315e-08 -3.4263096e-11 -1.0965944e-09 -7.163313e-10
000130 ed 31 3c ad 0f 26 09 b3 2d 5c 19 ae ee 7a a9 ae
       -1.06976485e-11 -3.1932412e-08 -3.487004e-11 -7.707067e-11
000140 81 9b c0 b1 92 80 6b b2 9b 1b 4a b4 5b 75 1a b2
       -5.605614e-09 -1.3708034e-08 -1.8822759e-07 -8.990663e-09
000150 4f e0 83 b1 fe 68 4c b3 ca 28 35 b1 1d 3b 11 b2
       -3.8381027e-09 -4.759294e-08 -2.6362152e-09 -8.453552e-09
000160 1a e0 ab ae bb fa 8f 31 5e 2a 08 b5 27 86 1f ba
       -7.815988e-11 4.1903525e-09 -5.07256e-07 -0.0006085359
000170 ff 54 87 af 91 bc d0 b4 82 14 25 b2 1b b2 af b9
       -2.461675e-10 -3.888022e-07 -9.608927e-09 -0.000335113
000180 fe 95 cb b2 62 82 46 35 1b 17 d1 b2 0e 3a a3 b9
       -2.3700519e-08 7.395048e-07 -2.434131e-08 -0.00031133037
