checkpoint/AE_ckpt_train_model.pt (torch, 29322 bytes, 54 tensors)

encoder.0.weight f4 [10, 12]
00000000: 36c4 32bd 1b0b a93e 486c 4e3f c7e5 063f
00000010: 1f33 21bf 9ac9 8fbf 4026 2dbe 8310 293f
00000020: 2cfe 183f 4548 9b3c 0fb9 79bd 2ab3 013f
00000030: 36f8 73be 1df8 3f3e dbd2 1ebf 5b45 033d
00000040: ae8e 143f d58b f33d e03c 963c 70db 173f
00000050: 9eb2 573e 6102 a2be 1faf 783e de6c 63bf
00000060: 2049 5fbf 0a2f 4ebd 5b3c 713f fae0 babe
00000070: 0216 e0be 2c00 5fbf a00a 0d3e f3b1 f43b
00000080: f769 f03e 6773 a93e a4c4 c9be 1632 9dbe
00000090: 0461 1ebe 2857 da3d fc15 37bd 3a13 143f
000000a0: 6fc2 613e 5649 e83e 6666 813f 505f 93bf
000000b0: 5ce4 823d 4bfc fdbd 8cd8 f33e 9a67 313f
000000c0: 7b92 edbc adcb 96be 296e a7be c92d af3e
000000d0: 4581 d2be 303d 6ebd 3935 c43f 1abf 47bf
000000e0: c6c1 00bf baa1 1c3f a754 6cbc c540 ad3e
000000f0: 01e9 23be 7cb2 c73e 34b2 4ebf daf3 afbe
00000100: 40b0 a43e 9a5c c13d 6fae 47be 4657 883e
00000110: 5978 78bd 23fe 6f3c 6aa9 483e 5411 54bf
00000120: 30f4 29be 398d 58bd 20ca 883e faac 8f3e
00000130: b542 05bf 3f0a 6dbf f0d1 413d d27a cc3d
00000140: 4118 123e 3c77 903e d4b4 39be 78be c03e
00000150: 4ab3 a6bd 74c5 44be fe63 45be bab3 93bc
00000160: 6880 44be 8d43 4f3d b6e5 923f 2e3c cebe
00000170: bd4f 10bf 8a06 903f da76 90be 0d62 db3e
00000180: 6015 10be 78f1 7e3e 960d 46bf b784 79bc
00000190: e158 1f3f ee2c 203e 187e 25be cf69 f53e
000001a0: 6db8 833e fb21 f5bd 53c8 cd3d 5c9a 3bbf
000001b0: 98a8 14be 250e be3e 2ebe 0fbf 774f 3a3c
000001c0: 0923 0e3f 2d39 be3d 31e0 6bbf ad54 623e
000001d0: 281b 543e dd53 313d 2707 31be d156 56bf
-0.043644153 0.33016285 0.80633974 0.5269436 -0.6296863 -1.1233399 -0.16909122 0.6604082
0.59762836 0.01895536 -0.0609675 0.5066401 -0.23825154 0.18746991 -0.6204049 0.032048564
0.5803021 0.11891905 0.018339574 0.5931921 0.21064231 -0.3164244 0.24285553 -0.88837993
-0.87220955 -0.05033783 0.9423272 -0.36499768 -0.4376679 -0.8710964 0.13773584 0.0074675023
0.46955845 0.33095858 -0.39407837 -0.30702275 -0.15466696 0.10661155 -0.0446987 0.5784184
0.22046827 0.4536845 1.0109375 -1.1513462 0.06391212 -0.12401637 0.4762615 0.6929871
-0.029000511 -0.29452267 -0.32701233 0.3421462 -0.4111425 -0.05816382 1.5328742 -0.7802597
-0.50295675 0.61184275 -0.01442448 0.33838478 -0.16006853 0.3900336 -0.80740666 -0.3436573
0.32165718 0.094414905 -0.19500135 0.26629084 -0.060661647 0.014647993 0.19595876 -0.8283894
-0.16597056 -0.052869055 0.2671671 0.28061658 -0.5205491 -0.9259376 0.047319353 0.099843636
0.14267065 0.2821597 -0.18135387 0.37645316 -0.081396654 -0.19215947 -0.19276425 -0.018030036
-0.19189608 0.05060153 1.1476352 -0.40280288 -0.5637167 1.1251996 -0.28215677 0.42848244
-0.14070654 0.248968 -0.7736448 -0.015229396 0.62244993 0.1564214 -0.16161382 0.47932288
0.25726643 -0.11969372 0.100479744 -0.7328241 -0.14517438 0.37120166 -0.56149566 0.011371485
0.5552221 0.09288249 -0.92138964 0.22102614 0.20713484 0.04329287 -0.17287885 -0.8372622

encoder.0.bias f4 [10]
00000000: dba1 803f 8faa 9cbf 8148 773d b6b5 49bf
00000010: bf0e 6ebf f23f 9cbf 5812 0e3f 5960 68bf
00000020: 016c 48bf 6424 58bf
1.0049394 -1.223955 0.06037188 -0.78792894 -0.9299125 -1.2207015 0.5549674 -0.90772015
-0.782898 -0.8443053

encoder.3.weight f4 [10, 10]
00000000: 6b69 e83c 0e2c 443f 536d 95be 2322 49be
00000010: ad25 8c3d dc67 493f e89c 57bf 9748 c2be
00000020: 1126 a43e e55c 0e3f 0239 c4bd 7bac 19bd
00000030: d1d3 cbbd f428 5d3f 096a 963e b19c 34be
00000040: 8259 83bc 1ba6 583f 7f68 98bd a11c cdbe
00000050: eedc 5ebf b4dd a63e 5b12 10bf 4a1f 7abf
00000060: c374 bcbe e18e 323f 10da a7be 57fa a5be
00000070: e595 003f 0876 c53e ac41 42bf 578e 143f
00000080: 963e bebd 5a13 21bf 1b39 06be 7e15 4b3f
00000090: 1e21 77bf 6e8a bdbd 4ea0 f53e f99b 8d3d
000000a0: b959 c4be 8336 35bd 40c5 bcbe d99c b43e
000000b0: 4bec 4e3f 6ce9 5fbe 2143 243d 0ba6 2e3f
000000c0: 7d11 0fbe ce20 ccbd 3c36 9abc 488e 8bbe
000000d0: 3365 b0be af11 e6be c869 b9be eab6 77be
000000e0: 6edf 01bf 0ae6 d9be 5be8 c3be d9be 9dbe
000000f0: 6450 56bf 7b1e 8f3f c66b 04bf 4c30 883e
00000100: a73a 93be fc1b 443f 9d24 63bf 7088 70be
00000110: 328d 783e 5b2c e33e 1235 b0be 9dd1 e1be
00000120: c7c9 27bf c4ea 293f b9f1 ba3e 1b02 243d
00000130: 2456 a8be 9eb4 16bb f2f7 83bc e883 cabe
00000140: 31b5 d0bd f6b8 8d3d 15c4 cebe fe0e e8be
00000150: bf01 043d 2a09 d6bd cc30 a7be 25e2 10be
00000160: 73ba 47be 00dc 15be d0fb 11bf db7d 0b3e
00000170: edc0 a0be f404 c43e e60d f03e ec8c 313e
00000180: 16f8 8bbe 17b3 0b3f 3399 73be 80c4 ebbe
0.02837058 0.7662972 -0.2918497 -0.19641928 0.068431236 0.786741 -0.84223795 -0.37946007
0.32060292 0.55610496 -0.09581186 -0.037518006 -0.0995251 0.86390615 0.29377773 -0.17637898
-0.016033892 0.84628457 -0.07441806 -0.40060905 -0.8705586 0.3259102 -0.5627801 -0.97703993
-0.36807832 0.69749266 -0.32783556 -0.32417557 0.5022872 0.38566613 -0.7588146 0.58029693
-0.09289281 -0.62920153 -0.13107722 0.7932967 -0.9653491 -0.09254919 0.47973865 0.06914515
-0.38349703 -0.04424144 -0.3686924 0.35275915 0.80829304 -0.21866387 0.04010308 0.6822211
-0.13971515 -0.099671945 -0.01882469 -0.2725699 -0.3445221 -0.44935367 -0.36213517 -0.2419087
-0.5073155 -0.42558318 -0.3826321 -0.30809668 -0.83716416 1.1181177 -0.5172695 0.26599348
-0.28755686 0.766052 -0.8872774 -0.23489547 0.24272612 0.44369778 -0.3441549 -0.44105235
-0.6554226 0.6637385 0.36512545 0.04004107 -0.3287822 -0.002299584 -0.01610944 -0.3955376
-0.101908095 0.06920044 -0.40383974 -0.45323938 0.032228228 -0.10450967 -0.32654417 -0.14148767
-0.19504718 -0.14634705 -0.5702486 0.13622229 -0.3139719 0.3828503 0.46885604 0.17338914
-0.27337712 0.54570144 -0.2378891 -0.46048355

encoder.3.bias f4 [10]
00000000: 5608 07bf 06a7 0cbf 567e 39bf 3c18 f8be
00000010: 66a2 efbe 7d85 6b3d 1a42 00bf a7dd aebe
00000020: de8e 3bbf c5c2 45bf
-0.52747095 -0.5494236 -0.724584 -0.4845599 -0.46803588 0.05750035 -0.5010086 -0.34153482
-0.73264873 -0.7725032

encoder.6.weight f4 [6, 10]
00000000: 871b c83f d51c 79be 15e5 673f f80a 273f
00000010: 0f6a 66bf 9e6d d4bd 0c59 813f 5e71 3cbf
00000020: f303 37bc 603f 30be 1bd4 553f 1feb 80bf
00000030: 6900 673f 90f4 f13e ade2 dcbe a9c9 9dbe
00000040: 698b 7d3f 1085 1ebf 0905 1dbe 09da c7be
00000050: d8c2 29bf 09ea 333e e94b 7cbf fe88 16bf
00000060: abb6 91be a82b 7b3e 1f41 40bf d2cb a23d
00000070: 114c 413e 19e2 1bbe 0c41 c03e c06f 303f
00000080: 98ef 143f 80f7 8fbd e34f 513f 796d 01be
00000090: 816a 853d 0066 593f 81b6 b33e 19bb 2f3f
000000a0: 6acd a83f c6db 45bf 006b 943f c963 443f
000000b0: bb65 1fbf ca13 f33c cd75 913f 9a31 49bf
000000c0: be9a 083c 71fa 87be fdac 27bf 41d8 edbb
000000d0: 3aaf 7dbf 539c d2be 93b9 573e e23c a43e
000000e0: eb01 50bf 2ee5 693e e963 9e3e a899 02be
1.5633401 -0.24327405 0.90583926 0.6525111 -0.9000558 -0.1037247 1.01053 -0.73610485
-0.011170375 -0.17211676 0.8352677 -1.0071753 0.90235 0.472569 -0.4314169 -0.30817917
0.9904085 -0.6192179 -0.15333952 -0.39033535 -0.6631293 0.17569746 -0.9855333 -0.58802783
-0.28459677 0.24528372 -0.75099367 0.07949032 0.18876673 -0.15222968 0.37549627 0.68920517
0.5817809 -0.07029629 0.8176252 -0.12639417 0.06514455 0.84921265 0.35100177 0.68644863
1.3187687 -0.7728847 1.1595154 0.7671476 -0.62264603 0.029672522 1.1364075 -0.7859131
0.008337675 -0.2655826 -0.65498334 -0.0072584455 -0.990955 -0.4113489 0.21066885 0.320777
-0.81252927 0.22841331 0.309356 -0.12753928

encoder.6.bias f4 [6]
00000000: 8580 c33d 47e0 05bc 0f4a 593f 2507 90bf
00000010: 620c 06bf fa17 163f
0.095459975 -0.008171148 0.8487863 -1.125218 -0.52362645 0.58630335

decoder.0.weight f4 [10, 6]
00000000: 01bf 6b3f 7ebb 2f3f 2bec b6bf 4e39 94be
00000010: 0671 db3f 44d5 8ebf 95f2 aabf 21a0 c2be
00000020: 0fef 71bd 5655 a73f 13ed 9abe b492 be3d
00000030: 0c56 253f e89d 313f aca4 b2bf d0e7 083d
00000040: abd9 c73f 1ccd 9fbf 5f51 55bf 8163 0a3d
00000050: 6358 52be 0ab3 db3f 58e5 923c fa83 68bd
00000060: a606 54bf f8be 88be 1c44 29be 5172 833f
00000070: 1c1b c3bc 3f1a 413e 9f21 383f b26f 433f
00000080: 1aad afbf 9912 023f e96b 0040 e5a9 d8bf
00000090: 0536 2ebf efb2 1fbf 404c 52be f6d0 9f3f
000000a0: 5171 a4be adc1 7a3e cc8a 40bf 5c7e 64bf
000000b0: 267e 613e ac19 f33f 82b8 12bf f8c0 8f3e
000000c0: ac78 4fbf 689a 2bbf 1e40 e23c 3261 653f
000000d0: a6ad 1ebf 8e9d a73d 75ef 763e 6442 9d3e
000000e0: 3d20 bcbf fe33 523e b43b 5c3f 6a67 8dbf
0.92088324 0.68645465 -1.4290823 -0.2894997 1.7143867 -1.1158834 -1.335528 -0.38012794
-0.059065875 1.3072917 -0.30258998 0.09305325 0.6458442 0.6938157 -1.3956504 0.0334242
1.5613302 -1.248447 -0.8332729 0.0337863 -0.2054153 1.7164013 0.017931625 -0.056766488
-0.82822645 -0.26708198 -0.16529888 1.0269262 -0.023816638 0.18857668 0.719263 0.7634231
-1.3724701 0.5080963 2.0065863 -1.6926848 -0.6805118 -0.62382406 -0.205369 1.2485645
-0.32117704 0.24487944 -0.7521179 -0.8925531 0.22020778 1.899221 -0.57312787 0.2807691
-0.81043506 -0.6703248 0.027618464 0.89601433 -0.61983716 0.08184348 0.24114783 0.30714715
-1.4697338 0.20527646 0.860286 -1.1047184

decoder.0.bias f4 [10]
00000000: a738 8b3e 9589 f8be 8cb8 73be 0bbf 4ebf
00000010: 2007 87bf 8824 abbe e603 0bbe caab 79be
00000020: edbc 02bf f994 36bd
0.2719166 -0.48542467 -0.23800868 -0.8076026 -1.0549049 -0.3342631 -0.13575706 -0.24381939
-0.5106953 -0.044575665

decoder.3.weight f4 [10, 10]
00000000: 4e95 ad3f 2e90 edbe d914 5e3f b0cb 7ebe
00000010: 777f e4be e471 013f 7f45 a7be 88c2 76be
00000020: 59b4 81be 3164 303f 1d63 a43f 668d adbe
00000030: 7b54 8e3f 9564 7cbe 93ca bf3e 8c4a cb3f
00000040: cc25 18bf 7649 06bf defe ffbe 3db4 7a3f
00000050: bd20 5bbe ab0f c83e 0c0e 41bd 8742 4c3f
00000060: da70 b6bd a889 8dbe 368a dcbe 343a 533f
00000070: fd46 393f 326e ae3a 8438 bdbe 8fdb 20be
00000080: e107 c3be 983d ab3e a48a e73e 9fe2 90be
00000090: 681e cfbc b960 483f 5ef4 853e 5b43 babe
000000a0: 48da dabd 0327 e4be 3c9c d3be 7a1e 483f
000000b0: d3a1 383f 3ad7 29bf 90b1 a53e c38d 7e3e
000000c0: 6918 933e 83f3 babd 91ba d7bd a2ba 563e
000000d0: cc10 e2bd 32c7 5f3e 17b5 9d3e 6b62 eabe
000000e0: 93cd 983e 3f98 3c3f 0d09 3a3e 67a9 d2be
000000f0: 2768 13bf a623 803f 79c7 84be 18ba 0a3f
00000100: 20c2 363f cec7 c7be 9f4f 283f cf4f 65be
00000110: 1ac6 6b3f bfef 10be 689a 823f fde2 7abe
00000120: 131a fb3e 8f2e 98be 0460 453e af3e 643f
00000130: b6a4 3ebe e69e 68bf 4124 babe 7a33 513f
00000140: a77b ad3f c650 c3be 8260 973f 6363 1ebf
00000150: a0dc f0be 6827 483f fb15 bfbe 28cc b0be
00000160: ccc8 52be d8e6 b73e 9f6f a43f e89f 03bf
00000170: 7961 7f3f 96ba b7be 94d8 c3bd 6832 5b3f
00000180: e781 30be db6b a9be 98d9 e1bd 5442 493f
1.3561189 -0.46399063 0.8675056 -0.24882388 -0.44628498 0.5056441 -0.3267021 -0.24097645
-0.25332907 0.6890288 1.2842747 -0.3389694 1.1119531 -0.24647744 0.3745924 1.5882125
-0.59432673 -0.5245584 -0.49999136 0.9793127 -0.21399207 0.39074454 -0.047132537 0.7978901
-0.089082435 -0.27644086 -0.43074197 0.82510686 0.72373945 0.0013307987 -0.3695718 -0.15708755
-0.3809195 0.3344543 0.45222962 -0.28297898 -0.025283054 0.7827259 0.26163 -0.36379513
-0.10686165 -0.44561014 -0.41330135 0.78171504 0.72121924 -0.66344035 0.32362032 0.24858765
0.2872956 -0.091284774 -0.105336316 0.20969632 -0.1103836 0.2185333 0.30802223 -0.45778212
0.2984434 0.7366981 0.18167515 -0.4114487 -0.575808 1.0010879 -0.25933436 0.54190207
0.7138996 -0.39019626 0.6574649 -0.22393726 0.92099154 -0.14153956 1.0203371 -0.24500652
0.4904333 -0.2972302 0.19274908 0.8915815 -0.1861752 -0.9086746 -0.36355785 0.8171917
1.3553361 -0.38147563 1.1826327 -0.618704 -0.47043324 0.7818513 -0.37321457 -0.3453076
-0.2058441 0.35918307 1.2846564 -0.5141587 0.99758106 -0.3588454 -0.095627934 0.8562379
-0.17237054 -0.330901 -0.11027831 0.78616834

decoder.3.bias f4 [10]
00000000: ca0d c7be 43fb f7be e0c6 e5be 43ba 0ebf
00000010: 958b 3ebf c267 1ebf 8a05 84be c486 0dbf
00000020: 81ec fabe 8f84 f3be
-0.38877708 -0.48433885 -0.44878292 -0.5575296 -0.74431735 -0.6187707 -0.25785476 -0.5528376
-0.49008563 -0.47562072

decoder.6.weight f4 [12, 10]
00000000: 1e66 123c d391 4d3e 4802 903e e5e6 673e
00000010: cc87 af3d 2455 663e a234 ab3e b68c 41bd
00000020: 1a0f 0dbe c5b5 08be 0720 353f 299c b83e
00000030: 7ff7 dabe 01f9 d8be 7c36 4bbe a71d 8ebe
00000040: a231 9e3c 167e 7f3f 6b16 6a3f a359 c13e
00000050: f8b1 6fbf 622f bbbe 4c1f 5a3e 18fb a63e
00000060: a0b9 8dbc 85c2 88be 102b 7ebe eda3 e7be
00000070: 9048 abbe 58f7 11bf 6e6b 3e3f 908c 503f
00000080: 8a0b d93e 1d50 19be d51d 4f3d 3421 fcbd
00000090: 9f7b 663c 4063 893f 8994 353f b649 443f
000000a0: 6e71 073f e056 c93e ca2d 99bc 216f 83be
000000b0: c2ee 883e 0d51 423e 990f 1cbe 177e 143f
000000c0: da6c 473f ef8a 283f 8f03 16bf a435 8fbf
000000d0: cc0a 51bd 99f6 cbbd b866 053f 51d8 343f
000000e0: 156c af3e 06b5 99bf e7c0 50bf 474e 51bf
000000f0: e009 babf 614f c8be 4cc2 753f 354e 733f
00000100: 21a4 373f 4930 5c3f a612 693f 56f8 01be
00000110: 506d 66bf e53c e9be 06b7 ee3e 7ea5 bdbe
00000120: 78a7 07be 75db ecbe ff3a ecbe 8b4f 68bf
00000130: 0704 7fbf de43 2abe f99e 6fbd fc66 993c
00000140: 89f3 703e de19 933e a770 91bd 3b70 0dbe
00000150: fe7b 9dbe 6054 0ebf a0a2 cbbe 5e20 303d
00000160: 511b 06be c8a8 0abe 1861 eabe 1615 93be
00000170: e4b2 5b3e 3f52 a93e 6cfa bd3e 6f24 403d
00000180: 05a1 abbe dac7 9abf 14d1 d2be f7db 29bf
00000190: b1bc a7be 357d efbe 9692 503b be08 6cbd
000001a0: 8242 883e 4a3b ac3e 570e fdbd 8d50 0fbf
000001b0: 344c 11bf 7983 02bf 018c 6ebf b598 febe
000001c0: 2bc2 013e 6fe2 093f 8441 8f3e 56b7 aa3e
000001d0: 3198 053f c9c4 32bf 4160 0abf b7b3 49be
0.008935479 0.20075159 0.2812674 0.22646673 0.08570823 0.22493416 0.33438593 -0.047253333
-0.13775292 -0.1335059 0.70751995 0.3605664 -0.4276695 -0.42377475 -0.19845003 -0.27756998
0.019310776 0.99801767 0.9144046 0.377637 -0.93630934 -0.36559588 0.21301001 0.32613444
-0.017300427 -0.26710907 -0.24821115 -0.45242253 -0.33453798 -0.5701804 0.74382675 0.8146448
0.42391616 -0.14971967 0.05056556 -0.123110205 0.0140675595 1.0733414 0.7092977 0.76674974
0.52907455 0.39324093 -0.018698592 -0.25670722 0.26744658 0.18976231 -0.15240325 0.580049
0.7790047 0.65836996 -0.5859918 -1.1188245 -0.051035687 -0.09959144 0.5210986 0.7064257
0.34262148 -1.2008369 -0.81544346 -0.81760067 -1.4534264 -0.3912306 0.959996 0.9504121
0.71734816 0.8601118 0.9104408 -0.12692389 -0.9001055 -0.4555427 0.4662401 -0.37040323
-0.13247478 -0.46261182 -0.4613876 -0.9074637 -0.9961552 -0.16627452 -0.058501218 0.018725865
0.23530401 0.28730673 -0.07101565 -0.13812344 -0.3075866 -0.55597496 -0.3977251 0.042999618
-0.13096358 -0.13540947 -0.45777202 -0.28727025 0.2145496 0.3307056 0.3710512 0.046909746
-0.33521286 -1.209224 -0.4117514 -0.66351265 -0.32761148 -0.46775213 0.0031825653 -0.057625525
0.2661324 0.33638984 -0.12356251 -0.55982286 -0.567569 -0.5098186 -0.9318238 -0.4972588
0.12671725 0.53861135 0.27979672 0.33343 0.5218535 -0.6983152 -0.5405312 -0.19697462

decoder.6.bias f4 [12]
00000000: fc15 2c3f b62e 04bf 8adb de3e 0e51 9c3e
00000010: d0f8 583e 766f 823e 40be a2be 781b 00be
00000020: 2944 173d 03f0 183e 0d3a 22be b1e4 b83e
0.67221045 -0.51633775 0.4352687 0.3053059 0.21188664 0.25475663 -0.31785774 -0.12510478
0.036930237 0.14935307 -0.15842457 0.36111978

mlp.0.weight f4 [10, 12]
00000000: 5102 f1be 5680 a63c 172d 71bf 6300 9f3e
00000010: 67d5 36be 7693 033f 25ec f63f 58c1 d5bf
00000020: 3e9b 83be 4376 f4bf 2265 573f 6f38 913f
00000030: 52ea 5fbd 2025 60be b977 b7bf f3a0 843f
00000040: c412 20bf 3e81 4e3f 08ab 0140 9a7e c0bf
00000050: 2d29 8dbf f8be 973d 0353 813e 826b 093f
00000060: 8295 ebbc 6896 9d3e 2c07 b0be 9708 563f
00000070: 8c04 e63e bb7c 2cc0 d63a 63bf e8e0 c13d
00000080: 7ada 263e 66b5 f2be bfed 04bf 3340 07bf
00000090: eac2 96be 11fb 5c3f e8b2 d1bf f6a3 f33e
000000a0: d953 913f e84b fc3e bec1 57bf 86bd 303f
000000b0: 99b2 e63e 272d 18bf 932f e83e f736 04c0
000000c0: 80db a0bc 0e33 953e 5771 453d 94a7 8f3f
000000d0: f051 963e 24f6 0ac0 21f4 00bf 9bcf e1bd
000000e0: dc8b 3d3e 2da2 1bbf 471e 44bf a1d4 25bf
000000f0: 4238 dbbe ceb0 a73f 2dfb ebbf d90e 0c3f
00000100: 95f4 8a3f 8798 6b3f ee33 7ebf e7a4 033f
00000110: 80b3 013f 42c8 ddbe 5eaa 673e 5dee 0ac0
00000120: a351 c7be fc69 693e e478 41bd ce10 293f
00000130: 73f2 1b3e 8bb2 b7bf 48fd 52bf 69d8 003e
00000140: 1c93 a83e cd3d f3bd 4434 7dbf 39b8 28bf
00000150: 5167 82bf d598 09be 729c 863f 58cd 0ac0
00000160: aede 223e 26c9 75bf 17e1 8a3e 2ddf e13e
00000170: 953f 0f3f 4abd dbbe 3f9d 8a3f 5cd3 32bd
00000180: 5ea4 113e adbc 07bf 7477 b2bf afd8 8f3f
00000190: dada 3cbf a606 653f be6a e93f 6279 d3bf
000001a0: 924b aabf 4a61 8d3d d9dd e33d 1950 1c3f
000001b0: a4d9 12bf 1b49 30be 75db 933e fb37 33c0
000001c0: 94e9 13bf 6710 97be f406 1c3f 29da 2e3f
000001d0: 0296 8a3f 69eb f43d bb3c 0a3f 94f9 98be
-0.4707208 0.020324867 -0.94209427 0.31054983 -0.17854844 0.5139688 1.9290816 -1.6699629
-0.25704378 -1.9098591 0.8413869 1.1345347 -0.054666825 -0.21889162 -1.4333411 1.0361618
-0.62528634 0.8066596 2.026064 -1.5038636 -1.1028191 0.07409471 0.25258645 0.5367967
-0.028757814 0.30778813 -0.34380472 0.8360686 0.44925344 -2.695113 -0.8876165 0.094667256
0.1629428 -0.4740402 -0.5192527 -0.52832335 -0.29445583 0.86320597 -1.6382723 0.4758603
1.1353713 0.49276662 -0.8428 0.6903919 0.45058134 -0.59443897 0.45348796 -2.0658548
-0.019635916 0.29140514 0.048203792 1.1223016 0.29359388 -2.1712732 -0.5037251 -0.11025926
0.18510383 -0.60794336 -0.766087 -0.6477757 -0.4281636 1.3100832 -1.8436028 0.54710156
1.085589 0.92029613 -0.9929799 0.51423496 0.5066452 -0.43316847 0.22623584 -2.1707985
-0.3892947 0.22794336 -0.04723443 0.66041267 0.15229206 -1.4351362 -0.82417727 0.12582554
0.32924736 -0.11877022 -0.98907876 -0.659061 -1.018778 -0.13437207 1.0516493 -2.1687832
0.15905258 -0.96010053 0.27124855 0.44115582 0.55956393 -0.42917854 1.0829238 -0.0436586
0.14222857 -0.5302227 -1.3942704 1.1238002 -0.7377144 0.8946327 1.82357 -1.6521418
-1.3304312 0.06903322 0.111262985 0.6105972 -0.57363343 -0.17215388 0.2887837 -2.8002918
-0.57778287 -0.29504701 0.6094811 0.68301636 1.0827029 0.119589634 0.5399892 -0.29877913

mlp.0.bias f4 [10]
00000000: af0a cfbe 0313 73bd e266 26bf 3b97 2ebf
00000010: 3428 0abf 47e0 63bf 4236 4e3e dfc5 69bf
00000020: 6c2b 92bf 4419 04bf
-0.40437838 -0.059344303 -0.65000737 -0.6819951 -0.53967595 -0.89014095 0.20137885 -0.9131755
-1.1419501 -0.5160105

mlp.3.weight f4 [8, 10]
00000000: ba17 49bf 1584 473e 42e8 563f 0a91 e93f
00000010: 2322 423f 4719 b73f fc8a 863e d939 82be
00000020: 1b3f 423d 62ce 04bf f052 c2be eb29 f6bc
00000030: bf6c a63e bb85 ba3f f3d2 6c3e d87b 8d3f
00000040: f493 8d3e 2def 653f f0ad 54bd 02df 503f
00000050: 05d1 42be a1a8 f5be 027f 50bc 39eb 65be
00000060: e868 9fbc 9498 8cbe be7b 3bbd d903 4cc0
00000070: 2bfd 9dbf fba7 87c0 2ce6 87bf 9b87 773c
00000080: 5a2f d13f bf32 2140 c50b b73f 22fd f03f
00000090: 7102 f33e 7858 11bf b5b1 33be 2f13 3cbf
000000a0: 8b34 ea3f fc39 fe3f 3124 4bbf c747 163f
000000b0: d987 4bbf bb17 873f 28a0 65bf 67d1 e4bf
000000c0: 5780 1540 56a7 02c0 9990 0c3e c23c 253d
000000d0: 4cb9 6c3f 9791 2c40 6254 543f 1d20 1040
000000e0: 0fa6 993e 4e5b c7be 6f94 da3e f026 d4be
000000f0: b532 513f d52b b23f c26a 643e 95f3 443f
00000100: 77c7 353e 0e28 2c3f e3ca a1bc df2d 52bf
00000110: 29dd d73f 1d01 9fbf 77f9 ec3f 5f75 e43f
00000120: 79c1 e9bf 5403 543f c44e dfbf 9eb0 003f
00000130: 575e 10c0 4bd6 1fc0 b457 ea3f 04ee 35c0
-0.7855183 0.19483979 0.8394815 1.8247387 0.7583334 1.4304589 0.26277912 -0.2543476
0.047423463 -0.51877415 -0.379539 -0.030049285 0.32504842 1.4572061 0.23127346 1.1053419
0.27651942 0.8981808 -0.051923692 0.8159028 -0.19025047 -0.47980216 -0.0127255935 -0.22453012
-0.019459203 -0.27460158 -0.045772307 -3.1877348 -1.2342886 -4.2392554 -1.0617118 0.015108014
1.6342576 2.5187223 1.4300467 1.882725 0.474628 -0.5677562 -0.17548259 -0.7346677
1.8297285 1.9861445 -0.793521 0.58703274 -0.7950416 1.0554117 -0.89697504 -1.7876405
2.3359582 -2.0414634 0.13727035 0.040341146 0.9247024 2.696386 0.8294126 2.25196
0.30009505 -0.38936847 0.4269137 -0.41435957 0.81718 1.3919626 0.2230635 0.76934177
0.17751871 0.6724862 -0.019750064 -0.82101244 1.6864368 -1.2422215 1.8513631 1.7848319
-1.8262168 0.8281758 -1.7445912 0.50269496 -2.255758 -2.4974544 1.8308015 -2.8426523

mlp.3.bias f4 [8]
00000000: ae4d 6ebe 6254 9dbc e0f5 ac3f 4b17 e5be
00000010: 660d 203f e1fc 50be 0e8c de3e 357c 853f
-0.2327182 -0.019205276 1.3512535 -0.44744334 0.62520444 -0.20408966 0.43466228 1.042853

mlp.6.weight f4 [5, 8]
00000000: df3c 163f c4c9 d53e 60a5 0d3f a77f 853e
00000010: 2502 56c0 5b5e 0c3f fdad afbe 75d8 31c0
00000020: 5292 48c0 baed 013f e551 64c0 4c89 14c0
00000030: 7a1c adc0 7f62 20c0 d650 c2c0 8f2a 3dc0
00000040: 2155 83c0 46be 92c0 e850 943f c980 47c0
00000050: 21be a93e 677d 72c0 8b85 c6bf 6d5c bd3e
00000060: 1824 eabf 5fc2 a6bf 6637 fa3e 875e c0bf
00000070: 7567 943f 900c ffbe 17c2 573f 4648 8d3f
00000080: 610b 2e3f 5a5d 103f 6774 f3bf abe7 8f3e
00000090: 6f96 0f3f 9a4e 233f 355b cfbc c6eb 9d3c
0.5868663 0.41755497 0.5533047 0.26073954 -3.343881 0.54831475 -0.3431243 -2.7788365
-3.1339307 0.50753367 -3.5674984 -2.32088 -5.409726 -2.5060117 -6.0723677 -2.9557226
-4.1041417 -4.5857267 1.1587191 -3.1172354 0.3315287 -3.788904 -1.5509504 0.36984578
-1.8292265 -1.3028067 0.4887039 -1.5028847 1.1594073 -0.49814272 0.8428053 1.1037681
0.6798611 0.56392443 -1.9019898 0.28106436 0.5608892 0.6379181 -0.025312046 0.019277465

mlp.6.bias f4 [5]
00000000: 6817 c83f d9f3 cc40 226e 6640 1534 8ec0
00000010: 7a40 9cc0
1.5632143 6.4047666 3.600472 -4.4438577 -4.8828707

exp_avg f4 [10, 12]
00000000: 9cb3 4a39 8850 d5b9 2a51 a839 da37 5138
00000010: 673e 3cb8 605b 2cb8 65a0 2539 c909 3cb8
00000020: 88f7 12b9 7d2b 8937 16dc 6b39 aee4 2d39
00000030: 8ab4 4039 4c60 83b9 883b c4b9 cb67 cd38
00000040: 4678 3e38 e52b 25b9 4159 fbb8 1a97 8038
00000050: c998 9837 e3a1 adb8 d3b6 13b9 2ffb bcb9
00000060: 7be6 3c36 ac89 9bb7 f841 7036 1553 1bb7
00000070: b4f4 29b7 5d5f 2db7 d4f5 95b6 eed6 93b6
00000080: 570a 57b7 9b8c 8637 3538 4b37 2bad b537
00000090: 0967 693a ad0f 813b 60aa 96b9 6d05 09ba
000000a0: 3009 823b 92c6 b13b c810 91b9 a40b 043b
000000b0: 92ac 703b a4d3 7fba 9e02 4bbb 386b fb39
000000c0: f89f 87b8 9122 5d38 6581 3638 98b1 24b8
000000d0: c3dd fbb7 e590 19b8 05b9 fb36 bf6b bfb8
000000e0: 20b1 b2b8 de96 b236 04b2 0eb7 1697 3038
000000f0: af4d 7fba f3e2 83bb 0acc 133b ba7c 0eba
00000100: 2770 c2bb dcc4 6939 eeeb 083b a69e 8fba
00000110: fa03 6bba a4b6 3e3a 0d6d c13a ec57 963b
00000120: 5738 eb39 9a39 94ba aca7 a038 50a7 1dba
00000130: f07c 4cba f8d2 7fb9 f872 2039 b8bc 56ba
00000140: 54bf 71ba 2fcb 523a 969d f539 266d 873a
00000150: 4800 60ba f0ee 223b 2e17 b8b9 f9bc 9a3a
00000160: 8725 d83a bbca 4f3a 89a8 12ba dfc2 e03a
00000170: 1653 0f3b 5957 d6ba 82c3 22ba e98c 0ebb
00000180: 0715 a33d 08c9 e53c 4dbc 34bb f34d 333b
00000190: 0e2b 9c3d 1f1a 893c 8ab8 7dbb 44bc d83c
000001a0: 16a1 e4bb b2a7 03bb 0a3c 47bb e520 b93c
000001b0: a60d a33d 99fc e73c 1cb5 17bb 329c 333b
000001c0: 92e4 9c3d 99a1 8a3c 78ed 79bb 2a6d d93c
000001d0: b6e9 dfbb 8961 fcba 4e71 41bb 9597 bc3c
0.00019331131 -0.00040686526 0.0003210393 4.98815e-05 -4.488081e-05 -4.1093095e-05 0.00015795378 -4.4831806e-05
-0.00014015858 1.6351923e-05 0.00022493335 0.00016583755 0.00018377803 -0.00025058014 -0.00037428387 9.794495e-05
4.5411543e-05 -0.00015751978 -0.000119852375 6.1316605e-05 1.8190958e-05 -8.2794366e-05 -0.0001408712 -0.000360453
2.814834e-06 -1.8541548e-05 3.5801186e-06 -9.258064e-06 -1.0130159e-05 -1.0333807e-05 -4.469164e-06 -4.4059625e-06
-1.2817406e-05 1.603952e-05 1.211283e-05 2.1657519e-05 0.0008903598 0.0039386363 -0.0002873717 -0.0005226944
0.0039683804 0.0054252828 -0.00027669058 0.002014854 0.0036723954 -0.0009759015 -0.0030976902 0.00047954335
-6.467098e-05 5.27227e-05 4.351269e-05 -3.9266044e-05 -3.0024798e-05 -3.6612986e-05 7.501922e-06 -9.127659e-05
-8.5206935e-05 5.3223766e-06 -8.505307e-06 4.210238e-05 -0.0009739054 -0.004024857 0.0022552037 -0.0005435456
-0.0059337798 0.00022293947 0.0020892578 -0.0010957315 -0.0008965131 0.00072751404 0.0014757231 0.004588118
0.0004486467 -0.001130867 7.660626e-05 -0.0006014006 -0.00078005996 -0.00024397287 0.00015301618 -0.00081915734
-0.00092219305 0.0008041141 0.00046847452 0.0010332211 -0.0008544964 0.0024861656 -0.00035112485 0.0011805586
0.0016490676 0.00079266325 -0.00055945717 0.001714792 0.0021869591 -0.0016352936 -0.00062089425 -0.002175147
0.07962995 0.02804996 -0.0027578056 0.0027359694 0.076253995 0.016736088 -0.003871473 0.02645696
-0.0069772108 -0.0020088968 -0.0030400776 0.022598693 0.079615876 0.02831869 -0.002314872 0.0027406332
0.07660784 0.016922759 -0.0038135927 0.026541311 -0.0068332804 -0.0019255142 -0.0029516998 0.023021499

exp_avg_sq f4 [10, 12]
00000000: 83a3 3f38 43d3 1438 ed4b fc37 96f9 df37
00000010: b343 ad38 7aa4 5636 c087 9b36 4f0b 0b38
00000020: cfb7 5138 1fa1 2636 21b4 f337 42d1 0837
00000030: 1729 8a39 aeee 1639 f001 8839 17cb a338
00000040: 8e0d d139 d9e2 6638 4a55 e73a 406a a039
00000050: 85c4 2e39 abbf 4938 c995 a73a d937 1839
00000060: 3c8e a436 a877 7336 7565 a435 d929 3436
00000070: eb71 0f37 9aef 3836 2290 2835 507b a236
00000080: 59fb 7a36 6cfb 1737 3253 4736 e902 0e37
00000090: 80af c939 2f30 2e3a 5e2c 173a 11d7 c73a
000000a0: d9ae 153b e592 073a b4b3 6838 b099 7239
000000b0: 6e8e e839 dfdb 2e39 9ec2 683b e70d 1c3a
000000c0: 1ffa 4738 b7ef 0039 0d9f 1538 8692 1e39
000000d0: 879a b939 81af 1538 dfa3 a736 e384 b538
000000e0: 007e 3838 b12d 4c39 f047 4739 bdef fd37
000000f0: 1b99 eb37 689c 1138 a9c0 0638 7f8d 0237
00000100: 851c 9538 1393 3f39 309b cd36 dfce e038
00000110: b0b0 3238 3a8e ca35 a72e a437 a482 5438
00000120: 6b56 343c 5c73 903c b9bd 113b 3614 5a3d
00000130: 3c14 fc3b e583 a13b 0f9a 923a 42d1 b33c
00000140: f804 3a3b 60cb d73e fd55 a03b a528 9f3c
00000150: 0ccb bd37 9b00 0738 ce37 8a37 3618 1d39
00000160: db28 b537 1d24 9437 523a 7536 211a bb37
00000170: 0b00 9437 52d3 c337 baa2 b638 2444 3e37
00000180: c216 6d3b f386 9b3b 45dd 1e3a d41e 673c
00000190: f0b0 323b 4074 ae3a 4ee3 9739 9b33 c03b
000001a0: 92a4 4b3a e9e8 e23d ba72 b03a 4bc0 a93b
000001b0: 3735 4a3a 5ac5 2d39 45d1 1838 d696 3b3b
000001c0: e0df 403a 0804 fe38 bb3c 0738 4cf5 1c39
000001d0: 194c c338 9460 0d38 a172 bc3a 4ee3 a538
4.569023e-05 3.5482703e-05 3.0076097e-05 2.6699894e-05 8.261893e-05 3.1984223e-06 4.6351634e-06 3.3150714e-05
5.0000668e-05 2.4829712e-06 2.9051736e-05 8.154953e-06 0.00026352025 0.0001439403 0.00025941385 7.810274e-05
0.00039873685 5.504754e-05 0.001764932 0.0003059674 0.00016667142 4.810064e-05 0.0012785728 0.00014516654
4.904139e-06 3.627947e-06 1.224848e-06 2.6846449e-06 8.549988e-06 2.7557603e-06 6.279462e-07 4.8423317e-06
3.7399207e-06 9.05884e-06 2.9701737e-06 8.464537e-06 0.00038468465 0.0006644753 0.0005766804 0.001524659
0.0022839813 0.00051717303 5.5480472e-05 0.00023136172 0.00044356607 0.00016675841 0.0035516392 0.00059529993
4.767824e-05 0.00012296332 3.5672496e-05 0.00015122638 0.00035401082 3.568782e-05 4.996065e-06 8.655505e-05
4.3986365e-05 0.00019471977 0.00019004918 3.0271587e-05 2.8085478e-05 3.471636e-05 3.212752e-05 7.781548e-06
7.110186e-05 0.00018269969 6.1275423e-06 0.00010719685 4.260306e-05 1.5091566e-06 1.9572048e-05 5.0666407e-05
0.011006932 0.017633133 0.0022238328 0.05324193 0.007692842 0.004929053 0.0011184829 0.021950368
0.002838431 0.4214735 0.004893063 0.01942856 2.2625107e-05 3.2187072e-05 1.6476868e-05 0.00014981706
2.1595906e-05 1.7659791e-05 3.6541792e-06 2.2304304e-05 1.7642995e-05 2.3344215e-05 8.7087465e-05 1.1340748e-05
0.0036176895 0.004746312 0.00060601934 0.014106471 0.0027266107 0.0013309792 0.0002897032 0.005865527
0.00077683583 0.1107958 0.0013461926 0.005180394 0.0007713618 0.00016572085 3.643452e-05 0.002862384
0.0007357579 0.00012112415 3.2243068e-05 0.000149687 9.312499e-05 3.3706965e-05 0.0014377424 7.910152e-05

exp_avg f4 [10]
00000000: 2dab a939 8c24 9c39 1e5f 4b37 1056 c939
00000010: 4e54 a338 228b 86bb 8a36 733a c453 04bb
00000020: fb3e 0f3d 310a 0f3d
0.00032361728 0.00029781868 1.2121889e-05 0.0003840183 7.788149e-05 -0.0041059414 0.00092778413 -0.002019153
0.034972172 0.03492183

exp_avg_sq f4 [10]
00000000: 1ddd 5f38 a835 5b39 5c30 a536 0840 3d3a
00000010: 1e69 b638 0cbd 2b38 7eb5 423c 5ed9 b737
00000020: a34f 573b 2a5e 5339
5.337327e-05 0.00020905456 4.923013e-06 0.0007219319 8.698016e-05 4.094564e-05 0.011884091 2.191652e-05
0.0032853864 0.00020157607

exp_avg f4 [10, 10]
00000000: 90fa 3f39 9d36 03b6 b6fc 53af 6b9c 14ad
00000010: 6d73 8937 9df5 fdba 351e a52d 6df5 7d9b
00000020: 32e2 a13c 35ec 8a3c 1585 bbba c2c1 693a
00000030: dbed 9cb8 9b2f cc39 433f 9138 38f5 d139
00000040: e1f9 12ba 315e 85b9 fb03 393c a8ce 00b5
00000050: 92d6 3eb7 dd23 9bb9 beb2 0c1a 7952 cb33
00000060: 24ee fb8c ffa0 05bb 7b9a 24aa 19ec 8b99
00000070: 29e3 8cb7 bfb1 8ab7 54ed 34b8 b995 3037
00000080: 1b59 952f c658 1ba9 70a9 c69e 8662 80b6
00000090: 2fb1 4fab ebda 349b 3776 8f3c e84e 2d3c
000000a0: e61d 20ba d116 d6af 11cc c535 37ee 44ba
000000b0: 1006 3d38 bb73 25b2 6bf0 a338 7942 27ba
000000c0: ecdc aeb2 b95a 1435 4e65 7d26 2b3d aba0
000000d0: 848c e926 9ed9 c0a2 5ab8 0c20 591a 5799
000000e0: 6259 d725 f5f6 0f20 a15f 5a24 6256 9423
000000f0: 6a01 75b2 3d5a c6b4 c80b 5caf 2c56 f839
00000100: 114c 1735 c4e7 1db8 60a2 7fb3 b3e6 9b35
00000110: f013 a037 8ed1 77b7 287d ce39 922f adb1
00000120: 6f11 1435 ab6e 843a 516b 63b7 9573 21b2
00000130: 53df 7ab4 969e 4537 f7f5 cf36 595f f0b3
00000140: 0400 0000 c02a 108f 0900 0000 0400 0000
00000150: f408 2a1d 0400 0000 290d 0080 0400 0080
00000160: 0a00 0000 1300 0000 90f1 cbb6 00c6 8e39
00000170: 9075 56b4 8dd9 86ba ec5f 88b7 d2fc 8d39
00000180: bfa3 97bb f843 cabb b9d2 5e30 7e70 83a6
0.00018308521 -1.955231e-06 -1.9280119e-10 -8.447558e-12 1.6385422e-05 -0.0019375567 1.8771743e-11 -2.1006971e-22
0.019761179 0.016958335 -0.0014306629 0.0008917117 -7.482964e-05 0.0003894538 6.925922e-05 0.0004004629
-0.0005606693 -0.00025437915 0.011292453 -4.798444e-07 -1.1374841e-05 -0.00029590624 2.9095708e-23 9.467926e-08
-3.8816e-31 -0.002039015 -1.4619722e-13 -1.4467622e-23 -1.679508e-05 -1.6533651e-05 -4.3136373e-05 1.05252775e-05
2.7166255e-10 -3.4493912e-14 -2.1034143e-20 -3.826167e-06 -7.3787065e-13 -1.4959987e-22 0.017512424 0.010577895
-0.0006107971 -3.8942585e-10 1.4737035e-06 -0.00075123034 4.5066758e-05 -9.630578e-09 7.817227e-05 -0.00063804496
-2.035673e-08 5.5266315e-07 8.79143e-16 -2.9009004e-19 1.620571e-15 -5.2272115e-18 1.1919458e-19 -1.112056e-23
3.7357123e-16 1.2194282e-19 4.7352216e-17 1.6082777e-17 -1.42611984e-08 -3.694603e-07 -2.0013069e-10 0.0004736645
5.6362575e-07 -3.7647565e-05 -5.9519493e-08 1.1615542e-06 1.908277e-05 -1.4771138e-05 0.0003938463 -5.040371e-09
5.5159666e-07 0.0010103782 -1.3555241e-05 -9.397714e-09 -2.3364309e-07 1.1779039e-05 6.197715e-06 -1.11932145e-07
6e-45 -7.1079815e-30 1.3e-44 6e-45 2.2503941e-21 6e-45 -4.721e-42 -6e-45
1.4e-44 2.7e-44 -6.077993e-06 0.00027231872 -1.9973072e-07 -0.0010288224 -1.625713e-05 0.00027081982
-0.0046276744 -0.0061726533 8.1062584e-10 -9.120442e-16

exp_avg_sq f4 [10, 10]
00000000: fcf1 5237 6cd0 8f37 c2d2 8538 3057 3d35
00000010: dfa3 2e32 d4d6 3036 efc5 9e3a f1c4 9734
00000020: 23d3 9f3c c0b0 e638 6641 a436 b5a6 7e35
00000030: b00f 0d38 27a1 1239 d7e9 3536 f151 2534
00000040: 63de 9c37 4d34 0638 2e89 943b 186c e933
00000050: faa2 8d34 25bb 0138 d286 1c38 ca23 4c34
00000060: cd00 0634 71b6 1637 21ab 0538 a477 7631
00000070: 25a2 3e37 b367 2639 a6b6 2a37 5c7b a039
00000080: 4041 b035 e2e9 1039 b47d 0232 4b1e cf36
00000090: d20e 2336 a4f5 4235 a84b a139 db70 2a38
000000a0: 7eb8 a537 c939 6832 394c 0737 7169 3338
000000b0: 2d89 2939 2d6f 5132 5d3c 0c3a 6720 9636
000000c0: 548c 1e36 de8b 2e35 f2a5 0736 aad1 3431
000000d0: 4276 df36 9c8b d834 33f5 cc32 34fe 1231
000000e0: 912b 9234 dfbf d533 ace2 ee32 9c70 ad32
000000f0: c09b e335 5b15 9f36 ffc6 1036 dfa7 b638
00000100: 5e33 ac34 ce9c 3336 fca5 4f3a d516 a234
00000110: fe57 343c e5fc 7f38 f6e1 0536 2c04 0d34
00000120: f77c 7e35 57d2 233b 0330 393a 670c 7c32
00000130: e494 b339 32f8 6639 859f c836 e4c5 a039
00000140: aa55 7a2a e6a7 ae2d 2b6c 942b 8842 6f27
00000150: 0ffe 2231 9928 a227 acc5 2128 5512 1027
00000160: 25af de2e be4c 562f b2e7 ba38 26a7 7539
00000170: a18f b537 034f c138 70d8 4d36 9c5c fd36
00000180: cd37 6a38 39d3 5037 e4eb 8735 fc29 3c33
1.2573317e-05 1.7143982e-05 6.381191e-05 7.053486e-07 1.0165393e-08 2.635109e-06 0.0012113432 2.8269235e-07
0.019509858 0.00011000177 4.8951943e-06 9.4864964e-07 3.363163e-05 0.00013983679 2.7107214e-06 1.5396633e-07
1.8700206e-05 3.19968e-05 0.0045329547 1.086957e-07 2.6381878e-07 3.093029e-05 3.731886e-05 1.9012e-07
1.2480014e-07 8.983175e-06 3.1869047e-05 3.586572e-09 1.1362635e-05 0.00015869625 1.0175316e-05 0.00030609488
1.3132012e-06 0.00013820038 7.5955775e-09 6.1726073e-06 2.429752e-06 7.2628086e-07 0.0003076468 4.0636263e-05
1.9755444e-05 1.3517316e-08 8.064374e-06 4.2775126e-05 0.00016168198 1.219068e-08 0.0005349571 4.4741205e-06
2.3625516e-06 6.5023585e-07 2.021316e-06 2.6312628e-09 6.659685e-06 4.0334714e-07 2.386023e-08 2.1390294e-09
2.7226318e-07 9.9534866e-08 2.7809925e-08 2.019106e-08 1.6958147e-06 4.7410554e-06 2.1573503e-06 8.709705e-05
3.207487e-07 2.676435e-06 0.0007921157 3.0191464e-07 0.011007307 6.1032264e-05 1.995007e-06 1.3133166e-07
9.480422e-07 0.0024997198 0.0007064344 1.46711505e-08 0.00034252473 0.00022026969 5.979035e-06 0.00030665018
2.2234181e-13 1.9856072e-11 1.0546055e-12 3.320398e-15 2.3718518e-09 4.500805e-15 8.980159e-15 1.9993952e-15
1.0126503e-10 1.9490451e-10 8.912328e-05 0.00023427288 2.1643764e-05 9.217674e-05 3.0673364e-06 7.5507687e-06
5.5841916e-05 1.2446945e-05 1.0126937e-06 4.3810346e-08

exp_avg f4 [10]
00000000: 9757 c63c 040f 743b b0eb ebba 7a0b 8d3c
00000010: 71d4 abb9 0f67 4b26 9eda c638 e54a ea39
00000020: 883c 161b 8e8f c9ba
0.024211688 0.0037240395 -0.0017999317 0.017217387 -0.00032773943 7.0569444e-16 9.482096e-05 0.0004468776
1.2427268e-22 -0.0015377866

exp_avg_sq f4 [10]
00000000: 4737 123b e9a9 bf39 3ce9 7a38 bc30 2039
00000010: c9ee a138 00ca 4836 758d aa3a 01d9 a538
00000020: 006a 9a2d 5e11 f638
0.002231078 0.00036556952 5.982186e-05 0.00015276944 7.7215554e-05 2.9919902e-06 0.0013012128 7.908233e-05
1.7554846e-11 0.00011733429

exp_avg f4 [6, 10]
00000000: 6147 b939 2129 07ba 6aa0 2eb7 8edf b439
00000010: 30a9 8138 59d1 b326 3fca ff37 428e 7bb9
00000020: 53dc 1298 ac78 853a 88b6 9739 af24 96b9
00000030: a9a3 21b7 240f 8a39 2e6c 5838 be4c 8626
00000040: 439a a237 a5fb a0b5 c390 1897 ecde 3f3a
00000050: 01d2 61ba 2e18 6f38 68b0 3637 5fc7 0dba
00000060: bc22 bdb7 8966 b9a6 87cb d235 5334 9bb8
00000070: f6bd af15 fe49 8b38 0e3f b938 f201 5b3a
00000080: 7bec 9836 d978 d7b8 ce36 e9b8 e080 27a6
00000090: 4a7a 7eb8 8495 b739 f1d4 6a18 272f 28ba
000000a0: c869 7a3a 2a51 80b9 402c 8bb7 daf6 293a
000000b0: 9fb4 2a38 644f ec26 85cf 0337 b956 a938
000000c0: 054b 1597 0cad 4e3a 8840 1dba 9202 0c39
000000d0: dd8d 3a37 4c76 dfb9 c73e acb7 8b21 88a6
000000e0: 5a6d 0b36 475c 8b38 76f1 6f16 083b 4636
0.0003533913 -0.000515597 -1.04085575e-05 0.00034498837 6.182713e-05 1.2477364e-15 3.0492547e-05 -0.0002399022
-1.8981293e-24 0.0010183058 0.0002893696 -0.0002863756 -9.634453e-06 0.00026332692 5.1599163e-05 9.318919e-16
1.9383739e-05 -1.1994167e-06 -4.9296564e-25 0.000731929 -0.0008614362 5.700456e-05 1.0889118e-05 -0.0005408432
-2.254673e-05 -1.2864746e-15 1.5705454e-06 -7.400722e-05 7.098164e-26 6.6418186e-05 8.833232e-05 0.0008354477
4.557483e-06 -0.000102745085 -0.00011120514 -5.811442e-16 -6.067221e-05 0.00035015878 3.03513e-24 -0.00064157177
0.0009552506 -0.00024474534 -1.6590697e-05 0.0006483622 4.0699375e-05 1.6397308e-15 7.856525e-06 8.074701e-05
-4.8239185e-25 0.00078840624 -0.00059986906 0.00013352398 1.1119494e-05 -0.00042622013 -2.053323e-05 -9.445988e-16
2.0776265e-06 6.6452245e-05 1.9382458e-25 2.953866e-06

exp_avg_sq f4 [6, 10]
00000000: 86ec ce38 5276 0737 9cae 3733 2562 b238
00000010: c719 fb34 4662 4b37 2110 3638 820b ed35
00000020: 09a8 a82e c8eb 0e36 d613 3938 2003 3936
00000030: 3782 3333 01a0 2d38 94b0 a634 6ab5 fd36
00000040: 8325 8d37 214c 3e35 91eb 4b2e 0603 5d35
00000050: 16fa a937 c1fd 2134 0027 9a34 b48a 8837
00000060: a8e3 9f34 a040 5537 698c 1b37 2379 0b35
00000070: 96ef 8430 a526 0633 d2f1 e039 aaba 8637
00000080: 5347 f933 4fd4 b439 469b 8535 736d 3736
00000090: 106b 3f39 75db b536 c8c1 af2e 4233 5136
000000a0: dc61 1b38 3098 0336 7720 1734 5091 1538
000000b0: d31d 1035 d7e7 9f37 ea18 7037 10c4 9335
000000c0: 999b 0730 f672 6d35 62f4 1437 ed40 3135
000000d0: ac76 8034 f32b 1137 3962 a934 8af5 e636
000000e0: 3845 4536 c1db 2435 c13b 3c30 4070 3c34
9.8669014e-05 8.074176e-06 4.2766814e-08 8.505982e-05 4.677115e-07 1.2122624e-05 4.3407203e-05 1.7661225e-06
7.6696045e-11 2.1296892e-06 4.412591e-05 2.7568967e-06 4.1795115e-08 4.139543e-05 3.1048387e-07 7.561107e-06
1.6825978e-05 7.08913e-07 4.636608e-11 8.2333315e-07 2.0262825e-05 1.5086609e-07 2.8713112e-07 1.6277052e-05
2.97817e-07 1.2710836e-05 9.271412e-06 5.195781e-07 9.672358e-10 3.1234453e-08 0.0004290478 1.6060967e-05
1.160794e-07 0.00034490458 9.954463e-07 2.7332833e-06 0.00018255063 5.4197685e-06 7.992501e-11 3.1173263e-06
3.704602e-05 1.9609106e-06 1.4074782e-07 3.56597e-05 5.368758e-07 1.9062236e-05 1.43109155e-05 1.1009415e-06
4.933383e-10 8.845667e-07 8.878387e-06 6.603212e-07 2.3928203e-07 8.652906e-06 3.155017e-07 6.8831187e-06
2.9395578e-06 6.1414545e-07 6.8478917e-10 1.7549701e-07

exp_avg f4 [6]
00000000: acfb 0c3b 590f f73a 20fb 56bb a05d 55b8
00000010: d787 903b 523c 15bb
0.0021512313 0.0018849178 -0.003280349 -5.0870352e-05 0.0044107246 -0.002277155

exp_avg_sq f4 [6]
00000000: c1c1 0b39 7d11 b238 b710 0e39 9082 7038
00000010: 09a9 4939 cc2a bb38
0.00013328252 8.490959e-05 0.00013548402 5.7342055e-05 0.00019231824 8.9248264e-05

exp_avg f4 [10, 6]
00000000: 3989 ce3a 47ae 433a 6d76 b03a 1ed2 20bb
00000010: 8aa0 1bb8 1633 4e3a 4c92 e0b7 058a e6b9
00000020: c9f6 183a fd6d 2ab8 efc6 26ba 1547 db39
00000030: 416f 72b8 aa77 d8b7 aaf3 b9b7 da0d f637
00000040: a0a1 81b7 1dff 8eb6 6986 9fb8 2c14 92b9
00000050: b5db 7739 e4b9 ddb7 b2fc abb9 0aae 1d39
00000060: 9b5f 0438 8e5c 1439 c895 53b8 3174 87b8
00000070: 5684 0139 0772 8eb7 3c25 91b8 2aa5 0fb8
00000080: df61 e9b7 2b5d 7538 0369 a7b7 bde2 32b7
00000090: 813d 47b9 ea1f b6b9 abba fc39 a85e 45b9
000000a0: fdec 1fba 19ed c139 7b47 0eb8 331b 42b9
000000b0: e94b 5a39 3d9d 3eb8 64f2 8cb9 8bb3 fb38
000000c0: 1b88 e739 f0d9 823a 2ee9 b8ba f8af 143a
000000d0: d2c7 ef3a 7591 83ba 17a6 8bb7 be7d 2cb7
000000e0: a0e5 a836 afd9 0236 e9a6 62b7 0453 da36
0.0015757448 0.0007464629 0.0013463028 -0.0024539302 -3.7104393e-05 0.0007865889 -2.6771006e-05 -0.0004397185
0.00058351137 -4.0633593e-05 -0.0006362041 0.00041823895 -5.780091e-05 -2.580493e-05 -2.2167183e-05 2.9331935e-05
-1.545326e-05 -4.261629e-06 -7.606747e-05 -0.0002786232 0.00023637603 -2.6431815e-05 -0.00032803934 0.00015037521
3.1560292e-05 0.00014148859 -5.0445815e-05 -6.458944e-05 0.00012351698 -1.6980817e-05 -6.921074e-05 -3.4247678e-05
-2.782134e-05 5.849932e-05 -1.9956851e-05 -1.0662418e-05 -0.00019001031 -0.00034737523 0.00048204264 -0.00018822646
-0.00061006827 0.0003698848 -3.392201e-05 -0.00018511414 0.00020818379 -4.544597e-05 -0.00026883476 0.00012002055
0.0004416116 0.0009983163 -0.0014107579 0.00056719733 0.0018293804 -0.0010037856 -1.6647433e-05 -1.02812755e-05
5.033522e-06 1.9498218e-06 -1.35095115e-05 6.5065706e-06

exp_avg_sq f4 [10, 6]
00000000: d09b ce36 4719 f035 dc54 1038 5873 0339
00000010: 8ceb ce36 5a46 8c37 51ea 9135 55cf 8636
00000020: 19e6 bf36 68fc 0635 1b4a a636 1fa0 1e36
00000030: 1c36 8635 92f3 7935 73ee ac34 0023 df35
00000040: ab1c e332 93cb 5b33 1f59 ca33 b2c3 d934
00000050: 9c83 eb34 f0bd 0233 16cd 3335 63b5 d334
00000060: 3bf4 8439 221a 1639 eb2a 1439 128e fd37
00000070: c188 9d39 dcae aa38 8a27 1f37 e317 7a36
00000080: 0002 6636 a35f 7336 a54e e836 d93c 9035
00000090: 1577 2f36 4757 3a36 2598 4b35 b2f2 8636
000000a0: 84de 2f36 d71b e135 6e57 6b35 0b4b 0635
000000b0: 3197 b535 c601 7d34 ac24 ce35 81fa 8c35
000000c0: 4e10 5e3a 50c7 b339 f5c2 da3a 6461 e139
000000d0: 6ccf 913a 8363 623a d785 0136 ef31 4135
000000e0: 435a 0435 9ce8 0135 12d4 a835 4a5d 3934
6.1574174e-06 1.788875e-06 3.4411307e-05 0.00012536102 6.1666997e-06 1.672206e-05 1.0871537e-06 4.017648e-06
5.7190305e-06 5.028619e-07 4.9558125e-06 2.3637037e-06 9.999526e-07 9.311417e-07 3.221099e-07 1.6624981e-06
2.6439315e-08 5.117506e-08 9.422569e-08 4.0561787e-07 4.386792e-07 3.044073e-08 6.6981136e-07 3.943379e-07
0.00025358968 0.0001431485 0.00014130368 3.0226107e-05 0.00030047263 8.138802e-05 9.486344e-06 3.7266807e-06
3.4273835e-06 3.626549e-06 6.923294e-06 1.0746545e-06 2.6146347e-06 2.7766962e-06 7.584479e-07 4.0217647e-06
2.6206553e-06 1.6771909e-06 8.767155e-07 5.002809e-07 1.3529553e-06 2.3563106e-07 1.5358869e-06 1.0503719e-06
0.00084710575 0.0003429004 0.0016690182 0.00042987906 0.0011124439 0.0008636044 1.9300403e-06 7.1970766e-07
4.930518e-07 4.8394736e-07 1.2578696e-06 1.7263406e-07

exp_avg f4 [10]
00000000: 4107 1d3b 8597 2c3a c0b2 46b8 002f 5f39
00000010: 7d41 f4b7 d90b 8ab8 80b9 093a 3cc1 9439
00000020: b802 fbba a83d 53b6
0.0023960622 0.00065838575 -4.7373353e-05 0.00021284446 -2.9117562e-05 -6.5825596e-05 0.0005253777 0.0002837273
-0.001915059 -3.1477339e-06

exp_avg_sq f4 [10]
00000000: 5c8e a138 6228 0437 557a c736 bf3a 6535
00000010: 7716 0536 ab6c de36 add0 9635 c93e ff35
00000020: e975 4636 a986 2635
7.703595e-05 7.8772155e-06 5.9449035e-06 8.5394635e-07 1.983162e-06 6.628766e-06 1.1236604e-06 1.9017253e-06
2.9572932e-06 6.2035775e-07

exp_avg f4 [10, 10]
00000000: 7543 39b5 2071 1329 b55f 89b6 1fe5 1133
00000010: 69bc 9a15 4526 4ab6 04d2 3d29 d02e 102a
00000020: e61f b72a 6294 a8b7 008b 3237 7c0c 6528
00000030: 429e 5736 0e22 ff32 f1a4 dc3a 14dc dd33
00000040: 2ce6 31b2 3a4c ed28 996b 8c21 5104 8db4
00000050: e598 0f90 f0dd 683a dd46 dab1 5417 ec33
00000060: 3e14 8435 3823 00b2 ae02 6239 1bda 35b7
00000070: 0d2a bcb9 ee92 a5b6 3655 f631 0594 b039
00000080: f5cf 95b1 7e18 d537 cd0b 92ba b87f 12a4
00000090: 0aa0 c239 6ab5 e837 de18 ea36 490c 6130
000000a0: 803b d121 bba4 9539 1c6c 6f2f b668 88b7
000000b0: 31be abb6 d3fb ac1c af2b ed39 87ce 43b8
000000c0: 13c3 ff36 1f47 5db4 8997 38b1 3a16 c637
000000d0: a3e3 06a4 2ec3 8d37 aeed 2ebb f7ba 2e32
000000e0: 27f8 7837 a8d6 cdb6 5aa3 6336 ed1a eeb3
000000f0: 9421 7b32 f727 9e35 04cf d02f 8b03 dbb5
00000100: 94b7 47b6 1776 dc26 10eb 8fb5 6a03 96ba
00000110: f2b9 16ba c85b 57b4 176f 77b5 1803 b733
00000120: 33b2 10b8 7e42 ca33 c550 923a aa72 60b6
00000130: b852 8a33 200e 73a7 fc52 e622 4809 21b5
00000140: 1595 5d39 093b 5d33 dcaf 38b7 be4d be33
00000150: fe7a 5e23 a6ae 50b6 dbf0 94a8 cdae 1ca8
00000160: 7968 6e10 eb24 56b8 7fac 1739 0a55 7233
00000170: 980c f9b2 382b bd33 5e5a 9526 e576 5fb5
00000180: 63a0 b028 e97b 0329 4a78 2498 7493 cdb4
-6.9016033e-07 3.2738677e-14 -4.09406e-06 3.3968828e-08 6.2497363e-26 -3.0122621e-06 4.214859e-14 1.280601e-13
3.2529464e-13 -2.0096257e-05 1.064199e-05 1.2714761e-14 3.2129615e-06 2.9701393e-08 0.0016833824 1.03311464e-07
-1.0355091e-08 2.6345344e-14 9.51525e-19 -2.6266437e-07 -2.8319563e-29 0.0008883169 -6.3526913e-09 1.099385e-07
9.840658e-07 -7.458588e-09 0.00021554038 -1.0839222e-05 -0.00035889485 -4.934488e-06 7.1692297e-09 0.0003367962
-4.3601127e-09 2.5402984e-05 -0.0011142433 -3.1766885e-17 0.00037121802 2.7741033e-05 6.9766384e-06 8.187198e-10
1.417814e-18 0.00028542228 2.1775332e-10 -1.6261223e-05 -5.1183383e-06 1.14471e-21 0.0004523671 -4.6683967e-05
7.622302e-06 -2.0608103e-07 -2.6861662e-09 2.361379e-05 -2.9249434e-17 1.6899397e-05 -0.002669196 1.0170644e-08
1.4839729e-05 -6.1344654e-06 3.392072e-06 -1.10876364e-07 1.4617758e-08 1.1783549e-06 3.7982073e-10 -1.6317803e-06
-2.9760167e-06 1.5297575e-15 -1.0722742e-06 -0.0011445109 -0.0005749754 -2.0056825e-07 -9.217633e-07 8.522164e-08
-3.4498236e-05 9.418453e-08 0.0011162987 -3.3445344e-06 6.441172e-08 -3.3730682e-15 6.242949e-18 -5.999068e-07
0.0002113174 5.1509264e-08 -1.10082e-05 8.861706e-08 1.2060689e-17 -3.1096074e-06 -1.6535755e-14 -8.6976435e-15
4.7017707e-29 -5.105596e-05 0.00014464742 5.642236e-08 -2.8993142e-08 8.80886e-08 1.0363446e-15 -8.324699e-07
1.9609482e-14 2.9195318e-14 -2.1257234e-24 -3.8291512e-07

exp_avg_sq f4 [10, 10]
00000000: 70fa 4d32 bb3a 2727 f28e 1c34 e759 8230
00000010: ad64 3832 054e 7b35 df8b 9430 6c84 4430
00000020: 096f 1731 b775 a135 629c fd31 8ab1 4d39
00000030: f329 2033 174d 8334 2bc5 2e39 df5f e434
00000040: 6115 e538 222d 8f34 9488 4d39 4afe 1035
00000050: 845d e12a a22a 8336 2ecb f226 85c8 6d32
00000060: 4c89 3b33 09ff 7431 86b2 b036 e922 9933
00000070: 7906 9334 f47f 0b2f 55bb a534 6777 6436
00000080: f769 9833 4b21 6436 d447 e934 c4ce 5c31
00000090: 8b78 a036 091e 1135 d30d 1f33 f385 a233
000000a0: 7382 672e e754 0e35 2759 f732 1bef 3532
000000b0: b778 5a38 069a 303a 67bc 8336 bf4b 7e33
000000c0: 1699 7935 6877 113a 6337 e729 7955 3a35
000000d0: cec6 5d17 d47a 2b36 b586 4636 c499 002b
000000e0: 25b1 9837 b4d8 3034 c3b1 4135 3fd1 c32e
000000f0: 630a 882d 9abe fc31 dc41 b530 183f 4435
00000100: e2e9 4b35 4dc1 1935 bf8c d034 aa90 af34
00000110: 1973 d733 07b0 8231 446f 2b33 761e 3c37
00000120: 694f ac33 aaa1 3e33 cd7b 0536 ba0f fb34
00000130: 5aa5 ba38 2117 9035 2b60 5435 86ac 0935
00000140: c663 e732 d4f7 e02c ae1e 6433 5bbe 062d
00000150: 6899 d130 ff8d 4234 3f81 b32f 01b8 1a2c
00000160: 31f2 1529 5f4b df34 89c3 a034 cebe 6a2d
00000170: fd89 8d32 9281 c62e 698c 1f33 7e1f 5933
00000180: 4099 a930 bb79 5c2e 64d0 0530 c00a 8333
1.1989513e-08 2.3207743e-15 1.4580635e-07 9.484297e-10 1.0733101e-08 9.361832e-07 1.0808171e-09 7.149257e-10
2.2036508e-09 1.2029694e-06 7.3810478e-09 0.00019616462 3.7291056e-08 2.4456742e-07 0.00016667384 4.2538065e-07
0.00010923553 2.6668664e-07 0.00019601203 5.401422e-07 4.0032918e-13 3.9090673e-06 1.6847195e-15 1.38408085e-08
4.36642e-08 3.5651644e-09 5.2659916e-06 7.130968e-08 2.7385593e-07 1.2687434e-10 3.0869947e-07 3.4044149e-06
7.0973265e-08 3.3994027e-06 4.3451894e-07 3.2131746e-09 4.7824046e-06 5.4060416e-07 3.7032645e-08 7.568078e-08
5.263918e-11 5.302267e-07 2.8795126e-08 1.0589953e-08 5.2087675e-05 0.00067368185 3.926037e-06 5.9207874e-08
9.29825e-07 0.0005549104 1.0268069e-13 6.941478e-07 7.165988e-25 2.555248e-06 2.958271e-06 4.568813e-13
1.8202301e-05 1.6470113e-07 7.215678e-07 8.904743e-11 1.5466023e-11 7.355834e-09 1.3188202e-09 7.3107503e-07
7.596374e-07 5.727823e-07 3.8845425e-07 3.2701547e-07 1.0032654e-07 3.80351e-09 3.9915236e-08 1.12127655e-05
8.023819e-08 4.4384855e-08 1.9890606e-06 4.6763836e-07 8.89997e-05 1.0735567e-06 7.9116097e-07 5.128753e-07
2.6937311e-08 6.3939774e-12 5.311329e-08 7.6592855e-12 1.5250352e-09 1.8119316e-07 3.2651745e-10 2.198686e-12
3.3294714e-14 4.1591827e-07 2.9944593e-07 1.3343727e-11 1.647731e-08 9.027014e-11 3.7147775e-08 5.055289e-08
1.2339925e-09 5.0130327e-11 4.868126e-10 6.102118e-08

exp_avg f4 [10]
00000000: b8f0 89b6 2d2a 8d39 57d6 3d39 8a25 ac38
00000010: 7b20 1539 11e6 d5b9 057d 3bba 9090 1b39
00000020: edf4 073a fed2 bd39
-4.1109415e-06 0.0002692504 0.00018104292 8.208591e-05 0.00014221847 -0.0004079794 -0.0007152113 0.00014835806
0.0005186338 0.0003620609

exp_avg_sq f4 [10]
00000000: 732a b534 f435 5c35 1ffd 7536 1eb1 8136
00000010: fc79 9634 3975 f234 f1b6 5d35 59ab 4435
00000020: 7ecc 8e34 49f7 ce36
3.3744763e-07 8.20349e-07 3.665518e-06 3.8651187e-06 2.8028433e-07 4.5161303e-07 8.259513e-07 7.3265034e-07
2.659835e-07 6.168066e-06

exp_avg f4 [12, 10]
00000000: 2fcb b834 8ae4 f336 2897 d6b6 9269 7ab7
00000010: 4ef7 9fb7 ccf3 04b6 3832 0f37 5f19 9936
00000020: 80dc 8eb5 9419 02b6 8f97 9cb5 7ebf d337
00000030: ce29 a2b7 8e58 1537 fab9 60b6 e9fc df36
00000040: 2b59 c7b6 3a01 4037 dcff 0d37 3ccf d036
00000050: 5cea 17b5 3dbf dd38 03ce 23b8 405e e638
00000060: dd20 91b6 35c2 2f38 463a a737 9528 5b38
00000070: e7ca 6fb7 be9e 13b7 8a7d a0b6 3715 2f38
00000080: d58d ba37 c168 b8b8 fa45 7db8 b4e5 38b7
00000090: 1453 d0b6 9163 9737 841b b7b5 4ec2 2036
000000a0: 2743 6ab5 3432 1938 a04f 1bb8 2046 23b5
000000b0: 10ef 69b7 2fba dc36 472c 80b6 b172 8f37
000000c0: fa63 f436 8c87 ad36 df8b 2537 8cf4 76b9
000000d0: d0c9 5038 fbc4 5bb9 c0d0 7b35 9125 c0b8
000000e0: f080 1db7 508e e6b8 a72c a137 68e5 a336
000000f0: e782 1936 e89e acb9 4f30 ef38 af40 84b9
00000100: 705e 2438 dfe2 f6b8 d099 adb7 5c43 26b9
00000110: d23b 1db6 e0bc 99b6 c104 0835 b0f0 6039
00000120: 6f7e b4b8 0e99 5e39 e688 bfb6 141a b738
00000130: 665a a237 2145 db38 3e45 6936 bd86 2636
00000140: 6baa 83b5 50f6 9138 2f2a 37b8 80e4 d538
00000150: 1f1c b737 4c85 1438 4077 8033 10e5 0a38
00000160: bc0d f035 4ffd 1d36 6d95 2436 70e0 5f39
00000170: 900a feb7 3052 5039 2a73 c0b7 5477 b338
00000180: dab5 fe37 92f6 dc38 e2b8 ceb5 dfd2 05b6
00000190: 70f7 7c36 f609 66b9 304d cd37 c207 30b9
000001a0: 23ae d137 30e9 a5b8 d26b 62b7 2c8a dbb8
000001b0: c2ef 0f37 2bba b635 b835 2336 c1f9 61b9
000001c0: f2e9 8c38 f8c9 47b9 7a4a 1837 7ffb b1b8
000001d0: a0d4 c1b6 2c5b d8b8 6349 4db7 d106 2cb7
3.4420506e-07 7.26857e-06 -6.395294e-06 -1.4925741e-05 -1.9069437e-05 -1.9811441e-06 8.535157e-06 4.562709e-06
-1.0643998e-06 -1.9386398e-06 -1.1667015e-06 2.524233e-05 -1.9331372e-05 8.90171e-06 -3.3486854e-06 6.6753605e-06
-5.9410427e-06 1.1444377e-05 8.463827e-06 6.2230083e-06 -5.659292e-07 0.00010573722 -3.905409e-05 0.0001098481
-4.3251625e-06 4.190412e-05 1.9935087e-05 5.2251464e-05 -1.4292752e-05 -8.798843e-06 -4.7829863e-06 4.174301e-05
2.2238974e-05 -8.793316e-05 -6.038507e-05 -1.1020737e-05 -6.2085546e-06 1.8046967e-05 -1.3642571e-06 2.3954958e-06
-8.726951e-07 3.6524798e-05 -3.7029036e-05 -6.082428e-07 -1.3943543e-05 6.5781855e-06 -3.819852e-06 1.7100336e-05
7.2834055e-06 5.1715815e-06 9.867333e-06 -0.00023551489 4.9779017e-05 -0.00020958848 9.380856e-07 -9.162271e-05
-9.38795e-06 -0.000109937624 1.9213488e-05 4.884485e-06 2.2874972e-06 -0.0003292479 0.00011405406 -0.00025225195
3.91886e-05 -0.00011772452 -2.0694832e-05 -0.00015856087 -2.3429643e-06 -4.5817433e-06 5.0670866e-07 0.00021451968
-8.606619e-05 0.00021228587 -5.7081807e-06 8.7309774e-05 1.9354e-05 0.0001045561 3.476001e-06 2.4814356e-06
-9.809859e-07 6.960018e-05 -4.3669887e-05 0.00010199193 2.1828395e-05 3.5410092e-05 5.982156e-08 3.3115095e-05
1.7885391e-06 2.3542268e-06 2.4524882e-06 0.00021350547 -3.0284078e-05 0.00019867043 -2.2941811e-05 8.557612e-05
3.036384e-05 0.00010536345 -1.5402004e-06 -1.9941288e-06 3.7694954e-06 -0.0002193822 2.4473848e-05 -0.00016787558
2.499583e-05 -7.911248e-05 -1.3495754e-05 -0.0001046847 8.579287e-06 1.3614239e-06 2.4320161e-06 -0.00021550713
6.719296e-05 -0.00019053358 9.077246e-06 -8.4868625e-05 -5.776601e-06 -0.00010316665 -1.2236039e-05 -1.0253586e-05
