checkpoint/AE_ckpt_train_model4.pt (torch, 30218 bytes, 54 tensors)

linear1.weight f4 [10, 12]
00000000: 5fbf ec3e cf21 91be cf1a 843e ae6c 133e
00000010: e09d 2dbf a570 e1bd c803 883f 02a0 e73d
00000020: 6342 6c3e b797 e13e 47b8 683f 0ed1 0a3e
00000030: 24ae df3d 5112 8bbd a678 c3be e266 8e3e
00000040: cba7 dbbe 3492 7a3e 3273 a73f ea46 72bf
00000050: 2e6b 3ebf 2331 403f 53a6 cb3d 81a1 363f
00000060: 3d58 a43e 65a3 143f 3609 823e a037 d43d
00000070: 2cc9 2bbd ef8c 77bf 0793 54bf 9813 80bd
00000080: a40d 7bbd 59a2 7d3f 8aca 87bf 876e 413f
00000090: 2ad1 2b3f 03e5 de3c 5f05 893e 4ec9 c3bc
000000a0: 9251 21bf 7cb4 b1bd 11d7 763f 8243 5e3b
000000b0: 3a09 02bf b01f a93e 773c 1c3d c43e 283f
000000c0: 1596 c8be 2757 0abf 7d7e f9be fd98 643f
000000d0: 7f88 80be 4af3 093f 42c4 1a3f 650d 96bc
000000e0: 10fe 993d bee0 24be 0a62 13bf 1624 863e
000000f0: cbcc d83c 58bc 4ebe 8f95 80be 4204 9f3e
00000100: 4352 a83e a9cc 0ebf 6fcf 1f3f b760 33bd
00000110: 439e 87be 1cce 79bf b8cb 633e ed4d 673f
00000120: 7c87 5ebe 6d41 773f 6fe0 5dbf 7499 a53e
00000130: 1847 ad3e 3222 d2be e611 7cbf d3ec e73d
00000140: fa67 d03e b835 84bf b5dc 5c3f 293c aabd
00000150: 3920 8bbf ca21 2ebd 16a2 053f 0700 b1bf
00000160: 2684 f8bd 2284 0b3f f6d5 0e3f 044a c83e
00000170: 6027 ca3e 4ded 28be a9dd 3c3e 7688 29be
00000180: 8482 233e 0642 87be f6f8 34bf 0bf9 d53d
00000190: cb49 da3e f4c1 873e 4b62 7c3f 7450 34bf
000001a0: 5cd5 5dbd cb5b 8a3e dc36 b23a a594 8a3e
000001b0: 0e82 abbd e387 b73d 6bfb d43d 72fb 663f
000001c0: 7543 5a3e 6a7e aebf 5361 593e f6a1 42bf
000001d0: 97ed 323e 8771 ec3f 5473 1ebf 64b2 923e
0.46239755 -0.28346106 0.25801703 0.14396927 -0.67819023 -0.11007813 1.0626154 0.11309816
0.230722 0.44061062 0.90906185 0.1355631 0.109218866 -0.06790603 -0.38177985 0.27812868
-0.42901453 0.24469835 1.308203 -0.94639456 -0.74382293 0.75074977 0.09943833 0.71340185
0.3209857 0.5806182 0.25397652 0.10362172 -0.0419399 -0.9669942 -0.83036846 -0.06253737
-0.061292306 0.9907585 -1.0608685 0.75559276 0.67116034 0.02720881 0.2676191 -0.0238997
-0.6301509 -0.08677003 0.96421915 0.003391475 -0.5079533 0.33031988 0.0381436 0.6572077
-0.39177004 -0.54039234 -0.48729315 0.8929594 -0.25104138 0.53886855 0.60455716 -0.018316934
0.07519162 -0.16101357 -0.5757147 0.26199406 0.02646484 -0.20189035 -0.25114104 0.31057936
0.3287526 -0.55781037 0.62425894 -0.043793406 -0.26487932 -0.9758012 0.22245681 0.9035328
-0.2173137 0.96584207 -0.86670583 0.32343638 0.33843303 -0.41041714 -0.9846481 0.113244675
0.40704328 -1.0328894 0.8627427 -0.08312256 -1.0869209 -0.042512693 0.5220045 -1.3828133
-0.1213458 0.54498494 0.5579523 0.3911897 0.39483166 -0.16496773 0.18443932 -0.16555962
0.15967757 -0.2641756 -0.70692384 0.10447892 0.42634425 0.26515162 0.98587483 -0.7043526
-0.054158553 0.27023157 0.0013596672 0.27066532 -0.08374415 0.08961465 0.10399517 0.90227425
0.21314795 -1.3632329 0.21228532 -0.7602838 0.17473446 1.8472146 -0.61894727 0.28651726

linear1.bias f4 [10]
00000000: c72a 7bbd 5a54 4dbf 47fb da3e ef22 7a3d
00000010: abc9 12be 1dc9 6dbd 4a30 863e 6858 7cbe
00000020: 65f7 73be 01d1 85bb
-0.061320093 -0.80206835 0.42769834 0.06106847 -0.14334743 -0.058053125 0.26208717 -0.246431
-0.23824842 -0.004083753

linear2.weight f4 [8, 10]
00000000: 1e20 91bc 4e77 ad3f d3e6 02c0 0975 d2be
00000010: a74a 613e b7ee a93e 8881 4abe 665c 52bf
00000020: ae28 c93e 9e5a 6abf 0870 d3be 9e37 d63e
00000030: 0237 2abf 315b 3b3f ac51 6c3f 3880 253d
00000040: 2c00 fa3e 97ff 313e d68a ddbe f726 f3be
00000050: 5547 223f 27bd 1ebf fe44 26bd cb7f 013d
00000060: 88e1 a6be de23 793f 32c9 eabd c948 a83f
00000070: 3393 353f eb36 45bf 3e75 6abe 7aff 0bbe
00000080: daf5 a8bd b901 573e 9eb4 73be bb19 b7be
00000090: cb64 8bbd f2db d9bd 206b 253c a03d b63c
000000a0: 4d9c ce3d 0d3e 0e40 975e b0be e5b6 b73e
000000b0: 95eb 203e 04ac 97be 8fb6 a7be db17 f1be
000000c0: 09b5 cc3e 3c9c 95bd 146b 033f e8af 1b3f
000000d0: fda8 d7bc 8efa 3f3f 67ab 81be f9be 873e
000000e0: f97f 25bf 3cab b8bd 523f 113f a68a 17be
000000f0: 322c 0ac0 8af0 7d3e 1660 41bf a4c5 3ebd
00000100: 7f25 f13e d1e0 a13e 0546 8e3f ef18 e73d
00000110: e545 41bf 2751 963e 16cd 10bf c304 e23f
00000120: ebd4 00c0 50c0 14be 00b4 263f d0df 513f
00000130: e8fd 4b3d ceef 7bbf 7839 303e ee9c d4bf
-0.01771551 1.3552034 -2.0453384 -0.41104916 0.22001134 0.33189937 -0.19775975 -0.8217224
0.3928885 -0.9154452 -0.4129641 0.41839308 -0.66490185 0.7318602 0.9231212 0.040405482
0.48828256 0.17382656 -0.43269986 -0.47490665 0.63390094 -0.62007374 -0.04059314 0.031616013
-0.32593942 0.97320354 -0.11464156 1.3147212 0.70927733 -0.77036923 -0.22896287 -0.13671675
-0.082500175 0.20996751 -0.23799369 -0.35761818 -0.06806334 -0.10637654 0.010096341 0.022246182
0.10088406 2.2225373 -0.34447166 0.35881725 0.15714867 -0.29623425 -0.3275647 -0.47088513
0.3998187 -0.0730519 0.51335263 0.60815287 -0.026325697 0.7499169 -0.25326082 0.26512888
-0.64648396 -0.09017035 0.56737244 -0.14798984 -2.1589475 0.2479879 -0.7553724 -0.046575204
0.4709892 0.31616834 1.1115118 0.112840526 -0.75497276 0.2935879 -0.56562936 1.7657703
-2.0129955 -0.14526486 0.6511841 0.81982136 0.04980269 -0.9841279 0.17209423 -1.6610391

linear2.bias f4 [8]
00000000: 7eeb 043e 0bce 483e e971 403e 937c 87be
00000010: 3944 3fbf a761 cdbd 4f67 323f dcf8 8e3e
0.12980458 0.19609849 0.18793453 -0.2646223 -0.74713475 -0.10028391 0.69688886 0.2792424

linear3.weight f4 [6, 8]
00000000: 1599 643e 7f18 80be 9bc4 c3be 361d 0dbe
00000010: 8321 eebb 2fda ebbd 0509 3bbd d964 80be
00000020: af6c a1bf 5ed1 f43e bcac 363e 33c1 183e
00000030: ee02 06bf a348 1f3f 7b6c 813e e2cb 19bf
00000040: a680 dbba 90c7 87be a189 0d3f 34af 64be
00000050: d818 72be 4a1d 5ebe 1bae 56bf ed3f 2c3f
00000060: 23e9 433f 5139 3c3c 8841 313a 48cd 863d
00000070: 16e8 5440 2e8d d6be 5566 37bd 79fd da3f
00000080: 09fe 9d3f 78b4 1b3e 9a3a 043f 1206 abbe
00000090: bb78 803f 197a 2c3f 02d5 4ebe e22b 833f
000000a0: 0829 44bd d7a5 833e 6575 88be 9041 943d
000000b0: 6e96 04be 788b c2be bd23 1dbe 05f6 413e
0.22324021 -0.2501869 -0.38235936 -0.13780674 -0.0072671785 -0.115162246 -0.0456629 -0.2507694
-1.2611293 0.47815984 0.1783933 0.1491745 -0.5234822 0.6222021 0.25278077 -0.60076725
-0.0016746714 -0.26519442 0.5528813 -0.2233246 -0.2364229 -0.2169086 -0.83859414 0.67285043
0.76527613 0.011488275 0.0006761779 0.06582123 3.3266654 -0.41904587 -0.044775326 1.7108604
1.234315 0.15205562 0.5165192 -0.3340307 1.0036844 0.67373806 -0.20198444 1.0247767
-0.047890693 0.25712463 -0.26652065 0.072390676 -0.1294801 -0.3799703 -0.15345664 0.18941505

linear3.bias f4 [6]
00000000: e92f 22be ec1b 0c3f 6ef8 45bf 0e47 d7be
00000010: d260 513b a5a1 bfbe
-0.15838589 0.54730105 -0.773322 -0.42046398 0.0031948579 -0.37428012

linear4.weight f4 [8, 6]
00000000: 7c10 88be d376 71be 828e c6bf ef04 943e
00000010: c7d7 293f 71ec 95bd a05b c43e 7953 82bd
00000020: 618f 98be 979b 413c 931f 78be 14ca 99be
00000030: 65d1 843e 9498 e83d 70ec 983d 4ec3 313d
00000040: 44fc 2dbf ed13 b0be 9126 513d cff3 533d
00000050: 4f02 babf a695 3a3e 0202 0c3f e03e e5bd
00000060: bed2 963e 1a88 23bf c4f7 b6bf d133 683f
00000070: b5e8 083f 0ee0 603d 30e8 003d 04de 9abf
00000080: 0324 93bf 8440 d03f 76e1 053f 7684 34be
00000090: 5fed 3cbe 7521 32be 5e6d debe f503 f63d
000000a0: 93e3 10bf b00e 863c 0a84 fcbd ddbb fdbf
000000b0: c45c 30c0 2e5f d53f 5f15 7e3f d6ea 5a3e
-0.26575077 -0.23580484 -1.551224 0.28910014 0.66344875 -0.07320488 0.38351154 -0.063635774
-0.2979689 0.011816881 -0.24230795 -0.30036986 0.25941005 0.11357227 0.07466972 0.043399148
-0.6796305 -0.34390202 0.05106217 0.051746186 -1.4531955 0.18221149 0.54690564 -0.11193633
0.2945766 -0.6387955 -1.4294362 0.90704066 0.5348008 0.054901175 0.03147143 -1.2099004
-1.1495365 1.6269689 0.5229715 -0.17628655 -0.18449925 -0.17395575 -0.43442816 0.120124735
-0.5659725 0.016364425 -0.12329872 -1.9822956 -2.755662 1.6669672 0.9925136 0.21378645

linear4.bias f4 [8]
00000000: de39 053d 5025 1dbf 0cbf c3be b31a 3abe
00000010: c232 f3bc e093 073e 375f 5abc 92dd 5d3e
0.03252589 -0.6138506 -0.38231695 -0.18174247 -0.02968729 0.13240004 -0.013328365 0.21666554

linear5.weight f4 [10, 8]
00000000: c7b8 df3d 25cd 81bf 333d 5b3f 7a60 e2be
00000010: 43d6 343d 2ccc 8c3e a196 b4bf af6e a13e
00000020: 2335 5a3f a188 603f 65a1 403e 8c21 8b3f
00000030: 9cac 493f 6802 113f 663e 803e fafa 123f
00000040: 6662 333e aa48 28be 05a2 8a3d a77e 09bd
00000050: d5d1 cebe 67a9 87be f417 3cbe 4831 7e3b
00000060: 88ff 383f 5fa6 bcbd 1fc8 7a3e c56b 543f
00000070: b616 5a3f 55e8 193d f948 ff3e 0541 0e40
00000080: b0d4 893e cdf9 4b3e 6a38 2a3e 582a 783f
00000090: a0e8 633e a3e1 df3e c5a8 5d3e c3f6 d2bc
000000a0: 216c 473f ca51 09bf 27f4 4a3d 2b2a 563f
000000b0: 796d 693f a562 003f 6413 c23c ee59 4540
000000c0: a24c a53c 11ac 09bf 3535 80be 7133 d8be
000000d0: 481c cebe c0e8 14be 9bf4 ccbe 7080 ebbe
000000e0: c58a eebe 3485 94bf 2656 8a3f ae39 2bbf
000000f0: ac4c b03e 03a7 27be 9bab c5bf db70 923d
00000100: 20c1 bcbc c8b2 04bf 4bfc 583f 3218 663d
00000110: c384 d83e 98a0 273f 9a11 4dbe 6125 243f
00000120: 84b6 993e c343 8a3e f1f6 30bf a3bf b6bc
00000130: 50ed 4a3d 6f9d b23d 3298 41be af93 2dbe
0.10923915 -1.014073 0.8564026 -0.4421423 0.04414965 0.2749952 -1.4108468 0.31529757
0.8523733 0.8770848 0.18811567 1.0869613 0.78779006 0.56644297 0.25047606 0.5741421
0.17518005 -0.16433969 0.06769184 -0.03356805 -0.40394464 -0.2649643 -0.18368512 0.0038786698
0.7226491 -0.0921142 0.24490403 0.82976943 0.85190904 0.037575085 0.4986036 2.2227185
0.2692008 0.1991951 0.16623083 0.9693961 0.22256708 0.43726835 0.21646412 -0.02575243
0.77899367 -0.53640425 0.049549248 0.83658093 0.91182667 0.5015052 0.023690887 3.0836139
0.020178143 -0.5377818 -0.25040594 -0.42226747 -0.40255952 -0.14541912 -0.4003037 -0.45996428
-0.46590248 -1.160315 1.080754 -0.6688489 0.34433496 -0.16372304 -1.5442995 0.07150432
-0.023041308 -0.518353 0.8475997 0.05617542 0.4228879 0.6547942 -0.20026246 0.64119536
0.3002206 0.27004823 -0.691268 -0.022308176 0.049542725 0.08721434 -0.18905714 -0.16950868

linear5.bias f4 [10]
00000000: c92c 713e f057 e6be 43ef 9fbe 68db 9ebe
00000010: bdd0 debe c922 5cbd f3cb 02bf f45f ca3d
00000020: 4a1c 613c e7ed 53bf
0.2355224 -0.44988966 -0.3123723 -0.3102677 -0.4351863 -0.05374411 -0.5109245 0.09881583
0.013739655 -0.82784885

linear6.weight f4 [12, 10]
00000000: 6115 8c3e 17ac 10bf f735 5b3f 1307 99be
00000010: 5a03 853e 0921 86be 9c43 1dbf 3fbc 1b3f
00000020: 0ee8 d5be 70ba 923f eb14 673e 34f2 07bf
00000030: 9b20 7d3f 3259 47bf 6494 d43e 50fc 81bf
00000040: f411 bdbe 25a6 ed3e b934 373d d638 b73f
00000050: c881 1d3f 0075 95be b4e0 e1be dbe0 0e3e
00000060: 833d bbbe e2ee 723f a5ab 34bf 19af 113f
00000070: 2814 be3e 3979 a4bf efc3 7a3f 6155 c6be
00000080: bdae 09be 77c5 adbd d97a ffbb 80f3 79be
00000090: fe5e 663f c67c 3c3f 826a 843e 0709 88bf
000000a0: c634 a7be db17 cdbe c81d ec3e 5075 0bbf
000000b0: e76b 3b3f dd92 fdbe 01dd babe 27b1 9f3e
000000c0: 02df ecbd 5b3d d13f 97f6 b03e bc2c 16bf
000000d0: a0ad 693f f377 79bf 3ec5 ad3e da3f 9fbf
000000e0: f4df f4be 31a3 ca3e 3b27 3ebf baac 883f
000000f0: a413 903f bd08 4fbf f5a0 29be 6183 643d
00000100: 587e e1be eb52 f7be a9c5 02bd a5d4 8e3f
00000110: 475b 483d 8b43 82bf 9868 e8be b9b7 2d3f
00000120: 402f 3abf 567c 193f d6ea 17bd a36c 423f
00000130: 1779 9a3e 921e 06bf 2e18 af3e 7007 e53d
00000140: d35f ac3e 991c 3fbe 90d6 04bf 81ed 3f3e
00000150: a3e2 37be ded3 b63e 7296 4f3c 0b61 643f
00000160: 1d12 273f 6769 64bf fe2a 3f3f 8419 eabe
00000170: 4491 66be 27a4 b93e 84fb 03bf 4fc6 c73e
00000180: 3147 c83d 28c6 8e3f f773 163f 90e8 a5bf
00000190: 8752 00bf 754c 593f b566 32bf be4d 573e
000001a0: a656 0d3f fe06 08bf 1425 c83f b472 02bf
000001b0: 19f0 6fbe 0c89 253f 9283 3bbf a946 d03e
000001c0: ff8e 1b3f a0ac 0dbe b0fb 1abe 59b9 b83e
000001d0: f169 16bf 350e 83bf 49b7 7bbe edaa 6c3f
0.2736006 -0.5651259 0.8562922 -0.2988821 0.2597912 -0.2619708 -0.6143129 0.60834116
-0.41778606 1.1463146 0.22566573 -0.5310395 0.98877877 -0.77870476 0.41519463 -1.0155125
-0.3692776 0.4641582 0.044728015 1.431422 0.61526155 -0.29190826 -0.44116747 0.13952963
-0.36570367 0.94895756 -0.7057441 0.569078 0.37124753 -1.2849494 0.9795522 -0.38737014
-0.13445564 -0.08484929 -0.007796627 -0.24409294 0.89988697 0.7362789 0.2586251 -1.0627755
-0.3265745 -0.40057263 0.4611647 -0.5447588 0.7321152 -0.4952611 -0.36496738 0.31189844
-0.11565973 1.6346849 0.34563133 -0.5866201 0.91280556 -0.97448653 0.33939546 -1.2441361
-0.47827113 0.3957763 -0.7427861 1.0677712 1.1255994 -0.8087271 -0.16565306 0.055789355
-0.44041705 -0.4830545 -0.031926785 1.1158644 0.048915174 -1.0176862 -0.453923 0.67858464
-0.7272835 0.59955347 -0.03708919 0.75947016 0.3017051 -0.52390397 0.34198135 0.11183059
0.33666858 -0.18663253 -0.51889896 0.18742944 -0.17957549 0.35708517 0.012670146 0.89210576
0.65262014 -0.8922333 0.74674976 -0.45722592 -0.22516352 0.3625805 -0.5155566 0.39018485
0.09779204 1.1154222 0.587707 -1.2961597 -0.50125927 0.8488229 -0.6968797 0.2102575
0.5521034 -0.5313567 1.5636315 -0.50956273 -0.23431434 0.6466224 -0.73247635 0.4067891
0.6076507 -0.13835382 -0.15135074 0.3607891 -0.58755404 -1.0238711 -0.24581636 0.9244831

linear6.bias f4 [12]
00000000: 5f8a 143f 0c7a 0c3f 1ac7 dbbd f29e 58b9
00000010: 1a68 013f 44ab 423f 88bb 673e 1287 06bf
00000020: 5335 b7be 8621 e73d 4384 07bf b959 833b
0.5802364 0.5487373 -0.10731335 -0.00020658577 0.5054947 0.7604258 0.22630131 -0.5254985
-0.3578287 0.11285691 -0.5293619 0.0040084985

mlp.0.weight f4 [10, 24]
00000000: 26c8 ca3e eca5 9e3d e7e1 b83e be89 8a3f
00000010: 2915 063e 127f 29be 00fd 453f 6dce 8bbe
00000020: 3862 af3e 6431 553f 6018 a7bf a812 2abf
00000030: 21d6 143f ee77 7a3e ee82 af3e 5b03 8bbe
00000040: 18a8 d33d 9e6f f23d 56b4 353e 2499 a13e
00000050: 8254 0bbf 1a86 1cbe 01e0 863e f774 463f
00000060: 9b79 713f 36a1 823f d34d 31bf 6e63 b2bf
00000070: 0eee 983f 3ba9 b53f 247f d8be de5d 4abf
00000080: 3d68 5fbf 3fa8 71bf 2e24 e5be 8d5b 853f
00000090: d093 03bf 526b 7bbf 01a3 ab3b e423 ad3e
000000a0: 3288 1abf 1227 7ebf d2a4 e1bd e34d 353e
000000b0: ad21 2e3f 3332 083f 6764 97bf 2d10 62be
000000c0: fa84 173f abcd 613f 7974 09bf 68e0 22be
000000d0: 9a8f 3f3f 8118 973f 9550 fcbc db25 86bf
000000e0: 760f 47bf c0e9 07bf a84f 15bf 69a7 543f
000000f0: 3da2 e93e 8f5b 8dbf cae7 423d 8173 de3e
00000100: 9f23 d9be b75f 15bf 29ee aabe 3704 efba
00000110: a453 dfbe 156f 74be 2764 88bf 1d05 b2be
00000120: 8fce 003f c977 2e3f abfc aa3d 4de4 5d3f
00000130: 9d75 293f 3048 163f d7e0 723f 628c cbbe
00000140: 04d2 0d3f 9e5a 003f cd60 a4bb 3f0a abbf
00000150: c881 16bf 1546 dd3e b35a aabe 5e30 8c3e
00000160: db39 96be 3456 343e 153b 053f 7078 513e
00000170: da7b c03e 9791 62bf 1039 68bf 7620 d7be
00000180: 65cb fbbd dc5b 06bf c923 e13e 9b93 59bf
00000190: fa0f 23be 46ee 05bf 9244 9abe 9fe9 e03e
000001a0: 467f 3b3e 0ec2 ca3d f301 22bf d35b 113f
000001b0: e8c6 9ebf c39d 593e c336 393e d56a 263f
000001c0: a7d9 9b3e 983b 373d 1920 633e bbea cbbc
000001d0: 5964 c3bc c758 c3bd a5a4 2c3e 0a9a 463f
000001e0: 6eac c93e 39ad 5f3e 7091 be3e da71 913f
000001f0: ae70 2bbd a1e0 b33e f7b1 a73f 16a1 d8be
00000200: aa34 ad3e c265 2d3f 71c5 83bf c183 85bf
00000210: f2db a1be e16c cb3e 8965 fa3e 8c16 4abf
00000220: e8ab 15bf e3ee bf3c 39ed 113e 31d7 683e
00000230: 7ec3 d83e bf5e 4f3e bb2f 663e 649b 3d3f
00000240: 18f7 aa3e 8a18 113f 28cb 8c3e df81 dc3e
00000250: 8920 823e 3b4b 3c3e 1046 543f f817 98be
00000260: f91e fc3e 0390 a43e 008f 04bf c542 3bbf
00000270: 59fc 49bf a86b b9be 9130 6fbe 9a34 21bf
00000280: 9cf9 29be a517 93bf 6124 36bf 342e a23d
00000290: 05be 00be 0e62 4fbc 0f66 16be c0ee 053b
000002a0: 2a12 9d3e a458 bf3c a19c 113f 5165 4e3f
000002b0: a08e 46be 8e3d 943e 6271 b23f aef9 08bf
000002c0: 64e1 9a3e 79d5 073f f461 5bbf bfe5 48bf
000002d0: 6084 28bf c61d a2be 869b 8b3f 24d2 81bf
000002e0: f67a 68bf d255 aebe 09bc 0a3f 4fe4 0d3f
000002f0: e269 b2be 7250 fabb caed 633f 9fc4 8e3f
00000300: 1b0f 8c3f 8580 b13f a17a 07bf 0856 c3be
00000310: 2dd5 b73f 5c2d c33f ab51 d4bc 07b1 56bf
00000320: 21ac 1abf afb1 50be 745f 95be 5fe1 293f
00000330: ca39 bcbf 86c2 50be cf0b 7c3e eb91 8d3e
00000340: 77bb 4bbf 6699 43bf e0cc 0abf fa94 eebe
00000350: ffea 61bd 2472 eb3c 3910 89bf 5a1c 8b3d
00000360: 1fde 0c3c 4fea dfbe ddf2 533f c367 2ebf
00000370: be51 9fbe c509 ddbe 2baa 68be d547 cf3e
00000380: aacc 083f 0532 da3e d66b 46bf c783 403e
00000390: ce77 b8bd 0ae3 5c3f 324e 143f 16e8 f7be
000003a0: f7f7 e73d 7915 8f3d a04d b23d 08b7 863e
000003b0: f989 3fbb 52eb 25be e022 e83b 6da2 e9be
0.39605826 0.07746491 0.3610985 1.0823286 0.1309401 -0.1655238 0.7733917 -0.27305928
0.34254622 0.8327849 -1.3054314 -0.6643472 0.58139235 0.24459812 0.3427958 -0.27150998
0.10334796 0.118376955 0.17744574 0.3156215 -0.54425824 -0.1528553 0.26342776 0.77522224
0.9432618 1.0205448 -0.69259375 -1.3936594 1.1947649 1.419227 -0.422845 -0.7904948
-0.8726843 -0.9439735 -0.44754165 1.0418564 -0.5139742 -0.9821063 0.0052379374 0.33816445
-0.6036407 -0.99278367 -0.11017765 0.17705493 0.68020135 0.532016 -1.1827515 -0.22076483
0.5918728 0.8820445 -0.5369335 -0.15905917 0.74828494 1.1804353 -0.030800143 -1.0480303
-0.77757967 -0.5309105 -0.5832467 0.8306795 0.4563159 -1.1043566 0.047584333 0.43447497
-0.4240999 -0.58349174 -0.33384827 -0.0018235509 -0.436185 -0.238705 -1.0655564 -0.34769526
0.50315183 0.6815153 0.08348974 0.86676484 0.6619509 0.587039 0.9487433 -0.3975554
0.55398583 0.5013827 -0.0050164224 -1.3362502 -0.5879178 0.4321753 -0.33272323 0.2738065
-0.29341015 0.17611009 0.5204328 0.204561 0.3759449 -0.885034 -0.9071207 -0.42016953
-0.12294654 -0.52483916 0.43972614 -0.84990853 -0.15924063 -0.523167 -0.3013044 0.4392824
0.1831027 0.09900294 -0.63284224 0.5678074 -1.2404451 0.21251588 0.18087296 0.6500676
0.30439493 0.044734567 0.22180213 -0.024892202 -0.02385156 -0.09538417 0.16859682 0.77578795
0.39389366 0.21843423 0.37220335 1.136287 -0.041855507 0.35132316 1.3101186 -0.423104
0.33829242 0.67733395 -1.0294629 -1.0430833 -0.31613117 0.39731506 0.4890559 -0.78940654
-0.58465433 0.02342934 0.1425065 0.22738339 0.4233665 0.20250987 0.22479145 0.7406523
0.33391643 0.5667807 0.27498746 0.43067834 0.25415447 0.18388073 0.82919407 -0.29705787
0.4924238 0.32141122 -0.517807 -0.7314876 -0.78900677 -0.36214948 -0.2335837 -0.6297089
-0.16599125 -1.1491591 -0.7114926 0.07918969 -0.12572487 -0.012657655 -0.1468737 0.0020436496
0.3067792 0.023357697 0.5687962 0.80623347 -0.19390345 0.28953212 1.3940852 -0.5350598
0.30250084 0.5306011 -0.8569634 -0.78475565 -0.6582699 -0.3166334 1.0906837 -1.0142255
-0.90812624 -0.3404985 0.5419317 0.55426496 -0.34846407 -0.0076389844 0.8903471 1.1153754
1.094211 1.3867346 -0.5292149 -0.38151574 1.4361931 1.5248218 -0.025917849 -0.8386387
-0.604189 -0.20380281 -0.29174387 0.66359514 -1.4705136 -0.20386705 0.2461388 0.2765039
-0.79582924 -0.7640594 -0.54218864 -0.46598035 -0.05515575 0.02874095 -1.0708076 0.06792517
0.00859788 -0.4373345 0.82792455 -0.6812708 -0.31117052 -0.43171516 -0.22721164 0.4048449
0.5343729 0.42616287 -0.77508295 0.18800269 -0.09007226 0.86283934 0.57931817 -0.48419255
0.113265924 0.069865175 0.08706212 0.26311517 -0.0029226525 -0.16203049 0.0070842355 -0.45631734

mlp.0.bias f4 [10]
00000000: d5cf 173f e225 9b3e 1da5 e23d 10f6 063f
00000010: 217f cabc df3e 5e3e 2903 893e a0cb cb3d
00000020: 828c 133d 2142 bc3e
0.593015 0.3030234 0.11066649 0.5271921 -0.024718823 0.21703671 0.26760224 0.09950948
0.03602267 0.36769202

mlp.3.weight f4 [8, 10]
00000000: 5c40 7b3f a213 1cbf 811f edba 6667 833f
00000010: 5b91 86bc da3f a13f 912e 293f 04ea 153f
00000020: a043 7bbe 59b2 d2bc efe6 b3bf 416c a0be
00000030: 2bbd 66bd 66ac e7bf 2378 d03d 514f dabf
00000040: 025f 0ac0 79ec d4bf 45f9 23bf 12f0 673d
00000050: 7f4f cb3e 0e14 fdbf 4d24 223f 414a 413f
00000060: f438 35be 931e 303f 3443 3d3f e862 5c3f
00000070: bc2a dc3f f283 50be 942e 31bf e1a0 ae3f
00000080: 95e6 d23f 62bb 4a3d 8d8e bbbf 5f3c f7bd
00000090: 8ad6 1bbc b433 59bf 0cb0 da3e d7a8 28bf
000000a0: ab17 803e 4c80 18bd fc4b 3fbf 67d3 82be
000000b0: adc4 913f dd70 1cbd 9a02 bbbe 1896 29be
000000c0: b193 b0bf bc40 153f c3e5 34be 0c8e 9f3f
000000d0: 3887 313f 974f 0f3f 8e57 a8be 6077 1abf
000000e0: 057c 033f 4ae2 2dbf e4b4 e53f 06df bebf
000000f0: e15a 66bf b3f3 f9be 28ed edbd 48bd d6bf
00000100: f5ff c13d 8eb9 bbbf 9166 ddbf ce6a b4bf
00000110: 381d 07bf 81bb 8e3c a890 50be bd05 f93f
00000120: 362c d13f ab82 45bd 21db dcbe ec6b d6be
00000130: f7b6 193e a02e d3be 099e 333f 38ae 4cbf
0.9814508 -0.6096746 -0.0018091054 1.026593 -0.016426733 1.2597611 0.6608668 0.58560205
-0.24537516 -0.025719808 -1.405485 -0.3133259 -0.05633275 -1.8099487 0.10179164 -1.7055455
-2.1620488 -1.6634666 -0.6405223 0.056625433 0.39709088 -1.9771745 0.6333664 0.7550393
-0.17697507 0.6879665 0.7393067 0.8608842 1.7200541 -0.20362833 -0.692117 1.3642846
1.6476618 0.04949511 -1.4652878 -0.12072062 -0.009511599 -0.8484452 0.42712438 -0.6588263
0.25018057 -0.03723173 -0.7472532 -0.25551912 1.1388146 -0.038193572 -0.36525422 -0.16561162
-1.3795072 0.583019 -0.17665772 1.2465224 0.6934695 0.5598082 -0.328793 -0.603384
0.51361114 -0.67923415 1.7945828 -1.4911811 -0.8998242 -0.4881874 -0.116174996 -1.6776514
0.09472648 -1.4666002 -1.7296926 -1.4095094 -0.5277896 0.017423393 -0.20367682 1.9454876
1.6341617 -0.048220318 -0.43135932 -0.41879213 0.15011202 -0.4124651 0.7016302 -0.79953337

mlp.3.bias f4 [8]
00000000: 34b1 3abf 7c56 853f 8dcd 4fbe 268c e43f
00000010: 2fb0 08bc a52d 09bc 7cb5 a93f bfb4 ea3f
-0.7292664 1.0417018 -0.20293255 1.785527 -0.008342787 -0.008372699 1.325851 1.8336409

mlp.6.weight f4 [5, 8]
00000000: 7b1c 3a3e b6f0 b9bf 656a 83bc 12da b33f
00000010: 1f93 b8be 6704 5e3f 25aa a8bf 7767 de3f
00000020: 61c9 063f 1d9e 1dbf 8a79 8f3e e626 53bd
00000030: ce76 86bf 9cd2 0a3f 78a2 91bf 7e03 22bb
00000040: 923f dd3e 28c9 3ec0 dcf9 193e 6cb2 20c0
00000050: e8fa dd3e 8e85 8bbf e5e5 79bf 8fd4 2cc0
00000060: dfda 84bf 72f9 a23f d84b 97bf 4ff6 88bf
00000070: 316f f03e 990d 5ebf 6f30 853f e990 abbf
00000080: d5a6 cdbf ca13 773f 56e0 1ec0 3183 a33f
00000090: 9aca f8bf 5ca9 edbf 5b22 5e3f cef9 c23f
0.18174927 -1.4526584 -0.016041944 1.4050925 -0.36049744 0.8672547 -1.3176924 1.7375325
0.5265103 -0.61569387 0.28022414 -0.05155077 -1.0505006 0.54227614 -1.1377707 -0.002472132
0.43212563 -2.9810276 0.1503672 -2.51089 0.4335549 -1.0900133 -0.97616416 -2.7004735
-1.0379294 1.2732375 -1.1820021 -1.0700167 0.46959832 -0.867395 1.0405406 -1.3403598
-1.6066538 0.9651457 -2.4824424 1.2774411 -1.9436829 -1.8567309 0.8677117 1.5232484

mlp.6.bias f4 [5]
00000000: e05b 06c0 8ff4 a0c0 b54b 8540 a1a6 4bc0
00000010: 0dfc 4040
-2.0993576 -5.0298533 4.1654916 -3.1820452 3.015384

exp_avg f4 [10, 12]
00000000: 0e03 adb8 7669 0338 8865 1fb7 a223 e2b7
00000010: 860f f0b7 5a18 f537 83df 1136 1458 0ab8
00000020: a8f9 9b37 a4fc 5e36 0554 f4b6 2927 3338
00000030: e812 78b7 0741 ee37 9bbf 0536 b0f2 cab6
00000040: 226c ec35 1614 85b7 c366 6f35 1dd3 9036
00000050: 7af2 9436 22df 30b7 21ad 0eb8 20fc 05b7
00000060: d898 6ab8 629f c2b9 3080 0f39 8c08 1cb9
00000070: f688 12b9 dc41 33b9 fa53 27b8 60db a938
00000080: a22f 2639 d4ba b5b7 c854 53b8 9886 3838
00000090: dee0 c1b9 82ce 1339 4627 8a38 2f17 03b8
000000a0: 4b94 0eb8 b550 b838 ece6 3538 0c05 98b7
000000b0: de77 13b9 9ce5 8738 5671 b4b8 7ee1 fab7
000000c0: c013 01b9 0754 2d39 240d 4bb8 c027 2bb7
000000d0: 6fd9 0938 f04e 9db6 4009 7db6 1ef6 76b8
000000e0: 3b43 d3b8 58a6 3837 104e d437 7787 90b8
000000f0: f29b bb38 fa86 92b7 fe8e b9b7 d304 abb7
00000100: 6407 ba38 cccf 9738 a6d3 47b7 2c10 15b6
00000110: 4dd5 5cb7 7415 4837 8cb4 f8b7 3aae 1bb7
00000120: 3776 0737 7cdb 1db7 727f 1737 fc9a d3b6
00000130: 65dc 8db6 0b4e f937 f68c 19b7 606f 5ab5
00000140: 257b e937 43f5 dab7 00c2 07b8 3ddf 32b8
00000150: c0a2 aa38 6462 89b8 25b0 04b8 d64e d737
00000160: f0f7 6d38 8f5b a7b8 ecac 1e38 d2b0 9937
00000170: 2afd c2b8 5a4e 99b6 e2b2 69b8 fae9 40b8
00000180: 34ab 8637 336a a0b7 1655 f336 90bd a5b6
00000190: 118c 13b6 b0f2 6fb7 5c8a a236 5c0b 1237
000001a0: 7608 1537 474f 4736 a64e 8e36 38af c136
000001b0: 12a6 c2b8 8757 a3b8 2b7b dc38 80f8 e734
000001c0: 740d 1d37 68fb 84b7 5c0e 0bb8 2a88 d838
000001d0: fcc6 9038 8097 74b5 588c f4b6 bd45 3539
-8.249852e-05 3.1331052e-05 -9.500778e-06 -2.6957892e-05 -2.8617458e-05 2.9217616e-05 2.1736785e-06 -3.2983793e-05
1.8593695e-05 3.3227634e-06 -7.281548e-06 4.2713396e-05 -1.4786354e-05 2.8402092e-05 1.9930073e-06 -6.0483217e-06
1.7614841e-06 -1.5864189e-05 8.9183976e-07 4.3161112e-06 4.4389717e-06 -1.054237e-05 -3.4016677e-05 -7.98612e-06
-5.5932294e-05 -0.00037121313 0.00013685296 -0.00014880503 -0.00013974667 -0.00017095305 -3.9894112e-05 8.09941e-05
0.00015848738 -2.166388e-05 -5.038528e-05 4.399437e-05 -0.00036979368 0.00014095943 6.587668e-05 -3.1254425e-05
-3.3993547e-05 8.7888366e-05 4.3368826e-05 -1.8122162e-05 -0.00014063666 6.48007e-05 -8.604179e-05 -2.9907325e-05
-0.00012309756 0.00016529868 -4.841121e-05 -1.0201649e-05 3.2865846e-05 -4.688154e-06 -3.7705322e-06 -5.8880185e-05
-0.00010073787 1.1005985e-05 2.530872e-05 -6.8916874e-05 8.945902e-05 -1.746741e-05 -2.2120304e-05 -2.0387035e-05
8.870548e-05 7.238946e-05 -1.1910603e-05 -2.2212143e-06 -1.3162685e-05 1.1925924e-05 -2.9647977e-05 -9.279285e-06
8.074151e-06 -9.409032e-06 9.0299745e-06 -6.3063326e-06 -4.2277848e-06 2.9719455e-05 -9.152331e-06 -8.13734e-07
2.7833108e-05 -2.6101834e-05 -3.2367185e-05 -4.2646414e-05 8.136546e-05 -6.550996e-05 -3.16353e-05 2.5666708e-05
5.6736113e-05 -7.980235e-05 3.783118e-05 1.832136e-05 -9.297796e-05 -4.5688766e-06 -5.5718127e-05 -4.5994275e-05
1.6053767e-05 -1.912294e-05 7.2518696e-06 -4.939451e-06 -2.1986236e-06 -1.4302015e-05 4.8440834e-06 8.704923e-06
8.883062e-06 2.9699456e-06 4.2410857e-06 5.7722464e-06 -9.281574e-05 -7.788749e-05 0.00010513359 4.320791e-07
9.3610615e-06 -1.5852696e-05 -3.3153556e-05 0.00010325045 6.903519e-05 -9.1117545e-07 -7.288105e-06 0.00017287485

exp_avg_sq f4 [10, 12]
00000000: 2ce6 bc38 12fd 2a39 9be1 2e38 a573 4638
00000010: c740 1f38 d6a8 9638 ae20 c736 4aa3 ab37
00000020: 30c1 0038 3ecf 9b36 f489 0738 90b2 a638
00000030: 736b 8036 a224 9437 e694 6536 2f88 4d36
00000040: ce47 b038 3c60 4136 be42 7435 59d0 5f37
00000050: a7c5 9d36 c986 dc35 38df 6237 d3e8 3e36
00000060: 230e 8739 c652 c039 ac3c 8b38 45cc 9238
00000070: 61ad 833a 5c8d 2e38 4f2d 9b37 bfd5 0139
00000080: f769 5638 6c55 6237 763e 7938 10b9 d238
00000090: f69b 3f39 7f12 7439 7c8a 0c39 495b 4039
000000a0: fcc8 fe38 7988 6138 9b67 a637 aa3d 1338
000000b0: 3aaf 3938 82df 6a37 622b 3438 34fb 1c39
000000c0: 49b8 d438 1d60 4339 9a16 7238 36bf 2538
000000d0: 74b3 0639 5a4f 4539 e98e bf36 1aa0 ad37
000000e0: bc9c b337 8822 bd36 2cf0 b437 501f 4738
000000f0: 1ff6 7d38 3924 ae38 54cb e637 f926 bd37
00000100: c314 3d38 bb35 e637 1844 bd36 8aec 9237
00000110: 7586 de37 d4fe 4136 e9a1 c437 843d 6438
00000120: 5d03 e137 198f 5638 e3c7 3f37 1260 b936
00000130: 7f1d 3939 78cd a337 49ee 3636 5021 e037
00000140: 8ada 5437 d230 1936 4c30 4c37 92af d837
00000150: ef2d 0639 0eee 3c39 421a c638 4b7d a438
00000160: 1b21 f338 273a 0139 8d1e 6337 a53e 3338
00000170: 70df 3c38 d97b 1c37 0cd9 7638 60e3 a538
00000180: 85d4 d338 61f8 1c39 509e 3a38 2b86 c037
00000190: 420c 4d39 5319 1539 47e0 8c36 5d8b e337
000001a0: b3d0 f237 8d88 9636 42a2 a437 ac14 1538
000001b0: 9517 1939 92d0 3139 8161 a638 598a 1b38
000001c0: 9490 fa38 7113 8d38 dff3 5337 a097 3338
000001d0: f39e 8638 8e75 9936 3330 6a38 32b4 cb38
9.0074114e-05 0.0001630674 4.1694944e-05 4.731458e-05 3.7968883e-05 7.1840055e-05 5.9344666e-06 2.0460826e-05
3.0697498e-05 4.643486e-06 3.2314987e-05 7.948757e-05 3.827206e-06 1.7660033e-05 3.421033e-06 3.062665e-06
8.405709e-05 2.8815257e-06 9.0994206e-07 1.33403455e-05 4.7019744e-06 1.6430505e-06 1.3522622e-05 2.8447728e-06
0.0002575974 0.00036682765 6.6393375e-05 6.999871e-05 0.0010046178 4.1616484e-05 1.8498538e-05 0.00012382025
5.1120263e-05 1.3490539e-05 5.9424397e-05 0.00010048051 0.0001827328 0.00023276544 0.0001340303 0.00018344553
0.000121491 5.377128e-05 1.9836987e-05 3.510496e-05 4.427063e-05 1.3999526e-05 4.2955748e-05 0.000149709
0.000101432735 0.00018632454 5.7718345e-05 3.9517145e-05 0.00012846087 0.00018816945 5.7088805e-06 2.069776e-05
2.1411448e-05 5.636659e-06 2.156951e-05 4.747446e-05 6.054912e-05 8.3037135e-05 2.7512819e-05 2.2548704e-05
4.5080447e-05 2.7443157e-05 5.640566e-06 1.7514703e-05 2.6527074e-05 2.890757e-06 2.3440416e-05 5.4416727e-05
2.6823656e-05 5.1154846e-05 1.1431027e-05 5.5246137e-06 0.00017653963 1.9526793e-05 2.7258814e-06 2.6718393e-05
1.2687067e-05 2.2827194e-06 1.21705925e-05 2.5830963e-05 0.00012796347 0.0001801776 9.4462666e-05 7.843467e-05
0.00011593309 0.00012324062 1.35373675e-05 4.2735268e-05 4.5030785e-05 9.32716e-06 5.885311e-05 7.910165e-05
0.00010100849 0.00014969848 4.4493296e-05 2.295066e-05 0.0001955489 0.00014219181 4.1984345e-06 2.7125405e-05
2.8945831e-05 4.486245e-06 1.962588e-05 3.554362e-05 0.00014600002 0.00016957734 7.933658e-05 3.7083726e-05
0.00011947859 6.727025e-05 1.2633361e-05 4.2818137e-05 6.4192245e-05 4.5734405e-06 5.5834837e-05 9.713358e-05

exp_avg f4 [10]
00000000: ba76 8137 f175 33b7 6ea0 b539 bec9 76b9
00000010: 8045 97b8 6a5e 2eb7 1cb2 8db7 1c4e bf35
00000020: 9a69 83b7 2146 d438
1.5433285e-05 -1.0696692e-05 0.0003464254 -0.00023535543 -7.2131865e-05 -1.0393191e-05 -1.6891448e-05 1.4253342e-06
-1.5665591e-05 0.0001012201

exp_avg_sq f4 [10]
00000000: fed9 1039 f4d7 4e37 b582 b039 653c c839
00000010: 9f7a 0139 96bf 9f38 a1d5 5738 5f29 4539
00000020: 3777 d138 9dd0 2439
0.00013814119 1.2328837e-05 0.0003366672 0.0003819197 0.00012348079 7.6173965e-05 5.1458952e-05 0.00018802796
9.988102e-05 0.00015717973

exp_avg f4 [8, 10]
00000000: f1e4 ec37 a5ab 32b6 fd79 b9b7 10c3 6336
00000010: 79c8 e3b7 2116 4eb8 8312 42b8 2ccd c2b4
00000020: 8009 3336 5614 e936 8fde 0737 436c c7b3
00000030: 8ba6 b237 8114 bbb8 fe5a 0db8 a72b 75b8
00000040: 2dbd f3b7 59af a237 d147 0e36 d644 16b7
00000050: 5bde ee36 5c8e 15b4 22a2 7f37 d245 4a38
00000060: 3edc 81b8 e1f1 1838 10eb c7b7 6b35 f3b8
00000070: 8ca4 2a38 ec7c 27b8 0000 0000 0400 0000
00000080: 0400 0000 0400 0000 0400 0000 0400 0000
00000090: 0400 0000 0000 0000 0000 0000 0000 0000
000000a0: a7cc 4bb7 834a 14b7 ffae 3db6 7870 e9b6
000000b0: 35fc 8eb5 b441 2bb6 6ac9 5db0 0809 beb0
000000c0: 9726 8eb6 fa44 01b7 176a 15b7 16be b236
000000d0: 9dc1 7bb9 cab3 8bb8 534e cd38 e54e 2bb9
000000e0: c176 43b8 76ea b6b7 8809 9db8 78fa 9fb8
000000f0: 941c 29b5 bbb3 32b4 77ec 4db9 3fb5 abb8
00000100: 8ca3 fcb7 cfa4 b438 7f39 8cb7 314f c1b9
00000110: 7459 89b7 dfb6 08b9 beb5 a537 4926 90b6
00000120: 1fca 67b6 89f8 6536 5453 14b8 f688 1bb8
00000130: 58d3 57b6 1b4c b0b4 ab93 88b6 b9be 43b6
2.8240001e-05 -2.6623977e-06 -2.2110524e-05 3.3939177e-06 -2.7153861e-05 -4.9134836e-05 -4.6270445e-05 -3.6284598e-07
2.6678608e-06 6.9463085e-06 8.0984455e-06 -9.286352e-08 2.1296806e-05 -8.920674e-05 -3.3701763e-05 -5.8453206e-05
-2.905595e-05 1.9393558e-05 2.1201452e-06 -8.956724e-06 7.1188383e-06 -1.3928496e-07 1.5236934e-05 4.822558e-05
-6.192223e-05 3.646489e-05 -2.3832108e-05 -0.00011597093 4.0684405e-05 -3.9932245e-05 0.0 6e-45
6e-45 6e-45 6e-45 6e-45 6e-45 0.0 0.0 0.0
-1.2147392e-05 -8.838836e-06 -2.8265056e-06 -6.957034e-06 -1.0653226e-06 -2.551923e-06 -8.068556e-10 -1.3826886e-09
-4.2364222e-06 -7.705059e-06 -8.905793e-06 5.3269423e-06 -0.00024009352 -6.661525e-05 9.789751e-05 -0.00016337221
-4.660222e-05 -2.180527e-05 -7.488119e-05 -7.628364e-05 -6.299899e-07 -1.6642927e-07 -0.00019638414 -8.187675e-05
-3.0116898e-05 8.613767e-05 -1.6716074e-05 -0.0003687083 -1.6373328e-05 -0.00013038095 1.9754163e-05 -4.2959914e-06
-3.4539332e-06 3.4268326e-06 -3.5363555e-05 -3.7082435e-05 -3.2160515e-06 -3.283793e-07 -4.0703067e-06 -2.916828e-06

exp_avg_sq f4 [8, 10]
00000000: 19bb 0a37 6106 f032 44b7 8d35 8666 1c36
00000010: 610f d436 b17f f838 1fa3 b73a 60b3 c436
00000020: 2133 db38 9a41 1237 8c3e 0938 eed1 f332
00000030: 3922 d738 d826 2239 01aa d837 d39d 2638
00000040: 60c3 a337 2c08 ab39 06f1 3037 0c9b 4335
00000050: 4cb4 5d37 5ee7 3133 85eb 8639 c589 6938
00000060: 32d8 a237 6174 0839 6b06 4437 aee7 8839
00000070: cc04 9038 ca6a 7d38 0000 0000 5745 1d27
00000080: dffa 0f28 1ead d929 dd31 9228 1434 9925
00000090: 8353 4327 0000 0000 0000 0000 0000 0000
000000a0: 9acd 8735 522a 4134 61bb 0435 ff2f c234
000000b0: 85b8 1e35 6b95 4e37 6cd4 ba36 a8b2 a034
000000c0: 04fc 2d37 6d98 c935 95ef 5938 86dc 9033
000000d0: e3d4 a639 0d1a 6339 160b c536 9ff2 f338
000000e0: a58c ac36 302e c738 7217 4038 c25a 3438
000000f0: ff7c cc34 20b5 0233 99d0 de38 0e6f 5137
00000100: 5026 5b38 d567 8c39 af8b 8937 15e8 1b3a
00000110: ccf0 fd38 6570 4138 0aad 6b33 36aa fe31
00000120: d6ed 0d34 dc11 8c32 f5c3 3135 eccf 7536
00000130: 156d 2137 6ccb ec35 be7e 4136 4609 a934
8.269003e-06 2.7942578e-08 1.0558656e-06 2.3305488e-06 6.3198827e-06 0.00011849346 0.0014010406 5.862137e-06
0.00010452257 8.717552e-06 3.2721597e-05 2.8384388e-08 0.000102583734 0.00015463994 2.582837e-05 3.972447e-05
1.9522093e-05 0.0003262175 1.0546535e-05 7.2868784e-07 1.3214605e-05 4.142145e-08 0.00025733947 5.5679837e-05
1.9412579e-05 0.00013013325 1.1684005e-05 0.00026112556 6.8673486e-05 6.0419356e-05 0.0 2.1825716e-15
7.992494e-15 9.666767e-14 1.6230881e-14 2.657656e-16 2.7106958e-15 0.0 0.0 0.0
1.0118122e-06 1.7989922e-07 4.9446504e-07 3.6170238e-07 5.91281e-07 1.2313346e-05 5.567961e-06 2.9932312e-07
1.03702805e-05 1.5020029e-06 5.195996e-05 6.7456355e-08 0.000318206 0.00021658112 5.872348e-06 0.00011632335
5.1423726e-06 9.4976625e-05 4.5798202e-05 4.299987e-05 3.8088908e-07 3.0432716e-08 0.00010624639 1.2483228e-05
5.224935e-05 0.00026780242 1.6396718e-05 0.00059473637 0.00012108832 4.611946e-05 5.487258e-08 7.4117237e-09
1.3218173e-07 1.6306267e-08 6.6222793e-07 3.6628871e-06 9.621745e-06 1.7642574e-06 2.8833015e-06 3.148545e-07

exp_avg f4 [8]
00000000: 1d16 67b8 366a 95b8 2350 1039 0400 0000
00000010: 964c 8bb6 0886 25b9 78e5 82b9 8ef9 1bb8
-5.5095286e-05 -7.124657e-05 0.00013762763 6e-45 -4.1514386e-06 -0.00015785557 -0.000249665 -3.7187296e-05

exp_avg_sq f4 [8]
00000000: ada6 7b39 106b 3e39 3f26 2939 5bb3 8329
00000010: 0222 8436 3011 7e39 508b 6839 1099 4136
0.00023999317 0.00018159696 0.00016131344 5.848682e-14 3.9378656e-06 0.0002422973 0.00022177142 2.8848335e-06

exp_avg f4 [6, 8]
00000000: 0400 0000 0400 0000 0400 0000 0000 0000
00000010: 0400 0000 0400 0000 0400 0000 0000 0000
00000020: 2f33 82b7 6c09 db37 61db 0838 0400 0080
00000030: 480d a327 7354 00b8 f83a 1038 64f4 31b6
00000040: ddde a0b7 e8a9 f437 dddf 6c3a 0000 0000
00000050: c44c 6b33 09fd b438 1e9e 2539 fcca ad37
00000060: 40e0 32b6 8ebe abb7 8c93 7f35 0000 0000
00000070: 7a06 a2b6 efc2 5437 409f 24b8 8a0a fab7
00000080: 47d2 05b6 2cf3 f2b8 bed9 08ba 0400 0000
00000090: caef 52b6 c826 88b8 e539 78b8 288a e0b7
000000a0: 4da3 cf0e 020e 5b0e a7d4 290d 0000 0000
000000b0: 2b3a 200f f57f ae0e f375 180d 9a84 0a0f
6e-45 6e-45 6e-45 0.0 6e-45 6e-45 6e-45 0.0
-1.5521042e-05 2.6111222e-05 3.262924e-05 -6e-45 4.5255988e-15 -3.0596228e-05 3.4387194e-05 -2.651731e-06
-1.9177265e-05 2.9166185e-05 0.0009036044 0.0 5.478502e-08 8.6302e-05 0.0001579453 2.0717729e-05
-2.6654598e-06 -2.0473522e-05 9.520961e-07 0.0 -4.82873e-06 1.2681571e-05 -3.924896e-05 -2.980723e-05
-1.9940942e-06 -0.000115847535 -0.00052204344 6e-45 -3.1432014e-06 -6.492209e-05 -5.9181726e-05 -2.6767215e-05
5.1186693e-30 2.7000579e-30 5.2333117e-31 0.0 7.899812e-30 4.301753e-30 4.6980592e-31 6.8294634e-30

exp_avg_sq f4 [6, 8]
00000000: 1b63 822c bb68 bf23 aea2 412c 0000 0000
00000010: fab8 ac2b 5ffa 742d 6ede 5d28 0000 0000
00000020: 49f3 cf35 d84e 6838 5df1 0d39 a7ce a31e
00000030: c968 9c33 e5ea 8f37 1d55 8d39 8d4b 7c35
00000040: 983a 5637 b9ca 9c38 d23d be3a 0000 0000
00000050: 8983 2835 f8a6 e438 f991 be38 a1eb b137
00000060: 9a87 bb35 187a 5b38 6793 2e36 0000 0000
00000070: 3e7f be2f 3d6c ef34 e16b 9e39 581e 8634
00000080: 5f4a 5936 54f6 1d39 23fc b63a 76dc 3e1f
00000090: 6c32 a534 b954 7139 27e9 8239 88e4 a436
000000a0: b432 0623 5f31 e327 ce8d b31f 0000 0000
000000b0: 4ed2 9f23 0890 bd22 31d8 7727 f4e4 6e23
3.705825e-12 2.0752617e-17 2.7517255e-12 0.0 1.2272676e-12 1.3925388e-11 1.2316196e-14 0.0
1.5493507e-06 5.538654e-05 0.00013536723 1.7343766e-20 7.2833764e-08 1.715631e-05 0.0002695703 9.3987256e-07
1.2769036e-05 7.47642e-05 0.0014514273 0.0 6.2776286e-07 0.000109029876 9.0870955e-05 2.1209768e-05
1.3972051e-06 5.2327377e-05 2.601382e-06 0.0 3.465121e-10 4.4595973e-07 0.00030216484 2.4981523e-07
3.237881e-06 0.00015064451 0.0013960641 4.0416426e-20 3.0770332e-07 0.00023015113 0.00024969244 4.9141854e-06
7.274891e-18 6.3058685e-15 7.6044045e-20 0.0 1.7327882e-17 5.138105e-18 3.4395333e-15 1.29504886e-17

exp_avg f4 [6]
00000000: 0400 0000 50d3 0d38 1cc3 0d3a f83b 9fb7
00000010: 3c57 beb9 5200 850d
6e-45 3.381382e-05 0.00054077967 -1.8982202e-05 -0.0003630462 8.196835e-31

exp_avg_sq f4 [6]
00000000: 0b1c c02c 4ed6 9b38 9e16 4a39 bef9 ca37
00000010: d53e e639 12bb a327
5.4600816e-12 7.430893e-05 0.00019272647 2.4196572e-05 0.00043915832 4.544441e-15

exp_avg f4 [8, 6]
00000000: 0000 0000 12cd 9cb9 d0f6 26b7 0f3a 8bb6
00000010: 5aa8 99b9 aa34 970d 0000 0000 379e c90e
00000020: 0000 0000 09d0 700f e1f0 8010 0000 0000
00000030: 0400 0080 e6be ce18 0000 0000 7a1f d418
00000040: 0856 2816 0000 0000 0400 0080 ea01 b9b9
00000050: 4a80 fb37 59b3 81b5 451f 95b9 e143 aa0d
00000060: 0400 0080 3c69 7435 65d6 7036 1205 1eb7
00000070: 2aed ff34 bd3e ad0d 0000 0000 5330 8635
00000080: 51c5 1336 e7d5 66b6 0ebc 6f36 430e 3f0d
00000090: 0400 0080 2cc0 3c06 32ff b812 71fe 3b16
000000a0: 43f8 0d16 0000 0000 0400 0080 de5a cc35
000000b0: 405a 1f37 4f5c f7b7 bed0 aab6 10d2 700e
0.0 -0.00029907428 -9.951837e-06 -4.1492817e-06 -0.00029307866 9.318772e-31 0.0 4.970268e-30
0.0 1.187298e-29 5.085823e-29 0.0 -6e-45 5.344251e-24 0.0 5.48325e-24
1.3598079e-25 0.0 -6e-45 -0.00035287376 2.9981271e-05 -9.663446e-07 -0.00028442792 1.04934e-30
-6e-45 9.105022e-07 3.588758e-06 -9.418714e-06 4.767001e-07 1.0677052e-30 0.0 9.997842e-07
2.201956e-06 -3.4397178e-06 3.5723237e-06 5.8873586e-31 -6e-45 3.5500056e-35 1.1674943e-27 1.5186027e-25
1.1468227e-25 0.0 -6e-45 1.522563e-06 9.4981515e-06 -2.9487679e-05 -5.0906956e-06 2.9683425e-30

exp_avg_sq f4 [8, 6]
00000000: 0000 0000 1f50 9939 e447 1036 d930 a334
00000010: 7e53 9239 a154 8e20 0000 0000 c3a5 e626
00000020: 0000 0000 998e 2428 37b4 3c2a 0000 0000
00000030: 09ca 8829 3745 a930 0000 0000 3f61 6d29
00000040: e389 272e 0000 0000 a335 d229 43d6 293a
00000050: 1435 c236 d547 7135 b840 2d3a 4a79 b420
00000060: c0c0 3c2c 0a9c d737 5a44 9034 50c1 9f34
00000070: 872d 2638 6565 eb20 0000 0000 5fe6 cf33
00000080: 61e4 a133 800b 9a33 c5f8 b135 2d3d e31f
00000090: 8b04 2f1f ccb9 a025 242a 4c21 f631 7928
000000a0: fedd 0a28 0000 0000 923f ed2c 4dd1 cc36
000000b0: b36a ef33 a826 2c36 e5e2 9236 1b02 3622
0.0 0.0002924213 2.1499518e-06 3.0396657e-07 0.00027909497 2.4111738e-19 0.0 1.6004386e-15
0.0 9.13475e-15 1.6760279e-13 0.0 6.074661e-14 1.231604e-09 0.0 5.270892e-14
3.8093872e-11 0.0 9.335178e-14 0.0006478766 5.7878297e-06 8.9884026e-07 0.000660907 3.0573448e-19
2.6823405e-12 2.5702659e-05 2.6871822e-07 2.975671e-07 3.9619885e-05 3.9877646e-19 0.0 9.681093e-08
7.5386886e-08 7.173276e-08 1.3259929e-06 9.6239446e-20 3.706145e-20 2.7881476e-16 6.917366e-19 1.383311e-14
7.708676e-15 0.0 6.743003e-12 6.1040396e-06 1.1148713e-07 2.5652498e-06 4.377553e-06 2.4666714e-18

exp_avg f4 [8]
00000000: e6b7 8bb9 66a8 000f f709 a618 435b acb9
00000010: 5563 b4b5 b22a 2535 f4be dd13 a6af d3b6
-0.0002664916 6.3433196e-30 4.2920056e-24 -0.00032874392 -1.3439955e-06 6.152942e-07 5.5976538e-27 -6.308738e-06

exp_avg_sq f4 [8]
00000000: 21a2 2239 20e0 3b27 a4e9 4130 4674 ae39
00000010: f683 0f38 019f 2234 99ff 8327 8193 2237
0.00015509922 2.6072962e-15 7.0545014e-10 0.00033274497 3.4216755e-05 1.5145271e-07 3.6636924e-15 9.690296e-06

exp_avg f4 [10, 8]
00000000: 374e 0b38 cac8 8138 388d 0138 49f2 2638
00000010: 966d 25b6 cbab 1437 1333 0738 f05c 1c34
00000020: 51e8 7ab8 787e 60b8 84ab a8b8 5df6 78b8
00000030: 3674 b535 82a6 d2b7 54ec 94b6 5f35 d7b5
00000040: 0400 0000 6900 0000 5fdd e78d 0400 0000
00000050: 0400 0000 0400 0000 2e03 0000 0400 0000
00000060: 1050 22b8 9ef5 b436 6ef1 bdb8 c247 10b8
00000070: 4d9e 8fb6 a254 e0b6 a1b2 8eb7 3b67 13b7
00000080: 8208 f136 8f6c 0ab8 3a82 1b38 5849 1c36
00000090: 8931 bf36 36d1 e9b5 4225 a637 e222 2c37
000000a0: 20a7 35b8 5460 3537 d4c6 72b8 009e 1ab8
000000b0: 887e 32b7 4c1c 0137 8870 0fb8 e1b2 b5b7
000000c0: b2de 051c fdf9 ff15 84ca 921c f164 bf1b
000000d0: 31d7 ae15 bd68 2b1c 0400 0000 f6d1 1d87
000000e0: b87c d537 f1ae e4b6 3065 2eb9 234e e137
000000f0: 0c8d 93b6 8ba6 b138 44ee 26b8 6cd8 2eb6
00000100: 1e94 1ab7 8657 a337 72fa 82b8 2cba c3b6
00000110: d4ef a1b6 677d 2337 8c07 17b8 b84f 13b7
00000120: 8d63 d734 8862 0133 a176 532e 8ec6 9034
00000130: 4cc0 6635 3326 a235 2709 1732 62a0 b335
3.3213026e-05 6.188599e-05 3.0887517e-05 3.980313e-05 -2.4650703e-06 8.861486e-06 3.2234075e-05 1.4562443e-07
-5.9821006e-05 -5.3523545e-05 -8.0428115e-05 -5.935725e-05 1.3519373e-06 -2.5111487e-05 -4.438256e-06 -1.6034281e-06
6e-45 1.47e-43 -1.4289767e-30 6e-45 6e-45 6e-45 1.14e-42 6e-45
-3.8698374e-05 5.3930116e-06 -9.057192e-05 -3.4399105e-05 -4.2801607e-06 -6.6855728e-06 -1.70109e-05 -8.785918e-06
7.18335e-06 -3.3002867e-05 3.7076163e-05 2.3288503e-06 5.69801e-06 -1.7420741e-06 1.9806092e-05 1.0260121e-05
-4.330941e-05 1.0810869e-05 -5.788247e-05 -3.686361e-05 -1.0639087e-05 7.695588e-06 -3.419866e-05 -2.1660178e-05
4.4293836e-22 1.0338809e-25 9.713819e-22 3.166353e-22 7.061755e-26 5.6714525e-22 6e-45 -1.1873069e-34
2.5449655e-05 -6.8152954e-06 -0.00016631628 2.6858475e-05 -4.3973614e-06 8.471039e-05 -3.9799386e-05 -2.6053995e-06
-9.2136015e-06 1.947187e-05 -6.245532e-05 -5.833126e-06 -4.8260936e-06 9.744755e-06 -3.6008234e-05 -8.780444e-06
4.0119303e-07 3.0124767e-08 4.808121e-11 2.6966558e-07 8.5961506e-07 1.2081058e-06 8.791438e-09 1.3383217e-06

exp_avg_sq f4 [10, 8]
00000000: 672a 4b37 fba1 ba36 c1a9 c538 788f 3337
00000010: 972b f336 efb6 0738 bc09 c536 f404 8d36
00000020: 0116 4337 8bad d337 e5f0 4639 d6e9 7537
00000030: 5821 af36 1c57 cf37 649a 2e38 6dc7 3536
00000040: e0bb 0530 aa8b 892c e53b 2a32 149e dd2e
00000050: 666d 2630 923a 442f 91d5 e32d f2dd ec2e
00000060: fd72 8935 a329 3936 24c1 2838 91d9 c035
00000070: 0a8f e334 1674 3e36 fb7f e036 2efe 2333
00000080: 658f c635 b525 3936 5f65 bb37 d781 d135
00000090: 00fb 7035 c2d1 4036 7eda 9336 b219 0c35
000000a0: cd5e 2d36 c523 e936 bf6b b138 b1b8 7f36
000000b0: 9b2a 5935 a8b0 e836 0aff 5a37 79b8 b733
000000c0: f239 c630 8e58 6d2a 55f0 ee31 b782 4330
000000d0: 2f99 092c 3837 1a31 57df 8e26 8036 b72b
000000e0: cef7 7c37 282d c936 4db5 ef38 5a0f 6337
000000f0: c97a 0637 5e8d 3338 2c67 d936 9285 b736
00000100: 07dd c235 61a3 f035 4214 ed37 10d6 b035
00000110: 1536 6435 bbb1 4736 65c8 2e36 e585 3035
00000120: 0643 0e36 e808 ed32 aa77 2436 a86e c734
00000130: ede3 1836 52d5 1f36 1b68 c733 e71c 0036
1.2109615e-05 5.562089e-06 9.425311e-05 1.0702635e-05 7.247039e-06 3.235688e-05 5.8721907e-06 4.202704e-06
1.1628029e-05 2.5233972e-05 0.00018972492 1.4657582e-05 5.219288e-06 2.4716886e-05 4.162862e-05 2.7087183e-06
4.8652105e-10 3.90928e-12 9.908921e-09 1.0077997e-10 6.054591e-10 1.7846905e-10 2.5901755e-11 1.0771463e-10
1.0240761e-06 2.7591384e-06 4.0234198e-05 1.4368435e-06 4.238612e-07 2.8379777e-06 6.690619e-06 3.818257e-08
1.4793883e-06 2.7589097e-06 2.2339342e-05 1.5609502e-06 8.977222e-07 2.8732325e-06 4.4063772e-06 5.2191456e-07
2.583419e-06 6.9481052e-06 8.460087e-05 3.8105466e-06 8.09008e-07 6.9347043e-06 1.30531935e-05 8.555157e-08
1.4422865e-09 2.1080552e-13 6.9540342e-09 7.1126344e-10 1.9553905e-12 2.2441338e-09 9.913766e-16 1.3018059e-12
1.5078067e-05 5.9955237e-06 0.00011430178 1.3533829e-05 8.015611e-06 4.2808584e-05 6.4791147e-06 5.4693746e-06
1.4518454e-06 1.7928943e-06 2.8262035e-05 1.3175322e-06 8.501532e-07 2.9756764e-06 2.6044665e-06 6.575995e-07
2.1198662e-06 2.7594481e-08 2.4507558e-06 3.7147151e-07 2.2782435e-06 2.3817015e-06 9.285596e-08 1.909031e-06

exp_avg f4 [10]
00000000: d328 ae38 1e2f f3b8 e2a7 c88c a827 22b8
00000010: 987d b8b6 cc7d cdb7 87d4 e31b 8bad 5538
00000020: 3095 db36 12ef dc32
8.304571e-05 -0.00011595919 -3.091592e-31 -3.8660743e-05 -5.4982484e-06 -2.4496483e-05 3.7691342e-22 5.0944782e-05
6.5440763e-06 2.5720087e-08

exp_avg_sq f4 [10]
00000000: fcd2 3d38 126b 3838 c3bf 3a31 0d63 4a37
00000010: 4733 b236 127a c337 4d95 8730 a4db 6a38
00000020: ea7d 2637 08a3 3534
4.5257606e-05 4.3968736e-05 2.7175566e-09 1.20632e-05 5.310783e-06 2.3302655e-05 9.864977e-10 5.5994504e-05
9.923688e-06 1.6916249e-07

exp_avg f4 [12, 10]
00000000: a0d9 f0b5 da2e c037 7f5a 0c37 ecdd d637
00000010: d012 cab5 6c11 ab37 fd3f afb5 f04f 10b7
00000020: 5211 8437 2e6a 1eb6 48f6 ec36 5482 ba37
00000030: 5c44 1637 4803 f137 ece2 46b7 3054 3338
00000040: 7fa7 0cb6 c077 02b6 a63c c037 009b cab5
00000050: 0020 5534 fe5e 8337 9e6f e237 3063 5e37
00000060: e09a 81b6 40b7 8234 3ca6 9c36 7251 edb7
00000070: 60d0 e6b5 7281 3d36 b4bc 20b8 96ac ec36
00000080: 1810 09b8 9233 90b7 05f6 cbb7 f8b5 28b7
00000090: 66e4 77b7 57b3 44b7 a01e 47b7 de0b 2cb7
000000a0: a6aa 1c37 195e 3f37 f0b0 3b36 74b5 8137
000000b0: 9085 78b6 981c ef37 b907 adb6 5066 82b6
000000c0: 1b60 9c37 1c43 1eb6 3865 4137 a230 2538
000000d0: 98bb 93b6 5a3c 4238 e6f6 9d37 ff8d 3238
000000e0: 02c8 8fb6 80ce d637 052e 2338 ca00 8836
000000f0: 0096 bfb7 7146 0938 dd41 a636 7745 ae37
00000100: 2000 bab7 bc95 c837 6013 7b34 6138 ceb7
00000110: fe5b 1237 ea41 2635 e899 9b36 5a11 cbb7
00000120: a0ed da36 7a78 d5b7 581f 6db6 c649 b8b7
00000130: 84e7 a835 c0ef a2b7 809e b1b7 608f a5b4
00000140: dcc0 8e36 14d7 2b37 b6b9 0938 3c90 9c36
00000150: 440a a4b7 8007 6b37 7a69 3936 7712 22b8
00000160: 6017 bdb5 3411 5d36 0667 80b7 6e5a 3937
00000170: 04ca ba36 40c5 a0b5 3c30 62b7 d2d3 04b7
00000180: e58c d6b6 4837 17b8 d442 1ab7 816c c1b6
00000190: d516 b837 18bd c1b7 2087 0eb8 515d b9b7
000001a0: e25b ea36 2aa5 d636 55cc f9b6 a2fe b337
000001b0: 90e1 b0b5 7fe7 b136 78fc 5737 b222 b9b7
000001c0: 7098 6eb7 61e1 96b6 8ca2 f037 e0c4 ccb7
000001d0: 779a 5d36 5f56 1638 4800 8ab6 1093 39b6
-1.7944731e-06 2.291e-05 8.3657205e-06 2.5614128e-05 -1.5055648e-06 2.0392901e-05 -1.3057139e-06 -8.601681e-06
1.5743692e-05 -2.360564e-06 7.062019e-06 2.2233617e-05 8.956613e-06 2.8730967e-05 -1.1854554e-05 4.275533e-05
-2.0959121e-06 -1.9441213e-06 2.2916425e-05 -1.5095284e-06 1.9848812e-07 1.5660651e-05 2.6993275e-05 1.3255325e-05
-3.8625294e-06 2.434772e-07 4.6685145e-06 -2.8290528e-05 -1.719698e-06 2.8238542e-06 -3.8322716e-05 7.0534397e-06
-3.2678334e-05 -1.7190152e-05 -2.4314048e-05 -1.0055948e-05 -1.4775525e-05 -1.1724266e-05 -1.1868455e-05 -1.0254762e-05
9.338057e-06 1.1406396e-05 2.7968163e-06 1.5462494e-05 -3.7032623e-06 2.8504335e-05 -5.156701e-06 -3.8862127e-06
1.8641402e-05 -2.3582897e-06 1.1527263e-05 3.938436e-05 -4.40278e-06 4.630941e-05 1.883083e-05 4.257075e-05
-4.285016e-06 2.5606947e-05 3.8905087e-05 4.0532077e-06 -2.2838823e-05 3.272895e-05 4.954853e-06 2.0774763e-05
-2.2172986e-05 2.3911583e-05 2.3383245e-07 -2.4583367e-05 8.723697e-06 6.1935737e-07 4.637277e-06 -2.4207566e-05
6.5245695e-06 -2.544768e-05 -3.5333996e-06 -2.1968863e-05 1.2584355e-06 -1.9423547e-05 -2.1173852e-05 -3.0837964e-07
4.2543816e-06 1.0242471e-05 3.2836302e-05 4.6659534e-06 -1.9555104e-05 1.4008838e-05 2.7628544e-06 -3.8641007e-05
-1.40884e-06 3.294158e-06 -1.5306763e-05 1.1047914e-05 5.5667497e-06 -1.1978336e-06 -1.348188e-05 -7.917131e-06
-6.3940993e-06 -3.605269e-05 -9.194675e-06 -5.7644797e-06 2.1945141e-05 -2.3095447e-05 -3.3981283e-05 -2.2097172e-05
6.98444e-06 6.3969246e-06 -7.4445657e-06 2.1457035e-05 -1.3178669e-06 5.3019608e-06 1.2873781e-05 -2.2069875e-05
-1.4221398e-05 -4.496586e-06 2.8685921e-05 -2.4410372e-05 3.3021477e-06 3.5843226e-05 -4.1127532e-06 -2.765275e-06

exp_avg_sq f4 [12, 10]
00000000: c7a6 c335 7625 3336 3011 bc35 d447 6136
00000010: b14f a335 e185 2e36 0b39 df34 f097 8636
00000020: fe7e 3436 3c64 7734 7101 4436 131e 5e36
00000030: af4e 3336 c438 9436 9734 d235 d36f 2e36
00000040: c791 1c35 578c 1537 df74 9536 1354 e234
00000050: c949 cd35 0288 2136 15fb ce35 6f93 5136
00000060: e211 9435 0539 1e36 be83 c634 4bd1 a436
00000070: fee9 2636 db69 9134 6e4e c836 9bc1 9137
00000080: d131 be36 5225 ba37 e9ff 0037 ba4e 9637
00000090: 12ab c735 1f04 5437 029f 6837 7c24 8d35
000000a0: 2cbb da35 8ecb ab35 67a6 dd35 6b58 de35
000000b0: ced3 2235 c6dc 9535 5ab6 e934 678f d936
000000c0: 4b48 1b36 db96 9734 4165 3736 021d 2d36
000000d0: 339b 4136 9a78 7136 0ee9 ad35 4f3e 0736
000000e0: de40 3135 fe82 2337 61b1 8436 f17f 0235
000000f0: eeb4 fd36 47a6 b537 9e15 e236 48f9 df37
00000100: d305 2937 c913 9e37 ec9b b435 2a56 6b37
00000110: d8f0 8837 8f12 a235 2f70 2a36 7855 9836
00000120: 0f68 1d36 4d8a cc36 fef2 0d36 8444 8336
00000130: f116 f934 642b e036 f9b2 9636 56fd c734
00000140: 2a14 0336 21dd 4336 4f3d 1f36 7151 8236
00000150: 9635 b435 9316 3f36 9b6d e834 fc98 b036
00000160: f9a4 4b36 3e82 f734 26d3 2136 9cba d936
00000170: 2f22 3a36 7229 0f37 b961 3b36 d24f 0137
00000180: 0048 1335 3ed5 b536 60d7 b336 c521 1135
00000190: e690 5236 eedc 2f37 61cb 2236 abf3 5c37
000001a0: 79df 9d36 398c 4337 a2c0 1735 4f61 b836
000001b0: 757e ff36 c87e bf34 d1b2 dc36 6f7d 8737
000001c0: a23f fa36 b68d a737 dda2 fc36 4dfc 6437
000001d0: f8ac dc35 8342 7437 ec3d 5c37 147c bf35
1.4577171e-06 2.6694884e-06 1.4012094e-06 3.3569422e-06 1.216764e-06 2.6005948e-06 4.157849e-07 4.011199e-06
2.689601e-06 2.3040133e-07 2.9207115e-06 3.3098083e-06 2.6718878e-06 4.417352e-06 1.5661525e-06 2.599311e-06
5.832666e-07 8.9137675e-06 4.4541516e-06 4.2156952e-07 1.5295165e-06 2.4070036e-06 1.542127e-06 3.1229245e-06
1.1032064e-06 2.3577024e-06 3.697623e-07 4.911946e-06 2.487213e-06 2.7085375e-07 5.969595e-06 1.7375502e-05
5.6682406e-06 2.2190306e-05 7.688978e-06 1.7918053e-05 1.4876443e-06 1.2637144e-05 1.38652995e-05 1.0515937e-06
1.629674e-06 1.2799735e-06 1.6514213e-06 1.6566022e-06 6.065792e-07 1.1165619e-06 4.353231e-07 6.483798e-06
2.313888e-06 2.8235704e-07 2.7328063e-06 2.5795894e-06 2.884958e-06 3.5981998e-06 1.2957332e-06 2.0152836e-06
6.603203e-07 9.746056e-06 3.954556e-06 4.8614953e-07 7.5610506e-06 2.165431e-05 6.7378414e-06 2.6699752e-05
1.0074541e-05 1.8844281e-05 1.3456424e-06 1.4027153e-05 1.6324615e-05 1.2075342e-06 2.5397273e-06 4.539903e-06
2.3455393e-06 6.095774e-06 2.1152077e-06 3.9120805e-06 4.6396556e-07 6.6807715e-06 4.4911835e-06 3.7250965e-07
1.9532258e-06 2.9185978e-06 2.3728533e-06 3.883783e-06 1.3426641e-06 2.8474358e-06 4.3293116e-07 5.2630185e-06
3.0345384e-06 4.61021e-07 2.4113774e-06 6.488828e-06 2.7736057e-06 8.533114e-06 2.7922054e-06 7.707584e-06
5.486654e-07 5.419045e-06 5.3596887e-06 5.406585e-07 3.137678e-06 1.0482252e-05 2.4258263e-06 1.3169755e-05
4.7049803e-06 1.1655554e-05 5.65322e-07 5.4949555e-06 7.6143137e-06 3.5668768e-07 6.577328e-06 1.6151664e-05
7.4579884e-06 1.997394e-05 7.529145e-06 1.3648602e-05 1.6441618e-06 1.4559019e-05 1.3127439e-05 1.426672e-06
