checkpoint/AE_ckpt_train_model2.pt (torch, 30858 bytes, 54 tensors)

encoder.0.weight f4 [10, 12]
000000 70 9e 1a be 3b 27 1c 3e a7 cb 4c bd ec dd 1f be
       -0.15099502 0.1524934 -0.049998906 -0.15612
000010 d5 97 a1 be 78 c1 e1 bd 0e 56 d1 3e 5d 97 54 3e
       -0.3156115 -0.11023229 0.40885967 0.20760866
000020 41 ab 1e 3e 29 05 7e 3d d4 8d 0a 3d 95 86 4a be
       0.15495016 0.06201664 0.033826664 -0.19777901
000030 83 89 98 be 7c 0c 36 be ee d4 2d be 0d ae 99 be
       -0.29792413 -0.177782 -0.16975757 -0.30015603
000040 90 e6 56 be d9 8e 37 3e c7 d9 89 3f ab 4e 2e bf
       -0.2098639 0.17925586 1.0769585 -0.6808879
000050 77 03 ef be f7 77 5f 3c b4 24 ac 3c 4d e3 9a 3e
       -0.4668233 0.013639442 0.021013595 0.30251542
000060 7f 9d d3 3d 0e d4 c0 be 25 8f 83 be 2b 60 78 3e
       0.10332774 -0.37661785 -0.25695148 0.24255435
000070 af 79 fe 3c 9d df 00 3e 08 93 8c 3f b1 0e ba be
       0.031063883 0.12585302 1.098237 -0.36339334
000080 4d 11 85 be 53 55 92 3e 5e 60 b5 be 9a 04 37 3e
       -0.25989762 0.28580722 -0.35425085 0.17872849
000090 7b 32 52 3d a3 ba d8 bc 42 a3 31 be b5 42 c9 3e
       0.051317673 -0.026456183 -0.17347434 0.39308706
0000a0 31 1a 8c be f6 01 9e 3e 6d 48 a1 3f 87 71 91 bf
       -0.27363732 0.3086087 1.2600228 -1.1362771
0000b0 65 5b 64 be 16 e8 1e 3e ef 54 e6 bd 17 8b 24 3f
       -0.22300489 0.15518221 -0.112466685 0.64274734
0000c0 3e 92 f3 be 0a 01 9e 3e 69 c3 2f bc cd b6 06 3f
       -0.4757251 0.30860168 -0.010727742 0.5262268
0000d0 13 91 f5 bd ca 9c 55 3c 90 7e 81 be f6 8f 67 3f
       -0.11990561 0.01303787 -0.25291872 0.9045404
0000e0 a1 5f 12 bf 38 4b a9 be 2b fd 3a 3e 8e cd c9 be
       -0.5717717 -0.330652 0.18260638 -0.39414638
0000f0 8c 66 6b 3e ae 46 f0 be b2 30 c1 3e 4d 29 bf be
       0.22988337 -0.46928924 0.37732464 -0.37336197
000100 e1 7e 1f 3e 7f 4a 05 3e 00 e7 d6 be b4 a7 30 3e
       0.15575744 0.13016699 -0.41973114 0.17251474
000110 96 03 2c 3e b3 07 b0 bd 67 2c 67 bf 50 02 a8 3e
       0.16798243 -0.085952185 -0.9030213 0.32814264
000120 4b fe c7 3e 64 76 8f be 7d 84 24 be b9 79 2f 3e
       0.39061198 -0.28020012 -0.16066165 0.17136277
000130 58 4c cd 3d b2 aa e6 3e a9 94 a1 3f 52 d9 fa be
       0.10024327 0.45052105 1.2623492 -0.48993927
000140 f6 f4 db 3d b7 df 2a bf f7 d8 02 3f 46 ee 01 3f
       0.10740082 -0.6674761 0.5111231 0.507542
000150 79 58 03 3f 00 f5 00 be 28 42 04 bd e3 a6 22 3f
       0.51306874 -0.1259346 -0.032289654 0.635359
000160 04 73 e1 3d 3a 4b 7e bf e1 7d 21 bf 23 4c b8 bb
       0.110082656 -0.99333537 -0.630827 -0.0056243106
000170 4a 29 55 3e 96 d1 e3 be c5 60 3f 3d 7a d6 0c bf
       0.20816532 -0.4449584 0.046723146 -0.55014765
000180 e3 9a ad 3e af fc 8b 3e 6d a3 6c 3d 62 e8 cb 3d
       0.33907232 0.2734122 0.057773042 0.09956433
000190 72 55 f2 3d f6 df 9b 3e 5f 3d 99 3f ac 24 56 bf
       0.11832704 0.30444306 1.1971854 -0.83649707
0001a0 1e 8b 84 be f4 b1 4e be 0f ac 29 3d 74 9c 05 3e
       -0.25887388 -0.20185071 0.041423853 0.13047963
0001b0 ac 48 ba bd 0e 11 05 bf 53 34 c1 bd af d0 b6 3e
       -0.09095892 -0.5197915 -0.09433808 0.35706088
0001c0 00 ae c3 bc 11 a3 04 3e 64 c8 6c 3f 9a 65 02 bf
       -0.02388668 0.1295283 0.9249327 -0.5093628
0001d0 04 65 79 be 6c d1 8f 3e 40 b0 0d 3e 11 23 80 3e
       -0.2435494 0.28089464 0.13836765 0.25026754

encoder.0.bias f4 [10]
000000 0d 93 b8 be a6 a6 ac be 23 69 5d be 4f b8 06 bf
       -0.3604969 -0.33720893 -0.21622138 -0.5262498
000010 7f 38 b1 3d fe 6b e7 bd 6d 05 d8 be b5 bd 54 3e
       0.08653354 -0.11299895 -0.4219164 0.20775492
000020 be 3f f5 be d8 7d 08 bf
       -0.47900194 -0.5331702

encoder.3.weight f4 [10, 10]
000000 9d 48 db 3d 23 f5 1c 3f 30 bd cb bd 57 3c 1a 3f
       0.10707209 0.6131155 -0.09948194 0.6024832
000010 ae 77 66 bd 9d 49 b1 be 5c ef 07 3e 72 b0 e1 be
       -0.05626648 -0.34626475 0.13274902 -0.4407993
000020 db 83 18 3f 8d 8a 6b 3f d1 3b 4e 3d ee 2a 35 3e
       0.59576195 0.92008287 0.050350014 0.17692158
000030 4e 6d 1a 3f 5b 2c 8d 3e f3 6c 02 bc c4 2f 31 bd
       0.60323036 0.27572903 -0.007960546 -0.043258443
000040 1f 8c c9 bd b4 ea 79 be 56 9d 26 be 33 43 38 3f
       -0.09841179 -0.24405938 -0.16270956 0.7197754
000050 dc 89 1f be b7 39 0a 3e 27 6f cc 3e 45 e4 8b 3f
       -0.15579933 0.13498579 0.39928553 1.0929037
000060 2d 5f 81 be 08 de 14 be 41 e4 51 3f f6 04 35 bf
       -0.25267926 -0.14537823 0.8198891 -0.70710695
000070 cb b9 7f 3e 14 84 03 3f 14 13 af 3d c5 b0 a6 3e
       0.24973218 0.5137341 0.08548561 0.3255674
000080 4a 05 b6 3e ab 10 ad bd 26 1f 1e be 16 36 0c be
       0.3555091 -0.08450445 -0.1544157 -0.13692507
000090 3e 0c 5f 3f f0 5b 4e bf 6a 15 15 3f 11 c2 75 bf
       0.87128055 -0.80609035 0.582358 -0.95999247
0000a0 8c da d3 bd aa 59 4a be cf 2d c2 3d 9d 7d 84 3f
       -0.10344419 -0.19760767 0.094813935 1.0350834
0000b0 02 1a d3 be e7 6b 29 bf 11 1b b9 3e 82 12 22 be
       -0.4123078 -0.6618027 0.36153463 -0.15827373
0000c0 88 09 dd 3e f1 25 52 3f 19 80 57 bd e7 b1 eb 3d
       0.43171334 0.82089144 -0.052612398 0.115085416
0000d0 aa c7 2d 3f 0f 07 9f 3e b1 70 4b be 14 6e 7c bd
       0.6788279 0.31060073 -0.19867207 -0.061628416
0000e0 4a 8c b8 bd d9 6f a9 be a1 10 af be 93 4d 87 3f
       -0.09011133 -0.33093145 -0.34192374 1.0570549
0000f0 0c 16 7e 3d 93 b8 9e 3e 92 28 35 3e 41 74 19 bf
       0.062032744 0.31000194 0.17691258 -0.59943014
000100 d8 31 71 3f 00 7e c8 bd 81 1e 70 bf 75 d7 07 3e
       0.9421668 -0.097896576 -0.93796545 0.13265784
000110 cb 91 8f 3e 4c e3 83 be 8a 61 04 3e 6f 5d ea 3e
       0.2804092 -0.2575935 0.12927833 0.4577441
000120 5f 10 cf 3e 1c c5 63 3f 65 e2 3d bf a6 5a 13 bf
       0.40442178 0.8897264 -0.74173576 -0.57560194
000130 22 10 07 3f 39 33 1d bf 0a 37 18 3f 7d 35 1d 3f
       0.5275899 -0.61406285 0.5945898 0.6140974
000140 41 05 4e 3f 28 83 91 3e 77 0d 66 be 37 93 27 bf
       0.80476767 0.28420377 -0.22466074 -0.6545901
000150 7f c8 93 3e 5b 97 2b 3f bb c3 34 be 0a 63 a2 3e
       0.28863904 0.67027825 -0.1765279 0.31716186
000160 81 dd 0f bf 9d 5e 1f bf c9 22 f0 3d ab f8 d8 bd
       -0.56197363 -0.62253743 0.11725385 -0.10594305
000170 94 02 01 3f a3 26 17 3e 03 ef 17 bf 2b cc c1 3e
       0.5039456 0.14760832 -0.5934908 0.3785108
000180 28 85 fc 3d 50 e8 8a bf 7d f8 d1 bc 0c b8 2e 3f
       0.12330085 -1.0852146 -0.025631184 0.68249583

encoder.3.bias f4 [10]
000000 14 45 7b bd 87 ea f3 be 22 f3 22 3e 60 1c ad be
       -0.061345175 -0.47639868 0.1591306 -0.3381071
000010 d0 ef a6 be e7 c3 8f be 5a 75 aa bd 4d 17 b9 be
       -0.32604837 -0.2807915 -0.08323164 -0.3615059
000020 56 9c d5 3e 5d ad 55 bf
       0.41720837 -0.83467656

encoder.6.weight f4 [6, 10]
000000 fd 28 21 3f c2 2a 60 3f 54 20 af be 53 76 2c bf
       0.6295317 0.87565243 -0.34204352 -0.6736805
000010 b1 81 cd 3d 03 61 44 3e 56 af d7 bd b0 7d 1a 3e
       0.10034502 0.19177632 -0.105314896 0.15087008
000020 3f 33 33 3e fe dd 09 bd 8b 54 3e 3f b5 6b 81 be
       0.17500018 -0.033658974 0.7434775 -0.25277486
000030 3f 87 b9 3d 29 6b 83 bf c5 da 25 3f 0e 5d 1f 3f
       0.09058999 -1.0267078 0.6478694 0.62251365
000040 1a fb 8d 3e cc 79 ea 3e a2 37 f8 be c3 9d 61 bf
       0.27730638 0.4579605 -0.48479944 -0.8813135
000050 ab 63 0d bf 50 7e eb be c0 82 ab be dd 95 93 3e
       -0.55230206 -0.45994806 -0.33498192 0.28825274
000060 28 3e 60 bf ab ba 66 bf 30 5e f6 3e 09 3b 15 bf
       -0.8759484 -0.9012858 0.48118734 -0.58293205
000070 53 ec 3e 3f 96 0b ab 3e 3e 06 0e bf 58 cc 0c bf
       0.7457935 0.33407277 -0.55478275 -0.54999304
000080 e4 d3 f5 3e d1 65 a9 bd 69 1e 27 3e 0f 07 8e be
       0.48013222 -0.08271373 0.16320194 -0.2773976
000090 46 19 fb 3c 5f d9 17 bf 7b 38 ba 3d 90 42 01 3f
       0.0306517 -0.59316057 0.09092804 0.5049219
0000a0 37 e3 ef 3e 55 74 13 3f 95 56 a4 3e a0 56 47 3b
       0.4685304 0.57599384 0.32097307 0.0030416623
0000b0 5f d8 45 3f e4 a9 8c 3f 43 e6 0f bf a6 43 82 3f
       0.7728328 1.0989347 -0.56210726 1.0176895
0000c0 5d 55 1d bf 7b 56 a2 3e e7 58 a9 be 13 71 dc 3c
       -0.6145838 0.31706604 -0.3307564 0.026909387
0000d0 69 1e 3e 3f 72 d3 43 3f 50 c2 86 3f 97 33 53 3f
       0.7426515 0.76494515 1.052805 0.82500595
0000e0 7d 56 a9 be 3b 98 50 3f 94 3a 9c be f5 83 9c 3e
       -0.33073798 0.81482285 -0.30513442 0.30569425

encoder.6.bias f4 [6]
000000 1b 03 32 bc 0d 20 fb 3b 65 9c 50 3f c0 41 85 3e
       -0.010864998 0.007663733 0.8148864 0.26026726
000010 7e 45 5b bf d1 fa 3f bf
       -0.8565291 -0.7499209

decoder.0.weight f4 [10, 6]
000000 33 6c 70 be dc 18 44 3f fd 8c 78 be c3 fc b4 3d
       -0.23478775 0.7660043 -0.24272533 0.08837273
000010 aa 6a a3 be 88 83 52 be 6a 47 87 3e a2 93 94 3f
       -0.31917316 -0.20557988 0.26421672 1.1607554
000020 f4 64 cf bf bc 31 09 bd 1d 67 a7 3f d4 83 5d 3f
       -1.6202683 -0.033494696 1.3078343 0.8652928
000030 b5 05 53 3e c0 7c 10 bf 35 b1 8c bf 43 43 34 3d
       0.20607646 -0.56440353 -1.0991579 0.04400946
000040 ce 00 ba 3f 55 dd 3e 3f 5a 39 e8 bd 54 a7 a7 ba
       1.4531496 0.74556476 -0.11339064 -0.0012790957
000050 bd f5 af bf 8c 7a 37 be 5a 75 49 3f 0b 35 79 3f
       -1.3746868 -0.17917842 0.7869469 0.9734656
000060 27 d1 5b bd 5a 6c 9e 3e 2c 4e 8c bf ff 79 9a bd
       -0.05366626 0.3094204 -1.0961356 -0.075428
000070 58 bb 7e 3f 07 51 b6 3e 88 3c 3a bf 68 22 2a bf
       0.99504614 0.35608694 -0.72748613 -0.6645875
000080 ba b9 94 be c6 86 1e 3f ec 36 7c 3f 1a 9f 80 3f
       -0.29047948 0.619244 0.98521304 1.0048554
000090 cc 23 ea bd c9 08 49 3d 40 90 96 bf 87 87 af be
       -0.11432609 0.049080644 -1.1762772 -0.34283087
0000a0 19 42 20 3f 1d 20 ad 3e b5 16 e4 3e b8 bf 8b 3e
       0.62600857 0.33813563 0.44548574 0.27294707
0000b0 6c 71 33 be 23 c0 b6 bf 5b 69 db 3e 12 64 eb bd
       -0.17523736 -1.4277385 0.42853817 -0.11493696
0000c0 f6 18 84 bf 72 04 08 3e d9 b9 21 be b1 a0 2c bf
       -1.0320117 0.13282946 -0.15793552 -0.67432696
0000d0 a4 16 82 3e 74 d2 22 3f 40 c7 2d 3f 00 2e 8d 3f
       0.25407898 0.63602376 0.67882156 1.1029663
0000e0 0f d4 b2 bf 15 f9 a2 be 86 dc a9 3f 7e f9 e5 3d
       -1.3970965 -0.3183066 1.3270423 0.112292275

decoder.0.bias f4 [10]
000000 d6 9f 71 3e 5e 43 10 bf 15 1a 62 bf d3 21 c7 be
       0.23596129 -0.56352794 -0.8832105 -0.38892993
000010 c7 db 9d be 1c 17 45 be 40 f6 b0 be 73 57 4c 3e
       -0.3083174 -0.19247097 -0.34562874 0.19955234
000020 cf a6 1f be 35 c3 a8 be
       -0.15590976 -0.3296143

decoder.3.weight f4 [10, 10]
000000 73 9a c5 3e de f0 af bd ba 4a 29 3c 24 a1 eb be
       0.38594398 -0.08590864 0.010332758 -0.46021378
000010 1b 53 45 bf 38 b4 06 3e 34 b0 c7 be 42 17 e7 3c
       -0.77079934 0.13154685 -0.3900162 0.028209332
000020 d3 14 cc be 9c 1e d2 bd a7 42 0a bd 0f ec ce 3f
       -0.39859638 -0.102597445 -0.03375497 1.6165789
000030 f0 0f 83 3f 02 26 95 3f 97 0c 6c 3f 22 c7 6a be
       1.0239239 1.1652224 0.9220671 -0.22927526
000040 d5 6a a3 3f ad 84 84 3d 41 c2 cf 3f 94 7d bd 3f
       1.2766978 0.064706184 1.6231157 1.4803948
000050 21 cb 5c bd b9 01 29 bc 3a 84 f2 be 4b 7e 48 be
       -0.053904656 -0.010315352 -0.47366506 -0.19579427
000060 7e ea 04 3f 40 f7 d4 be 83 e4 31 bf c0 30 07 bf
       0.51920307 -0.41594887 -0.69489306 -0.5280876
000070 1e bc 25 3f ba 10 c2 bd b6 ef 27 3d f5 ed 06 3f
       0.6474017 -0.094758466 0.04100009 0.52706844
000080 99 48 62 3f d7 33 1c 3f 4a 90 11 3f 8c a2 9a 3e
       0.88392025 0.610166 0.5686079 0.30202138
000090 2b 49 98 3f f0 32 7e 3f d1 48 0f 3f 66 6e b2 3e
       1.1897329 0.99296474 0.55970484 0.34849852
0000a0 c3 60 0e bd cf b1 1c 3f 7e 4f 81 3f 98 a3 1f 3f
       -0.034760248 0.61208814 1.0102384 0.62359
0000b0 50 20 b9 3e 19 00 81 3f ef a8 07 3e ea 8f 9e 3e
       0.36157465 1.0078155 0.13248037 0.30969173
0000c0 8e 6e af be d5 c6 69 3f 66 a0 05 3f e4 60 61 bf
       -0.34264034 0.9131902 0.52197874 -0.8803847
0000d0 83 b2 cf be 41 c3 bc 3f c6 ee 20 bf 06 5a 15 bf
       -0.4056588 1.4747087 -0.6286434 -0.5834049
0000e0 38 39 1b bf fe 30 9c bf 9c 40 8f 3f 6d 74 39 be
       -0.60634184 -1.2202451 1.1191592 -0.18110819
0000f0 5f fb c6 3e 5d d3 dd bd 30 8c 05 be 60 45 e7 be
       0.38863656 -0.1083133 -0.13041759 -0.45170116
000100 d8 b3 ae 3e 8b 7e c4 bd 12 80 52 be f7 0e 1b 3f
       0.34121585 -0.09594449 -0.20556667 0.6056971
000110 1a 97 a9 3d 05 9a d6 3d 49 5e 1c bf 41 35 38 3f
       0.082807735 0.10478596 -0.6108137 0.7195626
000120 46 38 64 3f 2c 4b f7 3e 93 36 04 3f 79 5c 74 3f
       0.89148366 0.4829954 0.51645774 0.954536
000130 f8 4a 94 3f 5f 03 04 be 91 3a 85 bf 75 cd ae 3f
       1.1585379 -0.12891911 -1.0408498 1.365645
000140 79 d9 13 3d 5a e2 5c 3f 25 f5 bc 3e 50 c6 8a 3c
       0.03609607 0.86282885 0.3690578 0.016940266
000150 6c b2 08 3e 78 5f cb bc 35 cc b2 3e dd 35 dc 3e
       0.13349313 -0.024825796 0.34921423 0.43009844
000160 9f 75 9d 3f b9 ba e3 3e cf 7c 8c bd 2d 9f e0 3f
       1.230152 0.44478396 -0.06859743 1.7548577
000170 ce 92 d6 3f f7 48 f3 3e a9 2e b3 3e 18 0b 98 bc
       1.6763551 0.47516605 0.34996536 -0.018559977
000180 51 de 55 3f 7d c2 1c 3f a6 26 06 3f f6 39 0c 3f
       0.8354235 0.61234266 0.5240272 0.5477594

decoder.3.bias f4 [10]
000000 ab e7 d4 3e e2 74 01 bd f6 55 ab 3e 1c d7 46 bf
       0.41583 -0.03160561 0.3346402 -0.7767198
000010 ce f8 39 bf 48 4d 8d be 61 31 b9 bd 9e d7 7d be
       -0.7264527 -0.27598023 -0.090426214 -0.24789283
000020 86 a2 33 bf ad 35 3f bf
       -0.70169866 -0.7469128

decoder.6.weight f4 [12, 10]
000000 15 27 c0 3e db 88 09 bf e1 64 f0 be dd 1e 2f bf
       0.37529817 -0.5372445 -0.46951964 -0.6840647
000010 b8 0c 19 be 9a 3c 75 3f 78 8d 99 3e 33 e6 88 3c
       -0.14946258 0.95795596 0.29990745 0.01671133
000020 9e d0 1c bf 86 f4 ce be 93 5e 41 3f 30 8a e6 3a
       -0.61255825 -0.40420932 0.75534934 0.001758879
000030 6e 74 79 bd ba 17 e6 3e 8c 73 84 3c 7d fa f3 3c
       -0.06090205 0.44939977 0.016168378 0.029782528
000040 4f b9 0f bf 6c fd 50 be 76 21 3a bf fa 4f 18 bf
       -0.56142133 -0.20409173 -0.7270731 -0.59497035
000050 4b c2 24 be e2 6e cb 3e 52 95 67 3c 94 55 37 3f
       -0.16089742 0.39733034 0.014134722 0.71614957
000060 7f ef c5 3e 43 9d 2a bf 91 26 4f be b8 91 87 3e
       0.38659284 -0.6664621 -0.20229556 0.26478362
000070 bf cc 9f 3e 53 b0 9e 3e 44 ad fe 3e e9 47 80 bd
       0.31210896 0.309939 0.49741566 -0.06263716
000080 bc fe 50 be 53 ca 04 bf c0 56 d4 be 99 c4 72 bd
       -0.20409673 -0.5187122 -0.41472435 -0.05926952
000090 9f 6e 94 be 3e c1 0b 3f f4 42 14 bf db bf d7 3e
       -0.28990647 0.5459174 -0.5791466 0.42138562
0000a0 50 d8 77 3e f4 bc 2e bf 6b 80 08 3d f9 57 73 bf
       0.2420361 -0.6825707 0.033325594 -0.9505611
0000b0 55 16 5e bf 81 4a 28 3f 09 b8 05 3f e5 34 35 bf
       -0.86752826 0.65738684 0.5223394 -0.70783836
0000c0 73 d3 00 bf 9e 5d 4a be e9 3b bb be 89 51 be 3e
       -0.50322646 -0.19762275 -0.36569145 0.3717158
0000d0 31 9d 43 3f 60 87 32 3f aa a5 f3 3d 45 51 42 3f
       0.7641173 0.69737816 0.11896832 0.7590526
0000e0 3e 8a 9a 3d 83 9c ec 3e 9a a0 f2 3c ca 95 37 bf
       0.07545899 0.4621316 0.029617596 -0.71712935
0000f0 0e c1 b6 be 79 0b 70 bf 7f b7 55 3e 5e 92 11 bf
       -0.35694164 -0.93767506 0.2087078 -0.56863964
000100 ae 0a 33 bf 84 57 40 bf 27 95 4b bf 97 3d 05 bf
       -0.6993817 -0.7513354 -0.79524463 -0.52047104
000110 f4 17 2f bf d0 3a da bd 75 b3 f0 3d 83 8d c9 be
       -0.68395925 -0.10655749 0.11752979 -0.39365777
000120 38 46 eb 3d 85 a5 8f bf 2c 2c 7f bf a2 ea 2c 3f
       0.114880025 -1.1222388 -0.99676776 0.6754552
000130 20 d0 68 be 83 f8 52 bf b8 5b 31 bf c3 a9 b6 be
       -0.22735643 -0.8241045 -0.69280577 -0.35676393
000140 2e 78 29 3e 44 aa 9e 3f a8 a9 d8 3d 42 78 af 3f
       0.16549751 1.2395711 0.10579234 1.3708575
000150 90 8b 99 3f 86 60 51 bf 6a ef 8c 3e c7 d0 a5 3f
       1.1995716 -0.8178791 0.27526408 1.2954339
000160 16 4d ae 3f 92 f9 d3 3f 5b 53 1f 3f 65 c2 9c bd
       1.3617275 1.6560538 0.62236565 -0.07654265
000170 95 4e 9c be a8 d4 72 be 4a 52 af 3e 45 ec 06 3e
       -0.30528703 -0.23713934 0.3424247 0.13176067
000180 d1 6a 95 bd 68 c3 e3 3d 38 a0 bf 3d 4f 6d 50 3e
       -0.07295764 0.11121255 0.09356731 0.20354198
000190 a7 09 35 3d ef 75 bc be 07 61 6f be ca 3d 96 3f
       0.04419866 -0.36808726 -0.23376857 1.1737607
0001a0 9a 9c 10 3f d1 f6 df 3d cf 7b 87 be 38 31 15 3f
       0.56488955 0.10935748 -0.26461646 0.58278227
0001b0 0a 8f 53 be c6 eb 0f be c2 05 71 3e 1b 23 8f 3f
       -0.20660034 -0.14054784 0.23537353 1.1182588
0001c0 eb 31 1f 3f f3 e1 de 3e 67 41 de 3e c7 c0 b5 bd
       0.62185544 0.4353176 0.43409273 -0.0887466
0001d0 77 81 f7 3e 32 8d 05 3f 4a c0 45 3f 0b 7e 7f 3f
       0.4834096 0.5216857 0.77246535 0.998017

decoder.6.bias f4 [12]
000000 89 ff 04 be 3c 03 89 3e 43 1f d5 3d f0 91 f2 be
       -0.12988104 0.2676028 0.10406353 -0.47376966
000010 a4 52 7e be bd 90 e8 bd 87 7b 75 3d 94 aa 9a 3d
       -0.24836212 -0.11355732 0.059932258 0.075520664
000020 cf 46 a8 3e a8 fa 7f be 4d e9 35 3e 5c 37 bb 3d
       0.32866523 -0.24997962 0.17764778 0.09141418

mlp.0.weight f4 [10, 24]
000000 ea b0 07 be 83 99 a1 be 4d 80 83 3e 96 f5 87 3e
       -0.13251081 -0.31562433 0.25683823 0.26554555
000010 7b b8 74 be 34 8c 48 3e 73 78 32 bf 92 d7 fe be
       -0.23898499 0.19584733 -0.6971504 -0.49773842
000020 1a 0a 2c 3f c0 2e 84 3e 98 39 4a 3e cd ba 1c 3f
       0.67202914 0.25816917 0.19748533 0.61222535
000030 0b a6 30 bf a5 cf b4 bd 3c 7d 02 3f 90 9c 81 bf
       -0.6900336 -0.088286676 0.5097234 -1.0125904
000040 ba 4b 0f bf e9 19 bb 3f 55 03 c7 be a8 a5 d3 3e
       -0.55974925 1.4617282 -0.3886973 0.41337323
000050 cb be 1b 3c 22 3d ac bf 46 11 85 3f c5 ae 8c be
       0.009505938 -1.3456156 1.0395896 -0.2747709
000060 8f f4 fa bc 49 04 50 bf 9c f0 91 bd 12 ae 3b bd
       -0.030634193 -0.8125654 -0.07125971 -0.045820303
000070 ff 19 0c 3f 82 a4 da 3e 16 41 6c 3e a8 1d fe 3d
       0.54727167 0.42703635 0.23071703 0.12408
000080 80 fb be be 24 9a 2b be aa 95 95 bf 05 78 8e bd
       -0.37301254 -0.16758019 -1.1686299 -0.06956486
000090 85 a6 de be c6 08 fd 3e 7e a7 6d bf f4 28 88 3f
       -0.4348642 0.49420756 -0.928337 1.0637498
0000a0 3d b8 92 3f 2e 88 0a 3f a4 89 0d bf 58 1a 04 bf
       1.1462475 0.54114044 -0.5528815 -0.516027
0000b0 30 9a 88 3e 79 a2 b1 bf de 6c 36 3e 1a 24 b6 bf
       0.26680136 -1.3877708 0.17814967 -1.4229767
0000c0 cb 02 81 be 2a 9d e7 be dc 88 35 be f6 6f 3d 3e
       -0.25197443 -0.45237094 -0.17727989 0.18499741
0000d0 04 38 b3 3d c6 ee 5d 3d fa 0d 87 3d df e8 44 3e
       0.087509185 0.05418279 0.06594463 0.19229458
0000e0 fa c6 a7 be ba e7 02 3d 8d 46 cb bd f6 1b 13 3e
       -0.32768995 0.031959273 -0.09925566 0.14366135
0000f0 01 55 16 be ce c7 12 3e 78 d8 7d bf c6 ca 06 3f
       -0.14680864 0.14334032 -0.9915843 0.5265316
000100 3a ce 59 3f 41 f4 8c 3f 8b 1b 14 bf ae da 9c bd
       0.850803 1.101204 -0.5785453 -0.07658897
000110 ef 72 31 bc 37 fd 0d bf 6f 0f 1b 3f 40 ec b3 bf
       -0.010830625 -0.554645 0.60570425 -1.4056473
000120 e4 2e 33 bc 74 9a 21 bf 2a 79 4d bc c6 2a 8c bd
       -0.010936473 -0.631263 -0.012541095 -0.06844096
000130 39 88 d1 be 5a 6e bb be a0 e7 14 bd eb c0 d4 be
       -0.40924242 -0.3660763 -0.036353707 -0.41553435
000140 bf 56 af 3e 39 68 a0 3c 23 c6 e7 3d 79 04 14 be
       0.3424587 0.019580947 0.113170885 -0.14454831
000150 00 68 16 40 61 ea 4b bf f7 58 08 be 5d 34 93 bf
       2.3500977 -0.7965451 -0.13315187 -1.1500355
000160 23 a2 90 3e 6a d1 90 3f 3e 91 17 40 24 ed 45 be
       0.282487 1.1313908 2.3682399 -0.19328743
000170 59 02 ef bf c7 4f c0 be 47 f1 78 3f 7e d1 12 40
       -1.8672591 -0.37560865 0.9724316 2.2940364
000180 d1 04 33 bd 07 a7 da be fe b1 57 be 24 a6 8b 3d
       -0.043705765 -0.42705557 -0.21063992 0.06818798
000190 91 c9 a8 3e 80 e8 d9 bc 83 f3 1d be e0 dc c5 be
       0.32966283 -0.026600122 -0.15424924 -0.38645077
0001a0 8b b7 bf be 92 22 22 bd b1 b0 4d be 4d b5 af 3c
       -0.3744472 -0.03958375 -0.20086934 0.021448756
0001b0 ec a1 4a 3e da 09 16 3f 49 f5 85 bf 6a a1 1c 3f
       0.19788331 0.5860878 -1.046548 0.611838
0001c0 bb 8e 64 3f 94 f7 51 3f 51 0c 36 bf 75 c2 1f 3f
       0.8928029 0.820184 -0.71112543 0.6240609
0001d0 6a 43 87 bf ca 6b d1 3e 06 1e 34 3f f5 12 99 bf
       -1.0567448 0.4090255 0.7035831 -1.195891
0001e0 2c c1 e5 be 2e 38 13 3e 47 83 07 3f b8 9c d3 bd
       -0.4487394 0.143769 0.5293469 -0.10332626
0001f0 70 6d 16 bf 92 dd 5e be f1 5a 17 be f9 81 de be
       -0.5876074 -0.2176421 -0.14780785 -0.43458536
000200 6d ed 0a 3f ca 68 a0 3d cc 8f a6 3e 54 35 90 3e
       0.54268533 0.07832487 0.32531583 0.28165686
000210 95 26 e0 3f f7 f3 80 bf b7 f7 55 3c d3 4c 16 bf
       1.7511774 -1.0074452 0.013059548 -0.58710974
000220 5a 6d 04 bf d6 19 2a 40 0f 1b 28 40 aa e7 35 bf
       -0.5172936 2.657827 2.6266515 -0.71056616
000230 24 b0 0b c0 5b 1c 8b 3f 97 f6 a9 3f e7 78 f4 3f
       -2.1826258 1.0868028 1.3278378 1.9099396
000240 5f 73 78 be ef 22 bb bc f3 a5 82 3e 5b 0b 25 bf
       -0.2426276 -0.022843806 0.25517234 -0.6447045
000250 e9 5e 2b bf 05 48 1c 3f 3f ce 55 bf 4d 74 b9 be
       -0.66941696 0.61047393 -0.8351783 -0.36221543
000260 ad 0d 09 3f 6a 1f 76 be c6 31 49 3f ba e4 e9 3e
       0.5353649 -0.24035421 0.78591573 0.45682317
000270 54 7e 82 3f b9 22 05 bf 6d f2 d4 be b8 f2 6b bf
       1.0194802 -0.5200611 -0.41591206 -0.92167234
000280 dd c3 34 3f 2c 7d 95 3f 41 b7 42 40 86 74 01 bf
       0.70611364 1.1678824 3.042435 -0.50568426
000290 44 dc 81 bf 98 ad eb bc 6f 8f 18 3f 57 56 b5 3f
       -1.0145345 -0.0287693 0.5959386 1.4166974
0002a0 13 c0 90 3d fa 8a cd 3e f9 da b3 3e a9 a3 4d be
       0.07067885 0.40145093 0.35128 -0.20081963
0002b0 6b 54 dd be f7 0a 4e 3f 01 77 d7 be 6f 7f 99 be
       -0.43228468 0.8048548 -0.4208298 -0.29980037
0002c0 b9 57 82 3e 45 f0 89 be 5c ec 13 3f fa d9 0c 3d
       0.25457552 -0.26941124 0.5778253 0.034387566
0002d0 2f d8 af bd a4 1f 68 be d4 66 5e 3e 5b 7a c1 bf
       -0.085861556 -0.2266832 0.21718913 -1.5115465
0002e0 b0 65 57 bf 9d 5f e6 3f 31 cf 6b 3f 5f 36 b3 3e
       -0.8413954 1.7997929 0.92113024 0.3500242
0002f0 da d0 ba 3b 0c 78 29 bf ae c3 74 3f 47 2e 3b 3f
       0.0057011666 -0.661988 0.95611084 0.7311749
000300 19 eb 40 be ad e8 ea be 7e db 99 3d b7 77 34 be
       -0.18839683 -0.45880643 0.07512568 -0.17623793
000310 0d da 39 be 68 e8 90 3e e2 89 4a be d1 27 a9 bd
       -0.18149586 0.28302312 -0.1977916 -0.082595475
000320 9a b6 ac 3e f6 23 87 be aa 4c 2a be 01 98 c9 3e
       0.33733064 -0.26394624 -0.16630808 0.39373782
000330 29 b2 e8 3e 84 5b 06 bc 2b 05 90 bf e3 e4 8b 3f
       0.45448425 -0.00820053 -1.1251577 1.0929226
000340 81 28 50 3f 21 b6 f4 3f 6d 23 2f 40 29 5b b9 bf
       0.81311804 1.9118081 2.7365372 -1.4480945
000350 03 91 b0 3e d6 f9 8e bf 0d e6 c7 be 31 e6 88 bf
       0.34485635 -1.1169994 -0.39042702 -1.0695249
000360 52 c8 6c 3e 8d 6d d9 be 4b ca 9d 3e 1e cf 25 3f
       0.23123291 -0.42466393 0.308184 0.6476916
000370 e8 74 96 b8 75 27 a0 3d 83 f2 bb 3d 1e 71 fb bb
       -7.174333e-05 0.07820026 0.09177115 -0.0076733967
000380 3c 3a e0 be 70 07 7b 3e cc e5 d6 3d 89 a7 24 bf
       -0.4379443 0.24514556 0.10493049 -0.6431814
000390 c6 2d 6f be 2e 4c 96 3e 8f b0 25 be d3 6d 95 3f
       -0.23357305 0.29354995 -0.16180633 1.1674141
0003a0 10 e1 cb 3d bd 47 10 c0 22 ae 97 bf 35 95 17 3f
       0.09955037 -2.2543786 -1.1850016 0.59212047
0003b0 be 97 46 3e 60 46 41 3f 26 85 87 bf ea d1 6d 3d
       0.19393823 0.7549801 -1.0587509 0.058061518

mlp.0.bias f4 [10]
000000 40 83 a6 bd 23 cf 18 bf b4 f0 13 be 0c 7c 31 bd
       -0.08130503 -0.59691066 -0.1444729 -0.04333119
000010 1c 9e 11 bf 05 c5 08 3e 05 78 1a 3e 59 2c 1e 3e
       -0.5688188 0.13356407 0.15084846 0.15446605
000020 0f e6 a1 bd 3c 50 70 be
       -0.07905208 -0.23468107

mlp.3.weight f4 [8, 10]
000000 0b 95 92 3e 6c 71 96 be ee 60 98 be e4 10 1d 40
       0.28629336 -0.2938341 -0.2976145 2.454156
000010 81 16 e8 be 5d 98 1a 40 7e 3b 59 40 01 b1 75 3e
       -0.4532967 2.4155495 3.394256 0.23993303
000020 9e fe 0e 3e ce 77 a2 bb 8a 4e 7e bf b0 de 0a 3f
       0.13964316 -0.0049581295 -0.9933859 0.54246044
000030 16 14 49 3f 06 0c 63 bf c3 71 fb 3e 6c cf 9f bf
       0.78546274 -0.8869022 0.4911023 -1.2485175
000040 a4 cd c3 3b 59 f7 92 bf 74 a6 34 3f 43 6b 89 bc
       0.005975442 -1.1481735 0.7056649 -0.01677478
000050 e8 7f c8 3e ed 5f cc be 32 10 36 c0 6c 29 e5 3f
       0.39160085 -0.39916936 -2.8447385 1.7903266
000060 d7 27 61 bf 39 32 68 3f ce e1 e0 3f 51 a8 42 3e
       -0.87951416 0.90701634 1.756891 0.1900952
000070 fb 84 e8 3e d0 b3 78 bf 9a 0d ba bf cd 72 fe 3f
       0.45413956 -0.9714937 -1.4535401 1.9878784
000080 de a7 f6 3f d4 69 ad bf 84 69 97 3f d9 44 3c bf
       1.9269979 -1.3547921 1.1829076 -0.73542553
000090 76 01 31 bf fd 27 11 bf 82 ee 55 3f d3 0e ca bd
       -0.69142854 -0.5670164 0.8356706 -0.09866109
0000a0 41 26 c6 3e f7 57 91 be e2 5a 8d be 50 73 c4 3f
       0.3870106 -0.28387424 -0.276084 1.534769
0000b0 f7 34 95 be ce f8 d7 3f 32 8f c2 3f d6 17 5c 3d
       -0.2914197 1.6872804 1.519995 0.05373367
0000c0 83 e4 eb 3e f1 c3 b1 bd d7 ed 5d be 07 ec 9d be
       0.46072778 -0.08679951 -0.2167276 -0.30844137
0000d0 fc b2 d0 be c2 fd 4f bd db e1 39 bf d9 e4 2a be
       -0.40761554 -0.05077911 -0.72610253 -0.16688861
0000e0 8f e0 45 3e a2 8b 66 bf ef c3 e9 be c7 b6 c7 3f
       0.19323944 -0.9005681 -0.45657298 1.5602654
0000f0 97 e1 70 3f 39 a3 ac be 3a 0f 99 bf 6d 30 f9 bf
       0.9409422 -0.3371828 -1.1957772 -1.9467903
000100 1d 46 31 bf 5b 92 a8 bf c5 34 bc bf b9 65 6b 3f
       -0.6924761 -1.3169664 -1.4703604 0.9195209
000110 66 10 bf bf 2b 20 6d 3d e9 94 b3 3d a3 66 42 3f
       -1.492688 0.057892006 0.08768637 0.7593786
000120 5d b7 0e 3f 7c aa d7 be 8e 38 2b 3f 6a e5 16 bf
       0.5574854 -0.42122257 0.6688317 -0.5894381
000130 a7 7a f1 3d fe c4 fe bd 74 8f c3 3f 77 2f 38 3e
       0.11790972 -0.12439917 1.5278153 0.17986856

mlp.3.bias f4 [8]
000000 8f db b4 bd be 46 0f bd bd 5f 8c bf 66 2e cd 3f
       -0.0883094 -0.034979574 -1.0966717 1.6029785
000010 1b 79 d5 bf a3 e3 73 bf 3d c3 fa be aa 74 ca bf
       -1.6677583 -0.9526922 -0.4897708 -1.5816853

mlp.6.weight f4 [5, 8]
000000 9e 18 d6 c0 29 db 48 c0 58 d9 ad c0 cf e5 45 3f
       -6.690505 -3.1383765 -5.432781 0.77303785
000010 92 20 87 c0 41 1c 98 3f d0 b5 c7 be 6c f7 04 c0
       -4.222726 1.1883622 -0.390059 -2.0776014
000020 3d 93 73 3d 35 19 68 be da c2 39 be 52 df 07 c0
       0.05946659 -0.22665866 -0.18140736 -2.1230054
000030 01 c3 e2 be 3a 70 dd be 02 08 1c 40 1d 4d 5d c0
       -0.442894 -0.43249685 2.4379888 -3.4578316
000040 43 5f d5 3e 70 ce 87 bf 95 16 fc 3e 4a 8b 1a c0
       0.4167424 -1.0609875 0.4923598 -2.4147515
000050 78 bc 24 3f 17 64 44 c0 ac 79 1f c0 43 3f 0a c0
       0.6435008 -3.068609 -2.4918013 -2.1601112
000060 cd 55 e0 3e 4d 5a 12 bf ff 84 03 3f b6 ba 5c 3d
       0.4381546 -0.5716904 0.5137481 0.053889
000070 a3 a2 26 3f 9c a4 81 bd 22 f8 6e bf f1 54 79 3e
       0.65091914 -0.06330225 -0.9334737 0.24348809
000080 a9 0a 9a bf ab 85 ba 3f f7 17 35 bf 78 74 8e 3f
       -1.2034503 1.4572042 -0.7073969 1.1129293
000090 87 ff 6d bf 2c 82 11 bf 4c 63 e9 bf d5 bb 74 3e
       -0.9296803 -0.5683925 -1.8233428 0.23899777

mlp.6.bias f4 [5]
000000 c2 55 af 40 44 05 87 40 87 f1 e4 bd 3a 10 a4 c0
       5.4792185 4.219393 -0.1117888 -5.126981
000010 ba c2 1d bf
       -0.61625254

exp_avg f4 [10, 12]
000000 f6 56 e6 37 59 ac 69 b7 9d fb 51 b7 9d d1 95 37
       2.7458631e-05 -1.392801e-05 -1.2515954e-05 1.7859793e-05
000010 de 0d 32 37 d2 27 fb 36 d8 3d aa 35 cc d3 4a b7
       1.06128555e-05 7.4850186e-06 1.2683986e-06 -1.2089451e-05
000020 5f 76 23 37 71 60 61 36 95 f2 df 36 73 c2 ce b6
       9.7431175e-06 3.358375e-06 6.674158e-06 -6.1619153e-06
000030 ea cc 11 b9 28 31 d7 38 a6 6d 5b 38 2a ce 2f b8
       -0.00013904614 0.00010261155 5.2315787e-05 -4.1915257e-05
000040 1f e9 38 37 f3 ef ea 38 ae 95 7f b6 bc f7 8c b6
       1.1021532e-05 0.000112026835 -3.8085086e-06 -4.201165e-06
000050 64 67 ab b8 e7 9a 89 37 d3 66 0c 38 b5 e3 ab 37
       -8.1731734e-05 1.6403805e-05 3.3474364e-05 2.0490823e-05
000060 37 9b 03 b9 4d 12 bc 39 1c 65 7b 38 ab c5 44 b8
       -0.00012550956 0.0003587179 5.993723e-05 -4.6914134e-05
000070 b8 21 a3 b9 d2 e1 45 b8 c0 5a 4b 38 aa f2 4c 38
       -0.00031114905 -4.717877e-05 4.848349e-05 4.886339e-05
000080 d3 cc 63 37 7b d3 c9 38 05 66 3d 39 fc de 14 38
       1.3577944e-05 9.623818e-05 0.0001806245 3.549362e-05
000090 35 44 d9 b9 67 6f 2a ba f9 ee 37 b9 28 2e 5e 3a
       -0.00041440284 -0.00065015856 -0.00017541264 0.0008475506
0000a0 19 01 e3 b9 9e 31 c6 b9 b7 eb f9 b8 dd 89 31 ba
       -0.00043297632 -0.0003780247 -0.000119171506 -0.00067725574
0000b0 1b 4d fd b8 25 ff 36 3b 91 7c ac 39 39 a6 ee b9
       -0.00012078342 0.0027923074 0.00032899206 -0.00045518743
0000c0 49 97 ea b7 34 f3 7a 38 7a 45 00 39 80 13 df b6
       -2.7965421e-05 5.9831145e-05 0.00012232913 -6.648188e-06
0000d0 31 46 bb b7 5e 70 27 38 12 c4 28 b7 c9 f7 52 38
       -2.2324823e-05 3.9920553e-05 -1.00592315e-05 5.029867e-05
0000e0 0a e1 6e 38 c1 30 a1 37 62 31 20 38 3c 52 0d 39
       5.6953206e-05 1.9215398e-05 3.8192964e-05 0.00013477443
0000f0 80 03 dd b6 4c d2 a6 b7 58 7b 74 b7 2e 2a 3b 36
       -6.5867207e-06 -1.988667e-05 -1.45722515e-05 2.7889723e-06
000100 ca 37 88 37 3d f8 d1 36 83 8e 4d 37 5c 41 8c b7
       1.6238442e-05 6.257584e-06 1.2252133e-05 -1.6719736e-05
000110 c5 73 3c 37 fd 39 3c 37 c2 6e 13 35 a7 1b dc b6
       1.1232628e-05 1.1219175e-05 5.492294e-07 -6.55973e-06
000120 ee e1 ba b8 ae 29 c3 38 7f a9 fc 38 fd c5 6d b8
       -8.911254e-05 9.306088e-05 0.000120478675 -5.6689594e-05
000130 35 1e 02 b9 b5 8f 07 39 d6 4d ae 37 0c 8a 34 39
       -0.00012409019 0.00012928138 2.0778662e-05 0.00017217564
000140 da 87 20 39 f4 77 2a 38 75 00 4c 38 f8 73 c4 38
       0.00015309398 4.0642874e-05 4.8637816e-05 9.367609e-05
000150 b4 16 29 38 3d 89 e3 37 ef f3 11 b8 ab 22 d2 37
       4.0313884e-05 2.7124415e-05 -3.4797875e-05 2.5050094e-05
000160 a5 fa 03 38 4c 2e 5a 38 35 b9 29 37 e8 ba 28 38
       3.1466265e-05 5.2018368e-05 1.0116307e-05 4.022839e-05
000170 e4 9d ca 37 42 c5 4f b7 f8 c8 25 38 93 73 4b b7
       2.41538e-05 -1.2384089e-05 3.9526232e-05 -1.2126652e-05
000180 7a 6f aa 35 73 d3 04 38 3a a9 50 37 26 93 7c b7
       1.2698431e-06 3.166818e-05 1.2437167e-05 -1.5054631e-05
000190 9c 75 5e 36 fa 8d 36 38 f2 d0 1e b6 18 57 8f 37
       3.3149036e-06 4.3524407e-05 -2.3665457e-06 1.7087485e-05
0001a0 2b 69 ce 37 86 3f f0 34 9b fd 07 37 df 57 cc 37
       2.4606086e-05 4.4749703e-07 8.105674e-06 2.4359613e-05
0001b0 ca 29 1f 38 77 20 22 38 d7 3f c3 b7 b7 3b 0f b7
       3.7947473e-05 3.8654045e-05 -2.327554e-05 -8.537368e-06
0001c0 79 46 02 b7 cc 81 dd 34 72 97 e3 36 19 70 a3 37
       -7.765012e-06 4.1258897e-07 6.7827577e-06 1.9483314e-05
0001d0 ef 26 3b 38 26 c0 53 36 69 6d 00 37 db 0b 80 b7
       4.4620534e-05 3.1553295e-06 7.654869e-06 -1.526431e-05

exp_avg_sq f4 [10, 12]
000000 e2 7a b1 36 b6 2c 33 36 6a 80 97 35 5c 64 db 35
       5.2893165e-06 2.6699104e-06 1.128775e-06 1.634598e-06
000010 a4 12 ae 35 ff a3 8b 35 cd 50 0d 34 db d5 21 36
       1.2969435e-06 1.0404036e-06 1.3161043e-07 2.411535e-06
000020 f9 e9 12 36 7a 47 d8 34 d4 93 bc 36 98 17 79 34
       2.1891885e-06 4.028514e-07 5.620046e-06 2.3198515e-07
000030 4b 0e a4 35 79 6d 72 37 18 03 9d 38 fc 64 ca 34
       1.2223112e-06 1.4449813e-05 7.48692e-05 3.7698908e-07
000040 2c 88 af 35 e1 63 a6 37 ee 53 91 36 b5 33 d2 37
       1.3078147e-06 1.9835252e-05 4.3311074e-06 2.5058029e-05
000050 61 07 23 38 27 6b fa 34 90 ca aa 36 2d d5 da 38
       3.88691e-05 4.6644092e-07 5.089976e-06 0.00010434757
000060 82 79 96 35 19 8b 57 36 28 47 32 36 6f b0 94 36
       1.1211234e-06 3.2118462e-06 2.6565485e-06 4.4312833e-06
000070 7b a7 62 36 a4 40 d2 35 4f 6f 83 34 3d 18 ef 35
       3.377411e-06 1.5665032e-06 2.448164e-07 1.7813942e-06
000080 1d f0 0f 36 d5 7b 41 34 93 43 5e 36 5b d5 9c 36
       2.1448425e-06 1.8019576e-07 3.3119911e-06 4.674e-06
000090 41 bd fa 36 ec 5f 3c 36 4a ec 92 36 09 c2 ea 36
       7.4726127e-06 2.8070017e-06 4.3786467e-06 6.996332e-06
0000a0 83 4c 60 36 e5 7e 9c 36 06 df ad 34 1f 23 8b 35
       3.3423137e-06 4.6639348e-06 3.2386032e-07 1.0366529e-06
0000b0 e7 11 66 36 a4 7e 36 36 07 bb 3e 37 c8 a6 29 36
       3.4283091e-06 2.7193828e-06 1.1368428e-05 2.5280042e-06
0000c0 bd 61 51 36 26 3b eb 35 5f 2e c5 35 ab 2a 24 35
       3.1200318e-06 1.7526079e-06 1.469114e-06 6.115685e-07
0000d0 ab 95 e1 34 8d d9 49 35 5b d8 58 34 66 cc 44 36
       4.2018414e-07 7.5194913e-07 2.0195277e-07 2.9325251e-06
0000e0 9e 69 80 35 c3 fa 81 33 cf 65 74 35 18 e4 10 35
       9.567482e-07 6.052644e-08 9.1045234e-07 5.39761e-07
0000f0 7f 3f 17 35 78 8c 28 35 03 8e dd 33 c1 f7 a4 33
       5.634428e-07 6.2789286e-07 1.0316946e-07 7.681911e-08
000100 f4 37 aa 35 bc 1c c9 34 dd af 1e 33 a2 6c bf 34
       1.2682272e-06 3.7460075e-07 3.694719e-08 3.5655563e-07
000110 52 cf a9 34 16 22 38 33 d9 b3 3d 34 e8 81 0d 34
       3.1629548e-07 4.287184e-08 1.7667425e-07 1.3178908e-07
000120 a6 47 e4 36 7e 32 41 3a 5c 9e 50 3b 72 ff de 39
       6.8032705e-06 0.00073698896 0.003183267 0.0004253346
000130 27 2b e1 37 97 4f 8a 3a ad 42 50 39 e7 98 1d 3b
       2.6842185e-05 0.0010552284 0.00019861264 0.0024047436
000140 9c 27 97 39 6e 67 b6 39 b1 2b 82 38 22 c9 da 3b
       0.00028830476 0.00034790806 6.207021e-05 0.006676809
000150 5d bb 8c 35 16 87 be 35 57 f2 88 35 bf d7 18 36
       1.0485343e-06 1.4195418e-06 1.020332e-06 2.2775346e-06
000160 23 a6 9b 35 63 fd 3f 34 d1 0f 64 33 8f 3f 0e 35
       1.1596752e-06 1.7880443e-07 5.309977e-08 5.299161e-07
000170 96 95 5d 36 13 f4 95 35 d9 bd fd 37 66 17 42 35
       3.3018637e-06 1.11724e-06 3.0248355e-05 7.230468e-07
000180 27 ca cf 35 45 12 66 35 8d c0 96 35 e1 81 c6 35
       1.5481536e-06 8.570826e-07 1.123191e-06 1.4789949e-06
000190 72 07 fb 34 a9 1e 8e 35 a9 6d 90 33 10 fd 10 35
       4.675781e-07 1.0588748e-06 6.7254696e-08 5.4012435e-07
0001a0 8e ab e6 35 6b 48 bb 34 9e 53 33 37 1b ac ab 35
       1.7186264e-06 3.4884155e-07 1.06887e-05 1.2790582e-06
0001b0 5a 8a 31 37 c4 c3 13 37 7a 18 d8 36 e6 4a 55 36
       1.0582235e-05 8.807463e-06 6.440151e-06 3.178307e-06
0001c0 05 4a 26 37 22 45 96 36 36 81 6e 35 c7 a2 6d 36
       9.911605e-06 4.4783965e-06 8.8849936e-07 3.54105e-06
0001d0 f8 09 a1 36 9a 2c 84 35 35 69 2a 37 80 38 b6 36
       4.7993344e-06 9.847747e-07 1.0157285e-05 5.4306e-06

exp_avg f4 [10]
000000 47 7f 91 b7 98 9a c3 37 65 3c 9a b9 3d c9 0b 3a
       -1.7344615e-05 2.33178e-05 -0.00029418166 0.0005332416
000010 d8 0a 49 b8 80 08 03 b7 80 21 3f b8 0a 3b b1 b7
       -4.7932233e-05 -7.8101875e-06 -4.5569148e-05 -2.1127536e-05
000020 c4 77 a5 37 89 c1 11 b8
       1.9725303e-05 -3.4750938e-05

exp_avg_sq f4 [10]
000000 b6 42 28 36 bc 97 b3 37 8e 6e 26 36 e3 63 3d 36
       2.5072782e-06 2.140912e-05 2.480028e-06 2.8221336e-06
000010 1b f8 fc 35 cf cc f4 34 a0 ae 94 3a 88 e3 f1 35
       1.8847671e-06 4.559756e-07 0.0011343546 1.802212e-06
000020 4f 19 88 35 bc f6 fc 36
       1.0140155e-06 7.538909e-06

exp_avg f4 [10, 10]
000000 8c 2a 2d b7 d5 52 3f 39 c9 66 ad b6 f9 e3 d4 33
       -1.032151e-05 0.00018246037 -5.1677675e-06 9.913487e-08
000010 30 7a 51 39 6b c0 d8 b6 fc eb 86 b8 4d af fa ae
       0.00019977312 -6.459702e-06 -6.4335734e-05 -1.13998234e-10
000020 4d 4a 5e b6 e1 c6 b3 b4 d6 0a bf 1c 20 33 e8 b6
       -3.3123827e-06 -3.3486052e-07 1.2642121e-21 -6.9200905e-06
000030 7b c3 b2 b7 7e eb 42 39 6b 09 06 13 9e 2a e0 2e
       -2.1310281e-05 0.0001858901 1.6917821e-27 1.0193911e-10
000040 8c 06 a2 31 19 c1 7a 2f 26 8d 41 31 02 3a 68 b3
       4.715565e-09 2.280597e-10 2.816543e-09 -5.4069467e-08
000050 fa a4 02 36 dd 78 ad 37 f8 80 a7 b7 7b 39 c8 b5
       1.9467539e-06 2.0679488e-05 -1.9968007e-05 -1.491789e-06
000060 7f f2 ac b5 dd a7 87 37 b4 93 ec b7 5c fb 32 b5
       -1.2885574e-06 1.6171422e-05 -2.8202172e-05 -6.6675943e-07
000070 07 66 db 35 4b 91 78 b5 71 ec 07 9e e7 fb 09 b8
       1.6346465e-06 -9.259863e-07 -7.1957354e-21 -3.2897948e-05
000080 dc 4f 82 36 86 f1 18 b6 0c b9 f1 b3 c0 e9 52 b4
       3.8835988e-06 -2.279035e-06 -1.1256097e-07 -1.9642812e-07
000090 56 80 c8 37 f0 c8 03 b5 f5 fd 08 b6 4f 5f 8d 34
       2.3901619e-05 -4.9093705e-07 -2.0413402e-06 2.6332643e-07
0000a0 2c 43 0d 9c e3 69 b9 38 4f dc bf 34 b9 c5 18 3a
       -4.6739804e-22 8.8412104e-05 3.5736818e-07 0.0005827803
0000b0 3c 30 b2 29 5d cc a5 b3 34 07 1b 38 ca bf 95 20
       7.913155e-14 -7.720585e-08 3.696159e-05 2.5368497e-19
0000c0 ba 75 80 37 7f 64 3d b6 ea 21 67 1c ef 8e 24 39
       1.531361e-05 -2.822169e-06 7.647532e-22 0.00015693506
0000d0 98 29 ab b8 bf 0e 3c 3a 84 72 5d b7 a2 4a 09 b7
       -8.161663e-05 0.0007173828 -1.3199289e-05 -8.183213e-06
0000e0 7b c0 19 b8 57 7f 1f b6 c4 5b 02 b5 69 3a 4f b7
       -3.6657304e-05 -2.3766968e-06 -4.856231e-07 -1.2351761e-05
0000f0 78 c2 b2 b8 60 37 be b6 7c 32 82 b7 bb 80 d8 31
       -8.523924e-05 -5.6688878e-06 -1.5520716e-05 6.3010623e-09
000100 4d b5 a4 38 40 67 2e 37 af fe f2 35 2e 70 79 b8
       7.853899e-05 1.0395248e-05 1.8104528e-06 -5.94707e-05
000110 bb b7 00 b7 ea 6a 07 b8 0b a8 30 21 31 5f 20 37
       -7.672173e-06 -3.228608e-05 5.985352e-19 9.558907e-06
000120 f8 33 97 b8 11 60 99 b6 9a 64 57 37 c5 98 94 36
       -7.209921e-05 -4.570939e-06 1.2838422e-05 4.4285284e-06
000130 3a fb ef b7 15 1d c1 b1 35 a7 83 b7 8a 93 b3 36
       -2.8608007e-05 -5.6203455e-09 -1.5694279e-05 5.3517915e-06
000140 f9 d1 19 b4 82 49 bb b8 22 cf 9d 38 fe 16 9a 32
       -1.4325623e-07 -8.930547e-05 7.524925e-05 1.7938415e-08
000150 ec 5d 59 b9 b2 f6 1d b7 64 4d 6f 38 78 a0 39 35
       -0.00020729721 -9.4153675e-06 5.7054116e-05 6.9151383e-07
000160 f2 e9 f0 33 53 62 ee 37 3c 00 00 00 50 81 63 b4
       1.1218425e-07 2.8417597e-05 8.4e-44 -2.1188066e-07
000170 12 1d a0 35 0c 77 61 35 5b 31 4f 8f 22 fb 87 37
       1.192939e-06 8.399227e-07 -1.02153935e-29 1.6210197e-05
000180 57 81 92 b6 96 40 5f ac 52 99 9c b5 f2 6f 30 35
       -4.366196e-06 -3.1726058e-12 -1.1667528e-06 6.572801e-07

exp_avg_sq f4 [10, 10]
000000 a5 99 99 36 6b e0 34 36 c3 2f 99 34 27 27 0e 34
       4.577642e-06 2.6952719e-06 2.8533222e-07 1.3239024e-07
000010 4b df 25 35 8b 37 7f 32 47 34 c4 33 96 f0 97 34
       6.1792224e-07 1.48555825e-08 9.1364704e-08 2.830099e-07
000020 2b ab d9 34 0c f5 b3 33 20 74 0b 33 f7 9b 53 38
       4.054394e-07 8.379911e-08 3.2469075e-08 5.0451574e-05
000030 28 65 40 33 0d ed 28 34 b9 87 0b 2f 88 ff 3d 35
       4.4795485e-08 1.5732458e-07 1.2690195e-10 7.0779834e-07
000040 68 36 37 34 d0 31 7a 2f 76 d1 38 32 e1 b7 98 32
       1.7062996e-07 2.2755064e-10 1.07578355e-08 1.7778747e-08
000050 2b 0e 73 34 8b 8e 12 35 6f 9e 2d 33 99 98 19 33
       2.2636293e-07 5.4596666e-07 4.0423796e-08 3.5761875e-08
000060 40 42 48 34 ff 6f 96 34 8a 07 37 37 fd 42 17 33
       1.8650553e-07 2.8021165e-07 1.0909405e-05 3.5218353e-08
000070 e5 a5 f9 33 d9 20 aa 34 59 bc 3c 32 f4 de 81 36
       1.1625142e-07 3.1688867e-07 1.09858656e-08 3.8704547e-06
000080 f8 31 59 33 64 2a 79 35 28 4d fb 31 b1 eb 43 32
       5.0569696e-08 9.2821415e-07 7.313833e-09 1.1404084e-08
000090 2c 13 18 34 10 76 85 30 41 4e 0e 35 55 4e 0f 31
       1.4163078e-07 9.710579e-10 5.3012997e-07 2.0853765e-09
0000a0 86 21 a5 31 dc ee 73 34 90 b6 77 33 77 cd 6b 35
       4.805943e-09 2.2718035e-07 5.767521e-08 8.784331e-07
0000b0 b9 e0 93 32 1c 0e e6 33 0a 96 a5 37 d1 df 47 36
       1.7215244e-08 1.0712776e-07 1.97394e-05 2.978359e-06
0000c0 8b 5f 54 34 05 9b ab 33 55 53 3c 33 96 06 c5 35
       1.9778797e-07 7.991006e-08 4.384795e-08 1.467956e-06
0000d0 31 3b 81 35 72 30 04 35 76 25 d0 33 66 ca 02 38
       9.628476e-07 4.924433e-07 9.692569e-08 3.1182914e-05
0000e0 2e fa e6 34 4e 48 4e 36 70 bd c3 34 69 12 43 34
       4.3022868e-07 3.073848e-06 3.6459414e-07 1.8167488e-07
0000f0 f7 ed ab 34 54 87 67 37 93 c2 13 33 00 85 00 35
       3.2024374e-07 1.38001815e-05 3.440307e-08 4.7877256e-07
000100 7c 4f fc 35 41 22 21 35 f6 96 71 33 a0 d0 1e 36
       1.8798596e-06 6.002702e-07 5.6249483e-08 2.366527e-06
000110 2f c6 48 34 1b 88 c6 33 67 fa a9 36 67 9d bd 38
       1.869855e-07 9.244851e-08 5.065743e-06 9.041541e-05
000120 b0 f5 fd 32 92 dd 12 33 36 41 3e 33 44 c8 04 34
       2.9564802e-08 3.419479e-08 4.429713e-08 1.2366314e-07
000130 32 ff 74 34 f0 7d 8e 33 24 dc 9f 34 f2 55 66 33
       2.281711e-07 6.635298e-08 2.977623e-07 5.3629215e-08
000140 f7 53 d1 31 0b 6e 8d 37 be 80 17 34 55 71 f9 32
       6.0922463e-09 1.6859753e-05 1.4109807e-07 2.9038953e-08
000150 11 a8 60 35 9d 6d ca 32 69 96 74 35 71 a4 95 35
       8.369107e-07 2.3565741e-08 9.111596e-07 1.1149224e-06
000160 18 19 e4 32 9b d2 62 32 9b b9 00 31 12 d2 68 31
       2.6554105e-08 1.32028175e-08 1.8731956e-09 3.3879854e-09
000170 64 0f ee 30 23 4e df 30 eb 0b 90 2c 7c 49 73 34
       1.7321153e-09 1.6247593e-09 4.0940493e-12 2.2657872e-07
000180 8b 25 eb 32 57 f6 e7 2e 72 ff 5d 31 eb 8b b3 30
       2.7374673e-08 1.05484226e-10 3.2304937e-09 1.3063731e-09

exp_avg f4 [10]
000000 71 e7 93 36 06 67 31 38 70 2e 9b b7 93 ff bd 37
       4.4078847e-06 4.2296037e-05 -1.8499064e-05 2.2649567e-05
000010 78 09 62 39 5f 5e e4 38 46 c4 d0 38 d0 c4 5b b8
       0.00021556567 0.00010889465 9.954772e-05 -5.2396965e-05
000020 7b 03 b2 39 71 3e 00 37
       0.000339534 7.643933e-06

exp_avg_sq f4 [10]
000000 b2 8b 66 36 41 82 51 37 15 47 fd 38 e9 95 71 35
       3.4353984e-06 1.2487698e-05 0.0001207722 8.9997644e-07
000010 42 39 2f 39 d9 a3 4f 36 96 9b 99 36 71 08 d2 37
       0.00016710631 3.0940776e-06 4.577868e-06 2.5037882e-05
000020 26 f4 44 37 9c 0a 08 33
       1.1739356e-05 3.1674617e-08

exp_avg f4 [6, 10]
000000 07 e2 8c b8 f0 62 e1 b7 a9 9a 21 38 2a 98 28 b7
       -6.717821e-05 -2.6868162e-05 3.852943e-05 -1.0049009e-05
000010 e4 96 64 b8 1c af 6a b7 c9 db 37 b8 1c 1b c5 b6
       -5.4499964e-05 -1.3988258e-05 -4.383529e-05 -5.8742135e-06
000020 1c 7d 8e 36 d2 03 1a b6 72 ff 2d 39 9f f9 d4 38
       4.2464944e-06 -2.2950012e-06 0.00016593726 0.00010155443
000030 31 12 39 b9 cb a5 5c 36 60 98 fc 39 5e 4d a3 38
       -0.00017649752 3.2879059e-06 0.00048178714 7.7868564e-05
000040 53 7e c0 38 94 fc 76 b7 90 75 24 36 37 52 0f b5
       9.178803e-05 -1.47215505e-05 2.4506335e-06 -5.339129e-07
000050 50 31 5c b8 ed 56 be b8 8f ac bf 38 99 b7 37 37
       -5.2498013e-05 -9.076097e-05 9.139731e-05 1.0950397e-05
000060 47 80 ec b9 4e 5a d3 b8 f0 d1 b3 b7 2c 3a b3 37
       -0.00045109002 -0.000100780846 -2.1436223e-05 2.1365551e-05
000070 d4 1d 19 37 8a 7c 4e 35 ec fb 25 36 7f 5d 4d b8
       9.126456e-06 7.692221e-07 2.4733554e-06 -4.8962884e-05
000080 c3 fd 19 b8 56 f1 0f b6 26 88 7d b9 7a 82 a6 b8
       -3.6714377e-05 -2.1449137e-06 -0.0002417868 -7.9398e-05
000090 15 e8 02 37 7a ce ca 36 6b e1 8f b7 51 98 92 35
       7.80264e-06 6.044106e-06 -1.7151897e-05 1.0922178e-06
0000a0 a4 df 83 b8 b4 1d 8f b6 45 58 3d 38 a5 2f c9 b6
       -6.288223e-05 -4.26519e-06 4.514332e-05 -5.9958134e-06
0000b0 67 06 48 b7 72 d1 1a 37 d2 04 29 b8 a4 97 70 b7
       -1.192242e-05 9.227881e-06 -4.029723e-05 -1.4340421e-05
0000c0 58 0c 63 b6 08 bd e9 b5 3a 14 12 b8 66 47 9a b7
       -3.383282e-06 -1.7414868e-06 -3.482795e-05 -1.8391478e-05
0000d0 f0 ba 18 38 62 ce a4 b6 24 89 01 b9 42 d9 9a b7
       3.6413723e-05 -4.911607e-06 -0.00012353488 -1.84594e-05
0000e0 97 ac a7 b7 7e 1d b0 b6 16 fc c8 b6 f8 fc 00 b5
       -1.998832e-05 -5.248642e-06 -5.989811e-06 -4.8051834e-07

exp_avg_sq f4 [6, 10]
000000 e3 ee d7 33 8f a7 d1 31 d5 f3 db 35 9d c5 5f 33
       1.0055171e-07 6.1017498e-09 1.6387736e-06 5.210096e-08
000010 bb 9a e2 32 f1 d8 6e 32 a9 cb c4 35 5b 7f cb 33
       2.6380226e-08 1.390275e-08 1.4662411e-06 9.47609e-08
000020 7a ae 74 35 22 74 4e 31 28 f5 a2 34 a8 7b a8 32
       9.115098e-07 3.004296e-09 3.0353226e-07 1.9614006e-08
000030 3b ed f8 36 90 bd 06 34 cd 7b 03 34 66 bc 47 33
       7.418593e-06 1.2548685e-07 1.2245364e-07 4.6504645e-08
000040 8e c5 f7 36 7a b4 9d 34 44 8d 02 36 ed cd 9e 31
       7.384172e-06 2.9374843e-07 1.9453737e-06 4.6218163e-09
000050 e5 40 d0 34 bd fc b6 34 db 77 0f 37 8c 04 3b 35
       3.8790236e-07 3.4084033e-07 8.55137e-06 6.9669545e-07
000060 52 a4 11 34 97 97 2f 33 b2 5b 9c 36 36 2e 6c 36
       1.3563957e-07 4.0883233e-08 4.659837e-06 3.5193639e-06
000070 61 59 35 36 a0 05 36 33 3e 7e 62 34 5a b6 3e 33
       2.7023127e-06 4.2380293e-08 2.1093817e-07 4.440367e-08
000080 c5 07 93 35 8e 51 2b 34 b4 17 d8 32 1d 22 6f 33
       1.0954615e-06 1.5955285e-07 2.5156488e-08 5.567755e-08
000090 ea f9 d8 36 00 1f 13 35 83 ae 91 36 68 10 9d 31
       6.4663955e-06 5.480688e-07 4.3416526e-06 4.5711666e-09
0000a0 42 db d9 34 a3 e2 32 34 fd 53 77 37 46 c8 c4 34
       4.057893e-07 1.6659992e-07 1.4741902e-05 3.6653563e-07
0000b0 06 d2 3a 34 7a 8b 58 33 12 ad 67 36 54 db e2 35
       1.7399006e-07 5.0418272e-08 3.4522423e-06 1.6902145e-06
0000c0 81 91 3e 36 f0 2d a5 32 9f 9a a9 33 ac 12 90 33
       2.83969e-06 1.9229418e-08 7.897801e-08 6.708919e-08
0000d0 32 3a 29 37 63 4e 79 34 51 6a f6 33 40 e1 4b 32
       1.0086735e-05 2.3218449e-07 1.14746065e-07 1.1867371e-08
0000e0 73 84 e9 35 67 b3 43 35 57 12 dd 35 c1 e0 70 32
       1.7398401e-06 7.2904226e-07 1.6471121e-06 1.4020942e-08

exp_avg f4 [6]
000000 9e 5c 89 b8 82 81 5d 39 d7 0f de b8 a1 4f e0 b7
       -6.54992e-05 0.00021124448 -0.00010588735 -2.6739961e-05
000010 78 e7 7c b8 6c cd 58 b8
       -6.0297054e-05 -5.1689727e-05

exp_avg_sq f4 [6]
000000 8b d4 16 36 ec 3f 2d 37 cd 18 e5 36 86 ca f6 35
       2.2475458e-06 1.03264865e-05 6.827619e-06 1.838737e-06
000010 4d 9c 34 37 89 85 00 37
       1.0765228e-05 7.660486e-06

exp_avg f4 [10, 6]
000000 92 81 35 39 66 b5 cd 38 0d 4f 7b 39 d7 04 29 b9
       0.00017309774 9.80895e-05 0.00023966674 -0.00016118899
000010 a7 fd 9a b9 fd 3e 02 ba e2 fd 91 b5 ea a8 37 36
       -0.00029562155 -0.00049684924 -1.0877231e-06 2.7367446e-06
000020 84 b6 fb b6 5d 7d c3 36 20 47 57 36 95 c4 15 37
       -7.5016305e-06 5.826047e-06 3.2078897e-06 8.926862e-06
000030 fc 8e 07 b9 b4 e9 b0 b9 ca ab f2 39 28 ca 83 b6
       -0.00012927869 -0.00033743458 0.0004628583 -3.9276383e-06
000040 7b d1 eb b9 6b e6 02 ba b1 97 31 37 72 f5 17 37
       -0.00044978768 -0.00049934414 1.05853405e-05 9.057449e-06
000050 3d d7 e2 35 82 3f 5f b6 3d bc b8 b6 d2 fd 9a b7
       1.6900955e-06 -3.3266556e-06 -5.505541e-06 -1.8476425e-05
000060 c8 89 14 39 65 29 b7 39 67 50 fc b9 e0 ad 65 34
       0.00014165707 0.0003493532 -0.0004812509 2.1390542e-07
000070 d4 2b f2 39 0d b2 04 3a d2 19 2a b8 1f f0 d3 b8
       0.0004619049 0.0005061932 -4.0555205e-05 -0.0001010599
000080 05 af 0f 39 70 a8 82 b6 59 6f 05 b9 d6 c1 0d b9
       0.00013702743 -3.8939106e-06 -0.00012725349 -0.00013519017
000090 cc d5 ea 38 87 a7 96 39 b2 af d3 b9 44 d5 ea 35
       0.00011197812 0.00028735047 -0.0004037596 1.7496427e-06
0000a0 87 0e cd 39 93 81 e3 39 f2 97 04 b7 30 3e bb b7
       0.0003911147 0.00043393354 -7.903191e-06 -2.2321095e-05
0000b0 1e 12 c4 37 54 4c d5 36 b1 20 b6 b7 fe 2b 23 b7
       2.3373457e-05 6.3567804e-06 -2.1711314e-05 -9.7258e-06
0000c0 ab f4 85 37 14 28 c3 37 32 c2 8a b7 21 fd 1d b7
       1.5968768e-05 2.3264474e-05 -1.6541311e-05 -9.416865e-06
0000d0 25 0a 90 37 de 0f 9b 36 8a b2 e6 36 9d 76 30 37
       1.7170862e-05 4.621207e-06 6.875319e-06 1.0518034e-05
0000e0 52 aa c0 b6 27 48 20 b6 76 1d 54 36 0e 37 2b b6
       -5.741874e-06 -2.3883856e-06 3.160761e-06 -2.5513032e-06

exp_avg_sq f4 [10, 6]
000000 9f 20 ae 34 74 f8 16 35 97 48 77 37 b0 af 45 35
       3.243376e-07 5.62409e-07 1.4739248e-05 7.364388e-07
000010 63 74 88 37 93 0b 1e 37 17 e8 73 32 d9 64 eb 31
       1.626666e-05 9.420229e-06 1.4197233e-08 6.850865e-09
000020 1f f4 dd 31 dc ec 84 32 bd 98 a2 32 6a bf 8d 32
       6.4597e-09 1.5474534e-08 1.892874e-08 1.6501605e-08
000030 4e d8 b8 33 07 0d 62 36 c7 b2 45 35 36 b0 31 37
       8.607513e-08 3.3684207e-06 7.3648374e-07 1.0591049e-05
000040 74 0d 08 34 7c d1 54 36 a7 fe 00 34 db b4 cd 34
       1.2670881e-07 3.1712398e-06 1.2013571e-07 3.8315815e-07
000050 89 ed 72 33 19 f6 8f 34 07 a7 3c 33 3f e8 ac 34
       5.6561053e-08 2.6814885e-07 4.392407e-08 3.2206478e-07
000060 f0 7d b8 33 87 bd 41 33 1c e9 41 33 37 7f a6 33
       8.5910756e-08 4.510869e-08 4.5148326e-08 7.7531176e-08
000070 85 65 1b 33 0a 9d bd 33 b2 2b 94 32 7b 79 39 34
       3.618108e-08 8.8295636e-08 1.7249338e-08 1.7273662e-07
000080 92 cc 82 34 2c a1 a0 35 10 21 56 34 40 6e 21 34
       2.4363231e-07 1.1967836e-06 1.9942331e-07 1.5034402e-07
000090 50 92 3b 34 20 46 ae 33 e2 26 00 34 bc 53 8a 34
       1.746896e-07 8.115262e-08 1.1935074e-07 2.5765428e-07
0000a0 12 b2 09 33 fc 07 09 34 ff 33 cd 34 cd ff 3f 34
       3.2059752e-08 1.2762024e-07 3.8222058e-07 1.7881321e-07
0000b0 80 5f 81 36 8d 1f b7 32 b2 46 40 36 69 ab b9 35
       3.8556173e-06 2.1318352e-08 2.865138e-06 1.3833461e-06
0000c0 bd ae 18 32 26 63 aa 33 f6 12 06 34 ad 4e 6f 32
       8.887295e-09 7.934277e-08 1.248662e-07 1.392952e-08
0000d0 99 33 9a 34 e8 ec f0 34 84 da 4b 33 42 96 f6 32
       2.8722278e-07 4.4875856e-07 4.746336e-08 2.8706499e-08
0000e0 6b c4 cd 32 19 06 fb 32 1f 90 24 33 27 42 eb 33
       2.3954462e-08 2.9223019e-08 3.8315303e-08 1.0955073e-07

exp_avg f4 [10]
000000 ff 08 27 39 ac 08 e1 34 d8 4f a9 b8 46 9e 35 b5
       0.00015929712 4.1915825e-07 -8.07342e-05 -6.765807e-07
000010 ab cf 97 38 3d 84 49 b7 d2 18 81 38 fa 30 53 b6
       7.238922e-05 -1.2011323e-05 6.1558225e-05 -3.1469958e-06
000020 46 ce 5d 37 df 26 b4 36
       1.3220653e-05 5.368943e-06

exp_avg_sq f4 [10]
000000 53 2f 0e 37 2d 88 d7 32 eb fd d2 36 be 49 09 34
       8.474878e-06 2.509122e-08 6.2880476e-06 1.2785947e-07
000010 e0 19 00 34 6a 81 f5 35 cd 4f aa 34 48 58 21 34
       1.1930342e-07 1.8291587e-06 3.172303e-07 1.502641e-07
000020 30 3c 5a 32 01 26 f9 33
       1.2702955e-08 1.1601879e-07
