checkpoint/DAE_ckpt_06-27_11-11-58.pt (torch, 29322 bytes, 54 tensors)

encoder.0.weight f4 [10, 12]
000000 61 f4 e1 bc 34 b6 61 be 83 13 d9 bd 81 68 07 be
       -0.02758235 -0.22042161 -0.10599425 -0.13223459
000010 ba b5 46 be 80 86 39 bd cc c9 cd bd a7 93 e1 bd
       -0.1940526 -0.045294285 -0.10048255 -0.110144906
000020 66 e4 49 3d 6f 42 68 be f2 62 93 3e 30 6c 0b be
       0.049290083 -0.22681592 0.28786427 -0.13615489
000030 c3 df 43 3e 49 06 0f 3d 87 b9 4e be e5 63 1c 3e
       0.19128327 0.034918103 -0.2018796 0.15272482
000040 8e b3 5e bd 24 86 be bc 14 c8 10 3e 30 bd d5 3c
       -0.054370455 -0.023257323 0.14138824 0.026091188
000050 40 3c 19 3d 89 8e 35 be b2 ca 62 3e 54 ba 3f 3e
       0.037410975 -0.17730154 0.22147635 0.18723422
000060 33 a3 69 bd 80 5b 8c 3e 36 df 4f 3e 18 4d b4 3d
       -0.057040405 0.2741356 0.20299992 0.08803767
000070 7b 5a 97 be 3e ed 9e bd ce 91 7f be a6 29 f9 bd
       -0.2956122 -0.07760094 -0.24957964 -0.12166147
000080 3e 7e 19 3e 3b 0d 10 3e c5 7f 80 be b2 b2 0f be
       0.14989564 0.14067547 -0.2509748 -0.1403301
000090 42 bd 9e bd 06 02 df 3c 64 bc 6e be 98 ba 08 be
       -0.07750942 0.027222645 -0.23314053 -0.1335243
0000a0 07 e6 ca bd 5b b5 06 be 75 4c 57 be df d9 24 be
       -0.099071555 -0.13155119 -0.2102526 -0.16098736
0000b0 16 e2 53 be 3d 7c 96 3e 9a 1e 28 3d f9 ff 87 be
       -0.20691714 0.2939166 0.04104481 -0.2656248
0000c0 be e5 cd bd af 75 37 3e 97 ad 60 bd 86 76 52 3e
       -0.100535855 0.17915986 -0.05485305 0.20553026
0000d0 a7 f7 47 3e 1f 7f 18 bd a5 9a d7 3d 4a 6f 8e 3e
       0.19528066 -0.037230607 0.10527543 0.27819282
0000e0 74 18 58 3e 97 6f 22 3e 05 6c 6a be 7f 90 65 3e
       0.21103078 0.1586288 -0.22892769 0.22418402
0000f0 d8 ef 66 bd c5 74 05 3e a4 29 48 bd 44 ff 08 bd
       -0.056381077 0.13032825 -0.048867837 -0.033446565
000100 c3 91 7b 3e 8b 58 80 be b8 e9 eb bd fe 60 1f 3e
       0.24567322 -0.25067553 -0.11519188 0.15564343
000110 9f ae 02 3e c8 a7 fe 3d 0b 80 72 3e e7 1b b2 bd
       0.12761925 0.124343455 0.23681657 -0.08696728
000120 04 e5 36 3e 36 d1 b8 bd 09 d8 85 be e8 54 80 be
       0.178608 -0.09024279 -0.26141384 -0.25064778
000130 b0 bd 37 3a 91 ad f7 bc 86 7c 52 be 88 4b 08 bc
       0.00070091616 -0.03023413 -0.20555314 -0.008318789
000140 8c ff d2 bb 45 48 6a be cd 51 54 bd b4 1d 2d be
       -0.006439155 -0.22879131 -0.051835824 -0.16905862
000150 77 37 7d be 37 e7 95 be b7 d8 1e 3d a6 44 44 be
       -0.2472819 -0.29277965 0.038780894 -0.19166812
000160 3a 33 5e 3d 89 e4 b1 bc 8a 21 b5 3c 91 28 95 3e
       0.054248072 -0.02171542 0.02211072 0.29132512
000170 e8 51 ac 3d d5 10 01 3e c8 1c 4c be 3d b4 65 bd
       0.0841406 0.12604077 -0.19932854 -0.05608009
000180 53 3c 25 3e 08 e1 bc 3d e7 e5 41 be 9f 04 78 be
       0.16136293 0.09222609 -0.18935357 -0.24220513
000190 e4 5b 7e bd 68 11 6e bc 6a d2 24 be 5a b7 28 3d
       -0.062099352 -0.014530517 -0.16095892 0.041190483
0001a0 1f 9a d4 bc 53 1f 8c be 42 55 4c be fa a6 55 3e
       -0.025952397 -0.27367648 -0.19954398 0.20864478
0001b0 35 5a 2b be 06 db 89 be 0c 86 76 3d 0d f6 5c bd
       -0.1673363 -0.26924914 0.06018643 -0.05394559
0001c0 8a fb 47 be 88 31 26 bd 29 22 20 be d4 66 1b bd
       -0.19529548 -0.04057458 -0.15638031 -0.03793986
0001d0 69 01 16 3e ff 59 83 bd f0 7b 79 3e 0d b5 35 be
       0.14648975 -0.0641365 0.24363685 -0.17744847

encoder.0.bias f4 [10]
000000 f5 83 42 be 8b eb 8b 3d 16 1a 83 3e 70 9d 82 be
       -0.1899565 0.06832036 0.2560584 -0.2551074
000010 96 c1 93 3c 2b c8 21 be 53 92 34 3e 99 5e 18 3d
       0.018036645 -0.15799014 0.17633943 0.03719959
000020 d3 d5 4c be 72 9f 98 be
       -0.20003442 -0.29809147

encoder.3.weight f4 [10, 10]
000000 68 d7 5b 3e c4 b9 70 3e 8e 55 c5 3d c3 0e 98 bd
       0.2146889 0.23508364 0.09635459 -0.074246906
000010 b9 b7 90 be 21 d3 65 3e c1 0b 97 be 60 fa 57 3e
       -0.2826517 0.2244382 -0.29501155 0.21091604
000020 37 42 a6 bc 6e d7 02 bc ba aa ee bd 41 d8 54 be
       -0.020295246 -0.007985933 -0.11653657 -0.2078562
000030 de 1c 57 3d d3 37 b8 bd 3d 16 8a 3e 78 76 28 3b
       0.052517764 -0.089950226 0.2697009 0.0025705379
000040 54 64 ad 3d 03 08 07 be be 8c d8 bd 02 a8 23 be
       0.08466402 -0.1318665 -0.105737194 -0.15982059
000050 ab b0 d3 3d 15 c2 53 3e 4f f5 00 3d d8 57 82 3e
       0.10336431 0.20679505 0.031483945 0.25457644
000060 1c 29 7c be 8b ee bf 3d 1e 5f 73 3d 80 a2 85 be
       -0.24625057 0.0937167 0.059416883 -0.2610054
000070 f5 c0 14 3e 2c 92 99 be 74 75 86 3d 8c 95 94 bd
       0.14526732 -0.29994333 0.06565371 -0.07255086
000080 1f 8f e7 bc 92 10 c3 bc a6 6d ee 3d bb a6 75 3e
       -0.028266488 -0.023811612 0.116420075 0.23989384
000090 2a e5 35 be cf 04 13 3e e9 d2 a3 bd 96 91 bc 3d
       -0.177632 0.14357303 -0.07999212 0.09207456
0000a0 11 63 51 3e 29 7c 9f be 50 71 7c be b0 95 3f be
       0.20447947 -0.31149414 -0.246526 -0.18709445
0000b0 0a f8 df 3d 7c e0 9c 3e 63 c6 6d 3e 31 1e 98 be
       0.109359816 0.30640018 0.2322021 -0.29710534
0000c0 8f 9a c4 bd d8 5f 3d bb ca e4 80 be 97 53 3a bd
       -0.09599792 -0.0028896239 -0.25174552 -0.045489874
0000d0 cd 2c 4e 3e 80 2f 6a be d8 d0 7d be 12 aa 7e be
       0.20134278 -0.22869682 -0.24786699 -0.24869564
0000e0 4c a0 41 be 5c 60 17 be 59 b6 62 be 1c e8 9b be
       -0.18908805 -0.14782852 -0.22139873 -0.30450523
0000f0 e4 be 63 be 7e 75 a4 bd 60 09 06 3e 72 cf 96 be
       -0.22240788 -0.08030222 0.13089514 -0.29455143
000100 ec eb 74 bd 75 c0 c4 bd 7d 8b 6d be 29 a8 9c bd
       -0.059795305 -0.09607021 -0.23197742 -0.076492615
000110 16 b2 d9 3c b8 1d 6f bc 12 72 26 3d 4f 03 07 3e
       0.026574176 -0.014594488 0.04063613 0.13184856
000120 e2 bb 01 3e 42 62 21 3e e0 eb 22 3d 7c 43 37 3e
       0.12669328 0.15760139 0.03977573 0.17896837
000130 e5 e2 31 be e0 97 1d be 35 03 8c be 73 3d a6 be
       -0.1737171 -0.15389967 -0.27346197 -0.32468757
000140 10 30 60 be 3b f6 8a be 73 90 9e 3d 4c 0d c3 3d
       -0.21893334 -0.27140984 0.07742395 0.095240206
000150 05 23 8a be e2 5f ac 3d 73 05 4e be b2 bd 20 3e
       -0.26979843 0.08416726 -0.20119266 0.15697363
000160 69 ce c1 bd a1 e5 fa 3d e8 c4 98 be 35 6b 1b 3e
       -0.09463198 0.122508295 -0.29837728 0.15177615
000170 a9 cf 84 3e f7 d8 38 be f5 60 62 3d 1a a0 3d 3e
       0.25939682 -0.18051516 0.055268247 0.18518105
000180 23 99 58 bd 4d b3 92 3e 13 05 ff bd 3d a9 4a 3e
       -0.052880418 0.2865242 -0.1245214 0.19791122

encoder.3.bias f4 [10]
000000 34 52 cb bc 44 68 77 3e 80 84 ea b9 9a a6 48 be
       -0.024819471 0.24160868 -0.00044730678 -0.19594803
000010 bf 1d 7a 3e 4f 76 b7 3d 6c 4e 3e 3e 9d c0 b9 3d
       0.2442541 0.089581124 0.18584603 0.09069941
000020 bc ea 49 be 81 a4 9c be
       -0.1971845 -0.30594257

encoder.6.weight f4 [6, 10]
000000 b7 8d c6 3d d3 25 b7 3d 40 2d 85 be 2c 8d 7c 3e
       0.09694999 0.08942761 -0.26011086 0.24663228
000010 9b 8c 3c 3e d8 e6 4c 3d 3d e3 e2 bd e4 9f 40 be
       0.18413012 0.050024837 -0.110784985 -0.18810993
000020 15 27 2d be 75 97 1c be 72 92 aa bc 5d 4a 64 3e
       -0.1690944 -0.15292151 -0.020821784 0.22293992
000030 0c 8c 93 bd 9c f4 e9 3d 68 85 d2 3d ee c1 ca bc
       -0.07204446 0.11423609 0.102793515 -0.024750676
000040 70 73 fa 3d 78 ee 9e 3d 00 0a d9 bd 60 b3 6c be
       0.12229049 0.07760328 -0.105976105 -0.23115301
000050 27 a0 a1 be 11 80 a9 3d bc 73 9c 3e 6a 76 eb 3d
       -0.315675 0.0827638 0.30557048 0.11497195
000060 6b 1c db 3d 8f a0 3d 3e 1c 1a 93 3e a1 83 4a be
       0.1069878 0.1851828 0.28730857 -0.19776775
000070 cc 59 19 be e4 1b 64 be 9b cc 76 3e 0d c3 7a 3e
       -0.14975661 -0.22276264 0.24101488 0.24488468
000080 54 11 76 be d4 89 88 be 28 7e 58 be ac 06 41 bd
       -0.24030048 -0.26667655 -0.21141875 -0.047125503
000090 5a cf e8 bd bf 52 60 be 9a 4c 01 be 4c fb 5f be
       -0.11367674 -0.21906565 -0.12626877 -0.21873206
0000a0 e9 94 34 3e 17 fb 0c 3e 77 cc 18 be 43 11 81 be
       0.1763493 0.13767658 -0.14921747 -0.25208482
0000b0 86 f4 5f be 2a 38 00 be 71 7f 22 3e 24 9d ae 3d
       -0.21870622 -0.12521425 0.15868928 0.08526066
0000c0 c3 d8 53 3e 3d c0 2c 3e 5d fd 97 bc fc 49 41 be
       0.20688157 0.16870208 -0.01855343 -0.18875879
0000d0 0f 4f a1 be a0 6c 8c 3c 76 8f 31 3e 5b 91 6e 3e
       -0.3150563 0.01714164 0.17339882 0.23297636
0000e0 db 7a d2 3d c9 53 bb bd 42 59 6f 3e 4f ee 16 3e
       0.10277339 -0.0914684 0.23373893 0.14739345

encoder.6.bias f4 [6]
000000 c4 26 b3 bc d8 49 f4 bd 44 73 2e 3d 04 32 2f 3e
       -0.02186907 -0.11928147 0.042590395 0.17108923
000010 a6 fb b7 bd c8 b3 33 bb
       -0.08983545 -0.002742039

decoder.0.weight f4 [10, 6]
000000 70 5a 9c bd a0 95 c5 3e 56 60 b3 bc 98 f4 89 bd
       -0.07634437 0.38590717 -0.021896522 -0.06736106
000010 38 a4 98 be 97 24 c3 be 08 b5 58 be c3 fa 10 be
       -0.2981279 -0.38113853 -0.21162808 -0.14158158
000020 64 91 b0 be 31 89 95 3e df a9 77 3e ea 12 ff bc
       -0.34485924 0.2920623 0.24185894 -0.031136949
000030 1f 9c 57 3d 03 32 02 be d4 98 b3 3d 55 2a 93 be
       0.052639123 -0.1271439 0.08769384 -0.28743234
000040 42 93 7c 3e 4b 8e a6 be ba 3f b2 3e 32 f9 cd be
       0.2466555 -0.32530436 0.34814245 -0.40229183
000050 1f 76 98 be 7d 11 2c bc 85 19 04 bd bb cd 5b 3e
       -0.2977762 -0.010502216 -0.0322509 0.21465199
000060 e0 53 92 be 2b 2f 9a be 4c b8 a0 bd 92 ff c1 bd
       -0.28579617 -0.3011411 -0.07847652 -0.09472574
000070 07 da d3 be 9c 20 3f 3e cc 51 cf be 21 6f 06 be
       -0.4137728 0.18664783 -0.40492094 -0.1312833
000080 97 14 64 3e 2d 80 6e be 78 6f 4b 3e e4 af 31 3e
       0.2227348 -0.23291083 0.1986674 0.17352253
000090 3c c3 6e be 16 3f 62 3d bc 72 92 3d 30 71 c5 3d
       -0.23316664 0.055235945 0.0715079 0.096407294
0000a0 0f 80 36 be 4a fa 55 be 31 9e f6 3c 60 4c 06 3e
       -0.17822288 -0.20896259 0.030104728 0.13115072
0000b0 84 59 0a bd 6c 21 95 be f4 b9 28 3e a5 2f 2e be
       -0.033776775 -0.2912706 0.16477185 -0.17010362
0000c0 6a c1 a8 be 24 02 14 be 32 bc 35 bd 86 65 c9 3b
       -0.32960063 -0.14453942 -0.04436893 0.0061461357
0000d0 e7 c9 c3 3d 25 06 8e 3e 37 05 74 3e 35 28 45 3e
       0.09559994 0.27739063 0.23830114 0.19253619
0000e0 45 ce 28 3d 9f 49 93 3d ed 0f 83 3d c0 39 b3 be
       0.04121234 0.071917765 0.06399522 -0.35004997

decoder.0.bias f4 [10]
000000 6d d7 ba 3e 99 25 1a be e2 7e 7b be 4f 4a f7 3d
       0.36492482 -0.15053405 -0.2456012 0.1207472
000010 94 d4 70 3e 26 74 6e be ac da 8c bd 95 c1 d2 3e
       0.23518592 -0.23286495 -0.06877646 0.41163316
000020 2f 04 9e be ab c0 08 3e
       -0.30862567 0.13354747

decoder.3.weight f4 [10, 10]
000000 e2 63 6b 3e a4 a3 8d 3e f7 7d 8f 3e b1 77 c0 3d
       0.22987321 0.2766391 0.2802579 0.09397829
000010 14 07 a3 be 07 0d 39 3e c1 80 86 3e 1c 06 31 3e
       -0.31841338 0.18071376 0.26270106 0.17287487
000020 80 9d 47 be 76 07 dd bc 13 0a 91 3d 3b c4 8d 3e
       -0.19493675 -0.026981097 0.07082 0.27688774
000030 96 1c 55 3e 0e 4a 38 3e 5e 3d 45 be 40 53 ea 3c
       0.20811686 0.17997 -0.19261691 0.02860415
000040 df de 88 be 4e ef 89 bc f5 b0 9d 3e 20 3e f3 bc
       -0.26732537 -0.016837742 0.3079907 -0.02969271
000050 89 7f 3f be 0a 8c 31 bd 30 fa 3e be c8 d0 85 be
       -0.18700995 -0.043346442 -0.18650126 -0.2613585
000060 2b ad 28 3e d5 fd 22 bc 14 92 17 3e fb 94 9a 3d
       0.16472308 -0.009948214 0.14801818 0.07547947
000070 60 34 f8 bc b5 ec 57 be f5 e5 91 3e 0f a4 95 3d
       -0.030298412 -0.2108639 0.28495756 0.07306682
000080 24 97 12 3e fc 8a 03 3e 55 b3 8a be 68 4c b8 3d
       0.14315468 0.12845987 -0.27089944 0.08998948
000090 24 7b 34 be 96 9a 86 be 7a 7d 0b be 28 f0 2d be
       -0.176251 -0.26289815 -0.13622084 -0.16986144
0000a0 b6 0f 92 be 16 88 60 3e cf 96 3c bd c8 3a ca bc
       -0.28527611 0.21926913 -0.04604226 -0.024686232
0000b0 f0 92 05 3e 4a 39 95 3e 59 c5 64 3e 58 64 20 be
       0.13044333 0.2914527 0.22340907 -0.15663278
0000c0 45 ec 6a bd e8 78 0a be 56 7c 27 3d 35 65 09 3e
       -0.05735423 -0.13522685 0.04089006 0.13417514
0000d0 26 10 90 3e 9f 93 86 be 57 8b 8e be 6a 73 38 3e
       0.2813732 -0.262845 -0.27840683 0.18012777
0000e0 b4 7b 67 be da df 5e 3e 44 9a 32 3e 82 76 99 3d
       -0.22605783 0.2176508 0.1744166 0.07493307
0000f0 5f d8 84 3e 1a bb 16 be ec 62 9c be 78 b4 4d be
       0.25946328 -0.14719811 -0.3054422 -0.20088375
000100 d3 26 8b bd 39 bd 8b 3e d9 7b 68 3d f2 7b 9d be
       -0.067945145 0.27292803 0.056758735 -0.30758625
000110 09 54 89 3e e3 fd 72 3e 60 df 2b 3e 55 d4 a1 3d
       0.26821926 0.23729663 0.1678443 0.07901827
000120 76 b8 55 be a9 b8 8a 3e a6 61 74 be ee 3d 35 3c
       -0.20871148 0.2709401 -0.23865375 0.0110621285
000130 c0 5c 01 bd a6 15 98 3d 27 dc 90 be a8 e3 cb 3d
       -0.031582594 0.07426004 -0.28292963 0.09955531
000140 fe 2b 2d 3d f0 a4 89 be 56 b6 16 bd 4e 2d 6a 3e
       0.042278282 -0.2688365 -0.036794983 0.22868845
000150 f5 9b 9b be 53 5d 6a 3e 71 3a 71 3d 41 05 90 3d
       -0.30392423 0.22887163 0.058893625 0.07032252
000160 88 cf 88 3e ef 5a 06 be 74 e0 77 be 83 4a 50 be
       0.26720834 -0.13120626 -0.24206716 -0.20340924
000170 f1 1c 86 be ca ac 4a 3e 48 43 ad bd 95 4b 40 be
       -0.26193956 0.19792476 -0.084600985 -0.18778832
000180 91 1d 86 3d f5 69 83 be 98 db 30 bd fc f9 93 3e
       0.06548608 -0.25666776 -0.04317817 0.2890166

decoder.3.bias f4 [10]
000000 8a c9 e2 bd bd 5a f1 bd 79 cd 65 3e 01 02 01 be
       -0.11073597 -0.11784885 0.22441663 -0.1259842
000010 bd a7 51 3e f4 16 64 be 79 96 82 3e ad 61 3e bd
       0.20474143 -0.22274381 0.25505427 -0.04647987
000020 a4 01 65 3e 76 84 2c 3d
       0.22363907 0.042118512

decoder.6.weight f4 [12, 10]
000000 cf 6e 40 3d 71 5b 17 bd ef 5c 15 bd cb e4 ec 3d
       0.046980675 -0.03695244 -0.03646558 0.11567076
000010 66 6a 80 3d 7a 3a 70 3e c9 92 e0 bd fc c8 84 bd
       0.06270294 0.23459807 -0.10965497 -0.06483647
000020 3a 88 20 bd c3 5f 00 3d 89 45 83 3e 7f a5 43 3e
       -0.039192416 0.031341325 0.2563899 0.191061
000030 4b ec b5 3d 39 27 30 3d df b4 5d 3e b2 7f 48 bd
       0.0888296 0.043006156 0.21651028 -0.048949905
000040 92 c3 e7 3c d6 7d 28 3e b9 2c 15 bd a1 50 41 3d
       0.028291497 0.16454253 -0.036419604 0.047196034
000050 b8 f1 85 be 38 84 95 3d 50 85 dc bd 7c 84 94 3e
       -0.2616098 0.07300609 -0.10767615 0.29007328
000060 ba 69 95 be 42 42 6a be 1c 91 95 3e 2a 8a 14 bd
       -0.29182225 -0.22876838 0.29212272 -0.036264576
000070 bc f5 e2 3d b7 f7 67 be d4 6f 18 3e 26 54 78 be
       0.11082026 -0.2265309 0.14886409 -0.2425085
000080 8b e7 35 3c 22 e5 7a 3e 60 ce 27 3e 8c de ce bd
       0.011102567 0.2450147 0.1638732 -0.10101041
000090 50 d2 4e 3b 72 58 3b be 64 35 5d be 8e 3a 99 be
       0.0031558461 -0.18295458 -0.21602398 -0.29927486
0000a0 1c 01 74 be 22 29 0f be 0f 69 03 3e ac d4 3a 3e
       -0.23828548 -0.13980535 0.12833045 0.1824519
0000b0 b7 f0 1c be 7e 1f 64 be 86 55 6f be 50 5d 07 3d
       -0.153262 -0.22277638 -0.23372468 0.033047974
0000c0 27 4d 77 3e d4 94 c6 bd cb 5f 50 be 70 f3 2c bd
       0.24150525 -0.096963555 -0.20349042 -0.042224348
0000d0 f8 49 80 bd 06 f7 4f 3e 56 c5 8f 3e 16 e0 6e 3d
       -0.062641084 0.20309076 0.28080243 0.058319174
0000e0 93 5f 48 3d c6 ca 8f be 4d c7 0f be 4b f2 d8 3d
       0.04891927 -0.2808439 -0.14040871 0.10593089
0000f0 6a 18 31 be ad 90 fa bd 64 c9 d6 bd 6e bf 86 3e
       -0.1729447 -0.12234626 -0.10487631 0.26317924
000100 7f e1 cc bd 0f 4f 57 be 3d 86 bc 3d c8 de 91 3e
       -0.100039475 -0.21026252 0.092052914 0.2849028
000110 ce 6b 2f be 1d cb 99 3e 0e a0 81 3c 0c 45 60 be
       -0.17130968 0.30037776 0.01582339 -0.2190134
000120 a0 e3 90 bd dd d4 86 3e 46 47 1e bd db db 93 be
       -0.07074666 0.26334277 -0.03864219 -0.28878674
000130 73 8e d7 bd 75 5e 41 3e 07 a9 94 bd 40 45 65 be
       -0.10525217 0.18883689 -0.07258802 -0.22389698
000140 b6 4a f6 bb c0 37 08 be 02 82 f6 bc 9b a7 98 be
       -0.0075162305 -0.13302517 -0.03009129 -0.29815373
000150 9b b7 38 3e ab ff 68 3d 04 bc 48 3e fa fa 51 bd
       0.1803879 0.05688445 0.19602972 -0.05126474
000160 5f 0f 95 be e9 f7 9d 3e f8 7e 1b be 4e 83 39 3e
       -0.2911329 0.30853203 -0.15185153 0.18116495
000170 d1 83 09 3d 55 6f 64 3e 19 23 1b bc 1e 37 82 3e
       0.033572976 0.22308095 -0.009468817 0.25432676
000180 29 37 cf bd e4 d0 67 bd c2 ce 6e 3c d7 7c 35 be
       -0.10117943 -0.056595698 0.014575662 -0.17723404
000190 47 3c 9c be d8 f8 69 be 86 21 6b 3e 9e cb 54 bd
       -0.30514738 -0.22848833 0.22962007 -0.051951997
0001a0 88 ac 35 be 28 2b 85 ba 36 37 49 3c d9 75 41 3e
       -0.17741597 -0.0010159956 0.01228123 0.18892612
0001b0 1c 9d 71 3d ad dc 80 3c 2c fd 2e 3c 79 af 84 be
       0.05898772 0.015730226 0.010680478 -0.25915125
0001c0 a5 b8 21 be 9a d8 74 bd dd 7e 73 3d b6 94 47 be
       -0.15793093 -0.05977688 0.059447158 -0.19490322
0001d0 e3 44 6e 3e ec 4c 87 be 9a af 85 3e dd 6f b4 3d
       0.23268466 -0.26425874 0.26110536 0.08810399

decoder.6.bias f4 [12]
000000 8e a6 97 be 68 e7 29 be ed 00 90 bd 24 f6 ca bd
       -0.2961926 -0.1659218 -0.070314266 -0.09910229
000010 29 10 99 be 8b 95 47 3e 88 87 88 be d6 d7 69 3e
       -0.29895142 0.1949064 -0.26665902 0.22836241
000020 03 ce 53 3d 06 46 9b be 3a 24 22 be 68 fd 17 3b
       0.05171014 -0.3032686 -0.15834132 0.0023191813

mlp.0.weight f4 [10, 12]
000000 a8 ef c9 bc 9a 53 24 3e 38 1f 8c bd 6a 87 30 be
       -0.02465041 0.16047516 -0.06841892 -0.17239156
000010 4d 33 30 bc 40 8e 51 3e 41 74 88 be 2d b8 94 bd
       -0.010754419 0.2046442 -0.26651195 -0.07261691
000020 72 cd 52 be 0b db 8d be e2 85 18 be f3 fd 15 3e
       -0.20586184 -0.2770618 -0.14894822 0.14647655
000030 c6 71 70 be 34 86 77 be 7c fb e5 3d 89 5e 80 3e
       -0.23480901 -0.24172288 0.112296075 0.25072125
000040 02 4f 1a be 55 88 2b 3e a8 8d bb 3a c6 0f 0a 3e
       -0.15069202 0.16751225 0.0014309185 0.1348258
000050 ea 1c 6c 3e cb 15 13 3e 6c e0 a6 bd c6 37 c2 3b
       0.23057905 0.14363782 -0.08148274 0.005927059
000060 e9 e8 4f be 4c 02 eb bd 4e 2c 27 be 18 46 8f 3e
       -0.20303692 -0.114750475 -0.16325495 0.27983165
000070 4c b8 b0 bd 3f fe 80 be a5 d5 79 be 18 b3 50 be
       -0.08628902 -0.25193974 -0.24397905 -0.20380819
000080 ec 18 56 be 3c 03 f2 3d fe 07 24 be bc 04 bf 3d
       -0.20907944 0.11817023 -0.16018674 0.09327075
000090 9c 82 18 be d7 b4 91 bd 03 7b 94 3e b1 9a 18 3d
       -0.14893574 -0.071145706 0.290001 0.0372569
0000a0 52 1e 0d be 48 68 4f 3d 4f 88 1a be c9 21 cc 3d
       -0.13781098 0.05063656 -0.1509106 0.099673815
0000b0 94 ee 30 be 93 d4 22 be 2c a3 86 3d aa a5 9d 3d
       -0.1727851 -0.15901403 0.06574091 0.076976135
0000c0 82 80 0f bd 64 e3 79 3e a6 ab dd bd fa d4 36 3e
       -0.035034664 0.24403149 -0.10823755 0.17854682
0000d0 c8 df 80 bd 81 e3 02 be 65 3e d9 bd ce e9 3b 3e
       -0.06292683 -0.12782098 -0.10607604 0.18350908
0000e0 af 61 5d be 9e f1 84 3d 2d c2 48 3d 33 72 81 be
       -0.21619295 0.06491397 0.049013305 -0.2528244
0000f0 62 54 0d 3d 2a da c5 bd 15 29 76 be bc a5 59 be
       0.0345043 -0.09660752 -0.24039109 -0.21254629
000100 b0 36 c7 3d 2c 62 d7 3d 2e cd ce bd 50 35 6b 3e
       0.09727228 0.10516772 -0.10097729 0.22969556
000110 a0 fd 3b bb 51 40 40 3e cd aa 05 be 0e 7f 7a 3e
       -0.0028685108 0.18774535 -0.13053437 0.2446253
000120 36 03 88 3e 00 94 2c bd cc a7 e9 3d 70 a2 47 3e
       0.2656495 -0.04213333 0.11408958 0.19495559
000130 37 8f 21 be 70 4f 4f 3d 18 c0 29 3d 0a 47 a3 bd
       -0.15777288 0.050612867 0.04144296 -0.07972534
000140 18 16 1a bd 2c 8f 48 be 64 70 6e 3e a4 3d 4b be
       -0.037618726 -0.19585866 0.23285061 -0.19847733
000150 f8 1e dc bc 34 06 61 be 20 94 41 be 9f 9b 89 bd
       -0.026870236 -0.21975023 -0.18904161 -0.067191355
000160 93 ae 80 be 2d 4e 46 be 82 ad 19 be 9a 69 58 3d
       -0.2513319 -0.19365759 -0.15007594 0.052835084
000170 0d 68 a1 bd 53 c5 8e bd 58 0e 8a 3c 6b 3d fc bd
       -0.07881174 -0.0697123 0.016852543 -0.12316402
000180 00 48 57 3d 5c fe ce 3d 07 61 75 be 40 a6 49 3e
       0.0525589 0.10107109 -0.23962794 0.19692326
000190 b8 85 39 3e b5 c1 e8 bd 9b 7b 96 bd 6d 37 15 be
       0.18117416 -0.11365072 -0.073477946 -0.14571925
0001a0 b2 f1 44 be 1a 00 6d bd 69 89 62 3c 54 52 bb bd
       -0.19232824 -0.057861425 0.013826706 -0.09146562
0001b0 98 3a f7 3b 2e cb c3 bd 6e f1 55 3d 94 a2 8b bd
       0.0075448267 -0.09560238 0.0522322 -0.06818119
0001c0 a8 b9 b4 bc bd 88 52 be ce 57 0e 3d 4a c5 46 3e
       -0.022061184 -0.20559974 0.034751706 0.19411197
0001d0 77 78 77 3c 58 cb 29 3e 3e 2d 11 3e 46 9d 06 be
       0.015104405 0.16581476 0.14177415 -0.13145933

mlp.0.bias f4 [10]
000000 62 1f 57 be cf ec 34 bd 23 10 47 be a3 66 18 be
       -0.21008065 -0.04417115 -0.1943975 -0.14882903
000010 a8 f4 4d bd 40 b0 b1 bc 4c 31 3b be 7d d5 c8 3d
       -0.05028215 -0.021690488 -0.18280524 0.09806345
000020 7c a8 85 3d 94 d9 a6 3d
       0.065262765 0.081469685

mlp.3.weight f4 [8, 10]
000000 e7 b3 86 3e 2e c4 29 be 45 30 99 3e 98 c7 fe bd
       0.2630913 -0.16578743 0.2991964 -0.12440413
000010 2f c2 21 be f0 a0 7b be 36 6c 7e 3e 00 24 58 3c
       -0.15796731 -0.24573112 0.24845967 0.013192177
000020 92 ed 13 3e 02 85 e0 bd 92 5c 62 3e cf 8b 0b 3d
       0.14446095 -0.10962869 0.22105625 0.03406888
000030 c8 51 87 bd 0a 22 69 be be de db 3d 5e ca 6c be
       -0.066073954 -0.22766891 0.10735844 -0.23124072
000040 22 f1 31 3e 8e d0 f9 3c ee 98 13 be 16 5a b4 bd
       0.17377141 0.030494954 -0.14413807 -0.08806245
000050 38 ef 02 be 70 5f 2c 3e 21 e6 93 3e d8 78 e7 bd
       -0.12786567 0.16833282 0.28886512 -0.11302346
000060 d2 6d 3f be c8 52 0d bd 94 1e 9d 3d 6c 4b 81 be
       -0.18694237 -0.034502774 0.07671848 -0.25252855
000070 de b6 e8 bd e4 d3 7c be 7b 71 91 3d 57 41 92 3e
       -0.11363004 -0.24690205 0.07101723 0.28565475
000080 d2 6e 07 3e dd f9 7b 3d 25 d6 16 bd 5b 8e 1c be
       0.13225868 0.061517585 -0.036825318 -0.1528868
000090 3e 58 f0 bd bc b1 a7 3c 70 50 3e 3e 2a 51 84 3e
       -0.11735581 0.020470493 0.18585372 0.25843173
0000a0 10 ed 98 bc 58 38 10 3e d4 8d 9a bd 7c 78 14 3e
       -0.018667728 0.14083993 -0.07546583 0.14499086
0000b0 9c 97 2a 3e e3 80 9e 3e 7f ca 93 3e 4c d3 9c be
       0.16659397 0.30957708 0.2886543 -0.30629957
0000c0 05 07 4d be b5 cd 82 3e 60 d2 95 3e 4a e6 76 bd
       -0.20022209 0.25547567 0.29262066 -0.060278215
0000d0 05 b9 89 3e 5d 3f 84 be 63 c0 83 be 2a 15 a9 bd
       0.2689897 -0.25829592 -0.25732717 -0.0825599
0000e0 ed 92 12 be 19 91 a4 bc 59 ba 49 be 11 5b 64 3e
       -0.1431386 -0.02008872 -0.19699992 0.22300364
0000f0 2e 73 3a 3e 30 7c 10 3e bd 0f 3f be 98 2e 58 3e
       0.18208 0.14109874 -0.18658347 0.21111524
000100 80 fa fd 3a 8d 00 a2 3e 20 77 e0 3d 25 10 82 3e
       0.0019377023 0.31641045 0.10960221 0.25402942
000110 d7 93 87 be de 29 44 3e 64 a8 b8 bd 45 f5 66 3e
       -0.2647998 0.19156596 -0.09016493 0.225545
000120 15 83 81 be 1e 4b 8e be 72 68 a0 3c 21 71 8c bd
       -0.2529532 -0.27791685 0.019581053 -0.06857515
000130 a9 86 1d be b0 0e e0 bd 1f 78 80 3e df ef ec 3d
       -0.153834 -0.109403014 0.25091645 0.11569189

mlp.3.bias f4 [8]
000000 c1 89 47 be ae 05 5b 3c e1 08 46 3e 00 61 a7 ba
       -0.19486143 0.013368053 0.19339325 -0.0012769997
000010 5a 6c 98 be d1 bd 87 3e 67 35 7a be 0c ae a1 3d
       -0.29770166 0.26512006 -0.24434434 0.07894525

mlp.6.weight f4 [5, 8]
000000 44 4d e4 3d 1b 46 9d be 27 66 cd 3d a8 3c 22 3e
       0.1114755 -0.3071755 0.1002925 0.15843451
000010 c0 94 c8 bd 7b ed a4 3e 8e 78 8a be 28 45 40 3e
       -0.09793997 0.32212433 -0.270451 0.18776381
000020 87 0b 91 3e 73 2d 87 be a2 cc 25 bc a6 88 5a 3e
       0.28329107 -0.26401863 -0.010119589 0.2134119
000030 2a 1d 56 3e ba 22 87 3e 45 aa 57 be 24 47 9b be
       0.20909563 0.26393682 -0.21061046 -0.30327713
000040 31 5f 8b 3e 23 ae e0 3d 3d fb a7 be a4 33 7e be
       0.27221063 0.10970714 -0.32808867 -0.24824387
000050 d4 9e fd bd be 23 7a be b9 08 80 bd b4 e3 54 3e
       -0.1238381 -0.24427697 -0.06251664 0.20789987
000060 c6 b1 2c 3e 4c 77 08 3e e5 fe 8b 3e a8 31 9f 3e
       0.1686469 0.13326758 0.27342907 0.31092572
000070 3d 70 4b be d3 34 28 3e 16 74 01 3d 32 6e 77 3e
       -0.19867034 0.16426401 0.03160485 0.2416313
000080 20 1b da bc 2e 28 80 3e b2 64 31 3d 71 e2 18 3e
       -0.026624262 0.25030655 0.04330892 0.1493013
000090 2e 6c 21 3e 29 d1 86 bd 0c 3d 72 3e 58 19 9d 3e
       0.15763924 -0.06582863 0.236561 0.30683398

mlp.6.bias f4 [5]
000000 e3 3c 80 bd 8a 51 36 3e f1 98 ab 3d 4e 67 11 be
       -0.06261613 0.17804542 0.08378781 -0.14199564
000010 b8 12 0d 3e
       0.13776672

exp_avg f4 [10, 12]
000000 0e 3b 44 b5 25 d2 97 b5 5d 6c 33 b4 a8 91 07 b5
       -7.3101626e-07 -1.1311537e-06 -1.6710096e-07 -5.0503377e-07
000010 ad e8 5c b5 94 43 a9 b5 27 90 6d b4 6b 11 fe b4
       -8.2294974e-07 -1.2611149e-06 -2.2124787e-07 -4.732386e-07
000020 1d ca 2b b5 b7 40 f3 b4 08 ca d3 b5 9c 32 bf b4
       -6.399658e-07 -4.5309363e-07 -1.5779524e-06 -3.5613346e-07
000030 d3 e6 02 35 f7 0e 40 34 dc d2 a2 b3 b7 2e 28 b4
       4.876467e-07 1.7886838e-07 -7.582068e-08 -1.5663214e-07
000040 e2 fa 13 b6 06 07 cc b5 9f 1c 56 35 f8 04 46 35
       -2.205074e-06 -1.5201229e-06 7.976286e-07 7.376798e-07
000050 97 87 ab 35 8b 7a 0f b5 d1 e5 46 b6 3a 2a fc b3
       1.2779955e-06 -5.3449975e-07 -2.963807e-06 -1.17423454e-07
000060 71 04 25 36 7a af c8 35 23 ab b9 b5 f2 c7 96 35
       2.4589501e-06 1.4952232e-06 -1.3833381e-06 1.1234063e-06
000070 4b e6 be 35 df 37 ff 34 c7 c4 62 33 df 14 96 b5
       1.4223127e-06 4.7538103e-07 5.2798693e-08 -1.1181945e-06
000080 6f 38 d5 35 80 cf 43 b4 bb 1c 8a 35 57 9b 9a b5
       1.5886161e-06 -1.8236278e-07 1.0290163e-06 -1.1519104e-06
000090 b5 63 18 b4 b1 79 21 b5 b4 4f 85 35 a5 85 ae b5
       -1.4192376e-07 -6.015426e-07 9.932469e-07 -1.3002906e-06
0000a0 36 3a 24 b5 98 ab 37 35 0d 63 6f 34 aa 60 5e 35
       -6.117947e-07 6.8422514e-07 2.2294644e-07 8.284211e-07
0000b0 33 68 4d b5 3a ae 0b b5 32 8c 9f b5 b9 05 b1 35
       -7.652008e-07 -5.203507e-07 -1.1887225e-06 1.3189193e-06
0000c0 73 e0 b4 b5 58 ab e4 34 e8 07 bb 34 43 9e 64 35
       -1.3476368e-06 4.2592978e-07 3.4837217e-07 8.516692e-07
0000d0 2b 8c 83 b4 aa 31 c9 b5 62 7f 3c b5 9a 68 32 35
       -2.4502637e-07 -1.4990121e-06 -7.0220824e-07 6.646238e-07
0000e0 f7 55 1d b6 83 af 98 35 7b 84 00 b5 57 81 6e 32
       -2.3444861e-06 1.1375963e-06 -4.78765e-07 1.3882832e-08
0000f0 d3 58 94 35 3b 4f 2e b5 ef 04 56 33 bf 6d 7b 35
       1.105271e-06 -6.4935347e-07 4.9830245e-08 9.366449e-07
000100 8b 53 58 35 bd bd 1b 35 e0 a7 2c 34 0a fe 1e b5
       8.058784e-07 5.8018105e-07 1.6079821e-07 -5.922926e-07
000110 19 f6 3b b4 18 88 5e b5 68 bb 63 b4 c4 6b 47 35
       -1.7505262e-07 -8.2899487e-07 -2.12092e-07 7.4290097e-07
000120 7a 2b 78 b5 9f fd 06 b6 48 b9 a8 35 28 62 ee b4
       -9.2450466e-07 -2.0115183e-06 1.2570899e-06 -4.4402373e-07
000130 08 46 fd 33 e7 31 49 34 0d 19 01 b5 a9 2a 07 35
       1.1793969e-07 1.8737738e-07 -4.80927e-07 5.03535e-07
000140 11 44 32 b5 32 29 c8 b3 f0 27 e4 34 7d 9f e6 35
       -6.6409217e-07 -9.320719e-08 4.2497368e-07 1.7182753e-06
000150 43 3c 66 36 b6 a7 a5 36 5f be 83 b6 e2 ba f1 35
       3.4307748e-06 4.9369073e-06 -3.9262663e-06 1.8010289e-06
000160 ed 24 74 35 3a 85 ee 35 58 e8 71 35 cb 06 b9 b5
       9.095082e-07 1.7771156e-06 9.01176e-07 -1.3785551e-06
000170 ab 0f 2e 36 ef 9e a8 b5 5b ce 36 36 16 c7 83 b6
       2.593714e-06 -1.2563231e-06 2.7240228e-06 -3.927281e-06
000180 45 ec f6 34 b7 dd e2 b5 14 e9 b1 35 b1 c9 cc b5
       4.599298e-07 -1.690284e-06 1.3255362e-06 -1.5257884e-06
000190 c8 53 7e b5 c8 68 c5 34 63 43 af b4 8f 44 d5 34
       -9.474429e-07 3.6770348e-07 -3.264532e-07 3.9724225e-07
0001a0 a5 35 1e 33 54 f2 01 b5 e3 4b 9a b4 68 22 05 36
       3.683603e-08 -4.840888e-07 -2.873995e-07 1.9838571e-06
0001b0 3f c0 4e 33 2a bb bb 35 75 de a0 b5 39 29 82 35
       4.813796e-08 1.3987058e-06 -1.1985672e-06 9.697752e-07
0001c0 33 b2 0d 35 53 a5 23 b4 75 48 e3 33 f3 6e d3 b3
       5.278591e-07 -1.5240703e-07 1.0583691e-07 -9.845635e-08
0001d0 b0 9e 76 35 89 3c 34 34 4b 49 aa 35 dd 8b 9d b5
       9.187306e-07 1.6785829e-07 1.2687318e-06 -1.1738117e-06

exp_avg_sq f4 [10, 12]
000000 5e aa 70 29 54 0f 10 2a 59 34 49 27 a1 bc e5 28
       5.3438475e-14 1.2795087e-13 2.7922731e-15 2.5505912e-14
000010 98 80 98 29 79 10 33 2a fa 5c b0 27 76 b8 c9 28
       6.7724634e-14 1.5904109e-13 4.895062e-15 2.239548e-14
000020 9e 72 38 29 89 e9 b8 28 bb 2b 8c 2a 7f 7a 64 28
       4.0955622e-14 2.0529383e-14 2.489934e-13 1.2683105e-14
000030 ca 30 d6 28 51 8a 66 27 7a b2 25 26 8d c8 30 27
       2.3779932e-14 3.1993893e-15 5.7487756e-16 2.4533625e-15
000040 ef dc 08 2b c1 15 82 2a 17 43 8f 29 b4 12 75 29
       4.8623513e-13 2.3107734e-13 6.362114e-14 5.441715e-14
000050 e1 e3 37 2a d1 a9 00 29 7d 40 77 2b bb b5 c6 26
       1.6332726e-13 2.8569e-14 8.7841523e-13 1.3788268e-15
000060 29 31 2a 2b 71 b7 7b 2a 79 74 57 2a df 17 0e 2a
       6.0464356e-13 2.2356922e-13 1.9136246e-13 1.2620416e-13
000070 3f c4 63 2a 15 8d cb 28 38 b3 a0 25 26 c7 0c 2a
       2.0229737e-13 2.2598712e-14 2.787702e-16 1.2503591e-13
000080 5e 12 8e 2a d6 a2 6f 27 f7 6f ee 29 39 65 15 2a
       2.5237012e-13 3.3256186e-15 1.0588746e-13 1.3268977e-13
000090 16 24 11 27 de f6 22 29 20 26 de 29 b7 5c 3e 2a
       2.0142355e-15 3.618535e-14 9.865394e-14 1.6907557e-13
0000a0 04 91 28 29 a4 d7 52 29 e0 14 b3 27 70 89 9a 29
       3.7429275e-14 4.6816405e-14 4.9705113e-15 6.8628154e-14
0000b0 a4 d9 83 29 1e e2 f3 28 b7 18 1f 2a 10 db 43 2a
       5.855323e-14 2.7076482e-14 1.4130612e-13 1.7395482e-13
0000c0 3f 7a 4c 2a ba 67 a3 28 e2 a0 5a 28 08 55 a3 29
       1.8161252e-13 1.814162e-14 1.2136317e-14 7.253405e-14
0000d0 34 4f d8 27 70 fe 7c 2a 25 12 5e 29 67 ef 46 29
       6.0037916e-15 2.2470372e-13 4.930964e-14 4.417248e-14
0000e0 4a b7 1a 2b 9f b4 11 2a 97 75 ce 28 cc c3 b1 23
       5.4966155e-13 1.2941253e-13 2.292159e-14 1.9273302e-17
0000f0 ea 8a 09 2a 14 e6 3d 29 66 23 8f 25 1c 8d c5 29
       1.221624e-13 4.216599e-14 2.4830533e-16 8.773036e-14
000100 ac 3d 92 29 7f 98 17 29 06 50 3a 27 b3 fd 1d 29
       6.494401e-14 3.3661005e-14 2.5856066e-15 3.5081052e-14
000110 22 cf 5c 27 42 c0 9a 29 83 11 a2 27 f4 8d 78 29
       3.064342e-15 6.872325e-14 4.498302e-15 5.5190187e-14
000120 9c 76 c0 29 f7 c7 e3 2a 55 ec 31 2a 54 95 b1 28
       8.547088e-14 4.0462054e-13 1.5802752e-13 1.9715708e-14
000130 00 76 c8 26 0c ff 7c 27 05 54 d0 28 11 60 e4 28
       1.3909772e-15 3.5110286e-15 2.3129077e-14 2.5354747e-14
000140 f6 9d 46 29 08 67 7a 26 22 ac a2 28 93 35 a6 2a
       4.410184e-14 8.6875807e-16 1.8060264e-14 2.9524698e-13
000150 ac a6 a5 2b 97 82 2b 2c 71 f4 d8 2b b8 9a b6 2a
       1.1770216e-12 2.4373053e-12 1.5415569e-12 3.2437052e-13
000160 21 45 ba 29 98 c9 b1 2a 6d df b6 29 b5 f7 55 2a
       8.272051e-14 3.15814e-13 8.121182e-14 1.9004141e-13
000170 b0 5b 3d 2b c7 b4 31 2a e5 dc 50 2b 24 11 d9 2b
       6.727353e-13 1.5783478e-13 7.4202997e-13 1.5423535e-12
000180 c0 88 be 28 92 d6 a0 2a 6a d3 45 2a 75 0e 83 2a
       2.1153543e-14 2.8570597e-13 1.7570464e-13 2.3280306e-13
000190 e4 21 ca 29 b2 90 73 28 86 fb 3f 28 86 22 8e 28
       8.976481e-14 1.35205855e-14 1.065717e-14 1.5780139e-14
0001a0 6b 70 1c 25 94 13 d3 28 d4 cb 14 28 42 8f dd 2a
       1.3568932e-16 2.3434196e-14 8.2598486e-15 3.935689e-13
0001b0 c4 94 85 25 c0 44 5c 2a 1f be 21 2a 0f c6 d3 29
       2.317263e-16 1.9563778e-13 1.4365634e-13 9.40464e-14
0001c0 e5 f8 fa 28 eb 5f 27 27 10 6e a1 26 45 b3 8b 26
       2.7863516e-14 2.3227903e-15 1.1201452e-15 9.693654e-16
0001d0 18 11 be 29 4b 08 4b 27 e2 3b 35 2a 5c 21 1b 2a
       8.44066e-14 2.8176405e-15 1.6096805e-13 1.377834e-13

exp_avg f4 [10]
000000 58 8e 1a 35 eb 35 a0 b4 2d 15 7e b5 e0 cb b4 33
       5.757661e-07 -2.9841553e-07 -9.465319e-07 8.418988e-08
000010 40 a5 d0 35 7b a2 6a b5 10 d9 26 35 d8 cf d7 b6
       1.5545302e-06 -8.7408233e-07 6.2155686e-07 -6.4316955e-06
000020 28 82 04 36 7f 39 3a 34
       1.9745294e-06 1.7343517e-07

exp_avg_sq f4 [10]
000000 1c 4c 15 29 e9 6b 20 28 6c be c9 29 bd 4b 4c 26
       3.315066e-14 8.9051835e-15 8.959226e-14 7.087936e-16
000010 5c 0a 88 2a c1 0a ac 29 28 fd 2d 29 d2 8b 91 2c
       2.416564e-13 7.6402e-14 3.8633295e-14 4.136671e-12
000020 26 7b db 2a 5b bf 58 27
       3.8987666e-13 3.0079756e-15

exp_avg f4 [10, 10]
000000 01 1b 3a 35 1b 99 c7 35 34 64 96 b2 bd 43 2b 34
       6.9329695e-07 1.4871215e-06 -1.7507865e-08 1.5950259e-07
000010 17 78 9e b4 77 6e 1f 35 23 e0 2b b4 bd 01 8e b6
       -2.951717e-07 5.9392863e-07 -1.6007156e-07 -4.232132e-06
000020 25 d0 14 b4 2b d1 02 b4 21 ed 84 b5 b3 fc 6e 35
       -1.3859297e-07 -1.2183288e-07 -9.90378e-07 8.9029635e-07
000030 4a a8 f4 35 42 57 c0 b4 2d 9d b3 35 17 9b 60 36
       1.8228395e-06 -3.5826275e-07 1.3382283e-06 3.3468875e-06
000040 20 c3 7b b6 bb a4 9f 33 a4 88 c0 b5 ad 6b ee b4
       -3.7515492e-06 7.433979e-08 -1.4344882e-06 -4.44093e-07
000050 7a bb b1 b4 84 6c 0f b6 88 0c 4a b6 f2 e8 5a b6
       -3.3105226e-07 -2.1371825e-06 -3.010764e-06 -3.2620123e-06
000060 75 11 a6 b2 84 c1 24 b6 17 bc e6 35 53 a1 c0 b2
       -1.9332882e-08 -2.4550545e-06 1.7191077e-06 -2.2425104e-08
000070 f7 d1 f7 35 82 57 f4 b4 54 8f 85 b4 23 f9 ac 34
       1.8464042e-06 -4.5512212e-07 -2.4877465e-07 3.2218767e-07
000080 71 6a a0 b4 df 14 60 b5 8b d4 35 34 87 87 97 34
       -2.987977e-07 -8.3476874e-07 1.6934261e-07 2.822455e-07
000090 68 84 4f 33 79 bf b6 b2 d0 67 f7 b3 4a 94 28 b4
       4.8316366e-08 -2.127466e-08 -1.1520717e-07 -1.5700167e-07
0000a0 67 90 8e b2 b7 5e 7c 33 b6 62 08 b5 ee 67 29 b4
       -1.6596642e-08 5.8759465e-08 -5.080759e-07 -1.5777161e-07
0000b0 a3 d4 00 b5 f8 5b c7 b4 c5 3b 21 b5 22 c9 03 35
       -4.7993143e-07 -3.7133555e-07 -6.006415e-07 4.909399e-07
0000c0 86 60 cc b3 e7 5f a7 33 9b 0a b2 33 ab d8 7d 35
       -9.517048e-08 7.793988e-08 8.2907e-08 9.456514e-07
0000d0 68 f2 bd b5 e8 2b 52 b4 42 42 90 b4 e9 7d c6 b3
       -1.4152147e-06 -1.9573747e-07 -2.68703e-07 -9.2429964e-08
0000e0 d5 28 d4 33 01 7e b9 33 c8 9b 28 b3 6c 6b 18 33
       9.8794466e-08 8.637654e-08 -3.925723e-08 3.5487957e-08
0000f0 42 f2 7f 34 54 f9 35 b5 9f 04 a5 34 65 ec a8 34
       2.3836859e-07 -6.7790575e-07 3.0737007e-07 3.1464438e-07
000100 cb 04 2d 35 ac 1f b1 b4 2d 64 c0 b4 b5 a2 a5 34
       6.4454497e-07 -3.2991863e-07 -3.5835674e-07 3.085203e-07
000110 83 42 aa 34 35 99 55 b3 07 c8 0c 35 9e 69 1d 36
       3.171336e-07 -4.9732268e-08 5.244514e-07 2.34563e-06
000120 d1 63 ac 35 f5 3b 79 34 21 31 25 36 ff 0e 8b b5
       1.2844049e-06 2.3211744e-07 2.4615513e-06 -1.0360671e-06
000130 46 2b a0 34 3b 0b 8d 35 7c bc 10 34 8c 9d 93 33
       2.9833808e-07 1.0508587e-06 1.3479615e-07 6.8738785e-08
000140 05 da d8 b3 00 00 00 00 2d 4a 71 b4 3d b3 7e 35
       -1.0097941e-07 0.0 -2.2471859e-07 9.48832e-07
000150 07 72 33 b3 b7 d0 c1 34 d2 79 42 b4 62 e0 3c b6
       -4.1780392e-08 3.610091e-07 -1.8111976e-07 -2.814479e-06
000160 bf 08 e6 b3 a0 40 9c b4 4a 49 88 b4 87 8b 92 b5
       -1.07118005e-07 -2.9104285e-07 -2.53853e-07 -1.0918455e-06
000170 25 28 bd b5 33 2f f1 b3 90 93 86 b6 82 d6 34 b5
       -1.4093281e-06 -1.12310225e-07 -4.0106897e-06 -6.7367375e-07
000180 8d 1c d3 b1 af 7f cf b6 eb 28 b6 b3 fb a2 00 b5
       -6.144154e-09 -6.183945e-06 -8.4824784e-08 -4.7920884e-07

exp_avg_sq f4 [10, 10]
000000 67 78 58 29 05 ff 78 2a 21 5c 0d 24 81 52 37 27
       4.8066067e-14 2.2115302e-13 3.0652537e-17 2.5441077e-15
000010 ee f3 1c 28 72 dd 1e 29 ec a1 38 27 f8 12 fc 2b
       8.712633e-15 3.527512e-14 2.5622908e-15 1.7910942e-12
000020 87 68 0a 27 f0 e9 d5 26 12 de dc 29 df 7b b2 29
       1.9208012e-15 1.4843253e-15 9.808486e-14 7.926276e-14
000030 c9 0d bb 2a 01 38 67 28 e2 a1 49 2a 38 a6 9d 2b
       3.3227438e-13 1.283522e-14 1.790855e-13 1.1201656e-12
000040 5f 13 c6 2b ab 49 1f 26 cc ae 67 2a 82 a3 b1 28
       1.4074123e-12 5.5264045e-16 2.0577566e-13 1.9721858e-14
000050 0d 6e 45 28 a9 90 00 2b 0d 26 7f 2b 40 c1 95 2b
       1.095956e-14 4.567549e-13 9.0647005e-13 1.0640724e-12
000060 d5 5d 2c 24 39 a7 29 2b cf 5e a6 2a 36 ea 67 24
       3.7376034e-17 6.027293e-13 2.955331e-13 5.0288525e-17
000070 df eb bf 2a 57 92 ba 28 5f fa de 27 8f ff 3a 28
       3.4092084e-13 2.0713613e-14 6.188883e-15 1.03804896e-14
000080 29 d5 20 28 07 ea 9c 29 96 a3 4e 27 db 81 0f 28
       8.928006e-15 6.968389e-14 2.8676923e-15 7.9662525e-15
000090 b7 92 86 25 e6 ba 50 24 98 47 bf 26 58 9e 31 27
       2.3344712e-16 4.526112e-17 1.3272693e-15 2.4649523e-15
0000a0 71 0e fe 23 7c 08 c7 25 4b 83 e8 28 6a 5d 33 27
       2.7544851e-17 3.4526746e-16 2.5814113e-14 2.489188e-15
0000b0 71 77 cf 28 95 66 78 28 fa 79 22 29 e2 17 d9 28
       2.3033416e-14 1.37890094e-14 3.6077024e-14 2.4102197e-14
0000c0 fb 87 82 26 d2 16 2f 26 ff 1d 46 26 62 5e c9 29
       9.05742e-16 6.074625e-16 6.87357e-16 8.942566e-14
0000d0 b9 7f 61 2a a7 09 8a 27 f8 10 02 28 6b 3e 76 26
       2.0028327e-13 3.831316e-15 7.220129e-15 8.5432987e-16
0000e0 53 a9 8c 26 c6 0b 57 26 23 ae 31 25 c9 32 11 25
       9.760347e-16 7.4609065e-16 1.5411303e-16 1.2593952e-16
0000f0 d1 b6 cc 27 3a f7 4e 29 87 31 2a 28 32 58 32 28
       5.6819584e-15 4.5955623e-14 9.447635e-15 9.900109e-15
000100 c3 18 3b 29 80 14 44 28 11 57 67 28 3b 78 2b 28
       4.154382e-14 1.0884631e-14 1.28419555e-14 9.518478e-15
000110 73 2d 35 28 71 93 8e 25 0e be f7 28 f2 dd 1a 2b
       1.0057374e-14 2.4732984e-16 2.7504932e-14 5.50198e-13
000120 40 bd 39 2a 28 1e c2 27 63 8d 2a 2b 54 b7 f1 29
       1.649696e-13 5.3878512e-15 6.0592346e-13 1.0734352e-13
000130 98 56 20 28 ca aa f8 29 be ed 02 27 80 30 08 26
       8.900561e-15 1.10430396e-13 1.8170004e-15 4.725021e-16
000140 b5 f3 92 26 00 00 00 00 98 f0 b5 27 bc b9 ca 29
       1.0196842e-15 0.0 5.0498444e-15 9.002822e-14
000150 0f 41 49 25 fc c6 6a 28 60 61 6c 27 ed f6 5e 2b
       1.7456014e-16 1.3032757e-14 3.2804366e-15 7.921292e-13
000160 92 5c a5 26 b9 97 18 28 a4 2c e8 27 b6 38 06 2a
       1.1474266e-15 8.470595e-15 6.4441335e-15 1.1921266e-13
000170 7b a0 5f 2a ec c7 b5 26 9a 62 e2 2b c4 63 4c 29
       1.9862057e-13 1.2613587e-15 1.6085633e-12 4.5383632e-14
000180 76 46 8b 22 97 8c 86 2c 89 63 4f 26 a3 d7 ce 28
       3.775063e-18 3.8241177e-12 7.1952447e-16 2.2964112e-14

exp_avg f4 [10]
000000 73 cf 29 b6 d0 4f 8a b5 a7 25 18 b4 63 80 1c b4
       -2.5303714e-06 -1.030503e-06 -1.4169801e-07 -1.4575339e-07
000010 c5 71 99 b4 c9 70 27 35 ab 1a f3 35 c3 32 b7 35
       -2.858125e-07 6.237647e-07 1.8112672e-06 1.3649336e-06
000020 7a b0 92 b5 f5 33 ad b6
       -1.0929209e-06 -5.1618504e-06

exp_avg_sq f4 [10]
000000 e4 38 34 2b 78 20 ef 29 f9 ad 10 27 5c 14 19 27
       6.40278e-13 1.06193645e-13 2.0078325e-15 2.1244052e-15
000010 4d 28 13 28 26 3a 2f 29 b7 af b8 2a 94 c2 51 2a
       8.168878e-15 3.890824e-14 3.2806893e-13 1.8630437e-13
000020 6e 7c 06 2a d3 7e 3b 2c
       1.1944761e-13 2.66447e-12

exp_avg f4 [6, 10]
000000 9f b2 ba 35 8e 21 3d b5 32 70 a6 35 33 22 20 35
       1.3910065e-06 -7.0456815e-07 1.2400617e-06 5.965441e-07
000010 a5 76 8e b5 68 e6 89 35 45 95 66 b5 e7 8b a9 36
       -1.0614355e-06 1.0274352e-06 -8.589889e-07 5.0528793e-06
000020 0d ff c7 b2 b8 9e cb b3 17 5c 4c 36 ea c2 66 35
       -2.3282633e-08 -9.481795e-08 3.0451972e-06 8.5965314e-07
000030 63 2d b0 35 55 d5 8d 34 e7 b3 85 36 4b 47 05 35
       1.3126231e-06 2.6418516e-07 3.9846523e-06 4.9650106e-07
000040 89 c8 80 35 9e 30 81 35 4f e4 7a 33 ee 3c 07 36
       9.595107e-07 9.625398e-07 5.8415306e-08 2.0152033e-06
000050 4f 9d 33 35 ed 33 56 b5 57 e0 f0 b3 b0 38 d4 b4
       6.691161e-07 -7.9796774e-07 -1.1216678e-07 -3.9529323e-07
000060 22 f6 18 36 84 fb 21 b4 b0 f0 36 35 3b 72 fe b5
       2.2793033e-06 -1.5085794e-07 6.815053e-07 -1.895772e-06
000070 eb 66 d2 33 ab c2 36 34 fd 34 9c b5 a4 5d 29 b6
       9.797608e-08 1.702089e-07 -1.1638327e-06 -2.5237468e-06
000080 d9 ac 86 b4 7f 3a 88 b4 82 30 d5 35 a5 9e 04 35
       -2.5085208e-07 -2.5374536e-07 1.5883854e-06 4.940469e-07
000090 b7 eb 71 b4 bb f2 b6 b5 ef df 32 b2 46 0d 03 35
       -2.2530627e-07 -1.36307e-06 -1.041188e-08 4.882062e-07
0000a0 ed 77 e3 35 c8 cc f7 35 f8 4f 82 36 8f ff d8 34
       1.6947721e-06 1.8462533e-06 3.8836115e-06 4.0419079e-07
0000b0 63 ed fd 33 3b d4 5b 34 47 5f 88 b4 cd fa ae 36
       1.1824411e-07 2.0473173e-07 -2.5401297e-07 5.214801e-06
0000c0 ed 16 23 b3 9d 3a db 33 5e c9 21 b6 ef 40 1c b6
       -3.7972246e-08 1.0208644e-07 -2.410808e-06 -2.3283608e-06
0000d0 0a db 49 34 4b 73 c8 b4 fd 99 5b b6 0e c6 27 b5
       1.879927e-07 -3.733679e-07 -3.2723176e-06 -6.2500555e-07
0000e0 85 dc 81 b4 57 03 16 b4 4f 30 92 32 52 25 19 b6
       -2.4188572e-07 -1.3971054e-07 1.7018605e-08 -2.28205e-06

exp_avg_sq f4 [6, 10]
000000 ab d9 59 2a e7 90 5f 29 b6 22 2d 2a 6e 44 20 29
       1.934899e-13 4.964163e-14 1.537753e-13 3.558649e-14
000010 ad b2 fd 29 89 b4 ed 29 d9 26 a6 29 a0 a9 33 2c
       1.1266452e-13 1.0556232e-13 7.37862e-14 2.553159e-12
000020 a1 fd 79 24 e2 90 81 26 52 82 82 2b a7 68 a6 29
       5.42081e-17 8.990444e-16 9.273227e-13 7.390035e-14
000030 81 fd 41 2a 6b 75 fb 27 90 74 df 2b 18 0a de 28
       1.7229795e-13 6.97938e-15 1.5877456e-12 2.4651329e-14
000040 7a 50 cf 29 1a a0 d0 29 5e b5 c4 25 d1 9d e4 2a
       9.206607e-14 9.264829e-14 3.412348e-16 4.0610443e-13
000050 30 a2 49 29 48 62 8f 29 20 51 b5 26 5b be 8c 28
       4.477164e-14 6.367525e-14 1.2581387e-15 1.5625676e-14
000060 88 3b 12 2b 52 fd 23 27 62 2b 51 29 4d 52 ca 2a
       5.1952236e-13 2.275812e-15 4.644495e-14 3.5939516e-13
000070 36 57 8a 26 33 c2 50 27 ff 80 18 2a a2 47 33 2b
       9.599312e-16 2.8971074e-15 1.3545066e-13 6.3692985e-13
000080 b3 b7 e2 27 40 fa e7 27 ce 07 8e 2a 8e d9 db 28
       6.292677e-15 6.43867e-15 2.5229683e-13 2.4408234e-14
000090 85 e4 b6 27 0e 30 51 2a e0 f9 47 23 ad ae d6 28
       5.076291e-15 1.8579601e-13 1.0840725e-17 2.3834526e-14
0000a0 85 b1 a1 2a d9 e3 bf 2a 36 44 d4 2b 99 26 93 28
       2.8722524e-13 3.4086517e-13 1.5082438e-12 1.6337018e-14
0000b0 42 7f c9 26 d8 03 97 27 97 77 e8 27 a1 5c 3f 2c
       1.398167e-15 4.1915087e-15 6.4522595e-15 2.7194152e-12
0000c0 20 3d 26 25 12 31 96 26 d7 97 23 2b 54 98 18 2b
       1.4418915e-16 1.0421641e-15 5.8119953e-13 5.4212646e-13
0000d0 1c a9 7e 27 90 20 7b 28 dd b3 96 2b cc ec 2f 29
       3.5341255e-15 1.394036e-14 1.0708063e-12 3.9063194e-14
0000e0 bf cc d2 27 42 a6 0c 27 d3 91 05 24 ce 95 12 2b
       5.8508695e-15 1.9519031e-15 2.8963296e-17 5.2077515e-13

exp_avg f4 [6]
000000 c3 c3 3a b6 75 12 d5 36 50 9c 72 36 be c3 44 36
       -2.7830108e-06 6.3500433e-06 3.6151796e-06 2.9320213e-06
000010 5d c4 bb b5 2d dd fa b6
       -1.3989735e-06 -7.476329e-06

exp_avg_sq f4 [6]
000000 b0 01 5a 2b c7 df 8d 2c ec ef b7 2b 1b fa 71 2b
       7.74515e-13 4.0323053e-12 1.3069524e-12 8.596749e-13
000010 58 5a 5c 2a 30 aa c4 2c
       1.957127e-13 5.5895497e-12

exp_avg f4 [10, 6]
000000 2f de 5c 35 cb 12 ed b3 91 bb 9f b5 37 ea ba b3
       8.2279706e-07 -1.1039591e-07 -1.1901012e-06 -8.7039034e-08
000010 47 a1 af 34 3d 3a df 35 77 0e 49 b4 12 e4 79 b4
       3.2713635e-07 1.6631744e-06 -1.8724846e-07 -2.3272904e-07
000020 2b d3 6a 34 45 80 5c b3 10 d1 e0 b3 43 03 74 b3
       2.186977e-07 -5.1339402e-08 -1.0468841e-07 -5.6813644e-08
000030 c7 0b 28 33 9b 2f f8 32 4a ee f1 b3 6f 7e 71 32
       3.912626e-08 2.8892648e-08 -1.12657816e-07 1.4056794e-08
000040 16 ec 88 33 97 d7 a6 33 eb 22 46 b5 91 f8 00 36
       6.375937e-08 7.769193e-08 -7.381156e-07 1.921817e-06
000050 37 70 04 b6 25 cb e0 b5 78 42 df 35 3c 43 15 b6
       -1.973485e-06 -1.6748423e-06 1.663414e-06 -2.2241866e-06
000060 ca 96 2c 36 57 c2 a2 b5 fb 5f 5e 34 27 cf 9a 36
       2.5717768e-06 -1.2126501e-06 2.0710279e-07 4.6136734e-06
000070 68 bb e9 34 5d de 57 36 f0 bd 3b 35 b7 99 c0 34
       4.3535988e-07 3.216693e-06 6.9939324e-07 3.587463e-07
000080 68 36 d2 b4 27 d4 2e 35 17 7f 84 34 5f 7e f9 34
       -3.9155134e-07 6.5128773e-07 2.4679386e-07 4.647181e-07
000090 b5 d5 42 35 31 08 09 35 3e ed 19 36 05 dd 17 36
       7.2581616e-07 5.1048397e-07 2.293687e-06 2.2629404e-06
0000a0 75 3a bd b5 2c cc b5 b5 5b dd 94 b5 5b 18 3e 36
       -1.409861e-06 -1.3544973e-06 -1.1091282e-06 2.8326383e-06
0000b0 0f 96 37 b5 cd 15 94 35 ab 2b 4c 36 03 68 ad b6
       -6.8391176e-07 1.1033204e-06 3.0423787e-06 -5.1679103e-06
0000c0 ee 92 a5 b3 b4 cf 2e b3 ca c8 53 b3 90 50 54 b3
       -7.7101376e-08 -4.0701437e-08 -4.9309882e-08 -4.9433368e-08
0000d0 5f 49 ba 33 13 43 71 33 a1 d5 0e 36 75 c3 0c b6
       8.674646e-08 5.617319e-08 2.1283997e-06 -2.0975397e-06
0000e0 c7 d8 c4 b5 1d 98 6a 36 77 7a 1d b5 13 e4 7e 36
       -1.4666228e-06 3.4957259e-06 -5.866527e-07 3.7981706e-06

exp_avg_sq f4 [10, 6]
000000 1a 72 98 29 0b a3 af 26 3f 77 1f 2a 7c 5b 5a 26
       6.7699495e-14 1.2187257e-15 1.4163409e-13 7.575793e-16
000010 6f c9 40 28 69 b8 9b 2a f2 a5 7c 27 5e 24 c3 27
       1.070182e-14 2.766149e-13 3.5061984e-15 5.41628e-15
000020 2f 52 ac 27 93 f0 97 25 06 f2 9d 26 c7 11 ba 25
       4.7828694e-15 2.6357344e-16 1.0959664e-15 3.2277903e-16
000030 22 7f 30 25 05 7d c0 24 6a e8 b6 26 70 3f b6 23
       1.5308641e-16 8.347852e-17 1.2691783e-15 1.9759346e-17
000040 9d 58 ea 25 15 fa 2d 26 da 5c 75 29 3b eb cf 2a
       4.0652576e-16 6.0360357e-16 5.4481464e-14 3.693381e-13
000050 bb 3f db 2a b4 e9 9d 2a e6 c3 9b 2a f0 3e 0b 2b
       3.8946437e-13 2.8050966e-13 2.7669463e-13 4.9470063e-13
000060 26 2b 3a 2b dd 90 25 2a 7d 88 9a 27 6a c9 15 2c
       6.6140355e-13 1.4705203e-13 4.2891567e-15 2.128598e-12
000070 8a b8 aa 28 68 9f 91 2b 43 4b 5c 29 e4 d7 67 28
       1.8953822e-14 1.0347114e-12 4.8915092e-14 1.286989e-14
000080 72 17 8a 28 21 08 3f 29 fb 70 db 27 a9 85 c2 28
       1.5331246e-14 4.241757e-14 6.0907204e-15 2.1596293e-14
000090 f5 40 6d 29 db b8 ea 28 80 15 14 2b f8 23 10 2b
       5.2680913e-14 2.6059387e-14 5.261e-13 5.1208994e-13
0000a0 ca cb 5f 2a 8f 90 4e 2a 1a 81 0a 2a db d9 61 2b
       1.9877082e-13 1.8346629e-13 1.2301653e-13 8.0238393e-13
0000b0 35 a6 52 29 be 0e 09 2a 80 44 82 2b 96 ef 3b 2c
       4.677353e-14 1.2173159e-13 9.256068e-13 2.6707295e-12
0000c0 91 57 2b 26 69 fe 3e 25 15 2a 8c 25 06 de 8c 25
       5.944622e-16 1.656607e-16 2.4314645e-16 2.4436578e-16
0000d0 51 e4 58 26 e4 e5 b5 25 6a 05 ff 2a f7 ad f7 2a
       7.524948e-16 3.1554275e-16 4.5300856e-13 4.3996726e-13
0000e0 db 2d 72 2a 8d fb ab 2b 1a ff 1a 29 81 07 cb 2b
       2.1509827e-13 1.22201e-12 3.4416134e-14 1.44261e-12

exp_avg f4 [10]
000000 33 09 d3 34 5a ce 75 35 07 ea d4 b3 f4 08 2d b7
       3.9308506e-07 9.1569893e-07 -9.9145886e-08 -1.0313688e-05
000010 cd 9e ef 33 b0 fb bf b5 88 75 13 37 23 66 c4 b5
       1.11581905e-07 -1.430386e-06 8.789248e-06 -1.4632864e-06
000020 17 19 33 34 83 c4 25 37
       1.6679802e-07 9.88052e-06

exp_avg_sq f4 [10]
000000 ef 2c 8b 28 7f d0 bc 29 f5 a9 8d 26 c4 21 3b 2d
       1.5451587e-14 8.3850455e-14 9.829907e-16 1.0637217e-11
000010 51 6e b3 26 0e 5c 66 2a b4 e6 07 2d 18 14 71 2a
       1.2450521e-15 2.0460042e-13 7.725088e-12 2.1412071e-13
000020 c2 79 48 27 40 be 2b 2d
       2.782158e-15 9.762469e-12

exp_avg f4 [10, 10]
000000 4b 0a 82 36 aa d6 7f 35 dd 9b 0e b1 1b 16 74 35
       3.8755e-06 9.530728e-07 -2.0752318e-09 9.092925e-07
000010 a9 46 93 36 cf af fa 31 41 4a 4c 35 03 dc fd 36
       4.3891673e-06 7.2959447e-09 7.6103976e-07 7.5656003e-06
000020 00 00 00 00 ac 2a 86 36 85 af dd 35 1a 3d a0 34
       0.0 3.998479e-06 1.6516866e-06 2.984678e-07
000030 00 00 00 00 6f 16 04 35 87 61 e2 30 00 00 00 00
       0.0 4.9206477e-07 1.6471383e-09 0.0
000040 00 00 00 00 2d db 92 35 00 00 00 00 42 3c 30 35
       0.0 1.0941636e-06 0.0 6.5652796e-07
000050 72 14 e5 36 b2 2c 51 35 72 d6 4f b2 f8 94 d4 b5
       6.827112e-06 7.792361e-07 -1.2097745e-08 -1.5838586e-06
000060 c8 a1 6d 36 27 7d 4e b2 07 da 4a 35 e2 cf 85 36
       3.540992e-06 -1.20192345e-08 7.5568136e-07 3.9879096e-06
000070 00 00 00 00 ab e2 b0 36 b3 de 88 36 3e 90 31 b3
       0.0 5.2715964e-06 4.0790414e-06 -4.134221e-08
000080 00 00 00 00 5d 27 96 b4 a6 14 46 b5 00 00 00 00
       0.0 -2.7968318e-07 -7.3790795e-07 0.0
000090 0c bc 20 b5 15 b7 4d b4 00 00 00 00 0f d9 a9 35
       -5.987829e-07 -1.9158718e-07 0.0 1.2654654e-06
0000a0 a7 60 da 35 31 6b bf b4 5a ef 8c b0 4d fa 82 34
       1.6270395e-06 -3.5654514e-07 -1.0254368e-09 2.4396505e-07
0000b0 8d cc 6b b5 e3 6f 93 b4 70 c4 28 b5 d8 8d 71 b6
       -8.784198e-07 -2.7462292e-07 -6.287073e-07 -3.5994362e-06
0000c0 3d 1c e4 b3 00 27 05 35 e2 8f 4c 36 21 51 ad 33
       -1.0622214e-07 4.9603113e-07 3.048212e-06 8.0706975e-08
0000d0 8d 77 ea af d7 81 1a 34 dd 9e 91 33 00 00 00 00
       -4.2649298e-10 1.4389603e-07 6.780986e-08 0.0
0000e0 ed ee 53 32 c3 99 b6 35 00 00 00 00 d7 af 9f 35
       1.2336142e-08 1.3604807e-06 0.0 1.1897599e-06
0000f0 33 76 90 b6 33 ab dd 34 de 13 12 b2 12 25 02 37
       -4.3052946e-06 4.1289022e-07 -8.502836e-09 7.757235e-06
000100 df 99 88 37 d7 8f bc b3 73 13 f7 b5 87 69 d1 36
       1.6284115e-05 -8.7805965e-08 -1.8408595e-06 6.2409704e-06
000110 00 00 00 00 ed 9a 29 36 af a4 ac b6 4d a9 a4 32
       0.0 2.527314e-06 -5.145171e-06 1.9169102e-08
000120 00 00 00 00 60 b4 02 b6 22 e4 a3 35 2b f0 ec b3
       0.0 -1.9476502e-06 1.2210842e-06 -1.1033293e-07
000130 6b a2 01 35 97 ff b8 b6 00 00 00 00 2d ee a9 36
       4.8292594e-07 -5.513382e-06 0.0 5.06432e-06
000140 a2 c3 4f 37 92 65 b8 35 fa 19 07 33 d0 80 ff b5
       1.2383711e-05 1.3738629e-06 3.1455762e-08 -1.903647e-06
000150 a1 b5 8e b6 32 99 1c 34 bb 1b 08 36 b7 de 3d 37
       -4.253074e-06 1.4584364e-07 2.028172e-06 1.1317133e-05
000160 ad 43 61 32 ad f0 a8 b6 34 04 24 35 de 62 ca 33
       1.3112111e-08 -5.0348085e-06 6.110088e-07 9.424342e-08
000170 00 00 00 00 db b6 41 b5 7e 6b 4b b6 00 00 00 00
       0.0 -7.216419e-07 -3.0311926e-06 0.0
000180 4c 0d 03 b2 7a fd db 35 00 00 00 00 2b bb cc b4
       -7.628227e-09 1.6390543e-06 0.0 -3.8134144e-07
