checkpoint/DAE_ckpt_06-27_11-13-46.pt (torch, 29322 bytes, 54 tensors)

encoder.0.weight f4 [10, 12]
000000 73 42 35 bf 2c 4a 2d bf 22 32 5e 3e 1e 20 cb be
       -0.7080452 -0.676913 0.21698812 -0.3967294
000010 a1 35 06 3f 7c 57 33 3f d8 15 f5 3e e7 30 2e bd
       0.5242558 0.70055366 0.47868228 -0.042527106
000020 ad 9a bc be 9a 4c a7 bf 03 b1 62 3f 2b 47 97 3e
       -0.36836758 -1.3070252 0.8855135 0.29546484
000030 41 dc bc be 74 1d e2 be a7 c5 d0 3e ab 6f 9b be
       -0.3688679 -0.44163096 0.40775797 -0.30358633
000040 5a 54 b6 3e 94 37 cb 3b 24 fa 8f bf 4e cd 59 3d
       0.3561123 0.006201694 -1.1248212 0.05317431
000050 f5 1e 5e 3e 82 2d 3c be c0 16 23 bf 9f 30 ba 3e
       0.21691497 -0.18376735 -0.6370659 0.3636522
000060 53 c5 8f bd f9 30 8c be 41 c8 4e 3f d8 97 55 be
       -0.070200585 -0.27381113 0.80774313 -0.20858705
000070 60 58 98 be c2 56 07 3f 1b 7a 49 bf 55 7d 35 be
       -0.29754925 0.52866757 -0.78701943 -0.17723592
000080 5e cc 9d be 94 64 06 bf fc 27 39 bf 29 b7 bf bd
       -0.30819982 -0.5249722 -0.72326636 -0.09361107
000090 e4 54 c5 3e e5 9a 71 be 31 6c aa be 63 f8 87 3e
       0.3854133 -0.23594244 -0.33285668 0.26556692
0000a0 22 d6 14 3f ed c5 4a 3f 58 ab b1 3f 19 c9 61 bf
       0.5813924 0.7920826 1.3880415 -0.88197476
0000b0 9e ac 35 be 61 52 32 3e 0c 19 f4 be 95 b9 f0 3e
       -0.1774163 0.17414238 -0.4767536 0.47016588
0000c0 b9 8c 4e 3f c8 07 c3 be 99 54 bb 3e bd d6 27 bf
       0.80683476 -0.38091874 0.3658798 -0.6556204
0000d0 28 17 05 bd 59 9f 48 3f cd db 7c 3d 46 68 dd bd
       -0.032492787 0.78368145 0.061733056 -0.10810904
0000e0 c2 32 f2 be 20 d4 6e be 7d 42 a0 3e c4 55 73 3f
       -0.4730435 -0.23323107 0.31300727 0.9505274
0000f0 d6 28 ed 3e 54 d5 3b bd be 6a 02 3f 95 a6 30 bf
       0.46320218 -0.045857742 0.50944126 -0.69004184
000100 42 fd 83 be af 71 ec 3d 7e c8 a2 bf 15 3e 0e bd
       -0.25779158 0.11545121 -1.2717435 -0.034727175
000110 db d8 83 be 19 24 99 bd d2 62 2a be bb 6d 48 3f
       -0.25751385 -0.07477588 -0.1663926 0.78292435
000120 3d 8a 3d 3f a4 6f c1 be f3 c3 1a bf af 10 73 3e
       0.7403906 -0.37780488 -0.60455245 0.23736833
000130 43 72 ed 3e ed a5 c5 3e 5d 58 f9 3f 79 10 b8 bf
       0.46376237 0.38603154 1.9480091 -1.4380027
000140 0c 84 85 be 81 c2 dd 3d 6a 4d ff 3c 11 fc 5c 3f
       -0.26077306 0.10828114 0.031164844 0.8632212
000150 f6 69 69 3e f3 c6 e3 be 05 df 05 bf a7 2d e8 3e
       0.22794327 -0.44487724 -0.52293426 0.4534733
000160 5d 81 56 bf aa 18 3e 3f cb 5e b1 3f a1 24 43 bf
       -0.8379114 0.74256384 1.3857054 -0.76227766
000170 e1 5a c4 be da 4c 67 3f f0 e8 06 be cd 46 9d 3e
       -0.38350585 0.9035164 -0.13174796 0.3071808
000180 36 5b 43 3f 9a 72 4d bf e8 52 35 3e ed 47 af be
       0.7631105 -0.80252993 0.17707407 -0.34234563
000190 42 5c 84 3e 04 ee 09 3f ea bc 29 3e b2 cc e0 bd
       0.25851637 0.5387881 0.16575971 -0.109765425
0001a0 e4 0b b5 be b3 84 40 bf d5 4d d4 3e c0 a5 9a 3f
       -0.35360634 -0.7520248 0.4146563 1.2081833
0001b0 4c f6 f0 3e 4e 75 fd 3d ab 00 0b 3f cf 0e ad be
       0.4706291 0.1237589 0.54297894 -0.3380036
0001c0 e4 af 3a bf 3e 3b 8a bd 7a 48 3f bd 1f 75 c0 3e
       -0.7292464 -0.06749581 -0.04669998 0.37589356
0001d0 74 6e ad 3d 89 69 89 3e b0 74 4d bc b8 ad 16 3f
       0.08468333 0.2683833 -0.0125400275 0.58858824

encoder.0.bias f4 [10]
000000 e5 07 1d bf 52 d8 53 be ae 1d 8f bd c1 af 1c bd
       -0.6134017 -0.20687988 -0.06988083 -0.03825355
000010 43 64 10 bf 58 47 83 bd 75 95 c2 be ce 7c 0b bf
       -0.5640299 -0.06410092 -0.38004652 -0.5448731
000020 4c 16 8b be fc 55 50 3e
       -0.2716545 0.203453

encoder.3.weight f4 [10, 10]
000000 fe 6b 41 be 5f 1e 0e bf 2a fb 7e bd d6 8f a6 3e
       -0.18888852 -0.5551509 -0.062251247 0.32531613
000010 4e 99 69 3f 12 c0 84 be 06 23 c2 be c5 2f 67 bf
       0.9124955 -0.25927788 -0.37917346 -0.90307266
000020 cd e2 2a 3f 68 11 47 3e 9e 8f 00 3f bd 98 90 bf
       0.6675232 0.19440234 0.5021914 -1.1296612
000030 8c f4 39 bf 39 4a e4 3e e8 25 47 be 22 26 31 bf
       -0.72638774 0.44587877 -0.19448054 -0.6919881
000040 b5 7e e1 3f 29 b2 01 40 38 0b 88 3e 52 90 15 bf
       1.7616793 2.026499 0.2657106 -0.5842334
000050 25 fb 60 3f 0b fd df bd 4c 74 3c 3e 21 73 53 be
       0.87883216 -0.10936936 0.18403739 -0.20649387
000060 cf 7c f8 3e bd 5b 0e 3f f3 d3 24 bf f3 06 65 bf
       0.4853272 0.5560873 -0.6438591 -0.8946373
000070 dd 2a cc 3d 24 6a 80 3e f4 84 09 3f 9b b6 4d be
       0.09969113 0.2508098 0.53718495 -0.2008919
000080 3a 52 85 3e 50 73 4c 3e 7d e6 9c 3f 90 79 a1 3e
       0.26039296 0.19965863 1.225784 0.31538057
000090 f4 9c 1a bf d3 bd d3 be 0d cc c6 3e 2f 00 05 be
       -0.6039574 -0.41355762 0.38827553 -0.12988351
0000a0 f8 8c 10 3f 3c 3e 9e 3c 83 15 a3 be 79 8c 94 3f
       0.564651 0.019316785 -0.3185235 1.1605369
0000b0 a9 0b b9 3e 51 06 84 3d ef 24 11 40 35 4c 91 3f
       0.36141708 0.06446517 2.2678792 1.1351382
0000c0 e6 d7 fe 3e 23 bd 64 bf 16 6e 67 be 47 db 5f 3d
       0.49774092 -0.893511 -0.22600588 0.05465248
0000d0 d5 a8 63 bf 0f cf 58 3f 12 ef c7 3e b0 ea b4 bf
       -0.8892949 0.84690946 0.39049584 -1.4134121
0000e0 af c2 a8 3f 9b 94 a5 3f 87 c1 33 3e 88 a9 9c be
       1.3184413 1.2935976 0.17554294 -0.30598092
0000f0 43 5d 48 3f e1 92 9f be 8b 10 e9 3d 59 dc 89 bd
       0.78267306 -0.31166747 0.113801084 -0.06731481
000100 48 53 12 3f 73 d9 1a bf 4e 5e 16 bf 4c 2f 19 bf
       0.5715833 -0.6048805 -0.5873765 -0.59837794
000110 da 67 9c 3f 2f c5 8e be 48 79 17 be 9b 2b 02 3e
       1.2219193 -0.27884814 -0.14792359 0.12711947
000120 17 24 17 3f af 1b 41 bf bc 8f e0 3a 4c a9 8f be
       0.59039444 -0.75432867 0.001713268 -0.2805885
000130 33 f6 6b bf da d1 8b bf fd 6d b3 bc ae 9e 49 bf
       -0.92172545 -1.0923417 -0.021903032 -0.7875775
000140 d1 d1 61 bd 19 76 58 bd a7 80 04 bf e1 7f b1 3f
       -0.055131737 -0.052847 -0.5175881 1.386715
000150 27 7d 19 3d c4 2e 00 be 29 b7 fc 3f 60 54 7e 3f
       0.03747287 -0.1251784 1.9743396 0.99347496
000160 fc b6 9e be d7 33 4d bf f7 f8 e9 bd 92 7a 22 be
       -0.3099898 -0.80157226 -0.114244394 -0.1586707
000170 48 84 7e bd 5f d9 a8 3e 83 a6 0a 3e f6 b7 14 be
       -0.062137872 0.3297834 0.13540082 -0.145233
000180 61 28 0a 40 59 87 04 40 65 a2 54 bf 5d df 11 bc
       2.1587145 2.070761 -0.83060294 -0.008903352

encoder.3.bias f4 [10]
000000 67 0a a1 bc c9 b5 e9 3d a6 6c b7 be ca 00 92 be
       -0.01965828 0.11411626 -0.3582508 -0.28516227
000010 d3 d5 22 bf 21 15 6e 3e db b3 bf bd 87 11 50 bc
       -0.6360752 0.23250248 -0.093604766 -0.012699491
000020 1d 6b 5c 3d fc 5a 7e 3e
       0.05381309 0.24839395

encoder.6.weight f4 [6, 10]
000000 e3 bc 99 be de 48 dd 3f 74 dd a6 3a bb 95 4d be
       -0.30026922 1.7287862 0.0012730793 -0.20076649
000010 8f 2e e3 bb e4 3e b3 3c 58 84 8d be 14 a5 95 3d
       -0.0069330405 0.021880575 -0.27640033 0.07306877
000020 78 bc 7e 3f 71 17 35 3f 6b 9f 0a bf e3 9c 4d 3f
       0.9950633 0.70738894 -0.541495 0.80317515
000030 71 1b d7 be 6e 7f 09 be 9a 02 22 bf 09 13 26 3e
       -0.42013124 -0.13427517 -0.6328522 0.16218199
000040 78 8a 04 3c c0 d6 a3 3e 47 52 9d 3f f0 45 c3 3e
       0.008089654 0.3199978 1.2290734 0.38139296
000050 2a 63 0c bf 51 c0 e0 3f 76 13 b6 3c bf 56 a8 be
       -0.5483881 1.755869 0.022226077 -0.32878682
000060 0a fb 25 3f c2 b7 e0 3e 6a fb 91 bf 62 01 41 be
       0.6483618 0.43890196 -1.140485 -0.18848184
000070 fc ca ad 3f 5a ac 20 3e 23 04 f7 3e 4d 31 8a bd
       1.3577571 0.15690747 0.48245344 -0.06747685
000080 5f cd 9f be 21 10 d6 3e 07 7c 95 3f 7f fe b8 3e
       -0.31211373 0.4180918 1.1678475 0.36131665
000090 f7 49 89 3f 6f 07 7f bf 89 ce 0e 3e 68 fc 4b 3e
       1.0725697 -0.9962072 0.13945974 0.19920504
0000a0 fe 60 7e 3e 40 c6 bb bf d2 f5 bb 3e a1 5a b1 3e
       0.24841687 -1.4669876 0.36710984 0.34639457
0000b0 06 db 73 bc f8 4e 8c bf 98 aa 15 3e 30 1e 83 be
       -0.014883762 -1.0961599 0.14615858 -0.2560897
0000c0 83 76 c5 bf 6b a9 4e bf 90 0b e6 3e 0d 62 fc be
       -1.5426792 -0.8072726 0.44930696 -0.49293557
0000d0 aa db 44 3e 61 0f c9 be eb e3 d1 bf 2c 60 d6 be
       0.1922442 -0.39269546 -1.639768 -0.41870248
0000e0 75 7e fe bd 29 20 2f 3f c0 77 30 bf 6a bd b0 3e
       -0.124264635 0.6840845 -0.68932724 0.3451951

encoder.6.bias f4 [6]
000000 d8 12 5f 3e 59 f3 38 3e b3 66 f6 3d 24 6b 2c bf
       0.21784532 0.1806158 0.12031307 -0.67350984
000010 ed 88 ce bd 6c 98 26 3f
       -0.1008471 0.6507633

decoder.0.weight f4 [10, 6]
000000 ce 10 21 3f e7 15 3e 3f 53 9d 4c 3f 2b f3 01 3f
       0.62916267 0.7425217 0.7992756 0.5076167
000010 74 f2 87 bf 68 df 37 bf dc 32 bb be c8 71 3f be
       -1.0620866 -0.71825266 -0.3656224 -0.18695748
000020 d5 3e 2e be 43 ec d8 be 23 6e 42 3f 54 3f cd 3e
       -0.17016156 -0.42367753 0.75949305 0.40087378
000030 42 ed 15 3e 8a 1b 09 3f 71 3d aa 3f cb de ad be
       0.14641288 0.53557646 1.33 -0.3395904
000040 4f 34 56 bf ce 2b 08 bf 1a 9d 73 3f 71 a1 08 3e
       -0.83673567 -0.5319184 0.9516159 0.13342835
000050 1e b3 6b 3f df 46 ae 3d 4c 90 1e bf 35 3d 87 be
       0.92070186 0.08509611 -0.6193893 -0.26413885
000060 60 3d d4 be 7b a4 80 bf df 56 4e 3e 91 ea 82 3f
       -0.41453075 -1.0050195 0.20150326 1.0227834
000070 f4 96 22 3f 10 93 91 bf d7 aa 6c 3f ca b0 93 3f
       0.63511586 -1.1373005 0.9244818 1.1538327
000080 c6 71 b7 3e 16 c6 bc 3e 8c 50 49 bf a9 43 02 bf
       0.3582899 0.36869878 -0.7863853 -0.5088449
000090 b5 f0 1a 3f c8 9f bf bb b5 a7 93 3f 86 6c 28 3e
       0.6052354 -0.005847905 1.1535555 0.16447648
0000a0 cc 4e 2d bf 5d 74 85 bf fb 1d bb 3e 89 3a d1 3e
       -0.6769836 -1.0426136 0.3654631 0.4086497
0000b0 2f 74 e5 3e f1 77 3d be 72 7b 61 bf c7 4f de 3e
       0.44815204 -0.18502785 -0.8807899 0.4342024
0000c0 5e 3c 2d bf c6 24 f7 be d5 cd 1e bf f2 f7 b2 3f
       -0.6767024 -0.48270243 -0.62032825 1.3981917
0000d0 9d f4 0a bf 8e ae 2e bf 6b b3 b8 3e 9b 80 10 3e
       -0.542795 -0.682351 0.36074385 0.14111559
0000e0 e0 83 1e bc dc 19 00 bf e7 42 fd 3e a6 61 98 be
       -0.009674996 -0.5003946 0.49465105 -0.29762

decoder.0.bias f4 [10]
000000 4d 8e 5d 3c e3 87 00 bf 0c 68 86 bb 40 c8 62 3e
       0.013522697 -0.50207347 -0.004101759 0.22146702
000010 48 8b 11 bf 58 d9 63 be ba 4f b7 bd 7c dd 8f 3e
       -0.5685315 -0.22250879 -0.089507535 0.28098667
000020 64 18 06 bf 1d 58 4d bf
       -0.5238097 -0.80212575

decoder.3.weight f4 [10, 10]
000000 b1 f4 f1 3c 2c e3 8d bf 5b 6a 54 3f 48 19 80 3e
       0.029535623 -1.1084952 0.82974786 0.25019288
000010 4d 85 c5 be e4 cc ea bd 14 79 02 3f 31 95 29 3f
       -0.38578263 -0.11464861 0.50966 0.66243273
000020 5c aa bd bf 40 42 ef 3e a8 bf a5 3f 38 74 4f 3e
       -1.4817615 0.46730232 1.2949114 0.20259178
000030 4b 15 85 bf 7d ae 20 be 17 8e 80 bb 1d 47 1a bf
       -1.0397123 -0.15691562 -0.0039231884 -0.6026476
000040 0f 22 9d 3e 9d 55 36 bf be 39 c0 be f7 a7 08 be
       0.30690047 -0.71224385 -0.37544054 -0.13345324
000050 0d 2f 66 3f 28 7a 33 bf 41 fe 09 3f 86 d6 99 bf
       0.89915544 -0.7010827 0.53903586 -1.2018592
000060 5a 9f 06 be 75 12 4f 3d 2d 1d be bd ed e4 2b 3f
       -0.13146725 0.05055471 -0.092829086 0.6714619
000070 8d b1 87 be a2 42 a4 3e 62 98 40 bf 1e f4 7e bf
       -0.26502648 0.32082087 -0.7523252 -0.99591243
000080 ab c7 b8 bd e7 88 53 3f 50 9c f3 be 74 b0 b1 3e
       -0.09022459 0.8263077 -0.47580194 0.34704936
000090 2d 2d d3 be f4 75 d1 3d 69 f7 59 3f cd dc 60 3e
       -0.41245404 0.10227576 0.8514314 0.21959229
0000a0 af d6 50 be 38 14 8c 3d 43 2d 82 be f8 b3 eb be
       -0.20394395 0.06839794 -0.25425157 -0.46035743
0000b0 c4 c0 1f 3f 58 c9 1d bf 2e 87 88 bf eb d7 50 3e
       0.6240351 -0.6163535 -1.0666254 0.20394866
0000c0 94 f0 de 3e 11 1c 7c bf b1 08 a5 3d c0 22 4a ba
       0.43542922 -0.98480326 0.080582984 -0.00077108666
0000d0 8d 58 57 be 77 a0 08 3f fa bf b7 bd 7c 66 26 3f
       -0.21029873 0.5336985 -0.089721635 0.6500013
0000e0 f9 9b 97 3f 7d f7 91 bd a3 4d d0 bd 31 ec 3a be
       1.1844474 -0.07127283 -0.10171058 -0.18254162
0000f0 83 36 03 3f 81 9e f4 bd 84 32 61 3f fb 3b f7 3e
       0.51255053 -0.11944295 0.87967706 0.4828795
000100 b6 96 35 be 4e 59 05 3f ad f2 65 3e 43 79 dd 3d
       -0.17733273 0.52089393 0.22455855 0.108141445
000110 5d 28 88 be 72 a2 dc 3d 05 a7 43 3f 2d e1 a6 bf
       -0.26593295 0.107731715 0.76426727 -1.3037468
000120 a7 3e 9a bf 40 84 92 be 3f 64 f8 bd 4e 19 39 3f
       -1.205037 -0.28616524 -0.121284954 0.72304237
000130 94 3b 4c 3e b1 6e 43 bf bd 3e 01 bf 9d 0b e9 be
       0.19944602 -0.76340777 -0.50486356 -0.45516673
000140 1e 3d 25 bf e1 2c 80 be ff 5f 2f be e2 6f b5 be
       -0.6454638 -0.2503424 -0.17126463 -0.35436922
000150 0a 6b e1 3f b9 f3 12 3e ef 10 54 3f 5c 78 ce be
       1.7610791 0.14350785 0.8283834 -0.40326202
000160 10 67 4c 3e e0 93 03 bb bc 17 8e bf e0 27 1d bf
       0.1996119 -0.0020077154 -1.1100993 -0.6138897
000170 df 74 11 bf 9a c7 2e be 90 50 3f 3f da 71 83 bf
       -0.56818956 -0.1706833 0.74732304 -1.026912
000180 d2 91 aa be 04 1b fb bd e8 50 80 3f f4 25 f0 be
       -0.33314377 -0.12261012 1.0024691 -0.46903956

decoder.3.bias f4 [10]
000000 d3 00 4e 3e cb 97 65 3e 85 43 2a bf 11 5d 8a 3e
       0.20117502 0.22421186 -0.66509277 0.2702413
000010 d9 10 c1 bd 9b 04 64 3d 05 a0 d9 be 95 9d b2 3b
       -0.094270416 0.055668455 -0.42504898 0.005450914
000020 a7 1f 1c 3e 91 b4 e4 3e
       0.1524645 0.4466901

decoder.6.weight f4 [12, 10]
000000 4e df 85 be 65 71 c4 3e 32 9b 24 3f f9 7e a6 3e
       -0.2614693 0.38367763 0.6429931 0.32518747
000010 df 10 ab 3e 9d d9 7f be 44 59 cd be 3c f7 cf bf
       0.3341131 -0.24985357 -0.40107167 -1.6247325
000020 9f d4 bd 3f 76 23 d3 3d 69 e2 96 3e 62 11 26 bf
       1.4830512 0.10309498 0.29469612 -0.64870274
000030 52 5c 81 3f 1a 72 d6 3d 7d e0 31 3f 79 84 90 bd
       1.0106299 0.10470982 0.69483167 -0.07056517
000040 2c 5e 86 be 1c 46 57 3d 9c af d8 be 58 d6 3c 3f
       -0.26243722 0.052557096 -0.4232148 0.7376456
000050 5c 48 6b bd 9a 20 84 3f f1 8c 87 3d fa 16 7b bf
       -0.057442054 1.0322449 0.06618679 -0.98081934
000060 a1 06 4e 3f a8 b9 e7 be 45 c5 95 3d 5d 6d ca be
       0.80478865 -0.45258832 0.07313017 -0.39536563
000070 fa 13 db be e0 7a 67 bf 71 e2 ca be 11 71 d0 be
       -0.42788678 -0.9042187 -0.39625886 -0.40711263
000080 d6 89 16 3f f4 9a 62 be f4 f0 0e bf 0a ba 37 3f
       0.5880407 -0.22129422 -0.55836415 0.7176825
000090 72 7f 8e 3f d3 d8 ac 3f 18 4b 30 bf d9 c3 91 bf
       1.1132643 1.350367 -0.68864584 -1.1387893
0000a0 78 11 38 be 37 1c f0 3e 73 76 83 3e 2b 79 80 3f
       -0.17975414 0.46896526 0.25676307 1.0036978
0000b0 90 fa 77 bc 6b c9 85 3e 4d 8b 80 bd 40 b9 60 bf
       -0.015135422 0.26130232 -0.062765695 -0.8778267
0000c0 06 6f e4 3d 5d 33 6a bf 52 3b 98 be 5d 69 13 3f
       0.111539885 -0.91484624 -0.29732758 0.57582647
0000d0 b9 b6 24 bf d1 53 5b 3e d1 97 84 3f 89 d7 8e 3e
       -0.6434131 0.21418692 1.0358831 0.27898815
0000e0 17 9e dd be 48 cc d0 bf 1e a3 43 3f 0c f1 f9 be
       -0.43284675 -1.6312342 0.7642077 -0.48816717
0000f0 41 95 f6 3e e3 b1 c4 bf 49 14 ee 3e 07 01 79 bf
       0.48160747 -1.5366787 0.4649985 -0.9726719
000100 b4 e2 15 3d 93 15 03 3c 6e 3c d1 bd d7 b6 1c 3e
       0.036593154 0.008000749 -0.10216604 0.15304123
000110 58 60 53 bd 24 58 0b 3f 73 be 27 bd 65 0b 73 bf
       -0.051605552 0.54431367 -0.04095311 -0.9493926
000120 e4 00 c6 bd 6a 44 a5 3e 5c 0e 80 3e ed e5 1d bf
       -0.096681386 0.32278758 0.25010955 -0.61678964
000130 42 35 63 3d a2 63 28 be c5 81 95 3e a3 56 24 3f
       0.055470712 -0.16444257 0.2920057 0.641947
000140 3d 22 34 be 0e 02 6f 3e bb ba 99 3f 96 f1 75 3f
       -0.17591186 0.23340628 1.2010111 0.96071756
000150 e8 2d 09 bf 6e e7 00 3f ec ac 99 bd 8f c6 bd bd
       -0.5358567 0.50353134 -0.07503685 -0.09266388
000160 db 7a d4 3e f5 54 09 be 87 c1 f0 be 65 86 82 3f
       0.4149998 -0.13411315 -0.4702265 1.0197264
000170 fe 5e 92 be 8e 17 48 bf 22 bb 13 3e ed e2 81 be
       -0.28588098 -0.7816094 0.14426854 -0.25368443
000180 bb 9c a1 be a9 c1 ae 3d c4 b2 99 3e 4e 32 7b 3f
       -0.31564888 0.085330315 0.300192 0.98123634
000190 ee 45 78 3f 32 84 26 3f c7 2b a8 be c3 51 c0 be
       0.96981704 0.65045464 -0.328459 -0.3756238
0001a0 14 70 b1 bd 7f 0c d4 be f9 41 af be 52 26 1e 3c
       -0.08663955 -0.41415784 -0.3423002 0.009652691
0001b0 c7 56 14 bf 79 3e 34 3f 45 82 c8 be 84 b9 5b bf
       -0.5794491 0.70407826 -0.39161888 -0.8582995
0001c0 eb dc 1c bf c9 f0 bf bd 12 54 83 3f 85 9b 2b bf
       -0.61274594 -0.09372098 1.0260031 -0.6703418
0001d0 dd b9 e7 bd 73 25 c2 bf 08 79 29 3f 55 56 42 3f
       -0.113147475 -1.5167679 0.66200304 0.7591298

decoder.6.bias f4 [12]
000000 ff 86 92 3e 7c bd 54 3e 91 83 6a 3e b1 6e 95 bd
       0.2861862 0.20775408 0.22901751 -0.07296503
000010 40 92 33 bf 59 17 4d 3f 70 02 3f 3f 26 76 59 3f
       -0.70145035 0.8011375 0.74613094 0.84945905
000020 f6 e2 f6 be 96 59 1e bf f3 a8 49 bf 14 d6 55 3f
       -0.48220032 -0.6185545 -0.7877342 0.8352978

mlp.0.weight f4 [10, 12]
000000 fd 09 aa be f6 13 0d 3e a5 7b e4 be 87 a6 ff bd
       -0.33210745 0.13777146 -0.44625583 -0.124829344
000010 e2 42 bf 3e 03 49 34 bf 0b 53 f2 be c1 9d 0b bf
       0.37355715 -0.7042391 -0.47328982 -0.5453759
000020 bf c9 f7 3e 1f 83 82 3e f6 66 1a 3f 1b cb 6b bf
       0.48396108 0.25490662 0.60313356 -0.9210679
000030 89 9d bf be 12 d9 5f bf 62 16 c0 be b8 9b 69 3f
       -0.37424877 -0.874406 -0.37517077 0.9125323
000040 3b a0 77 be 5e c5 5c 3e 76 81 a5 bd d2 59 d8 be
       -0.24182217 0.21559665 -0.08081333 -0.42256027
000050 1c ed 43 bc d0 27 ca bd ec 38 2c bf 4d 0a 70 be
       -0.011958387 -0.09870875 -0.67274356 -0.2344143
000060 ef b3 75 bf 79 69 65 be 8e 00 b7 3e b2 91 9e 3f
       -0.9597768 -0.22403516 0.3574261 1.2388213
000070 ed 2c 19 bf c8 48 b0 bf ee 19 7a bd f0 5e 25 be
       -0.59834176 -1.3772211 -0.061059885 -0.16149497
000080 e7 c8 bb be 89 63 97 3e 70 08 31 be db 87 c2 be
       -0.36676714 0.29568127 -0.17288375 -0.37994274
000090 ee 35 90 3f d5 fe 07 bf 3e c3 e6 be 60 66 90 bf
       1.1266458 -0.5312322 -0.45070833 -1.1281242
0000a0 b2 9f 53 3e 23 79 14 3f a6 42 ff be 83 e9 0b 3f
       0.20666388 0.5799734 -0.49855536 0.54653186
0000b0 89 cf 0c 3f 84 d6 10 3f 98 14 27 bf 82 bf 78 3f
       0.55004174 0.56577325 -0.652658 0.9716722
0000c0 57 75 f5 bc 20 15 e2 3e 36 01 1c bf 2c 2a f2 be
       -0.029963179 0.44156742 -0.6093935 -0.472978
0000d0 7a 5f 52 bf 07 8d 56 be de 78 79 3e bc 17 60 3f
       -0.82176936 -0.20952235 0.24362513 0.87536216
0000e0 ea d8 a5 be 42 57 5b 3e ab 7c 6b 3e 71 c5 51 3f
       -0.32392055 0.21420005 0.22996776 0.81941897
0000f0 b8 20 ed 3d c2 8e ea 3e cb 9c 44 bf 85 cd 1c 3f
       0.11578506 0.4581204 -0.7680175 0.612511
000100 20 d9 9a bc 70 b5 bf be af ac 58 3f 08 4f 95 3e
       -0.018902361 -0.37443113 0.84638494 0.2916186
000110 49 bc 84 3f 8d ed 38 bf 27 c4 47 bf 19 d5 4b be
       1.036996 -0.72237474 -0.7803368 -0.19905509
000120 53 18 24 bf df 01 34 3e 0a a0 43 3d 80 f6 b8 be
       -0.64099616 0.17578839 0.047760047 -0.36125565
000130 79 3b 51 bf d9 19 12 bf c9 9c 59 3f 50 b2 a8 3e
       -0.81731373 -0.5707069 0.8500486 0.32948542
000140 fb 9f 72 bf c8 a3 4f be 92 48 97 3f 1f 26 2a bc
       -0.9477536 -0.20277321 1.1819022 -0.010385065
000150 0c 60 32 3f ad 10 69 3c 2b 6e 7e be bb d5 0f bf
       0.69677806 0.014225167 -0.24846713 -0.561855
000160 11 ce 14 bf db 4e eb bd 89 3d 4c 3f d1 ca b2 bd
       -0.5812693 -0.1148965 0.79781395 -0.087300904
000170 9b 2e 41 3d 14 4a 92 3f 43 63 14 3f 2d 3a da 3e
       0.047163587 1.1428857 0.5796396 0.4262251
000180 d5 ac d8 3e c0 76 de be 49 0b 23 bf f5 d7 e0 3e
       0.4231936 -0.43449974 -0.63689095 0.43914762
000190 de 04 ec 3e 56 bb da bd 84 1d 1e bf af be f2 bd
       0.46097463 -0.10680263 -0.6176379 -0.11852776
0001a0 42 7b 7e 3f 91 ef 05 bf 99 a3 1d 3e 53 ee 83 bf
       0.99406826 -0.52318674 0.15394439 -1.0307106
0001b0 7a b6 f2 be 16 1c 0d 3f 57 38 2b 3f 2d bd 22 3e
       -0.47404844 0.5512098 0.6688284 0.15892477
0001c0 fa d5 4a bf 2c dc 93 be cf 80 23 3f 9a d5 d1 be
       -0.7923275 -0.28878915 0.6386842 -0.40983278
0001d0 68 0b b6 be 4f b8 b6 3e 63 56 0c 3f bf 41 30 bf
       -0.35555577 0.3568749 0.54819316 -0.6885032

mlp.0.bias f4 [10]
000000 4f 2e 2b c0 6f b5 90 3e 54 aa 20 bf f0 12 21 3f
       -2.6747015 0.28263423 -0.627599 0.6291952
000010 1e d3 3c 3f a5 50 83 3e f3 7e 57 3e b2 90 30 bf
       0.7375964 0.25647464 0.21044521 -0.6897079
000020 7b c9 51 3e 43 79 21 3f
       0.20487015 0.63075656

mlp.3.weight f4 [8, 10]
000000 19 b1 2a 3f b4 67 11 3e f4 4d 61 3f b9 29 b6 be
       0.6667648 0.14199716 0.8800957 -0.35578707
000010 3b 67 4f bd 8c ca 08 3f 72 16 93 be 10 a9 95 be
       -0.050635558 0.5343406 -0.28728062 -0.29230547
000020 00 91 a4 3e 01 1b 37 3d 97 85 b5 be 13 79 1f 3e
       0.32141876 0.044703487 -0.35453483 0.1557353
000030 76 bb dc bf df 73 66 3f 6a 2f 4d 3f 83 64 09 c0
       -1.7244709 0.90020555 0.80150473 -2.1467597
000040 fa 65 6a be 4b 45 81 bf 18 40 a6 be f6 df 13 c0
       -0.22890463 -1.0099272 -0.32470775 -2.3105445
000050 99 91 27 3f 99 94 d4 3e db 9d b1 3e 81 95 5f 3e
       0.6545654 0.4151962 0.34690747 0.21834375
000060 b0 a0 43 bc f2 e3 23 3e 6b 60 29 3d 06 97 67 3f
       -0.011940166 0.16004923 0.041351717 0.9046482
000070 3a d7 14 3e f4 6a 15 bf 70 e0 92 be 07 6b 44 bf
       0.14535227 -0.5836632 -0.28686857 -0.7672581
000080 91 8a 98 3e 0f 24 54 3f f8 2c 04 3f 66 1a a6 be
       0.29793218 0.8286752 0.51631117 -0.32442015
000090 d8 55 15 3e 63 93 c3 3f 65 7c 8d be 19 ce 78 be
       0.14583528 1.5279354 -0.27633968 -0.2429737
0000a0 59 8d 75 bf 38 93 46 be 83 3c 75 bf f8 86 a2 3e
       -0.95918804 -0.19392097 -0.9579546 0.31743598
0000b0 be 58 10 40 28 94 c9 3d 64 84 63 bf d2 b4 19 3f
       2.2554164 0.09842712 -0.8887389 0.60041535
0000c0 61 0a c9 be c5 88 96 be e3 08 10 bd 23 16 c4 bc
       -0.3926573 -0.29401222 -0.035164725 -0.023936337
0000d0 04 b8 28 bf 34 56 ec bf 2e e6 7c bf 15 ae b1 be
       -0.65905786 -1.8463807 -0.98788726 -0.34703127
0000e0 21 14 2d 3f 4f db cd bc 99 25 e1 bf 68 20 31 3f
       0.6760884 -0.025128989 -1.7589599 0.69190073
0000f0 b7 90 39 bf 6d 53 ee bd ed 49 c1 bf 47 5e 1b 3f
       -0.7248644 -0.11637006 -1.5100685 0.6069073
000100 a7 04 52 be df a9 44 bf d0 20 1e 3f 0f be 64 3e
       -0.20509587 -0.768217 0.6176882 0.22338127
000110 a6 23 59 be 63 6d 73 bf 21 6f 7d 3f 2e 01 81 3f
       -0.21205005 -0.95088786 0.98997694 1.0078485
000120 89 b2 17 3e 1c 5c 44 be 35 55 cf 3d ed b6 62 be
       0.148142 -0.19175762 0.10123674 -0.22140093
000130 89 61 63 bf e5 2c 03 c0 79 2e 14 3f 1b b6 55 3e
       -0.888207 -2.0496151 0.5788341 0.20870249

mlp.3.bias f4 [8]
000000 51 db 14 c0 2a aa c3 bf df a3 8c c0 22 0d 27 40
       -2.325886 -1.5286305 -4.395004 2.6101766
000010 5c 91 b9 3f a2 a3 58 bf 70 08 50 c0 d3 b7 60 be
       1.4497485 -0.84624684 -3.250515 -0.21945123

mlp.6.weight f4 [5, 8]
000000 1e fa 4e be 9a 6b ad c0 48 75 73 c0 b4 a3 00 3f
       -0.202126 -5.419385 -3.8040333 0.5024979
000010 a8 74 db 3e 42 36 85 3f da 9a 34 c0 e0 a3 88 c0
       0.4286244 1.0407183 -2.8219514 -4.2700043
000020 20 1b 05 c0 4a f8 47 3f 2d 48 40 bf b9 6c 08 3f
       -2.0797806 0.78113234 -0.7511013 0.532909
000030 bd 67 99 3e 62 8d 88 c0 3c 3d 18 be 21 65 83 be
       0.2996196 -4.2672586 -0.14867109 -0.25663093
000040 ff d9 10 c0 ae 36 05 40 cf 99 1b bf 49 09 15 3f
       -2.2633054 2.0814624 -0.6078157 0.58217293
000050 1a b5 f5 3e 52 f9 be bf 66 b1 79 3f d1 e0 5a c0
       0.47989732 -1.4919837 0.97536314 -3.4199717
000060 44 fb 7f 3e 84 2c 90 bf 36 97 13 3f 83 4c 84 bf
       0.24998194 -1.1263585 0.57652605 -1.033585
000070 2e 0e 8b bf a1 72 9d 3e fc e0 0d 3e a2 52 d1 3e
       -1.0863702 0.30751517 0.13855356 0.40883356
000080 cf 6a 74 3e b7 08 a7 bf dd 58 0f 3f db c2 87 bf
       0.23868869 -1.3049535 0.5599497 -1.060634
000090 50 e4 83 c0 9f ab ca 3f 4b 77 e8 bf 37 72 cd 3e
       -4.12162 1.5833625 -1.8161405 0.40126202

mlp.6.bias f4 [5]
000000 23 b4 cd 40 59 ab c9 40 96 63 9d c0 4c 50 bc c0
       6.4282393 6.3021665 -4.9184065 -5.884802
000010 db ed 01 40
       2.0301425

exp_avg f4 [10, 12]
000000 4e 53 31 3b 98 6e a9 b9 aa 99 8d ba a6 7d cc 3a
       0.002705771 -0.0003231659 -0.0010803242 0.0015601411
000010 54 18 92 3a 60 11 25 b9 60 28 06 3a 28 18 b0 ba
       0.0011146166 -0.00015742099 0.00051177107 -0.0013434933
000020 fc 9f d8 3a 02 90 35 3a 44 3e 2b 3a c6 56 8f ba
       0.0016527171 0.0006926061 0.00065324106 -0.0010935895
000030 3b 15 32 3b 94 51 af 3a 8f 45 27 ba 63 95 13 3a
       0.00271733 0.0013375753 -0.00063809095 0.00056298653
000040 a3 c5 a3 b9 32 62 18 bb 6f 29 32 38 03 9f 96 3a
       -0.00031237034 -0.0023251888 4.2477095e-05 0.0011491481
000050 52 a6 54 3a b4 db b4 39 94 1e 9e b8 78 75 ca 39
       0.0008111942 0.00034495967 -7.539723e-05 0.00038615963
000060 f0 f8 4a b9 d2 52 8e bb 42 4b e3 3a 90 d4 31 bb
       -0.00019356958 -0.004343369 0.0017341154 -0.0027134754
000070 a0 93 9f ba d1 60 a2 3a aa a0 1b ba 54 1a a1 ba
       -0.0012174733 0.0012388473 -0.00059367216 -0.0012291172
000080 00 a6 ea b9 1d 36 44 ba c8 28 97 ba 2b 9b 11 3b
       -0.00044755638 -0.000748487 -0.001153254 0.0022217731
000090 2f 88 ab 3b 40 8e bc b7 e7 83 74 bb 5a 4c d4 3a
       0.00523474 -2.2477587e-05 -0.0037310065 0.0016197071
0000a0 84 9e ce bb 79 82 05 bc 74 c6 ec 39 14 d9 52 bb
       -0.0063055176 -0.008148783 0.00045161287 -0.0032172846
0000b0 8a 43 f7 ba 24 e2 39 ba 60 09 dd b6 79 3b 97 ba
       -0.0018864733 -0.00070908875 -6.5874046e-06 -0.001153811
0000c0 63 11 a7 ba 12 d1 d3 3a 58 e4 98 3a 80 0a c4 b5
       -0.001274627 0.001616033 0.0011664731 -1.4606194e-06
0000d0 41 ff 0b 3a 63 0e a0 3a 5c 51 83 39 10 66 b5 39
       0.0005340465 0.0012211319 0.00025046885 0.00034599053
0000e0 3e 95 ad b9 a5 0b 7d 3a 81 6a 72 39 89 78 0a 3a
       -0.00033108325 0.0009652919 0.00023118594 0.00052822434
0000f0 fd 28 33 3a 06 86 18 bb ae ce 50 ba 75 e0 47 3a
       0.0006834416 -0.0023273244 -0.0007965368 0.0007624694
000100 94 ac da 39 90 da 0f 3a 90 11 48 39 60 c8 df b6
       0.0004170878 0.00054875854 0.00019080029 -6.6692446e-06
000110 75 65 a3 3a 6e 05 47 39 19 5c c5 39 04 89 d5 39
       0.001246615 0.00018980142 0.00037643386 0.0004072861
000120 ce 33 57 39 e9 71 0d 3a 79 63 46 38 fb 1e c5 39
       0.00020523297 0.0005395697 4.729952e-05 0.0003759785
000130 fe 37 a4 b8 88 52 64 b8 05 3e 9d b8 4e 27 68 b9
       -7.830559e-05 -5.44363e-05 -7.4978954e-05 -0.00022139886
000140 95 2d 93 b8 6c c5 a6 b8 34 b9 c9 b9 8b 79 4f b9
       -7.0179965e-05 -7.9522695e-05 -0.00038475695 -0.00019786337
000150 e2 2a 45 b8 6c 97 30 3a b7 a9 16 ba a8 1b 97 39
       -4.7008398e-05 0.0006736431 -0.00057473354 0.0002882157
000160 98 75 dc 37 35 7b ea b9 c2 40 bd b6 fe 4e 95 38
       2.6280803e-05 -0.00044723754 -5.6401777e-06 7.119587e-05
000170 99 09 b3 39 ef 89 9e 38 0b 3e 1b ba 2c 16 12 ba
       0.0003414869 7.559719e-05 -0.0005922026 -0.0005572762
000180 60 d5 6c 39 27 b9 e2 3a 31 7f b6 b9 b2 d9 9a 3a
       0.00022586202 0.0017297611 -0.0003480851 0.0011814146
000190 b0 1b a6 37 3e d5 ff ba e8 1a 17 39 e2 18 7e b8
       1.9801635e-05 -0.0019518507 0.00014410506 -6.0581493e-05
0001a0 eb 08 a7 3a dd b7 fb 39 6b d0 2f 3a 8e a0 9a ba
       0.0012743747 0.0004801144 0.0006706777 -0.0011797117
0001b0 e9 11 99 bb 19 71 96 3b 14 5c d1 3b 50 67 7b 3b
       -0.0046713245 0.004591119 0.0063891504 0.003836114
0001c0 57 27 84 3c 96 12 3f 3b de 03 66 bb ba 0b 0a 3c
       0.01613204 0.0029155365 -0.003509752 0.008425647
0001d0 49 14 32 3c 96 bc 76 39 20 e8 7b bb b2 85 5b 3b
       0.010869094 0.00023530642 -0.0038437918 0.0033496437

exp_avg_sq f4 [10, 12]
000000 83 b0 08 3b 58 c8 d7 39 b2 24 47 3b 20 a3 a4 38
       0.0020857162 0.00041157263 0.0030386862 7.850514e-05
000010 85 76 59 39 dc b1 3d 39 10 c9 90 38 74 76 b4 3a
       0.00020738885 0.00018090702 6.903906e-05 0.0013768212
000020 c1 bc d4 3a 9c 0b ea 39 1d b7 dd 39 f1 df 22 3b
       0.001623057 0.00044640608 0.00042288835 0.0024852718
000030 c9 f9 13 39 c7 76 59 39 7b ac d2 38 e2 ae ee 38
       0.00014112065 0.0002073898 0.00010045707 0.00011381299
000040 2c 10 82 39 2f 33 10 39 50 1b ae 37 ec 25 f8 38
       0.0002480758 0.00013751978 2.0755135e-05 0.00011832625
000050 26 ac 9c 39 66 91 5a 37 96 08 d2 38 ad f3 be 38
       0.000298829 1.3027666e-05 0.000100151796 9.105294e-05
000060 55 18 02 3a a9 d3 d2 39 56 85 76 39 0a 4a a2 39
       0.0004962732 0.0004021202 0.0002351006 0.0003095421
000070 32 0e 0c 39 96 be 66 39 c1 4e 15 38 51 14 46 39
       0.00013356729 0.00022005508 3.5597714e-05 0.0001889032
000080 5e 28 a6 39 75 e5 23 37 3a 5b 2b 39 01 ee 3f 39
       0.00031692063 9.768982e-06 0.00016341815 0.00018303843
000090 3d fe 2d 39 39 11 9d 39 55 d0 14 39 20 02 da 39
       0.00016593277 0.00029958205 0.0001419199 0.00041581783
0000a0 b3 68 09 3b 93 13 96 39 71 51 86 38 1f 9e 16 3a
       0.0020966947 0.00028624813 6.4047876e-05 0.0005745608
0000b0 c8 3e 5f 3a ba 59 47 38 16 a7 60 39 11 0d c5 38
       0.000851613 4.752886e-05 0.00021424549 9.396126e-05
0000c0 ea ec 3c 39 15 34 90 39 7a 2d 50 39 1e a3 e3 38
       0.00018017335 0.00027504624 0.00019853367 0.000108545864
0000d0 15 f8 0a 39 4d 39 e7 39 91 40 2a 38 c2 3b 9e 38
       0.00013253123 0.00044102446 4.059129e-05 7.545158e-05
0000e0 8b 24 be 38 5c 52 68 37 c1 a6 96 38 7d 37 ec 38
       9.066713e-05 1.3847453e-05 7.183618e-05 0.000112636924
0000f0 04 6c de 39 6d 08 b9 39 ba db 2f 39 57 16 1d 39
       0.00042423618 0.00035292227 0.00016771155 0.00014981009
000100 d3 81 2a 39 e5 15 f3 39 aa f9 a7 37 3a fd 11 39
       0.00016260827 0.00046364884 2.002421e-05 0.00013922612
000110 ec dd ad 39 79 8c 4f 37 8c 03 0d 39 d2 e3 ff 38
       0.00033162476 1.2370868e-05 0.00013448129 0.000122017824
000120 bd bb db 39 a0 5f 61 3a 90 a4 06 3a 5f f6 b9 39
       0.0004191081 0.0008597318 0.0005136216 0.0003546951
000130 90 95 0f 3a 55 00 db 3a bb 1f ea 37 80 85 59 39
       0.00054773036 0.0016708473 2.790975e-05 0.00020744465
000140 1b 27 7e 38 a7 95 07 38 cc ba 4c 39 fc 3d 28 3a
       6.059474e-05 3.2325883e-05 0.00019524543 0.0006417928
000150 c2 28 18 39 fd c9 28 39 18 b4 2a 3a 77 98 dd 37
       0.00014511033 0.00016096975 0.00065118214 2.641625e-05
000160 dc 0e 83 38 ba d3 09 39 ec 22 ef 37 0c 49 cc 38
       6.2493345e-05 0.00013144212 2.8507282e-05 9.741084e-05
000170 32 aa e0 39 b2 85 47 38 da d9 0c 39 e8 40 60 3a
       0.00042851415 4.756981e-05 0.00013432596 0.00085545937
000180 a9 87 6f 39 2d e5 cb 39 2d af e5 38 94 37 4d 39
       0.00022843354 0.00038889927 0.000109522 0.00019571028
000190 4a db 93 3a 6d 75 ac 39 09 7a 37 38 55 cf fe 39
       0.0011280563 0.00032893886 4.3744254e-05 0.0004860113
0001a0 77 ce d0 39 89 8f ac 37 59 b2 2f 39 ed 12 d6 38
       0.0003982668 2.0570837e-05 0.0001675574 0.000102078404
0001b0 bb d1 b5 39 13 4a 8c 39 6d b0 d5 38 3c f5 e6 38
       0.00034679272 0.0002675807 0.00010189493 0.00011012933
0001c0 e5 ef 1f 3a 85 a1 43 39 69 35 37 38 66 73 80 39
       0.0006101116 0.0001865682 4.3680342e-05 0.0002450004
0001d0 af a1 8a 39 e5 7a be 37 05 88 4d 39 bb 1d dc 38
       0.00026441875 2.2706992e-05 0.00019600995 0.00010495955

exp_avg f4 [10]
000000 6c ad ff ba f4 c6 af b9 2a 07 40 3b cb 6f 53 bb
       -0.001950664 -0.00033526833 0.0029301145 -0.0032262679
000010 6c c2 df 39 74 94 3e bb 5f 2a aa b8 23 f9 12 ba
       0.0004267873 -0.0029080184 -8.114124e-05 -0.0005606582
000020 61 4a de ba 6d 2d f8 3b
       -0.0016959423 0.0075737746

exp_avg_sq f4 [10]
000000 8f b6 10 3a a3 d3 55 39 24 9f f9 39 83 82 b6 39
       0.00055203674 0.00020392104 0.0004761155 0.00034810984
000010 d6 70 78 39 ef 25 d4 39 f1 44 23 3a 5b 13 55 39
       0.00023693158 0.00040464054 0.00062282296 0.00020320473
000020 86 37 b0 39 89 9d 7d 39
       0.00033610704 0.00024186647

exp_avg f4 [10, 10]
000000 de fe c4 39 28 a4 44 3a 4a fd 6b ba e3 06 bd ba
       0.00037573924 0.0007501268 -0.00090022816 -0.0014421608
000010 08 5a c8 3a d4 9f 19 3b 2b 99 c0 b8 03 46 41 36
       0.001528562 0.0023441212 -9.183803e-05 2.8799993e-06
000020 de f5 38 39 88 c9 d4 b9 4a 44 a8 ba b6 0c 98 b7
       0.000176392 -0.00040585943 -0.0012837735 -1.8125731e-05
000030 75 27 f8 b9 2d 04 46 3a 8d fb c0 b8 80 67 28 b8
       -0.00047331644 0.0007553723 -9.2021284e-05 -4.0150713e-05
000040 77 d1 a1 38 69 f8 dd b7 8f 4e 6a bb cf bc 01 3b
       7.716094e-05 -2.6460928e-05 -0.003575239 0.0019796377
000050 2e 81 8b 3b 49 c0 7f 3c d8 46 4f 3c d1 39 96 3a
       0.004257343 0.015609809 0.012651168 0.0011461322
000060 a1 d6 84 b9 ae c6 c9 3a 4f 24 dd b6 ec 86 57 36
       -0.00025336913 0.0015394294 -6.59054e-06 3.2116031e-06
000070 51 39 85 3b ad 98 20 3b 06 97 22 ba 39 55 14 3a
       0.0040656705 0.0024505064 -0.0006202314 0.0005658451
000080 67 b8 3c 3b 5a 46 2c 38 a0 8f c7 b8 37 58 a8 ba
       0.0028796436 4.1073516e-05 -9.515812e-05 -0.0012843673
000090 f5 2d 1e b9 a5 22 4b 36 e1 73 0b b8 90 9a f2 b8
       -0.00015085175 3.0269523e-06 -3.3248103e-05 -0.00011568249
0000a0 ee 57 f3 bb 4a 17 18 bc 85 8a ac bb e3 52 d7 ba
       -0.0074262535 -0.009282896 -0.0052655363 -0.00164279
0000b0 2f 6e 3a bb 84 f1 d6 bb 6f 88 82 b9 55 04 b5 b6
       -0.0028447022 -0.0065595526 -0.00024897183 -5.3947247e-06
0000c0 cb 8e bf bb 88 b7 17 b5 4c 5a e0 b9 c5 5d 7a ba
       -0.0058458797 -5.6518957e-07 -0.00042791886 -0.0009550716
0000d0 1e ed f6 37 b8 27 d8 b5 8f 48 87 b9 8d 20 c9 36
       2.9435902e-05 -1.6104814e-06 -0.00025803267 5.994056e-06
0000e0 61 6b fe 38 54 7c 2d b7 c7 59 50 ba f3 10 0c bb
       0.00012131665 -1.0340551e-05 -0.0007947948 -0.0021372407
0000f0 09 b6 2a b9 93 53 cd ba 1e 9b ee b5 e6 e5 90 39
       -0.00016280277 -0.0015665166 -1.7777527e-06 0.00027637108
000100 e5 65 78 b9 44 38 18 b8 bd f6 41 37 eb 02 59 36
       -0.00023689082 -3.6292025e-05 1.1561145e-05 3.2337218e-06
000110 c8 aa 17 ba 94 45 f2 b9 b3 3a d4 3a 36 56 9c 3a
       -0.0005785641 -0.00046209677 0.001619181 0.0011927548
000120 f6 9e be 3a 7d e2 9a 39 39 df ea b8 62 3e 1b 3a
       0.0014543224 0.00029541916 -0.00011199568 0.00059220765
000130 8a 99 14 34 2f bd 0e 36 ac 4b 4f 3a 76 38 00 ba
       1.3839431e-07 2.1269768e-06 0.00079076993 -0.0004891226
000140 36 97 ce b7 40 bd 8b 39 5a ff 23 b8 19 e7 11 b8
       -2.4627527e-05 0.00026653148 -3.9100043e-05 -3.478592e-05
000150 3d 42 93 39 d5 41 04 3a 7d b9 c3 b8 a9 f7 72 b7
       0.00028087376 0.000504521 -9.3328745e-05 -1.4481987e-05
000160 d3 ba a9 b9 f0 77 8b b8 ea 4a 59 b9 a5 1f 71 3a
       -0.00032373387 -6.6503766e-05 -0.0002072264 0.0009198136
000170 f5 3f 88 3b 1a bb 49 3a 18 69 42 3a b6 3a cb b9
       0.004158015 0.0007695422 0.0007416173 -0.0003876292
000180 f6 d6 1a 39 f5 a2 1a b7 ec 29 9e 39 b2 4a 7a 3a
       0.00014766664 -9.217057e-06 0.00030167343 0.00095478736

exp_avg_sq f4 [10, 10]
000000 86 49 87 38 34 a9 2a 39 2e 76 36 39 a2 23 ef 37
       6.4509964e-05 0.00016275496 0.00017400898 2.8507613e-05
000010 93 c5 dc 38 59 92 68 39 51 59 5d 36 55 80 2b 34
       0.000105272185 0.00022179763 3.2983555e-06 1.5972303e-07
000020 37 78 0d 39 7e 45 9d 3a 53 8f d3 3a a7 e0 cb 37
       0.00013491591 0.001199886 0.0016140736 2.4304098e-05
000030 a7 59 0d 38 1c e3 7a 39 af 13 b8 39 94 b0 6e 38
       3.3700515e-05 0.00023926463 0.0003510988 5.6908073e-05
000040 1d 78 33 38 6c 34 25 35 69 b0 2a 3a 8e b1 e7 38
       4.278879e-05 6.1543574e-07 0.00065112725 0.000110480105
000050 ec 08 00 38 7c 9b ac 39 7d 0d 9a 39 d7 bf 97 35
       3.0525887e-05 0.0003292224 0.00029383218 1.130621e-06
000060 78 3b ba 37 74 6d 7b 38 e3 4b f4 33 6e 40 64 34
       2.220062e-05 5.9945e-05 1.1375939e-07 2.1257594e-07
000070 64 15 1a 38 54 1f 41 3a 4c 5f 96 39 58 6a 54 3a
       3.6736383e-05 0.0007367034 0.0002868123 0.00081030047
000080 c1 0c 42 3a c8 44 cd 37 53 82 2a 38 1d 62 d6 39
       0.0007402413 2.4469933e-05 4.0652532e-05 0.0004089036
000090 66 ca 99 36 af 6f 07 36 d4 49 02 39 3f 23 af 3a
       4.5833176e-06 2.0181576e-06 0.00012425269 0.0013361945
0000a0 fa 67 49 39 72 bc 97 3a 7e 1a 11 39 eb 37 5b 38
       0.00019207588 0.0011576547 0.00013838147 5.2265746e-05
0000b0 de d5 2f 39 68 7a 17 39 f1 87 8f 37 f1 24 c2 34
       0.00016768972 0.00014446082 1.7110231e-05 3.6162194e-07
0000c0 70 59 88 39 6c 91 45 37 1f 50 ec 37 88 52 e4 39
       0.00026006578 1.1775974e-05 2.8170702e-05 0.0004354904
0000d0 63 23 2d 36 7c 94 43 37 fc fa c3 38 db 08 38 37
       2.5799607e-06 1.1657477e-05 9.345074e-05 1.09693165e-05
0000e0 34 28 8a 37 ff 97 55 36 6b ef bf 38 fd 71 86 38
       1.6469603e-05 3.1827947e-06 9.152185e-05 6.41085e-05
0000f0 98 d8 78 39 e0 7a a6 39 af 88 83 39 06 25 4b 38
       0.0002373181 0.00031753536 0.00025088104 4.8433452e-05
000100 51 a7 d2 38 19 ed 7a 38 3a 61 0a 37 a3 91 22 36
       0.000100447454 5.982546e-05 8.248078e-06 2.4224653e-06
000110 17 f1 10 39 69 5b 76 39 43 31 65 38 5c 3e 97 39
       0.00013822723 0.00023494441 5.4643733e-05 0.00028847426
000120 a1 79 6a 39 0d 31 c4 36 00 4d 11 37 2b f3 a0 38
       0.0002236129 5.8469655e-06 8.660601e-06 7.674688e-05
000130 02 f6 0d 32 46 1d 91 30 08 30 4c 38 e9 6e 54 38
       8.263216e-09 1.0558459e-09 4.8682123e-05 5.0648032e-05
000140 fa 9f 9f 38 af f9 f8 38 01 cc f9 37 b2 65 51 38
       7.611509e-05 0.00011872069 2.977811e-05 4.9924194e-05
000150 ad 17 60 38 cc 13 e2 37 56 cc 60 37 2e 28 ed 36
       5.342781e-05 2.6950518e-05 1.3399016e-05 7.067828e-06
000160 4b 21 8b 38 bf 8e ac 36 fa 43 12 39 9b d4 00 39
       6.634238e-05 5.1426173e-06 0.00013948968 0.00012286233
000170 f6 8e b6 3a c1 3a a1 37 1e a9 d3 38 73 ee ff 39
       0.0013928104 1.9220055e-05 0.000100927646 0.0004881505
000180 05 c5 61 37 6f 1d bf 35 27 99 ed 37 c9 8a c6 3b
       1.3456917e-05 1.4239175e-06 2.8323919e-05 0.006059025

exp_avg f4 [10]
000000 04 8a 39 3a b0 bf f7 3b 11 c8 1f 3b fa 93 24 3a
       0.0007077756 0.0075606927 0.0024380723 0.0006278154
000010 d4 32 4d bb ce e7 ab b9 29 3a 28 b9 13 28 23 3a
       -0.0031310814 -0.0003278837 -0.00016043395 0.0006223928
000020 ce b2 fd 3a 18 7e 10 3b
       0.0019355656 0.0022047814

exp_avg_sq f4 [10]
000000 d4 92 08 3a 2e 20 d2 3a 3e da 4b 39 20 17 c1 39
       0.00052098674 0.0016031319 0.0001944089 0.00036829058
000010 07 16 0d 39 4f 3f bc 39 13 af 50 39 5c 82 c8 38
       0.00013455014 0.00035905323 0.00019901646 9.5610245e-05
000020 65 84 8d 3b 7e ca f0 3a
       0.004318761 0.0018370894

exp_avg f4 [6, 10]
000000 c2 9c 69 38 cb 16 e3 b8 9c 2c 8f ba d5 67 75 ba
       5.569752e-05 -0.00010828449 -0.0010923329 -0.00093614805
000010 18 c1 b2 b8 34 1c 3f 39 74 52 93 39 96 c8 99 b9
       -8.523668e-05 0.00018225686 0.00028099457 -0.00029331882
000020 54 07 bd 38 4d 2b dc 39 1a 35 ba 3a b7 29 38 39
       9.013587e-05 0.00041993932 0.0014206499 0.00017563147
000030 ed ec a3 bb e0 5e e0 b7 ce 60 7c bb 5f bf 20 b9
       -0.005002609 -2.674706e-05 -0.0038509849 -0.0001533008
000040 08 80 6c 39 b8 fb 59 b9 f2 19 db b8 14 50 39 39
       0.00022554409 -0.00020788505 -0.000104475665 0.00017672806
000050 21 9e 81 ba b5 2b be b9 76 96 e8 bb 2d 83 17 ba
       -0.0009889045 -0.00036272188 -0.0070980145 -0.00057797396
000060 d9 3f 9f bb 7c fe d1 39 a1 43 c1 b8 42 99 99 b9
       -0.004859906 0.00040053192 -9.215554e-05 -0.0002929662
000070 71 a8 b7 38 de 76 2a 3a aa ab cd b9 78 fd 1e 37
       8.757495e-05 0.0006502698 -0.00039228547 9.476549e-06
000080 e0 77 14 ba 77 db 16 ba b0 be a8 b9 b7 62 f3 b8
       -0.0005663615 -0.00057547487 -0.0003218553 -0.0001160553
000090 2c 08 6d b9 b6 d8 d6 b9 a9 a4 21 b7 50 c3 7a 39
       -0.00022605126 -0.00040978723 -9.634686e-06 0.00023914617
0000a0 3a bb fc b9 dd 55 2d 38 af f4 ca 3b 21 b3 f8 39
       -0.0004820468 4.132638e-05 0.0061937193 0.00047435708
0000b0 5c 70 91 3b e4 d9 d3 b9 0c 32 8b b9 1a 82 83 3a
       0.004438443 -0.00040407397 -0.00026549434 0.001003328
0000c0 5c be 58 38 ef 8a 12 ba e3 52 9b 3a 0a e4 23 39
       5.16757e-05 -0.0005590161 0.0011850264 0.00015629843
0000d0 db 67 a3 3b e0 b9 b1 3a 2c c0 77 3b d8 81 e7 b8
       0.004986746 0.0013559423 0.0037803752 -0.00011039124
0000e0 4e c7 29 39 2e 76 71 3a c8 ef 85 b8 6e c5 37 ba
       0.00016191343 0.00092110306 -6.386597e-05 -0.00070103153

exp_avg_sq f4 [6, 10]
000000 ce 50 46 38 67 c8 d8 37 c8 7a 7f 39 1e 09 0a 39
       4.7282134e-05 2.5842526e-05 0.00024364435 0.00013164102
000010 7f 8f c4 38 e1 9f 64 38 a1 c8 d0 38 13 c6 35 39
       9.3727365e-05 5.4508335e-05 9.955583e-05 0.00017335294
000020 96 e1 ee 37 eb e3 17 38 51 f0 60 38 42 3d 38 38
       2.8476858e-05 3.621347e-05 5.3629574e-05 4.392607e-05
000030 60 71 44 39 c9 0b dd 38 d5 e4 0f 39 45 eb 95 38
       0.00018734252 0.00010540296 0.0001372279 7.148696e-05
000040 29 ed 25 39 2e 5a 02 39 1e 76 59 38 d0 5e 10 38
       0.00015823975 0.0001243136 5.1846837e-05 3.4420576e-05
000050 74 9e b1 38 f7 89 73 37 5e f5 26 39 5d e9 28 39
       8.469532e-05 1.4516051e-05 0.000159224 0.00016108663
000060 6c 86 b9 38 30 0e 8f 38 8f d9 80 38 1f 49 6a 39
       8.8465255e-05 6.821414e-05 6.144039e-05 0.00022343219
000070 51 11 93 37 2b a2 71 38 6a 97 d3 38 e5 b9 96 37
       1.753183e-05 5.760991e-05 0.00010089467 1.7967957e-05
000080 82 1d 9b 39 68 b8 3d 39 31 27 46 38 e2 cf ec 38
       0.0002958589 0.00018093141 4.724338e-05 0.00011292078
000090 e5 51 56 38 79 b3 eb 37 ca 92 f0 38 e6 96 32 37
       5.1097846e-05 2.8097757e-05 0.000114714334 1.0644761e-05
0000a0 8b 7f f5 38 49 61 d0 37 e0 8a e9 39 39 3f a3 39
       0.00011706267 2.4840834e-05 0.00044544693 0.00031136887
0000b0 82 7a 17 39 ef ef 33 38 6d 80 c2 38 5d ac 80 39
       0.0001444612 4.290038e-05 9.274562e-05 0.00024542483
0000c0 11 e3 86 37 56 04 59 38 6c e0 c7 38 28 f6 94 37
       1.607978e-05 5.174087e-05 9.530861e-05 1.77576e-05
0000d0 d9 63 89 39 ed 40 11 39 fc 48 88 38 2b e7 95 38
       0.0002620507 0.00013852464 6.49858e-05 7.147932e-05
0000e0 43 f5 2b 38 88 7f 8b 38 ad 80 98 38 ea f3 b7 37
       4.0997995e-05 6.651791e-05 7.2718925e-05 2.1928881e-05

exp_avg f4 [6]
000000 24 3a 48 bb 41 5f f0 ba 35 ed 78 bb 18 2b 12 ba
       -0.0030552233 -0.0018338935 -0.0037983183 -0.00055758795
000010 52 4d 42 3b cc 12 14 3b
       0.0029648137 0.0022594212

exp_avg_sq f4 [6]
000000 45 52 f4 39 c1 17 9a 39 52 f7 90 3a 8f be d3 38
       0.00046600602 0.00029390867 0.0011060035 0.00010096758
000010 d0 9f 61 3a 73 3b 92 39
       0.0008606883 0.00027891583

exp_avg f4 [10, 6]
000000 b9 27 c7 b8 e4 a4 64 3b f3 29 19 bb c5 fc db ba
       -9.4964584e-05 0.0034888322 -0.002337095 -0.0016783705
000010 32 aa af ba 04 68 8a 3b 18 bd cb 38 ab 5e 48 3a
       -0.0013402163 0.0042238254 9.715016e-05 0.0007643501
000020 ac 8f 06 b9 b1 fa 20 bb 88 5e 9c b9 68 d3 a9 3a
       -0.00012832758 -0.0024563486 -0.0002982507 0.0012956681
000030 ed d9 eb b9 90 ab 69 3b 61 b8 22 bb 7c b2 aa ba
       -0.0004498506 0.0035655238 -0.0024829137 -0.0013023163
000040 60 74 91 ba 02 05 61 3b 42 c8 1e ba 0c d3 30 bb
       -0.0011097305 0.003433526 -0.00060570624 -0.0026981262
000050 35 50 cd 3a 31 7c 7e 3b 58 53 51 3a 1a db c4 bb
       0.0015664162 0.0038831348 0.00079851365 -0.0060075643
000060 01 30 a4 38 09 9e 0f 3a e7 39 7f 39 33 4e 77 ba
       7.829071e-05 0.0005478566 0.00024340265 -0.0009433955
000070 99 78 0d b8 f8 68 f2 39 d0 ee 0d 38 b2 c5 58 b8
       -3.3729335e-05 0.00046236045 3.383943e-05 -5.168253e-05
000080 31 31 84 b9 ba 37 72 b9 76 13 ae 38 53 59 00 3a
       -0.00025213652 -0.00023099678 8.3005914e-05 0.0004896123
000090 42 98 48 3a 54 36 82 3a 11 b6 54 3a 6b 70 99 ba
       0.0007652083 0.0009934404 0.0008114288 -0.0011706477
0000a0 92 5d b1 ba 55 4d 2c 3a 2a 7b 0e b9 44 31 e6 b8
       -0.0013531914 0.00065728027 -0.00013588057 -0.00010976431
0000b0 c2 e6 2d b9 60 8f f0 b9 c0 b5 57 b6 f7 b8 3e 3a
       -0.0001658453 -0.0004588319 -3.214329e-06 0.0007275487
0000c0 67 c2 32 38 d3 d6 d9 b8 ce fd 4c 39 ea 3a ba 39
       4.261956e-05 -0.000103873805 0.00019549506 0.0003552058
0000d0 3f 0c 11 b9 79 64 05 ba ad 46 19 b8 fa 4b 7b b8
       -0.0001383284 -0.0005088519 -3.6543865e-05 -5.9913822e-05
0000e0 00 20 40 b6 86 93 69 3a c5 09 f5 b8 e4 18 e2 b9
       -2.8628856e-06 0.00089102273 -0.0001168433 -0.00043124624

exp_avg_sq f4 [10, 6]
000000 0b 37 76 37 37 dc 3e 37 9e e3 6e 37 a9 b7 10 38
       1.4675558e-05 1.1376155e-05 1.4238902e-05 3.4503322e-05
000010 7a c2 ef 37 33 eb 2c 38 05 d0 b3 37 ba cf 78 38
       2.858158e-05 4.1227042e-05 2.143533e-05 5.9321268e-05
000020 0c a5 c6 38 9d 72 2a 39 db 18 fa 37 1b fa f5 38
       9.472118e-05 0.0001625516 2.9813897e-05 0.00011729096
000030 c5 33 5c 38 01 38 47 38 33 73 4a 38 cd 06 a1 39
       5.25003e-05 4.7497455e-05 4.826784e-05 0.0003071338
000040 ba 18 bf 38 d9 31 9a 39 dc 1e 21 38 d2 9d e4 37
       9.1121954e-05 0.00029410308 3.841413e-05 2.7253209e-05
000050 37 ac e4 37 ce 37 84 39 ff 7c 89 38 9a 9b 78 39
       2.7259912e-05 0.0002521858 6.5559514e-05 0.00023709089
000060 de f1 47 38 e2 90 92 38 d2 fb 15 39 ff c2 dc 38
       4.7670554e-05 6.988809e-05 0.00014303558 0.00010526738
000070 a3 c8 58 39 79 a9 38 39 6c a8 d2 37 3a d1 8f 37
       0.00020674108 0.00017610741 2.5112378e-05 1.7144357e-05
000080 6e c4 9c 38 85 41 f6 38 bf 62 3a 38 33 d2 b4 38
       7.4752475e-05 0.00011742398 4.443782e-05 8.6222215e-05
000090 dc 9e ad 37 3b c8 bd 37 60 e4 8c 37 d5 82 41 38
       2.0697182e-05 2.2623795e-05 1.6795646e-05 4.6136633e-05
0000a0 c8 de 23 38 2f 67 33 38 35 05 03 38 e2 d8 09 38
       3.906971e-05 4.2773023e-05 3.1237683e-05 3.2865333e-05
0000b0 14 cf 63 38 95 42 fd 38 91 e4 38 38 0f f2 29 39
       5.4313874e-05 0.00012076382 4.4081888e-05 0.0001620727
0000c0 b5 6a 80 37 65 a7 c2 37 99 6f 4a 38 24 d2 de 37
       1.5308478e-05 2.3204551e-05 4.8264486e-05 2.6562317e-05
0000d0 c8 a8 c7 38 26 17 48 38 f2 93 6a 36 79 27 22 38
       9.5204974e-05 4.7705274e-05 3.4954833e-06 3.866057e-05
0000e0 0e 22 bc 37 00 72 46 38 fb a2 a6 37 57 db f4 37
       2.2427204e-05 4.731305e-05 1.9864636e-05 2.9189205e-05

exp_avg f4 [10]
000000 52 3e 83 b9 b8 07 9d 3a bd 99 dc ba cd 51 34 bb
       -0.000250327 0.001198045 -0.0016830486 -0.0027514577
000010 12 ec 34 b9 fb e3 14 ba 34 ad 86 3a d6 8b 63 3a
       -0.00017254081 -0.00056797237 0.0010275007 0.00086802
000020 8e 47 d7 b7 9d 08 d0 b9
       -2.5663318e-05 -0.0003967927

exp_avg_sq f4 [10]
000000 a3 b3 37 38 b8 66 e3 38 00 ee 9c 39 7b 80 8f 39
       4.37979e-05 0.00010843336 0.00029931962 0.0002737081
000010 6e 06 2f 37 e6 a5 78 38 a0 2e 45 38 43 65 d5 38
       1.043231e-05 5.9282313e-05 4.7011883e-05 0.00010175493
000020 a1 a4 23 37 0d 6d 76 37
       9.753888e-06 1.4688133e-05

exp_avg f4 [10, 10]
000000 9a 4b 33 ba 01 ea fc b9 3a 7b c6 b9 df 77 ca ba
       -0.00068395736 -0.00048239532 -0.00037857314 -0.0015447101
000010 7d db 77 39 46 4a 6c 3a 5c 58 0e 3a 17 b9 0e 3a
       0.00023637521 0.0009013753 0.00054300367 0.00054444507
000020 06 59 2f b6 ae ef 88 b8 c4 79 6c 37 3f ce 00 bb
       -2.612885e-06 -6.529629e-05 1.4095047e-05 -0.0019654182
000030 7a 48 2c 39 a5 d4 60 ba da 03 1e 39 08 5a dc 39
       0.00016430198 -0.00085766084 0.00015069489 0.00042028748
000040 58 5b de b6 1a f9 b5 39 31 94 7f 38 69 c8 82 39
       -6.6267494e-06 0.00034708605 6.093475e-05 0.0002494485
000050 b4 4c f5 38 50 1e f5 b8 ec 09 a2 b8 4f 3d 3f 3a
       0.000116967974 -0.000116881565 -7.72661e-05 0.00072952075
000060 61 a3 40 b9 d6 f5 f5 3a 60 eb 43 38 54 cf ab 39
       -0.0001837141 0.0018765281 4.6710833e-05 0.00032770133
000070 20 7f e2 37 92 13 0b 39 80 a3 b2 3a 06 24 1e ba
       2.7000497e-05 0.00013263364 0.0013629049 -0.00060325896
000080 18 85 b1 3a bd 72 11 3b 82 c8 98 3a 3c ce 13 3a
       0.0013543693 0.0022193633 0.0011656436 0.00056383363
000090 ec 95 90 3a eb f0 9f 39 8d e1 af 3a 42 a2 08 3a
       0.0011031008 0.0003050634 0.001341866 0.00052121666
0000a0 51 93 0d b9 3a 11 a8 3b 7a a5 7f b9 d2 fb 1f b9
       -0.00013501687 0.0051290067 -0.0002438034 -0.00015257232
0000b0 15 d6 08 b8 c9 e3 02 38 56 2e 89 34 b4 16 04 3a
       -3.2624306e-05 3.1206557e-05 2.5551952e-07 0.00050387834
0000c0 f5 08 79 b9 11 c7 35 39 c0 a6 5d b9 82 9b 0a bb
       -0.00023749827 0.00017335663 -0.00021138322 -0.0021149819
0000d0 7c fb 4f 39 51 e2 4b 3a 4c 63 c3 b8 1e b7 63 b8
       0.00019834744 0.0007777559 -9.31682e-05 -5.429156e-05
0000e0 28 54 4a 3a bb 2d 4c 3a 4d 25 b9 b8 6f 35 81 b8
       0.0007718229 0.0007788797 -8.828435e-05 -6.161152e-05
0000f0 54 30 de 39 8b 8c 18 b9 36 42 80 ba c7 c6 d7 38
       0.00042379147 -0.00014548206 -0.0009785357 0.00010289024
000100 dd 06 fa b9 a7 76 64 39 89 23 0b 3a a6 11 f1 3a
       -0.0004768883 0.00021787976 0.00053077244 0.00183921
000110 69 29 d8 b8 9b 7d 59 b7 32 fd 30 b8 1e 5e 7a 2e
       -0.00010307396 -1.2963453e-05 -4.2197476e-05 5.692701e-11
000120 d7 57 4d 37 7a 4f 00 b8 47 96 93 b4 04 19 e6 b9
       1.2239404e-05 -3.0591596e-05 -2.7490225e-07 -0.00043887657
000130 04 cf ef b9 e2 6a 77 39 b2 ff fd 38 58 80 3d 30
       -0.0004573987 0.00023595573 0.00012111607 6.8940187e-10
000140 e6 33 bf 3a bb f9 df 39 0b 0c dc 3a 1a 64 17 ba
       0.001458761 0.00042719938 0.0016788257 -0.0005775109
000150 8b 76 11 ba 10 f4 d5 b9 b0 91 3c 3a 77 a1 03 b9
       -0.00055489753 -0.00040808367 0.000719334 -0.00012553284
000160 b8 f1 8e ba 23 d8 68 3a d0 46 38 37 4f 7c 87 3a
       -0.0010905778 0.00088823045 1.0983742e-05 0.001033673
000170 80 d0 ed 38 86 fb d4 39 de 2c 12 ba d1 86 d4 37
       0.00011339877 0.0004062319 -0.0005576144 2.5335148e-05
000180 f4 5d b7 37 b8 6c 17 3a 1a ec 64 38 c2 4c 2d 39
       2.185905e-05 0.0005776393 5.4579323e-05 0.0001652716
