checkpoint/DAE_ckpt_06-27_11-11-33.pt (torch, 29322 bytes, 54 tensors)

encoder.0.weight f4 [10, 12]
00000000: 5c89 ebbd 5db4 f0bd 183f 1dbd f962 42bd
00000010: 5c50 2ebe abf7 7dbe f52c f23c 4fd5 39be
00000020: 763b 9b3c 5e63 013d faf7 8b3c 5784 5bbe
00000030: 8c6f 56bd 7437 5dbe 203d 793d 1eb0 5abe
00000040: 8c27 173e 645f 82bb 9df3 323e e569 6f3e
00000050: 7686 c23c a7c4 0fbe a889 d03c a4ea ad3d
00000060: 2835 af3d e963 763e e018 0b3e 0a23 893e
00000070: f85c 98bd 1181 563e f237 3d3e c8ae 55be
00000080: 9656 873d 4a77 983e c82c 603e 8407 90bd
00000090: 2d48 803e 1841 ff3d bc56 82bd e225 d33d
000000a0: 249e 4e3e 3265 12be 3ab7 7ebd 768f f9bd
000000b0: 00e0 073e a082 c73c b70d 8b3e 4064 45bd
000000c0: bb92 89be be31 263e 6f29 dd3d 88f0 34bd
000000d0: d4c8 d73d b43e 95be 2fb8 7c3e 6e70 bcbd
000000e0: a38d 783d f966 023e 2b88 2abe ed2c 923e
000000f0: bfe6 583e b752 64bd 64d2 14be ca70 a23d
00000100: 0824 81bd 379c 143e b872 c83c bdf5 8d3e
00000110: 97f0 89be 3396 663e 6c20 443e 32e9 ee3d
00000120: 6864 23be 42ba 3abd cc34 a43c 9f23 2bbc
00000130: c2d3 5a3c 56f8 043d 8859 bbbc ac5a 193b
00000140: 73ae 263d a87d 33be 80e4 2dbe 6d9a 033e
00000150: 458a 443e 93eb 2fbe 8b87 84bd 2061 ecbd
00000160: 515b 143e 5c38 4f3c dfac 0dbe 475a 7a3e
00000170: efc7 343e 6e9f 8abe 8143 98bd 0266 813e
00000180: d374 4e3e ea7d e7bd 1353 1c3e d4ef 19be
00000190: 84d8 a1bd 2a69 0a3d 4bdb 48be 41a4 433d
000001a0: d6c6 813e 43a7 693e 6237 893c 6ca8 ecbb
000001b0: 848b 49bb 24d5 f7bd c840 533c fa72 4b3e
000001c0: e865 883d d0b1 5abe eac3 b23d 3100 273e
000001d0: 2f3e 953e 5e95 e1bd 586a 7b3e 1464 d0bd
-0.115008086 -0.117531516 -0.03839025 -0.04745767 -0.17022842 -0.24801509 0.029562453 -0.18147777
0.018949252 0.031588905 0.017086018 -0.21437202 -0.052352473 -0.21603185 0.06084931 -0.21356246
0.1476118 -0.0039786566 0.17475744 0.2338024 0.023745757 -0.1403986 0.025456265 0.0849202
0.085550606 0.2406155 0.13583708 0.26784545 -0.074396074 0.20947672 0.18478373 -0.20867455
0.06608312 0.2977851 0.21892083 -0.070326835 0.25055066 0.124635875 -0.063641995 0.1030996
0.20177513 -0.14296415 -0.062186457 -0.12185566 0.13269043 0.024354279 0.271589 -0.04819131
-0.2686976 0.16229913 0.107989185 -0.0441747 0.10536352 -0.291494 0.24679635 -0.09201132
0.06068195 0.12734593 -0.16653506 0.285499 0.21181773 -0.055742946 -0.14533383 0.07931669
-0.063057005 0.14512716 0.024468765 0.27726546 -0.26941368 0.22518234 0.19152993 0.11665572
-0.1595627 -0.045587786 0.020044707 -0.010445504 0.013356151 0.032463394 -0.02286984 0.0023399992
0.04069371 -0.17528403 -0.16981697 0.12851878 0.1919337 -0.17179708 -0.06471165 -0.115419626
0.1448796 0.0126477145 -0.13835476 0.244485 0.17654394 -0.2707476 -0.0743475 0.25273138
0.20161752 -0.11303313 0.15266065 -0.15032893 -0.07902625 0.0337917 -0.19614904 0.047764067
0.25347012 0.22817712 0.016750041 -0.007222226 -0.0030753324 -0.121012 0.012893863 0.19868079
0.06660062 -0.21356893 0.08728774 0.16308667 0.29149005 -0.11014818 0.24552286 -0.101753384

encoder.0.bias f4 [10]
00000000: 5a70 653e 9627 373e 18e5 923b f543 983e
00000010: e5c3 8bbe 9238 843e 0d42 88be 48ee a33c
00000020: e4a2 23be 9cc4 e4bc
0.2240614 0.17886195 0.0044828765 0.29739347 -0.27297893 0.2582441 -0.26612893 0.020011082
-0.15980107 -0.027925782

encoder.3.weight f4 [10, 10]
00000000: 62b3 2e3e c6ba 193e 141b 9abe f725 a23d
00000010: d0c5 2bbe f93f 563e d065 58be cca8 96be
00000020: 9d26 8c3d cf00 2abe 3321 21be ea79 babd
00000030: f1d2 6fbe 6529 a0be 3b1a f5bd 0cde 6ebe
00000040: 6f45 553e 82d8 9c3e d0ab 7a3e 101d 1b3e
00000050: f77b 393d 8fbd 093c 1699 b2bc e7ee 8a3e
00000060: 4a61 f33d c425 8a3e 3b55 043d f8a6 283e
00000070: 9435 76be 194d c5bd 83bb 8d3e 6f25 65be
00000080: 7a28 a3bb fdf7 0cbe b974 22be 73bf a53d
00000090: b743 613e 27e5 58be f9a5 953d fd00 9f3e
000000a0: 80a2 75be e83a 813e 45e9 80be 54f3 21be
000000b0: 5d23 9b3d 6034 51be 4612 edbd 306d 87be
000000c0: 99f7 30be 6490 b03b caf4 b93d bfac 62be
000000d0: d8a4 c93d cc5b 263e f84a 013e 3348 9b3e
000000e0: 07aa 9d3e b248 50be 3769 53be 9b46 a6bd
000000f0: dca8 0b3e 727f d83d 26f4 ef3d 3d79 93bc
00000100: 82ce a4be d612 8dbe b9aa 523d 6e9c 3b3e
00000110: 8c51 05be ec01 8d3e 6f06 0ebe 5f7f 483e
00000120: f2a5 55be bcfd cc3d e3e9 1b3e 3a03 833e
00000130: c05d 583e f21b c0bd 2065 0a3d 70f4 363e
00000140: f504 2bbe 81da 913e 93ae 34be 58e0 86be
00000150: 297d ccbd f1a1 8d3e bc5d a73d c4d8 2f3e
00000160: cf17 98be 8d40 fa3d baf4 6f3e 4433 3a3e
00000170: 658f 23be 1aae 153e 54a0 44be 2553 b73d
00000180: 28d5 a2be 1137 11bd e09c 623e dde4 f03c
0.17060617 0.15012655 -0.30098784 0.079173975 -0.16774678 0.20922841 -0.21132588 -0.29425657
0.068433024 -0.16601871 -0.15735321 -0.091052845 -0.23420312 -0.31281582 -0.11967894 -0.23326892
0.20827268 0.30633932 0.24479604 0.15147805 0.045284238 0.008407011 -0.021801513 0.27135393
0.11883791 0.26981938 0.032307845 0.16469944 -0.24043876 -0.09633846 0.27682123 -0.22377561
-0.0049791904 -0.13766475 -0.15864839 0.08093157 0.21998487 -0.21181165 0.073070474 0.31055441
-0.2398777 0.25240254 -0.2517797 -0.15815479 0.075751044 -0.20430136 -0.11575751 -0.2645049
-0.17281951 0.0053883065 0.09079893 -0.2213621 0.098458946 0.16245955 0.12626255 0.3032852
0.30793783 -0.20340231 -0.20645605 -0.08118936 0.13638633 0.10571183 0.117164895 -0.018002147
-0.32188803 -0.27553433 0.051432345 0.18321392 -0.13019389 0.2754053 -0.13869642 0.19579838
-0.20864084 0.100093335 0.1522594 0.255884 0.21129513 -0.0938033 0.033787847 0.17866683
-0.1670111 0.28487018 -0.1764472 -0.26343036 -0.0998481 0.27662614 0.08172175 0.17172533
-0.29705665 0.12219343 0.234332 0.18183619 -0.1597267 0.14617196 -0.19201785 0.089514054
-0.3180325 -0.035452906 0.22130156 0.029406006

encoder.3.bias f4 [10]
00000000: 63b1 3bbc 21af 973e a9ce 9b3e de5a 87be
00000010: 08a2 9c3a 31f7 01be 1e6a 30be 21a2 97be
00000020: e4e2 2ebd f7b0 c6bd
-0.0114558665 0.296258 0.30431107 -0.26436514 0.0011950145 -0.12691952 -0.1722798 -0.29615882
-0.04269685 -0.09701722

encoder.6.weight f4 [6, 10]
00000000: d831 463e a6e0 f63d c1c0 52be 59e0 113e
00000010: 121d 9abe 31ad 56be d287 a7bc 3c52 08be
00000020: 416d 39be 481d 95be 4437 57be 656b 00be
00000030: a8bb 9fbe d544 20be 3378 aabd 686c 7e3e
00000040: c022 0cbe c95d 3e3e 341b 123e 9875 eaba
00000050: 172f 7cbe f18a 6f3e 6462 92bd 5ff4 1a3e
00000060: 8dee 083d e11b 87be 245d 48be e2e3 b83c
00000070: 74ca 8f3e 1658 713e af85 893e 6b76 90be
00000080: 6839 04be d236 683d 769f 30be 56a6 233c
00000090: 439d 90be 1abf 1f3e a0f3 943e 40b8 43bd
000000a0: d565 97be a287 4c3d e8ee e6bd f91e adbd
000000b0: 7338 d23d 2f37 55be baaf 833d def8 01be
000000c0: 2e03 6f3e b4e6 babd a36d 413c 05fd 0a3d
000000d0: fa35 643c 4620 da3d 458b 8d3e 34d2 76be
000000e0: f995 1b3e ace7 2cbe 383b ba3d d258 433e
0.19354951 0.12054567 -0.20581342 0.14245738 -0.30100304 -0.20964505 -0.020450506 -0.1331262
-0.18108083 -0.29123902 -0.21017176 -0.12540968 -0.31197858 -0.15651257 -0.083237074 0.24846041
-0.13685131 0.18590464 0.1426819 -0.0017887829 -0.24627338 0.23392846 -0.07147673 0.15132283
0.033430625 -0.26388457 -0.1956678 0.0225696 0.28084147 0.23568758 0.26859805 -0.28215346
-0.12912524 0.056692906 -0.1724833 0.009988388 -0.2824498 0.15600243 0.2909212 -0.047783136
-0.2956988 0.049934037 -0.112760365 -0.08453173 0.10264673 -0.20821832 0.064300016 -0.12692592
0.23341057 -0.091260344 0.011805925 0.033932704 0.013928885 0.10650687 0.27645317 -0.24103624
0.15193929 -0.16885251 0.09093326 0.19076851

encoder.6.bias f4 [6]
00000000: 72de b03d 259f 84be e2b1 2bbd 05bd 93bd
00000010: a936 b2bd 203a 26ba
0.08636178 -0.25902668 -0.04191769 -0.07213787 -0.08701832 -0.0006341059

decoder.0.weight f4 [10, 6]
00000000: 2448 5e3e d904 c4be 6b0f f53d 91e1 cebe
00000010: c408 b1bd 21f6 69bd 2450 8c3e b11d 2fbe
00000020: 5b4a 8c3e f252 903b 855d 78be afa7 b93e
00000030: 8feb 363e 1a32 9abe 8cb7 91be 013c 833e
00000040: f62c d2be 4380 cf3e aa65 2b3e b15f a83e
00000050: 2257 923e 6771 7bbe 82b7 1ebe 7188 973e
00000060: 78c2 aa3d f0f9 173e 52c0 853e 70ee c1be
00000070: 4cf4 00be 93d2 58be ccc7 c93e 277b aabd
00000080: 2ae1 12bd 2f62 c33e 8075 02ba 368f 833d
00000090: 4443 9bbd 9523 b2be e82f d4be 5905 3ebe
000000a0: 38b1 abbe a1b7 fe3d 1b32 ed3d 1725 953e
000000b0: 420e 3fbd 355c 00bc 2468 893e 661f cfbe
000000c0: 5ad1 34be 60a9 383b 78be 5b3e 4d7c 513e
000000d0: 37e0 c4bc 2532 c7be 1328 a53e ea54 8fbe
000000e0: 445f 3e3e e4b4 0ebb 3484 123e 87b5 b43e
0.21707207 -0.38284948 0.11965831 -0.4040647 -0.0864425 -0.057119492 0.27404892 -0.1710117
0.2740048 0.004404419 -0.24254425 0.36260745 0.17863296 -0.3011635 -0.28460348 0.25631717
-0.41049927 0.40527543 0.16738 0.32885507 0.28582102 -0.24554978 -0.1549969 0.29596284
0.08337873 0.14841437 0.2612329 -0.37877226 -0.12593192 -0.21174078 0.39410245 -0.08324271
-0.035859264 0.38160846 -0.00049766153 0.064238 -0.07581189 -0.34792772 -0.414428 -0.18556727
-0.33533645 0.12437368 0.115818225 0.2912986 -0.046644457 -0.007834484 0.26837265 -0.40453643
-0.17657986 0.0028177127 0.21459377 0.20457573 -0.024032695 -0.38905445 0.32257137 -0.27994472
0.18591028 -0.00217753 0.14308244 0.35294744

decoder.0.bias f4 [10]
00000000: 93e0 6a3e a5ce 1d3d 2c19 193d f069 7e3d
00000010: 14a5 bcbe 816e 4c3e 0467 24be 244c 543e
00000020: c282 85be 628f a5bc
0.22937231 0.03852715 0.03737752 0.06211275 -0.36844695 0.19964029 -0.16054922 0.2073217
-0.26076323 -0.020209972

decoder.3.weight f4 [10, 10]
00000000: 19bb 6b3e ec3d 8f3e 6221 523e 53cd 92be
00000010: 2899 083e fc23 1a3e c593 0b3d 8bdb 5cbe
00000020: de1d 85be 97b3 8bbe f2b1 a0be 3534 91be
00000030: f62f bd3d a58f 92be 6c9b a4bd 2260 04be
00000040: 3771 9c3e 98f2 17be ea76 6d3e 03b2 0ebe
00000050: b64e 7ebe 00a8 703a 001e 09ba 1bf1 36be
00000060: 464e 9dbe 2ce9 97be bde9 99be 2066 b3bc
00000070: e071 f83d 5c1b 3dbe 0daa 88be b4fe f33d
00000080: cbb8 223e 5c8c 043d c8ae 4c3d 5bbd 9c3e
00000090: e61c 973e fade 903e 76d0 cb3c d8b9 6cbe
000000a0: 430f 1dbe 5ee1 febd 1821 80be c26a 8fbe
000000b0: badc 4bbe 38f1 9e3d f8b7 0bbe c8fa ddbd
000000c0: fae5 113e 3829 73be 9fef 273e 6255 363e
000000d0: 8cd0 c5bd 32ff 8f3c eca3 123e c435 07be
000000e0: cf63 893d 868f a33e a26b 013e 500e 1ebe
000000f0: f090 94be 7f53 983e 438e 97be b86b 413d
00000100: be63 70be 74b3 9bbe 8543 853e 35f9 0e3d
00000110: eed5 963e 583d c6bd 6d66 a63d 8adf 94be
00000120: 06e9 7f3e 59fc 4e3e fc69 ed3d 5bb7 893e
00000130: ecbd 29be d22f 9bbe c8ca 3b3e cc18 523e
00000140: 035c 6c3e 7856 b33d f6e2 673d 4bba 213e
00000150: e066 51bc c5b4 a3bd e661 8d3e e151 943e
00000160: 76a3 49be bfce ac3d f2c0 52bd df3a 8f3e
00000170: 7291 b9bd 8075 2fbd 18fb 023e 0d7d a1be
00000180: b5e2 80be a032 9a3e 7fa6 543e 7a5a 9d3c
0.23020591 0.2797693 0.20520547 -0.28672275 0.13339674 0.1505279 0.03407647 -0.21568124
-0.2599935 -0.27285454 -0.31385761 -0.28360143 0.092376634 -0.28625217 -0.08037457 -0.12927297
0.30555126 -0.14838636 0.23189893 -0.13935094 -0.24834713 0.00091803074 -0.00052306056 -0.17865412
-0.3072378 -0.29670084 -0.3006114 -0.021899283 0.12131095 -0.18467468 -0.26692238 0.11913815
0.15890805 0.03236042 0.049971372 0.30613217 0.29514235 0.28295118 0.024879675 -0.23117769
-0.15337853 -0.12445329 -0.2502525 -0.28011137 -0.19908419 0.077608526 -0.13644397 -0.10838848
0.14247885 -0.23746192 0.16400002 0.17806008 -0.09658918 0.017577741 0.14320344 -0.13204104
0.0670849 0.31945437 0.12638715 -0.15435147 -0.2901683 0.29751202 -0.29600725 0.04722187
-0.23475549 -0.3041035 0.26028076 0.03490563 0.2946009 -0.09679669 0.08125005 -0.29076797
0.24991235 0.2021345 0.115924805 0.26897702 -0.16576356 -0.30309922 0.18339074 0.20517272
0.23081975 0.08756727 0.05661293 0.15793721 -0.012780875 -0.079934634 0.27613753 0.2896872
-0.19691262 0.08437871 -0.05145354 0.27974603 -0.090609446 -0.042836666 0.12791097 -0.3154072
-0.25172964 0.3011675 0.20766638 0.019208182

decoder.3.bias f4 [10]
00000000: 0896 31bd bd2f 93be 82b1 b3bc 3627 923e
00000010: 049e 19be f436 923e 28ed a13b da15 35be
00000020: 347c 8ebe 5e11 843d
-0.04335597 -0.2874736 -0.021935228 0.2854554 -0.15001684 0.2855755 0.0049416013 -0.17684117
-0.27829134 0.06448625

decoder.6.weight f4 [12, 10]
00000000: ed37 303e e429 01be 5d35 c5bd 9282 15bd
00000010: 0b60 9dbe 7f9e 453e 97bc 873e 242c 883e
00000020: 1f14 833e 3f5e 19bd 85b4 93be f0e4 ac3c
00000030: 75ae babd b2c3 a53e bea1 353e dd59 bdbd
00000040: 0651 7c3e d11b f13d ad6f 14bd a95e cdbd
00000050: 22a8 453e 5134 a33c 2d90 70be ea61 a5be
00000060: dd2f 03be 7811 8c3e 205f 7bba 2d8e 37bc
00000070: 5a4f b03d 898b 88bd 87e7 f5bc 2da1 8e3e
00000080: 9771 51be 97e9 44be 98b9 ec3d 54e8 a6bd
00000090: 17c1 1b3d 0371 233d 7a8a a23e 0ed1 6d3d
000000a0: e9f3 46bd a41d d6bd 30eb ccbc 670c 763e
000000b0: 3aef 88be 3456 94bb 24c3 f7bd 51f5 963e
000000c0: e092 4dbe f746 793e d845 713b 96e5 2ebe
000000d0: 2534 623d e478 833c 80ae 30bb 9a37 45be
000000e0: 04a6 8bbc 5a31 ebbb d48f 7fbe b4aa f33d
000000f0: 81d1 89bd e2a7 2ebd f155 e43d 8f71 fe3d
00000100: bd48 57be 9c87 b3bd 25ea 773e 3fcc 5cbe
00000110: aa94 933c 2809 173d 32ed 4f3e d5e3 3e3e
00000120: cd37 e9bd 6ce0 04bd fddd 05be dedf 46bc
00000130: 8aea acbd e3c3 303d d2fe 083e d8c7 8e3e
00000140: 1e33 e3bd 67ae a2be 6cc1 3ebe f597 fdbd
00000150: 555e 9ebe 1c0e 9f3e b336 88bd 1ec2 19be
00000160: dd15 803e 4269 cdbb 9d6a 31bc b809 093e
00000170: 9f7b 25be d5f1 e23d c98a 94be 76d5 03be
00000180: 56bf e23d 84ab 993e e200 48be 3ad5 06be
00000190: a25d 513e ff8d 013e 23e5 a53e 35cb 00be
000001a0: 570d 9d3e 0654 203e 8b60 a23d 9cd9 643e
000001b0: 5fe4 943e 57d7 923e cf75 07bd ad11 443e
000001c0: 4cec 9a3d afa7 573e d860 f13d beb6 b8bc
000001d0: 63d3 893e 7a53 93bd 7e3d 253e d06a 18bd
0.17208834 -0.12613636 -0.09629319 -0.036501475 -0.30737337 0.19298743 0.2651107 0.26596177
0.2560129 -0.037443396 -0.28848663 0.02110526 -0.09115306 0.32375866 0.17737481 -0.09245656
0.24640283 0.11772884 -0.036239315 -0.100278206 0.19302419 0.019922407 -0.23492499 -0.32301265
-0.12811227 0.27357078 -0.0009589065 -0.011203331 0.08608885 -0.06667239 -0.030017627 0.27857342
-0.20453487 -0.19229732 0.11558837 -0.08149782 0.03802594 0.0399027 0.31746274 0.0580607
-0.048572455 -0.10454872 -0.02501449 0.24028169 -0.26745015 -0.004526878 -0.12097767 0.29484037
-0.2007556 0.24343477 0.0036815312 -0.17079768 0.05522551 0.016048856 -0.002695948 -0.19259492
-0.017046936 -0.007177514 -0.2495721 0.118977934 -0.06729413 -0.042640574 0.111492045 0.12424003
-0.21023841 -0.087661 0.24210413 -0.21562289 0.018015224 0.036873966 0.20305327 0.18641599
-0.11387596 -0.032440588 -0.13072963 -0.012138335 -0.08443172 0.043155562 0.13378456 0.27886844
-0.11093734 -0.31773683 -0.18628472 -0.12382499 -0.30931345 0.31065452 -0.06651058 -0.15015456
0.2501668 -0.006268651 -0.010828641 0.13382614 -0.16160439 0.11081282 -0.29012135 -0.12874398
0.11071651 0.3001367 -0.19531587 -0.13167277 0.20445874 0.12651823 0.3240138 -0.12577517
0.3067424 0.15657052 0.0792857 0.22348636 0.29080483 0.28679916 -0.033071335 0.19147368
0.07564601 0.2106006 0.117860496 -0.022548076 0.26919088 -0.07193656 0.16136739 -0.03721124

decoder.6.bias f4 [12]
00000000: 5fb7 5cbe afdc 8b3e 9803 83be 92f9 3abc
00000010: b049 70be debb 8d3e 26f1 803c f5b8 cbbd
00000020: 2a64 9a3e 0c80 603e 82ae 413e 1611 63be
-0.21554326 0.27316806 -0.2558868 -0.011412041 -0.2346561 0.27682394 0.015739989 -0.09947387
0.30154544 0.21923846 0.18914226 -0.22174487

mlp.0.weight f4 [10, 12]
00000000: 26a6 1e3e ed98 3fbe 4c6a 63bd 82ee 053e
00000010: ece9 843e 6124 91be 4470 4f3e cbd2 86be
00000020: 7adf d3bd c408 373e b4bb 3abd 929e 76be
00000030: 20a5 05be b0a5 a33d b02b 283d ad92 0bbe
00000040: 54c6 9b3d 636e 5ebe 946a 7fbd f20c 4d3e
00000050: 3159 56be 8a1a 90be aaba e0bd 3105 05be
00000060: 1049 613e 63f3 54be 7cfd 643e 409a 393e
00000070: 08bb 4a3e 40f1 cc3b 8075 a4bb aa5f 89be
00000080: 5032 75be 4855 553e 7c56 23bd 42bf 103e
00000090: 4403 a8bc 9f50 773e 1303 1dbe 5c5c 883c
000000a0: fe32 8bbe bbf6 6bbe 9e18 98be 6b1b b23d
000000b0: 0a12 4f3e ea59 793e 60c5 5a3d fd4b e03d
000000c0: 1a68 5ebe ac08 da3d 6428 353e a542 6cbe
000000d0: e063 ed3c 662f 093e 5afc 4d3e 6c2a 2fbe
000000e0: b21f 52be 4288 85be 00ed 133c cab1 7cbe
000000f0: d4f5 783e cfc6 46be 7db4 853e 620f af3d
00000100: f989 84be c8d7 563e f8ac 6d3e 7ac9 63be
00000110: 9ef1 21be 671b c6bd ed2d 83be 59d1 06be
00000120: 5923 343e bcab d93b 709d 90be 1c46 4f3e
00000130: 3fea 823d 6c18 6cbe da15 443e 3472 8d3e
00000140: e6f9 973e 413e 553e 9af2 193e 9636 00bd
00000150: bbc5 0f3d d1c9 2c3e ae32 da3d 4403 483e
00000160: 7de1 8ebe 6964 7abd ad1f 07be ed28 13be
00000170: cb43 86bd dfce a1bd 107b 743e 54a3 c6bd
00000180: c7c1 9b3d a779 7abd 633d 62be 2e8f 903d
00000190: e0d7 113e 0b68 18be ef55 70bd dd50 523e
000001a0: e06e 33be 71b9 993d 00c6 3fbe eecd 943c
000001b0: 206a 5e3c 3084 a5bc f0f5 eabc 487b 013e
000001c0: f0a6 26bd 78cf 193d f89d 033e 6ae0 8a3e
000001d0: 8a87 91be 1abd afbd 4030 ca3b 2a22 7fbe
0.15493068 -0.1871068 -0.055521294 0.13079265 0.25959718 -0.28348067 0.2025767 -0.26332697
-0.10345359 0.17874438 -0.045589164 -0.24083927 -0.13051271 0.07990587 0.04105729 -0.13630171
0.076061875 -0.21721797 -0.0623575 0.2002447 -0.20932461 -0.28145248 -0.10973103 -0.12990262
0.22000527 -0.2079597 0.22362322 0.18125248 0.1979791 0.006254345 -0.00501889 -0.26830798
-0.23944974 0.20833313 -0.0398774 0.14135459 -0.02050937 0.24151848 -0.15333204 0.016645603
-0.2718734 -0.23043339 -0.2970628 0.08696636 0.20221725 0.24350706 0.053410888 0.109519936
-0.21719399 0.10646185 0.17691189 -0.23072298 0.028978288 0.13396987 0.20115796 -0.17106026
-0.20519903 -0.2608052 0.009028673 -0.24677196 0.24312526 -0.19411777 0.26114264 0.08547856
-0.25886515 0.20980752 0.23210514 -0.22244826 -0.15814826 -0.09673195 -0.25620976 -0.13165797
0.17591609 0.006642787 -0.28245115 0.20241588 0.06392335 -0.23056191 0.1914896 0.27626193
0.29682845 0.20824529 0.15033951 -0.031302057 0.03510068 0.16873862 0.10654198 0.19532496
-0.2790641 -0.061130915 -0.13195677 -0.1437108 -0.06555899 -0.07900786 0.2387507 -0.09699121
0.076053195 -0.061151173 -0.2209373 0.07058559 0.14242506 -0.14883439 -0.058675703 0.2053866
-0.17522764 0.07506073 -0.18727875 0.018164601 0.013575107 -0.020204633 -0.028681725 0.12644684
-0.040686548 0.037551373 0.12853229 0.2712434 -0.2842372 -0.0858099 0.0061703026 -0.24915376

mlp.0.bias f4 [10]
00000000: c870 85be c7ad 88be 4808 e5bd 882b 67be
00000010: 7e01 c8bd de7d 583e f96c 7cbc 2207 32be
00000020: 4ee5 583e 3296 f6bd
-0.26062608 -0.26695082 -0.1118322 -0.225752 -0.097659096 0.21141765 -0.0154068405 -0.17385533
0.21181223 -0.12040366

mlp.3.weight f4 [8, 10]
00000000: 8fc4 933e f09b ff3d 564d 093e 7064 8a3d
00000010: 8acf 7e3e 4444 873d 40f8 a6bb 4c0d 27be
00000020: 6416 f73d 9c08 923d 4138 963e 00be e0ba
00000030: 1602 14be be3d b1bd 8283 7f3e dc61 7ebe
00000040: e88a 1bbe a046 bd3d 44ed 62be e28e 52be
00000050: 362a 513e 2813 733d f410 003e 46d6 f4bc
00000060: 5872 933d 4890 18be 284d 71bc 2d14 52bc
00000070: 491a 13bc 2035 84be f80a 97be 8cec c3bd
00000080: 6099 453d d0fb 0abd 20e4 293e 1817 fdbd
00000090: f448 b53d a0ad febd 0dd4 94be a06d 27bd
000000a0: a708 943e f1b5 873e 0240 b6bd 3926 883e
000000b0: c319 90be bc25 ed3d 48c7 5cbe 5bdc 32be
000000c0: ccf4 c03d 0bcb 9c3e 40bf ddbb a1f8 9ebe
000000d0: 7a55 67be e336 813d e172 94be a86c 853e
000000e0: d9fb 56be fdf3 80bc ef54 61bd 8cc8 933d
000000f0: 96df 7b3e f404 f0bd 55d2 8ebe 4afb 51be
00000100: 8e27 3abe 4660 773d 9807 1b3b 7601 a7bd
00000110: 4053 87be d413 853d 9ef4 90be 1abd 033e
00000120: 5fb3 16be d5e7 56bd 215d 8dbe 30ba 04bb
00000130: 448b 883e b149 793e 9908 683d c98f 9a3e
0.288609 0.124809146 0.13408408 0.06757438 0.24883857 0.066048175 -0.0050955117 -0.16313666
0.120648175 0.07130548 0.29339793 -0.0017146468 -0.1445392 -0.086543545 0.2495251 -0.24842018
-0.15189707 0.09241986 -0.22160822 -0.20562318 0.20426258 0.05934444 0.12506467 -0.02988733
0.07199544 -0.14898789 -0.014727868 -0.012822193 -0.008978435 -0.2582178 -0.29500556 -0.09566602
0.048241973 -0.033931553 0.16590929 -0.123579204 0.08851805 -0.1243546 -0.29068032 -0.04087603
0.2891285 0.26505998 -0.08898927 0.26591662 -0.28144655 0.11579463 -0.21560395 -0.17466871
0.09421691 0.3062366 -0.0067671835 -0.31049064 -0.225912 0.06309297 -0.28993896 0.2605946
-0.2099451 -0.015741343 -0.05501264 0.07215986 0.2459701 -0.11719695 -0.27894846 -0.20506015
-0.18179151 0.060394548 0.002365565 -0.081545755 -0.26430702 0.064979225 -0.28311628 0.12865105
-0.14716862 -0.052467186 -0.27610114 -0.0020252578 0.2666875 0.24344517 0.056648824 0.30187824

mlp.3.bias f4 [8]
00000000: 9aa7 87bd 8649 913d 1fbd 4c3d 863c 4cbe
00000010: 20d3 a2bd d631 de3c ea44 25bc 9631 2d3e
-0.06623764 0.070941016 0.049985047 -0.19944963 -0.07950425 0.027123373 -0.010087231 0.16913447

mlp.6.weight f4 [5, 8]
00000000: 60c5 01bd 2ce1 903e 9d84 9a3e c092 7c3c
00000010: 8ee3 72be 800a de3c 28b9 a8be e3e1 17be
00000020: c061 b4be 4238 acbd c2e7 afbd a2dc 9bbe
00000030: f442 98bd a50a aa3e 71fd 143e 74de a1be
00000040: b8ba 45bd 4c03 9d3e 6758 953d e01a 5bbc
00000050: a3b4 ac3e 5197 af3d 7f85 513c 7c16 883e
00000060: 9ab9 b1be 0b88 3e3e b9af 37be 0e4c 3f3e
00000070: d43a 8d3d d315 aabe 6641 41be db73 5bbd
00000080: 7458 adbd cb3c 7f3d 6191 a9bd 6817 5c3d
00000090: aa04 403e 1adb 243e 00f4 79be 0989 343d
-0.031682372 0.28296793 0.301793 0.015415847 -0.23719618 0.027104616 -0.32953763 -0.14832263
-0.35230827 -0.08409168 -0.08589126 -0.30441767 -0.07434645 0.33211246 0.14549805 -0.3161503
-0.048273772 0.30666578 0.07292252 -0.013373107 0.33731565 0.08573783 0.012788176 0.26579654
-0.34711915 0.18606584 -0.17938127 0.18681356 0.06895986 -0.33219776 -0.18872604 -0.053577285
-0.08464137 0.062313836 -0.08279682 0.05373326 0.18751779 0.16099206 -0.24409485 0.044076

mlp.6.bias f4 [5]
00000000: cebc c9bc e0f3 5b3e 6519 04be 41fc 0b3e
00000010: c5a6 733e
-0.024626162 0.2147975 -0.12900312 0.13670446 0.23794086

exp_avg f4 [10, 12]
00000000: e9f2 0033 efaa a5b5 2503 38b3 b52e 8e34
00000010: 68ed 29b5 da3f cf34 ffb4 c0b3 138d e034
00000020: 475b 5135 f293 8233 29c6 9d34 75ab f934
00000030: 0f51 43b6 dafe 8835 e1b3 2236 0dea 33b6
00000040: 21cb aeb5 15b9 9f35 686f 8cb3 1014 e735
00000050: f674 9eb5 7fb2 2bb5 81e1 9cb5 03cc 8d35
00000060: 14b7 0c33 fb11 8b33 4052 b634 7765 b2b4
00000070: 4bcc 06b4 017b a6b4 2f1c 6cb5 0038 5f35
00000080: 2521 5434 e15e 11b5 e4c2 8fb3 68d1 58b3
00000090: eb9f 30b5 9d53 b0b5 5378 9135 0fe5 afb5
000000a0: 4ccc 27b6 1e31 a4b5 8506 b0b6 249b c935
000000b0: d5c7 d434 646a 21b4 7499 11b5 21b7 07b5
000000c0: 34b9 9e35 546e 3c34 9840 3234 b3da d634
000000d0: 6f0b 2735 53bb a834 b2e8 06b6 d11e 3635
000000e0: 5e45 aa34 a6cc 1a35 46e4 b434 618b c6b4
000000f0: 2b1b ecb5 f9aa 1336 3317 1036 c767 8bb5
00000100: c950 9b35 0305 8fb4 6d70 a8b6 c2d8 8036
00000110: 1400 a835 e49c 0b35 1049 9734 8c17 cbb4
00000120: 402e 3a34 2313 2435 7d14 adb4 7273 f0b3
00000130: 035e a9b3 42d9 a2b4 6b3a ddb3 9a4f 0ab5
00000140: b853 0235 aab1 2733 024d 59b4 9dd3 dcb4
00000150: d236 12b6 e22e 15b5 c2c4 e234 b7d1 88b5
00000160: b2dc ccb5 904f 7fb5 a5c8 8734 d37d 39b5
00000170: 6bc9 46b4 3a58 0334 22e7 9633 7075 f4b2
00000180: 132f e1b3 6ac0 fdb5 0a08 4eb5 816e a9b5
00000190: ae9f 89b5 ab2c 5434 e2b2 54b5 bdd7 22b5
000001a0: 8823 edb4 bfdc e3b4 6a3d 01b6 b858 c835
000001b0: 2522 38b4 c976 aeb4 9e82 9cb4 1866 8632
000001c0: c8ad 82b5 4f01 80b4 57df 8235 4f2a 29b5
000001d0: ef06 4cb5 784b 0d35 20e9 dc33 edc0 dcb3
3.0023248e-08 -1.2343206e-06 -4.28437e-08 2.6483545e-07 -6.330288e-07 3.8603213e-07 -8.97362e-08 4.1825896e-07
7.7991393e-07 6.080508e-08 2.938771e-07 4.6504616e-07 -2.9104447e-06 1.0206961e-06 2.4244584e-06 -2.6809314e-06
-1.3023129e-06 1.1900289e-06 -6.539523e-08 1.721668e-06 -1.1805957e-06 -6.396221e-07 -1.1688536e-06 1.0564694e-06
3.27628e-08 6.4759625e-08 3.3959986e-07 -3.322891e-07 -1.2554044e-07 -3.1009407e-07 -8.7957864e-07 8.3155464e-07
1.9756096e-07 -5.4154776e-07 -6.694407e-08 -5.0481873e-08 -6.579782e-07 -1.3137357e-06 1.0838361e-06 -1.3105181e-06
-2.5003856e-06 -1.2233247e-06 -5.2459677e-06 1.5020819e-06 3.9633474e-07 -1.5032998e-07 -5.4240013e-07 -5.0557907e-07
1.1825819e-06 1.7549002e-07 1.6601041e-07 4.001973e-07 6.2228986e-07 3.1428735e-07 -2.0103002e-06 6.784513e-07
3.171544e-07 5.7667273e-07 3.3693703e-07 -3.6981785e-07 -1.7591277e-06 2.2004226e-06 2.1471176e-06 -1.038651e-06
1.1571912e-06 -2.6639472e-07 -5.0198782e-06 3.839931e-06 1.2516998e-06 5.200984e-07 2.8179102e-07 -3.782883e-07
1.7339426e-07 6.112261e-07 -3.2238668e-07 -1.119687e-07 -7.8867764e-08 -3.0332927e-07 -1.03017406e-07 -5.152484e-07
4.85506e-07 3.9044302e-08 -2.0237715e-07 -4.1132162e-07 -2.1787605e-06 -5.557505e-07 4.223894e-07 -1.0193825e-06
-1.5263415e-06 -9.511068e-07 2.5291698e-07 -6.910097e-07 -1.8513462e-07 1.2232422e-07 7.026962e-08 -2.8458743e-08
-1.0485942e-07 -1.8905969e-06 -7.675268e-07 -1.2623642e-06 -1.0253768e-06 1.9760289e-07 -7.9236463e-07 -6.0663643e-07
-4.4170542e-07 -4.244266e-07 -1.9258246e-06 1.4926982e-06 -1.7148757e-07 -3.2496453e-07 -2.91523e-07 1.564608e-08
-9.736332e-07 -2.384281e-07 9.750755e-07 -6.3018973e-07 -7.600601e-07 5.2636415e-07 1.02869535e-07 -1.0279641e-07

exp_avg_sq f4 [10, 12]
00000000: fed8 cf24 4389 2b2a d6a0 5325 b8b2 fc27
00000010: 7f78 3429 dc39 8628 9619 6826 8d92 9d28
00000020: 21f8 8829 e321 d525 4094 1b28 fecb c228
00000030: bf6d 6e2b de98 ea29 7273 252b a14e 4a2b
00000040: 6af4 3e2a 4a72 1f2a 8786 f625 c6dd a62a
00000050: bbed 1c2a eb3f 3829 93d2 192a 5f54 fb29
00000060: 6a82 f724 b4c1 f125 b0c1 4f28 68e8 4628
00000070: a021 e326 3439 2d28 6136 ae29 4ab5 9b29
00000080: 219f 8c27 3014 0429 b22b 0126 09e8 9225
00000090: 0cfa 4229 b951 422a 7242 042a 585e 412a
000000a0: e4f9 2f2b 597e 282a f2a7 412c fc07 7e2a
000000b0: 777c 8d28 fed7 2227 b67e 0429 b33b e628
000000c0: 0475 1d2a f8e9 5d27 3a96 4627 e641 9028
000000d0: 4666 2e29 a4f0 3128 5e81 e32a 884c 4f29
000000e0: 8633 3528 92c4 1529 e382 4c28 d75f 7628
000000f0: e234 ae2a 4649 082b 5ec3 012b 5cec f229
00000100: aec4 162a b6ae ff27 ce52 312c b784 cf2b
00000110: 9166 302a 9aa5 f328 a30b 0f28 15e5 8028
00000120: 30a5 5827 d640 2829 b83a 3b28 54ad b426
00000130: 6a48 3326 7fbf 2528 89f1 9826 bc1f ef28
00000140: 6e50 d428 0bc2 2f25 b78f 9327 8463 9828
00000150: b89d 052b f918 0b29 31b3 a028 5ffe e929
00000160: c826 832a e2b2 cb29 2477 e627 5a0b 5729
00000170: e8f9 7627 86a4 d726 ae52 0e26 10c0 ba24
00000180: 3a76 9e26 e737 c92a 27a7 8429 576b 332a
00000190: f2c0 ec29 69ae 8c27 9c60 8d29 68bc 2529
000001a0: d9bb af28 fa40 a228 71c9 d02a fedd 7a2a
000001b0: 2ae8 5327 4e3c 3e28 b818 1928 b9c9 e123
000001c0: 4576 d529 fcd0 cc27 4918 d629 06db 3229
000001d0: a415 8229 828d f928 3681 9826 ba49 9826
9.013954e-17 1.5235473e-13 1.8355826e-16 7.0137818e-15 4.0072543e-14 1.4902081e-14 8.0525845e-16 1.7494058e-14
6.082657e-14 3.6972573e-16 8.636375e-15 2.1626794e-14 8.470689e-13 1.0418206e-13 5.877999e-13 7.1873936e-13
1.6960188e-13 1.4161689e-13 4.2765357e-16 2.964141e-13 1.3938063e-13 4.0911647e-14 1.3662187e-13 1.1161275e-13
1.07340105e-16 4.1938094e-16 1.1532808e-14 1.1041603e-14 1.5760403e-15 9.615833e-15 7.7365855e-14 6.9148314e-14
3.9030334e-15 2.9327398e-14 4.4815084e-16 2.5484196e-16 4.3293534e-14 1.7259015e-13 1.1747008e-13 1.7174576e-13
6.251928e-13 1.4965233e-13 2.7520178e-12 2.2562502e-13 1.5708123e-14 2.2599106e-15 2.9419792e-14 2.556102e-14
1.3984999e-13 3.0796746e-15 2.7559458e-15 1.601579e-14 3.872447e-14 9.877654e-15 4.0413067e-13 4.6029613e-14
1.0058691e-14 3.3255144e-14 1.1352656e-14 1.3676525e-14 3.0945304e-13 4.8418593e-13 4.6101133e-13 1.0787961e-13
1.3390913e-13 7.096614e-15 2.5199179e-12 1.474507e-12 1.5667525e-13 2.7050238e-14 7.940618e-15 1.4310203e-14
3.006557e-15 3.735973e-14 1.0393318e-14 1.253699e-15 6.220124e-16 9.200864e-15 1.0612587e-15 2.6548093e-14
2.3571609e-14 1.5244575e-16 4.095651e-15 1.6918548e-14 4.746997e-13 3.088586e-14 1.784128e-14 1.0391405e-13
2.3297184e-13 9.046042e-14 6.3966996e-15 4.7749436e-14 3.4274832e-15 1.4963216e-15 4.93782e-16 8.099001e-17
1.0995498e-15 3.5743563e-13 5.890974e-14 1.5935635e-13 1.0513976e-13 3.90469e-15 6.278417e-14 3.6800776e-14
1.9510369e-14 1.8013792e-14 3.7088e-13 2.228148e-13 2.9407989e-15 1.0560195e-14 8.498566e-15 2.4479982e-17
9.479617e-14 5.6847956e-15 9.507722e-14 3.9713912e-14 5.776914e-14 2.7705923e-14 1.0582141e-15 1.0567102e-15

exp_avg f4 [10]
00000000: ca23 34b5 f7e9 1536 bae6 2134 e0e3 f8b5
00000010: e772 93b5 e4b0 87b4 cd28 6132 524b 57b5
00000020: 93de f435 b9cc 43b4
-6.7107305e-07 2.2338916e-06 1.5078231e-07 -1.854376e-06 -1.0985794e-06 -2.5274414e-07 1.3106001e-08 -8.0203347e-07
1.8244194e-06 -1.8235268e-07

exp_avg_sq f4 [10]
00000000: 8ed0 4a29 b376 0c2b 3cd3 2327 0a95 c12a
00000010: dae1 072a 8a26 e627 666d 9e23 48d9 9029
00000020: d660 bb2a 099c 6f27
4.5033903e-14 4.990272e-13 2.2735305e-15 3.4387104e-13 1.2068767e-13 6.387961e-15 1.7176726e-17 6.432577e-14
3.3285066e-13 3.32525e-15

exp_avg f4 [10, 10]
00000000: 7e99 20b6 8fae d934 8559 2d35 5870 22b6
00000010: 1ba1 e3b3 07e9 5933 37c2 1eb3 0834 f834
00000020: 9bd3 26b5 e240 1eb5 189c ea35 53d5 eab5
00000030: 5d0a 0fb4 bf31 5e34 c621 1336 4f96 7e35
00000040: 699e 0735 0bae 82b4 3b1f e532 5815 e9b4
00000050: f2b1 2136 5538 9a35 1213 90b4 754a 74b6
00000060: 5032 7c35 6712 4235 aa26 be34 9a9f a7b5
00000070: abda 8035 62ab 7233 3bd7 5f34 0f99 4a34
00000080: da2c 2f35 697e 8e33 6f6b 4332 c2bd 3235
00000090: a3fd e431 946f 1a34 05d7 4a35 78a7 34b4
000000a0: 4525 a534 d218 aeb4 dadc 3b33 529d 9234
000000b0: 33d6 4535 fbcb 6434 9734 8334 df66 06b5
000000c0: 12ef ad34 b740 12b5 eaf5 7fb4 6d04 0234
000000d0: dba0 82b6 ca76 4335 90d4 53b6 a7ac e5b3
000000e0: 4f17 49b4 d3ac 2034 fbe5 f132 be42 95b4
000000f0: 37e6 4335 0f6b 16b5 8b4e e8b5 8961 a5b5
00000100: 70be 9c34 b714 aab4 1842 e034 c05a f9b5
00000110: 9a36 66b4 9d78 99b5 b23f 85b2 944d b335
00000120: 1bf4 8d33 d1d7 9e35 e86c 58b5 8f95 89b5
00000130: b885 2db4 a7d7 5835 eff0 38b5 5a36 0935
00000140: 1701 32b4 dd32 2536 279f 05b5 539a afb3
00000150: 3044 8bb5 7d4b abb4 9346 cab4 4bc0 9834
00000160: 84e0 23b4 aa91 0834 6140 9f35 bc21 2e36
00000170: 1a67 d9b4 5a97 f0b5 2d40 b834 8d4a a635
00000180: 93fd 6334 bfbc 5935 9198 9035 fb87 16b4
-2.3931202e-06 4.0546408e-07 6.457779e-07 -2.4205274e-06 -1.0599816e-07 5.0736187e-08 -3.696388e-08 4.6231457e-07
-6.2147745e-07 -5.8954004e-07 1.7479788e-06 -1.7496444e-06 -1.3321683e-07 2.0693459e-07 2.1924366e-06 9.48411e-07
5.0521936e-07 -2.434102e-07 2.667331e-08 -4.3415162e-07 2.4094447e-06 1.1490289e-06 -2.6835966e-07 -3.6402173e-06
9.395053e-07 7.229741e-07 3.541839e-07 -1.248892e-06 9.600384e-07 5.6500888e-08 2.0846794e-07 1.8868398e-07
6.525785e-07 6.635384e-08 1.13749214e-08 6.65863e-07 6.6645085e-09 1.438296e-07 7.556376e-07 -1.6824731e-07
3.0760762e-07 -3.2428085e-07 4.3740194e-08 2.7309085e-07 7.369992e-07 2.1308362e-07 2.4438916e-07 -5.0068587e-07
3.2397708e-07 -5.448341e-07 -2.3838189e-07 1.2108804e-07 -3.893028e-06 7.281602e-07 -3.1565178e-06 -1.0695049e-07
-1.8728063e-07 1.4964034e-07 2.8160676e-08 -2.7801974e-07 7.297817e-07 -5.6035145e-07 -1.7308206e-06 -1.2321844e-06
2.9195826e-07 -3.168004e-07 4.177134e-07 -1.8578357e-06 -2.1440283e-07 -1.1434491e-06 -1.5512203e-08 1.3359117e-06
6.610227e-08 1.1834728e-06 -8.062475e-07 -1.0250823e-06 -1.6160527e-07 8.0780086e-07 -6.8895946e-07 5.111557e-07
-1.6577938e-07 2.4616522e-06 -4.977796e-07 -8.177144e-08 -1.0376152e-06 -3.1906157e-07 -3.7676782e-07 2.8452118e-07
-1.5262236e-07 1.271898e-07 1.186516e-06 2.5947656e-06 -4.0494416e-07 -1.7925443e-06 3.4319365e-07 1.2389661e-06
2.1233272e-07 8.111346e-07 1.0773239e-06 -1.4019308e-07

exp_avg_sq f4 [10, 10]
00000000: 8f33 212b 5014 9428 2fd0 3b29 34ea 242b
00000010: 16ec a126 e863 9425 e586 1d25 e283 c028
00000020: c6f1 2d29 a586 1c29 6301 ac2a 5855 ac2a
00000030: dbc1 ff26 4048 9a27 7c4c 072b b18b ca29
00000040: dce7 e528 1e77 d527 840d a424 4ac6 a928
00000050: 7d68 232b 1ea6 142a efbb 0128 6a7e ba2b
00000060: 7ac2 c629 3d66 6b29 ddfb 6128 319c 2f2a
00000070: e08a cf29 c606 b825 bf93 9c27 b844 8027
00000080: 29ca 3f29 57ce fd25 26ae 6e23 7dad 4729
00000090: 6cdd a322 b210 1527 3a93 8029 7ef9 4b27
000000a0: e774 2a28 996f 3d28 d593 5c25 5059 0628
000000b0: fc9e 7429 6296 a327 902f d727 57cc e128
000000c0: c914 3d28 cfaf 0529 aabc cc27 634e d326
000000d0: 0c4c d52b e5c9 6e29 ab39 8c2b 46d8 a426
000000e0: 2dbc 7c27 605a 2127 dbdb b624 043e 0b28
000000f0: 70da 6f29 0369 0d29 2aa5 a82a 66f1 2a2a
00000100: d78d 1928 07cc 3428 6329 9d28 224e c22a
00000110: 869e a527 6e35 132a c8f0 dd23 55ef 482a
00000120: 97e2 fb25 c7b1 1d2a f85f 9229 239e ec29
00000130: 0130 3c27 7ff0 9229 2ac5 5529 1957 eb28
00000140: d208 4627 f890 2a2b 392f df28 2aba 4026
00000150: 6170 f229 1863 3728 b9b8 7f28 a8d4 1128
00000160: 15d9 2727 7e23 e926 a881 1e2a 0183 3d2b
00000170: 29b3 9328 4ee3 b42a 4e2d 5428 6dd4 2c2a
00000180: bf6f a227 9f27 9429 caac 022a 6a9f 0d27
5.727024e-13 1.644011e-14 4.170291e-14 5.8589526e-13 1.123561e-15 2.5741607e-16 1.3663283e-16 2.1373477e-14
3.862342e-14 3.4755744e-14 3.05543e-13 3.0612557e-13 1.7746724e-15 4.282192e-15 4.806778e-13 8.9948346e-14
2.552466e-14 5.9248523e-15 7.114656e-17 1.8848763e-14 5.805424e-13 1.3202674e-13 7.20169e-15 1.3251182e-12
8.8267027e-14 5.226916e-14 1.2544623e-14 1.5597312e-13 9.2167376e-14 3.1923502e-16 4.3458885e-15 3.560164e-15
4.2585866e-14 4.4028325e-16 1.2938883e-17 4.4337353e-14 4.441568e-18 2.0686954e-15 5.7098816e-14 2.830716e-15
9.462245e-15 1.05158065e-14 1.9132046e-16 7.457861e-15 5.431678e-14 4.5404634e-15 5.9726055e-15 2.5068636e-14
1.0496115e-14 2.9684422e-14 5.6825924e-15 1.4662313e-15 1.5155668e-12 5.302173e-14 9.963604e-13 1.1438407e-15
3.5074036e-15 2.239223e-15 7.930237e-17 7.7294975e-15 5.3258125e-14 3.1399372e-14 2.99574e-13 1.5182785e-13
8.523963e-15 1.0036249e-14 1.744845e-14 3.4515538e-13 4.596857e-15 1.307476e-13 2.4062843e-17 1.7846603e-13
4.3695102e-16 1.400608e-13 6.5003504e-14 1.0507938e-13 2.6116264e-15 6.525422e-14 4.7466513e-14 2.6128014e-14
2.7482801e-15 6.0597317e-13 2.4778453e-14 6.686568e-16 1.07664535e-13 1.0180028e-14 1.4195399e-14 8.095229e-15
2.3293586e-15 1.6177243e-15 1.4078203e-13 6.7328093e-13 1.6397977e-14 3.2132147e-13 1.1778188e-14 1.5350369e-13
4.5085188e-15 6.5793935e-14 1.1606268e-13 1.96541e-15

exp_avg f4 [10]
00000000: 0234 ffb5 206e e235 d71f 9cb5 df07 b4b4
00000010: fb4d 6b35 5a70 58b6 af5c 97b5 e778 6f33
00000020: 83e0 3836 9fac 1936
-1.9014117e-06 1.6870363e-06 -1.1632172e-06 -3.353334e-07 8.76578e-07 -3.2251905e-06 -1.1277351e-06 5.5756484e-08
2.754882e-06 2.2899255e-06

exp_avg_sq f4 [10]
00000000: eb86 cb2a 8038 a02a b857 182a b891 4a28
00000010: 9c06 ad29 a064 922b c030 0f2a 9335 b325
00000020: 379f 552b 4499 132b
3.6153662e-13 2.8460914e-13 1.3530746e-13 1.124485e-14 7.68389e-14 1.0401853e-12 1.2717865e-13 3.1087854e-16
7.5893756e-13 5.243759e-13

exp_avg f4 [6, 10]
00000000: 170f 0db6 fb3d c8b5 474b 5cb6 907b de32
00000010: 1feb d634 62f2 5533 d9eb 3ab4 5808 de33
00000020: 5cdc be34 c7aa 95b5 8e77 c835 67dc 5c35
00000030: f83d a336 af50 cab4 7103 4b35 f6c1 07b4
00000040: 4c97 9d35 33fb d4b4 fb4f 6535 ff44 8335
00000050: 5293 ecb4 4c19 9435 606f 9136 fe65 9a34
00000060: 574c 2c35 33da 9835 1db3 ecb3 13bc 71b5
00000070: 0c0c 4bb4 1d1e 7f34 07d2 4bb4 57b8 f534
00000080: 17a1 09b6 03bc 21b5 88c4 8035 0625 4cb5
00000090: 8703 a635 6252 de34 86cf 1036 7888 af35
000000a0: c4a4 1134 51ef 3b35 897b 9536 b57c e2b4
000000b0: 028e d7b4 e262 2035 503c 4534 27a7 dab4
000000c0: 5520 6435 45a9 f4b4 d010 aeb3 6d03 7d34
000000d0: d072 51b6 52e8 6534 f834 5735 6a85 2db5
000000e0: 9b07 09b4 6a83 8434 90f2 7334 2c3a 9d35
-2.101942e-06 -1.49192e-06 -3.2826372e-06 2.5900391e-08 4.003168e-07 4.9813373e-08 -1.7408401e-07 1.0339198e-07
3.555059e-07 -1.1151068e-06 1.4935956e-06 8.2277114e-07 4.8649927e-06 -3.7684137e-07 7.56284e-07 -1.2643417e-07
1.1741445e-06 -3.967085e-07 8.5425535e-07 9.780341e-07 -4.4065615e-07 1.1034222e-06 4.3343025e-06 2.8758944e-07
6.418608e-07 1.1388387e-06 -1.1022187e-07 -9.005318e-07 -1.8910231e-07 2.3759681e-07 -1.8982256e-07 4.576893e-07
-2.0508357e-06 -6.0250767e-07 9.593941e-07 -7.60498e-07 1.236899e-06 4.1410664e-07 2.1578467e-06 1.3078234e-06
1.3564119e-07 7.001118e-07 4.4549274e-06 -4.2186517e-07 -4.0150195e-07 5.974854e-07 1.8368996e-07 -4.0727284e-07
8.498367e-07 -4.5571701e-07 -8.1055646e-08 2.3563707e-07 -3.1210257e-06 2.1411805e-07 8.017082e-07 -6.4641665e-07
-1.2761886e-07 2.4682532e-07 2.2719382e-07 1.1714342e-06

exp_avg_sq f4 [6, 10]
00000000: 66b8 f82a 0c9b 7a2a 93a7 972b d5ae 9a24
00000010: f357 9028 970a 8f25 4e5f 5a27 c70e 9a26
00000020: 8aac 6328 6200 0c2a 3c2b 7b2a a66f 9829
00000030: c28c 262c 48d2 7f28 91cb 8029 7460 e626
00000040: e137 1b2a d0c0 8d28 5b53 a429 6665 d729
00000050: 5de6 ae28 3815 092a 2c32 042c 30fe 1428
00000060: ad8a 3929 2406 122a 6315 af26 859c b629
00000070: 7dd6 8027 0164 cb27 37d2 8127 afae bc28
00000080: cfc5 ec2a d77c 2329 9743 cf29 053c 8229
00000090: eb40 2c2a 9775 9a28 3110 032b fc92 402a
000000a0: 4e93 0427 34bf 5c29 0ea8 0b2c 234d a028
000000b0: 1133 9128 01c6 2029 0323 7327 4967 9528
000000c0: 4aa1 a229 490f bb28 2d5e 3d26 9f0c c827
000000d0: f016 892b f82d a527 36bb 9029 572f 3c29
000000e0: dcb6 ea26 4e7f db27 50f8 b927 a680 1a2a
4.4181602e-13 2.2258253e-13 1.0775706e-12 6.708303e-17 1.6025353e-14 2.4813722e-16 3.0305242e-15 1.0689902e-15
1.2638445e-14 1.2434631e-13 2.2308278e-13 6.769524e-14 2.3668155e-12 1.4200941e-14 5.719655e-14 1.59856e-15
1.3786152e-13 1.5737764e-14 7.297523e-14 9.565508e-14 1.9417785e-14 1.2175406e-13 1.878618e-12 8.2707685e-15
4.1198534e-14 1.2969535e-13 1.2148861e-15 8.1095754e-14 3.5759685e-15 5.6452243e-15 3.603261e-15 2.094795e-14
4.205928e-13 3.6301552e-14 9.2043716e-14 5.7835715e-14 1.5299192e-13 1.7148431e-14 4.656302e-13 1.7104021e-13
1.8398534e-15 4.9015655e-14 1.9846377e-12 1.7797021e-14 1.612038e-14 3.5698878e-14 3.3742004e-15 1.6587116e-14
7.2222244e-14 2.07678e-14 6.570018e-16 5.5524835e-15 9.740802e-13 4.584654e-15 6.4273605e-14 4.1785446e-14
1.6286576e-15 6.0922735e-15 5.1617036e-15 1.3722582e-13

exp_avg f4 [6]
00000000: 53c6 90b6 f39c 86b4 c007 fa36 6f37 c5b6
00000010: 8d4c a335 3fa4 9c35
-4.3146224e-06 -2.507364e-07 7.451483e-06 -5.877511e-06 1.2166726e-06 1.1670708e-06

exp_avg_sq f4 [6]
00000000: 8aff 022c 3182 e227 1c5c c32c fc16 732c
00000010: 84aa 262a 895a 192a
1.8615964e-12 6.2868755e-15 5.5524595e-12 3.4545136e-12 1.4802921e-13 1.362054e-13

exp_avg f4 [10, 6]
00000000: c0f8 0336 52ff 0736 9233 dfb5 af16 3b35
00000010: 57a8 1c34 97f6 34b6 13bc 1eb5 88d1 8cb6
00000020: 571f 6d35 ca8c 44b6 b8ce 84b5 43c5 1036
00000030: 4f58 5435 27ee 9536 ca62 b134 59e7 1a36
00000040: f555 f935 8c71 92b4 40f0 52b4 de78 8435
00000050: 4c69 07b5 3b67 4535 18ac 1134 04d5 87b4
00000060: 0000 0000 0000 0000 0000 0000 0000 0000
00000070: 0000 0000 0000 0000 630a 65b5 b3ea de36
00000080: 936d ae35 6332 1336 2029 4136 611e 40b4
00000090: b333 8b35 01a5 3936 ff25 ec34 a50c e135
000000a0: 6b7e aa34 76b4 4133 8a6b 1eb5 a3c6 bb35
000000b0: 67ee c2b4 17a0 1035 b2bc 6135 089e 9834
000000c0: 23e8 1eb4 aff3 4db3 c014 f4b3 2b97 49b3
000000d0: fa54 aab3 5a20 adb3 870f 77b2 8a8b 6ab4
000000e0: dd13 9c34 8b3b 9934 b2a1 1d34 a6e6 93b4
1.9665313e-06 2.0265184e-06 -1.6629804e-06 6.969594e-07 1.4589874e-07 -2.6965624e-06 -5.913327e-07 -4.196718e-06
8.8334986e-07 -2.9288226e-06 -9.89493e-07 2.1572494e-06 7.910466e-07 4.4682706e-06 3.3040698e-07 2.308245e-06
1.8576962e-06 -2.7277235e-07 -1.9645177e-07 9.869943e-07 -5.0444646e-07 7.353844e-07 1.3566785e-07 -2.53007e-07
0.0 0.0 0.0 0.0 0.0 0.0 -8.532426e-07 6.643438e-06
1.29959e-06 2.1934036e-06 2.878318e-06 -1.7892445e-07 1.0371353e-06 2.7663193e-06 4.398607e-07 1.6767486e-06
3.175695e-07 4.5100442e-08 -5.9016077e-07 1.3990397e-06 -3.6308776e-07 5.387714e-07 8.409362e-07 2.842719e-07
-1.4799348e-07 -4.795191e-08 -1.136591e-07 -4.6936446e-08 -7.931699e-08 -8.061825e-08 -1.4380823e-08 -2.1843712e-07
2.9071717e-07 2.8541794e-07 1.4680589e-07 -2.7548703e-07

exp_avg_sq f4 [10, 6]
00000000: e1b4 d92a e330 e72a 1baf 9b2a 71c3 5a29
00000010: 8d62 1927 51ac 4c2b b77a 1d29 82df f72b
00000020: a2b5 af29 0473 712b 1079 dc29 9efd 022b
00000030: 4de8 8c29 8c7e 0c2c 36a9 4428 41f8 152b
00000040: aa46 c22a 2309 0628 080c 8b27 5f5c db29
00000050: ec33 e528 de8c 7329 a5a0 0427 25a1 e627
00000060: 0000 0000 0000 0000 0000 0000 0000 0000
00000070: 0000 0000 0000 0000 acef a329 8649 9b2c
00000080: 3728 3e2a 0b6b 072b a831 692b 55af 6627
00000090: fb36 f229 3d66 572b dd44 ae28 c945 9e2a
000000a0: 08ad 3528 8e82 6a25 12db 1c29 ac5f 5c2a
000000b0: 1c7d 6d28 64ba 0229 c93d 9f29 4593 1128
000000c0: 30d2 1d27 f18c 8425 742c ba26 f9fd 7d25
000000d0: c054 3526 6354 3b26 2cbf be23 1de9 ab27
000000e0: 5840 1828 5ec0 1228 5d4c 1b27 84b7 0828
3.8672453e-13 4.1067765e-13 2.7655035e-13 4.8575242e-14 2.128644e-15 7.2714496e-13 3.496744e-14 1.7612441e-12
7.8030694e-14 8.5780016e-13 9.7909636e-14 4.653724e-13 6.257547e-14 1.9965444e-12 1.0916877e-14 5.3279955e-13
3.4510356e-13 7.4404755e-15 3.8593294e-15 9.7415775e-14 2.5446625e-14 5.4079022e-14 1.8405765e-15 6.4012537e-15
0.0 0.0 0.0 0.0 0.0 0.0 7.2802306e-14 4.4135277e-12
1.6889342e-13 4.8110187e-13 8.284714e-13 3.201396e-15 1.07564965e-13 7.652523e-13 1.9347745e-14 2.811486e-13
1.00850385e-14 2.0340498e-16 3.482897e-14 1.9573118e-13 1.3183272e-14 2.9027467e-14 7.0717365e-14 8.081051e-15
2.190207e-15 2.2993855e-16 1.2918392e-15 2.2030301e-16 6.291185e-16 6.4993023e-16 2.0680806e-17 4.7714776e-15
8.451647e-15 8.146341e-15 2.1551968e-15 7.58931e-15

exp_avg f4 [10]
00000000: a75a e234 d243 1837 8383 26b7 429d 27b6
00000010: 0000 0000 93d8 3bb7 6755 96b6 cba3 0bb7
00000020: 5a5d fa31 236f 9435
4.216174e-07 9.075697e-06 -9.924991e-06 -2.4976475e-06 0.0 -1.1196494e-05 -4.4802905e-06 -8.323182e-06
7.2865705e-09 1.1059204e-06

exp_avg_sq f4 [10]
00000000: f21c a028 5fe7 102d e84a 2d2d 4797 2f2b
00000010: 0000 0000 cb89 5c2d 4e40 0d2c b0bd f32c
00000020: f8e1 c322 4fb4 092a
1.7776121e-14 8.236827e-12 9.850544e-12 6.238243e-13 0.0 1.2536148e-11 2.0073001e-12 6.927535e-12
5.309411e-18 1.2230601e-13

exp_avg f4 [10, 10]
00000000: e61d 22b6 779e 38b5 4f89 edb3 dd8b 77b4
00000010: 0000 0000 7f2e 0133 d3a4 2034 fab6 6cb3
00000020: 0b43 5532 63e3 13b5 0000 0000 70f9 54b1
00000030: fae3 e834 0000 0000 0000 0000 0000 0000
00000040: 0ccb 2735 0000 0000 0000 0000 7142 36b0
00000050: 0000 0000 0000 0000 0000 0000 0000 0000
00000060: 0000 0000 0000 0000 0000 0000 0000 0000
00000070: c788 d334 0000 0000 cb9e 2ab7 58c6 9635
00000080: a729 c9b6 b003 dfb4 0000 0000 402e 6fb6
00000090: 815e beb4 6d94 31b6 1404 a6b3 3e61 a8b5
000000a0: 0000 0000 0000 0000 0000 0000 0000 0000
000000b0: 0000 0000 0000 0000 0000 0000 0000 0000
000000c0: 0000 0000 0000 0000 b637 9cb5 d31a 5435
000000d0: 0f51 7335 86f8 1fb4 0000 0000 f88c 8c35
000000e0: 568b 80b4 590a 3bb4 72bf 59b4 3324 89b4
000000f0: 4725 d4b2 172a 4536 fd7c be35 3bb9 c434
00000100: 0000 0000 960f 9b32 efa0 c634 1bd6 a334
00000110: e197 bfb1 d2f9 ad35 15fe e0b6 afe7 92b4
00000120: ef42 41b6 023c 29b3 0000 0000 059c 35b6
00000130: 34ac 4ab4 c22c e9b4 0000 0000 3b94 b1b5
00000140: 873d 1db7 eaf7 cbb6 3d51 36b6 05c4 eab5
00000150: 0000 0000 4224 8334 c10d c6b5 4520 3db4
00000160: 0000 0000 3862 28b6 c191 c335 8fb0 c936
00000170: aa3f 8cb6 2658 b235 0000 0000 e79f 2935
00000180: 141f 3136 d38c dbb5 cbec f832 9f7f 5236
-2.4157284e-06 -6.877594e-07 -1.1061149e-07 -2.305455e-07 0.0 3.007744e-08 1.4961124e-07 -5.5114448e-08
1.2413476e-08 -5.509266e-07 0.0 -3.099185e-09 4.3379242e-07 0.0 0.0 0.0
6.250782e-07 0.0 0.0 -6.6305633e-10 0.0 0.0 0.0 0.0
0.0 0.0 0.0 0.0 3.940133e-07 0.0 -1.01697615e-05 1.1233597e-06
-5.9951158e-06 -4.153967e-07 0.0 -3.5640696e-06 -3.5459018e-07 -2.646145e-06 -7.730719e-08 -1.2545277e-06
0.0 0.0 0.0 0.0 0.0 0.0 0.0 0.0
0.0 0.0 -1.163912e-06 7.901519e-07 9.064251e-07 -1.4898441e-07 0.0 1.047184e-06
-2.3943238e-07 -1.7419497e-07 -2.0279347e-07 -2.5544577e-07 -2.4697e-08 2.9379787e-06 1.419248e-06 3.6642618e-07
0.0 1.8051463e-08 3.6997469e-07 3.0516898e-07 -5.5760982e-09 1.2962212e-06 -6.7052993e-06 -2.736319e-07
-2.8798202e-06 -3.9402956e-08 0.0 -2.7061917e-06 -1.8875363e-07 -4.3432198e-07 0.0 -1.3230668e-06
-9.372255e-06 -6.0787324e-06 -2.71674e-06 -1.7491408e-06 0.0 2.4427032e-07 -1.4756152e-06 -1.7613736e-07
0.0 -2.5091122e-06 1.4571052e-06 6.010821e-06 -4.1797366e-06 1.3287688e-06 0.0 6.3190095e-07
2.6393145e-06 -1.6357757e-06 2.897868e-08 3.1366724e-06

exp_avg_sq f4 [10, 10]
00000000: f742 242b ae06 5529 d152 b026 5a7f bf27
00000010: 0000 0000 4099 d024 504a 2127 1a1b af25
00000020: 8220 8e23 7db1 0829 0000 0000 78be 8d21
00000030: 667e a928 0000 0000 0000 0000 0000 0000
00000040: 45f7 2f29 0000 0000 0000 0000 aa9d 4f1f
00000050: 0000 0000 0000 0000 0000 0000 0000 0000
00000060: 0000 0000 0000 0000 0000 0000 0000 0000
00000070: 67d5 8b28 0000 0000 0cf2 352d db14 0e2a
00000080: 4aea 7c2c 586c 9b28 0000 0000 eac5 b22b
00000090: ab80 6228 5517 452b 1042 2c26 d732 312a
000000a0: 0000 0000 0000 0000 0000 0000 0000 0000
000000b0: 0000 0000 0000 0000 0000 0000 0000 0000
000000c0: 0000 0000 0000 0000 5086 182a c196 8c29
000000d0: 6202 b929 0cf1 1f27 0000 0000 5dee f629
000000e0: 9f8b ce27 97a6 5a27 4b2b 9427 db18 eb27
000000f0: 9ca4 8c24 16f6 722b 3bc9 622a 42e0 7128
00000100: 0000 0000 3446 1624 5995 7628 c2c3 2728
00000110: c66c 6522 292c 3d2a 4e31 9e2c bbe1 0628
00000120: fc6f 692b 7400 3325 0000 0000 3023 4e2b
00000130: f85c 8027 68e8 a928 0000 0000 e516 452a
00000140: 3d87 1a2d 7e02 822c 61bf 4f2b f33b ac2a
00000150: 0000 0000 01fa d627 7228 752a dd8d 5f27
00000160: 0000 0000 e534 312b cc0b 6f2a f83d 7e2c
00000170: 05df f52b b8ca 462a 0000 0000 04d4 3329
00000180: 3013 442b cca1 962a eba2 c124 b377 8a2b
5.8357437e-13 4.7301295e-14 1.2234901e-15 5.3151224e-15 0.0 9.0465236e-17 2.2383523e-15 3.0376026e-16
1.5409438e-17 3.0352013e-14 0.0 9.604948e-19 1.8817586e-14 0.0 0.0 0.0
3.9072278e-14 0.0 0.0 4.3964372e-20 0.0 0.0 0.0 0.0
0.0 0.0 0.0 0.0 1.5524649e-14 0.0 1.0342404e-11 1.2619369e-13
3.594141e-12 1.7255443e-14 0.0 1.2702593e-12 1.2573421e-14 7.002084e-13 5.976402e-16 1.5738397e-13
0.0 0.0 0.0 0.0 0.0 0.0 0.0 0.0
0.0 0.0 1.3546911e-13 6.2434006e-14 8.216064e-14 2.2196354e-15 0.0 1.0965944e-13
5.7327863e-15 3.0343886e-15 4.112519e-15 6.525255e-15 6.099418e-17 8.6317184e-13 2.0142648e-13 1.3426816e-14
0.0 3.258553e-17 1.3688128e-14 9.3128105e-15 3.1092871e-18 1.6801893e-13 4.496104e-12 7.487442e-15
8.293364e-13 1.5525929e-16 0.0 7.3234734e-13 3.5627934e-15 1.886356e-14 0.0 1.7505058e-13
8.7839154e-12 3.695099e-12 7.3806765e-13 3.0594936e-13 0.0 5.9667987e-15 2.1774404e-13 3.102437e-15
0.0 6.295644e-13 2.1231557e-13 3.612997e-12 1.7470197e-12 1.7656265e-13 0.0 3.992988e-14
6.9659816e-13 2.6757622e-13 8.39764e-17 9.838713e-13

exp_avg f4 [10]
00000000: f7d2 2cb5 7796 0835 cfe6 1935 a8aa dab7
00000010: 0000 0000 b75a 9236 6d5d a336 3f37 04b7
00000020: 9d97 d5b6 a8a8 d936
-6.438199e-07 5.0882903e-07 5.733281e-07 -2.6067093e-05 0.0 4.3616997e-06 4.8686547e-06 -7.880676e-06
-6.365545e-06 6.486738e-06

exp_avg_sq f4 [10]
00000000: 0fad 3a29 e233 e928 1e09 1429 136c 952e
00000010: 0000 0000 5adf 052c f8cc 262c 4183 da2c
00000020: 5191 8e2c 4a0c 942c
4.14504e-14 2.5890697e-14 3.287051e-14 6.7949334e-11 0.0 1.9024422e-12 2.37038e-12 6.2105048e-12
4.052016e-12 4.2077774e-12

exp_avg f4 [12, 10]
00000000: 660e 2cb6 a217 6434 70f9 d2b3 5d28 1c37
00000010: 0000 0000 7a33 8b36 f3e9 1d34 e7da 76b4
00000020: 12dd dfb4 d30f 71b5 6ec0 0a36 ef80 2fb3
00000030: 1aab f330 3798 87b6 0000 0000 6552 56b6
00000040: 3c9e 8b35 5975 95b3 1534 83b5 db7e fd35
00000050: 30d4 f2b5 235f a9b4 5999 1a34 cb02 1537
00000060: 0000 0000 900c 6037 4766 7bb5 081f 7c35
00000070: 1dec db35 6377 f9b5 a39d 96b5 051a 7b34
00000080: 1507 f1b3 45fb 6536 0000 0000 e46d 85b5
00000090: 8f2d e534 f522 fcb4 4575 b7b5 2e85 3735
000000a0: 87d8 1436 53d9 0d34 e6c6 27b3 b733 80b7
000000b0: 0000 0000 08aa 73b7 1b5f 77b5 e0dc 13b5
000000c0: be6e 3eb4 22ca 4f35 d2ad d1b5 0bcf 8eb4
000000d0: e47e 0834 f8af de36 0000 0000 8c93 3137
000000e0: 8139 98b5 dab7 5e35 10d9 f535 af44 0db6
000000f0: dd6f afb5 5df5 5b34 f2a5 e4b3 3e6b 0237
00000100: 0000 0000 d816 3f36 4afb 8cb4 cdad e233
00000110: 7924 40b4 2b24 81b5 e774 e535 01b1 b434
00000120: 336d 22b4 8b34 19b7 0000 0000 2a06 68b7
00000130: 977d 3735 50a3 7ab5 b3b2 c9b5 5059 d735
00000140: 620f 6c36 4287 6e34 f0bf 22b4 5789 97b5
00000150: 0000 0000 a839 ddb6 35e3 0736 4e8a b0b3
00000160: 1f86 fcb5 bb9b 2136 ea80 8135 82f8 5334
00000170: 43fa e0b3 f111 8db4 0000 0000 1e6a 9ab6
00000180: 994c ab35 ff39 d7b4 ab6b 8cb5 d600 8635
00000190: cb09 7f36 5b46 b033 f842 9fb3 9779 f7b6
000001a0: 0000 0000 6a19 09b7 9909 a035 09b0 05b4
000001b0: 8eeb 0fb6 4715 6036 6bb4 b335 1f3d bab2
000001c0: 6367 4132 f386 a5b6 0000 0000 df07 89b6
000001d0: 3f74 8534 3fee b9b3 5137 8e33 a792 ef34
-2.5638378e-06 2.1242752e-07 -9.8242595e-08 9.307722e-06 0.0 4.1485155e-06 1.4706875e-07 -2.2990172e-07
-4.1697837e-07 -8.9802523e-07 2.0675611e-06 -4.0862627e-08 1.7729207e-09 -4.0410337e-06 0.0 -3.1936445e-06
1.0402359e-06 -6.9596986e-08 -9.775418e-07 1.8886889e-06 -1.809216e-06 -3.1547924e-07 1.4398155e-07 8.881742e-06
0.0 1.3354365e-05 -9.365362e-07 9.392247e-07 1.638549e-06 -1.8586692e-06 -1.1221749e-06 2.3385662e-07
-1.1223725e-07 3.4269917e-06 0.0 -9.941255e-07 4.2687722e-07 -4.6964092e-07 -1.3668692e-06 6.8366614e-07
2.2179754e-06 1.321071e-07 -3.9063615e-08 -1.528287e-05 0.0 -1.4523517e-05 -9.2153067e-07 -5.508318e-07
-1.7735417e-07 7.740765e-07 -1.5622302e-06 -2.6600205e-07 1.271215e-07 6.636601e-06 0.0 1.0584376e-05
-1.1341618e-06 8.2968984e-07 1.8317096e-06 -2.1050616e-06 -1.3071073e-06 2.0485227e-07 -1.06472626e-07 7.773573e-06
0.0 2.8474515e-06 -2.625987e-07 1.0555559e-07 -1.7894662e-07 -9.621775e-07 1.7095853e-06 3.36564e-07
-1.5127152e-07 -9.131744e-06 0.0 -1.3829713e-05 6.835557e-07 -9.336991e-07 -1.5027675e-06 1.6044742e-06
3.5175694e-06 2.2214684e-07 -1.5157252e-07 -1.1290348e-06 0.0 -6.5930253e-06 2.024882e-06 -8.220796e-08
-1.8814497e-06 2.4081517e-06 9.648768e-07 1.9741313e-07 -1.0476335e-07 -2.627635e-07 0.0 -4.6019113e-06
1.2762786e-06 -4.0089068e-07 -1.0462148e-06 9.984021e-07 3.8003661e-06 8.208436e-08 -7.416196e-08 -7.3753286e-06
0.0 -8.1717535e-06 1.1923722e-06 -1.2450631e-07 -2.1445771e-06 3.3390986e-06 1.3389048e-06 -2.1681045e-08
1.1257586e-08 -4.9330934e-06 0.0 -4.0838345e-06 2.485776e-07 -8.6580705e-08 6.622452e-08 4.4623923e-07
