checkpoint/DAE_ckpt_06-27_10-43-50.pt (torch, 29322 bytes, 54 tensors)

encoder.0.weight f4 [10, 12]
0	0xbdf69c01	-0.12041474
1	0x3e5fc081	0.21850778
2	0xbd83d970	-0.06437957
3	0xbf0edace	-0.5580262
4	0xbe2f2e9b	-0.17107622
5	0xbf956155	-1.1670328
6	0xbd4303eb	-0.04761116
7	0xbd2076af	-0.039175685
8	0x3e0dc0f0	0.13843131
9	0xbe5d3efb	-0.21606056
10	0x3e5f5a6e	0.2181184
11	0x3f0094ab	0.5022685
12	0xbe8bc885	-0.27301422
13	0xbef45136	-0.4771821
14	0x3e3ca951	0.18423964
15	0xbf9f0004	-1.242188
16	0x3e16b7d4	0.14718562
17	0x3ed5c775	0.41753736
18	0xbe3a8b03	-0.18217091
19	0x3da2bc81	0.079461105
20	0xbf03c9e8	-0.5147996
21	0xbe8dca2c	-0.27693307
22	0x3f664fe8	0.8996568
23	0x3f4ced26	0.8004936
24	0xbdec1fb4	-0.115294844
25	0xbe969017	-0.29406807
26	0x3e0397ac	0.12850827
27	0x3e2d4c1a	0.16923562
28	0x3ee4519b	0.4459351
29	0x3e23bf39	0.15990914
30	0x3fc4df2e	1.5380609
31	0xbf6ced41	-0.9254952
32	0x3d3a539d	0.045489896
33	0x3f458536	0.7715639
34	0x3eb6d8e5	0.35712352
35	0x3f068d82	0.52559674
36	0x3ec23bf1	0.37936357
37	0xbba70a7b	-0.005097685
38	0xbf13ce7f	-0.57736963
39	0x3bf11c01	0.0073580747
40	0xbe73f53f	-0.23824023
41	0x3e66ff82	0.22558406
42	0x3fccc400	1.5997314
43	0xbf313848	-0.69226503
44	0xbe64f141	-0.22357656
45	0x3f8be991	1.0930654
46	0xbe54df3e	-0.20788285
47	0x3ee8b952	0.45453888
48	0x3eac04fa	0.33597547
49	0x3ddba322	0.107244745
50	0xbeb823d9	-0.3596485
51	0xbdfc8ec5	-0.123319186
52	0x3e515279	0.20441617
53	0x3e886b45	0.2664434
54	0x3f80f141	1.0073625
55	0xbf3dc9ed	-0.7413624
56	0xbf23df5d	-0.640127
57	0xbf74e6cb	-0.9566466
58	0xbb3c9cbf	-0.0028779951
59	0x3ea59b33	0.3234497
60	0x3e66f6ce	0.22555086
61	0xbf0281d0	-0.5097933
62	0x3f283462	0.6570493
63	0xbfc5f82b	-1.546636
64	0xbeda5026	-0.42639273
65	0x3e870a00	0.26374817
66	0x3f4e961e	0.8069781
67	0x3f1751df	0.591093
68	0x3e2d22b0	0.16907763
69	0xbf38d9c0	-0.7220726
70	0x3fafe75b	1.3742479
71	0x3e3918a3	0.18075804
72	0x3f119b16	0.5687727
73	0xbd131c61	-0.035915736
74	0xbf0502ac	-0.519572
75	0xbd8ec33d	-0.069708325
76	0x3eff7855	0.49896494
77	0x3f14e928	0.5816827
78	0x3f2b15a3	0.6682989
79	0xbf3f8b49	-0.7482191
80	0x3e324eec	0.17412919
81	0xbdc489ee	-0.095966205
82	0xbd3e1d8c	-0.046414897
83	0x3e444819	0.19168128
84	0xbc010887	-0.007875568
85	0xbd448252	-0.047975846
86	0xbf19b1a4	-0.60036683
87	0x3ebb7270	0.36610746
88	0x3e3bff1b	0.18359034
89	0x3ebfb662	0.37443835
90	0x3fa5b920	1.2947121
91	0xbf172fdb	-0.59057397
92	0xbf0fd8ae	-0.5619
93	0xbf04ac3f	-0.51825327
94	0x3dd41a3d	0.10356567
95	0x3e9e1a98	0.30879664
96	0xbba19978	-0.004931625
97	0xbdf6fe31	-0.12060202
98	0xbeadbf31	-0.3393493
99	0x3c4aa128	0.012367524
100	0x3e3287bb	0.1743459
101	0x3e1673dd	0.14692636
102	0x3fd04a37	1.6272649
103	0xbfbc9f8d	-1.4736191
104	0xbe8493a9	-0.25893906
105	0xbe8e5fb4	-0.2780739
106	0x3e55f50e	0.20894262
107	0x3f507a1e	0.81436336
108	0x3f199049	0.59985787
109	0xbd6622c8	-0.056185514
110	0xbe74a4ae	-0.23890945
111	0x3e8c83a8	0.27444196
112	0x3dd9bdc7	0.106319
113	0x3ed891f0	0.4229884
114	0x3f867646	1.0504844
115	0xbf7642e2	-0.96195805
116	0xbf2efe98	-0.6835723
117	0x3e90b184	0.28260434
118	0xbcce91d6	-0.025216024
119	0x3ed76132	0.42066342

encoder.0.bias f4 [10]
0	0xbe9f1871	-0.31073335
1	0xbe4157f1	-0.18881203
2	0xbeed00a3	-0.46289548
3	0xbf0798ae	-0.52967346
4	0xbe5bdac0	-0.21470165
5	0xbe79cb9e	-0.2439408
6	0xbe67a246	-0.22620496
7	0xbec7c625	-0.3901836
8	0xbf6b3eda	-0.9189278
9	0xbe65cb70	-0.22440886

encoder.3.weight f4 [10, 10]
0	0xbf28ed18	-0.65986776
1	0x3f1872a8	0.5954995
2	0xbf8bed78	-1.0931845
3	0xbed62a79	-0.4182928
4	0xbdcde370	-0.10053146
5	0x3f945540	1.1588516
6	0xbfaf9bc3	-1.371941
7	0xbf629945	-0.8851512
8	0xbfa3f972	-1.28105
9	0xbf70c0b0	-0.9404402
10	0xbf2af260	-0.66776085
11	0xbdf7e5e8	-0.12104398
12	0x3f66763c	0.9002416
13	0x3eb17d20	0.34665775
14	0xbdc76573	-0.09736147
15	0xbed25f1b	-0.41088185
16	0x3ed65b94	0.41866744
17	0x3efc9225	0.4933025
18	0x3ff51411	1.9146749
19	0x3f0ddf75	0.55419093
20	0xbe97c8aa	-0.29645282
21	0xbdebe00d	-0.11517344
22	0x3f555fc5	0.8334926
23	0x3fa9e004	1.3271489
24	0x3e6f6f14	0.23382217
25	0xbea40750	-0.3203683
26	0x3e4cae0b	0.19988267
27	0x3e1bcb01	0.15214159
28	0x4023008c	2.5469084
29	0x3f3d7e06	0.7402042
30	0xbe582981	-0.21109582
31	0xbdec0b71	-0.1152562
32	0x3fa3d786	1.2800148
33	0x3f6cd369	0.92510086
34	0x3effb818	0.4994514
35	0xbe00a48f	-0.12562774
36	0x3f1570dd	0.5837534
37	0x3ec0e1c4	0.37672246
38	0x3fa4593f	1.2839736
39	0x3e2e1966	0.17001876
40	0x3d9991cf	0.07498514
41	0x3be5a72b	0.0070084534
42	0x3eb02fff	0.34411618
43	0x3fafc051	1.3730565
44	0x3f4d0e4f	0.8009996
45	0x3c918b5c	0.017766647
46	0x3e7562be	0.23963448
47	0xbe76f789	-0.24117865
48	0x3f0a00df	0.5390758
49	0x3f52dde9	0.8236986
50	0x3d1df1a7	0.038560536
51	0x3d482539	0.048863623
52	0x3f259fbc	0.6469686
53	0x40117f4b	2.2733943
54	0xba945134	-0.0011315704
55	0xbea85ee3	-0.32884893
56	0x3f1aab34	0.60417485
57	0x3edffb50	0.43746424
58	0x40198cf4	2.399228
59	0x3fac0950	1.3440342
60	0xbfabf117	-1.343295
61	0x3bbdfdfb	0.005798099
62	0xbe81640b	-0.2527164
63	0x3f92f12e	1.1479852
64	0x3daca9e0	0.084308386
65	0x3dc4901b	0.095977984
66	0x3f3c9bcd	0.73675233
67	0xbe85e18d	-0.26148644
68	0x4022c069	2.5429938
69	0x3f88b77d	1.0680996
70	0x3e0c40fe	0.13696668
71	0xbf0a5c4c	-0.54047084
72	0x3f0297cc	0.51012874
73	0xbf10b9a0	-0.5653324
74	0xbf9a5fad	-1.2060448
75	0x3f9aa274	1.2080827
76	0xbf805b63	-1.0027889
77	0xbea6575d	-0.32488528
78	0xbf45ad60	-0.77217674
79	0xbf1551d0	-0.5832796
80	0x3e947f29	0.29003266
81	0x3f71ad9d	0.9440554
82	0x3f97a649	1.1847621
83	0xbf8d9e70	-1.1063976
84	0xbed122dd	-0.4084691
85	0x3facb4e8	1.3492708
86	0xbfaa41da	-1.3301346
87	0xbe46c53b	-0.19411175
88	0xc00c7dff	-2.1951902
89	0x3f1d2854	0.6138966
90	0xbed3f5d2	-0.41398484
91	0x3f9b221b	1.2119783
92	0xbfeaea8a	-1.8352826
93	0xbfbaff6c	-1.4609199
94	0xbea59d38	-0.3234651
95	0x3f957e0e	1.1679094
96	0xbfb343a1	-1.4005014
97	0xbf495efd	-0.78660566
98	0xbf529894	-0.82264066
99	0xbea00206	-0.31251544

encoder.3.bias f4 [10]
0	0x3dba7dc4	0.09106019
1	0xbf343fdd	-0.7040995
2	0x3e495dab	0.19664638
3	0xbb9f75b2	-0.0048663253
4	0xbeff94ce	-0.49918216
5	0xbe6a42a1	-0.2287698
6	0xbf1100fd	-0.56642133
7	0xbdee566a	-0.11637576
8	0x3c403a62	0.01173267
9	0xbf738e62	-0.95139134

encoder.6.weight f4 [6, 10]
0	0x3f4d3dfc	0.80172706
1	0xbfa14c9e	-1.2601507
2	0xbe848f39	-0.2589052
3	0xbea22fbe	-0.3167705
4	0xbe6dc97d	-0.23221393
5	0x3da838fb	0.08213993
6	0xbced270b	-0.028949281
7	0x3ed1de81	0.4099007
8	0x3f17c8f0	0.5929098
9	0x40330b68	2.7975712
10	0xbf25311f	-0.6452808
11	0x3f9093e5	1.1295134
12	0x3c099fcc	0.008399915
13	0xbe82b5db	-0.2552937
14	0x3c96aa5f	0.018391786
15	0x3f4dae4b	0.80344075
16	0x3f76cb49	0.9640394
17	0xbe5c900d	-0.21539326
18	0x3ecf03ce	0.4043259
19	0xbfd053f0	-1.6275616
20	0x3ea12a09	0.31477383
21	0xbf17a8af	-0.59241766
22	0xbf3448f9	-0.7042385
23	0xbee57596	-0.44816273
24	0xbe9cbac2	-0.30611235
25	0xbea2dbf7	-0.31808445
26	0xbf7413f1	-0.9534293
27	0x3ecedd93	0.40403423
28	0x3f21638b	0.63042516
29	0x40493c90	3.1443214
30	0x3f16f392	0.5896541
31	0xbf4193e5	-0.75616294
32	0xbe8720da	-0.2639225
33	0xbd77078c	-0.06030993
34	0xbfaabadb	-1.3338274
35	0xbeb2ad86	-0.34898013
36	0xbf1baa16	-0.60806406
37	0x3f4eb238	0.8074069
38	0x3ed67497	0.41885826
39	0x3f756bc9	0.9586759
40	0x3fa6c62b	1.3029226
41	0x3c81056e	0.01574966
42	0xbe95baa2	-0.29243952
43	0xbf449e10	-0.76803684
44	0xbdb25240	-0.08707094
45	0x3e0b1a06	0.13584146
46	0xbe24117f	-0.16022299
47	0xbee3208f	-0.44360778
48	0xbf3d2a3f	-0.7389259
49	0x3ff58230	1.9180355
50	0xbe3906c9	-0.18068995
51	0x3ea1188f	0.3146405
52	0x3eacc29c	0.33742225
53	0xbe2bfb75	-0.16795142
54	0xbe5f2e1a	-0.2179493
55	0x3f308ceb	0.68965024
56	0x3feab7d7	1.8337353
57	0x3e81045a	0.25198632
58	0xbeb39a54	-0.3507868
59	0xc01f87d6	-2.4926658

encoder.6.bias f4 [6]
0	0x3e1912f4	0.14948636
1	0xbe97897a	-0.29597074
2	0x3e101a71	0.14072587
3	0xbe928449	-0.2861655
4	0xbd721c6e	-0.059109144
5	0xbd96a7c0	-0.073562145

decoder.0.weight f4 [10, 6]
0	0xbd5f4b1a	-0.05451498
1	0x3f2c16ff	0.6722259
2	0xbe6fdfa1	-0.23425151
3	0x3ed7a886	0.4212076
4	0xbf6669af	-0.9000501
5	0x3f06a38a	0.5259329
6	0x3cfe8fc7	0.031074418
7	0x3f40bceb	0.75288266
8	0xbf3c28ca	-0.7349974
9	0xbf37c2ae	-0.7178143
10	0x3ee22d7f	0.44175336
11	0x3f482df7	0.78195137
12	0x3f094b06	0.536301
13	0xbf0c58ed	-0.5482319
14	0x3f0ec33a	0.5576664
15	0x3fa92044	1.3212972
16	0x3dc7c0d6	0.097535774
17	0xbd67271a	-0.056433775
18	0x3f61b4bb	0.881664
19	0xbe13af96	-0.1442245
20	0x3f3644fa	0.71199
21	0x3f907543	1.1285785
22	0xbe0300f9	-0.1279334
23	0xbede826f	-0.43458888
24	0xbf2f5354	-0.68486524
25	0x3f6797a9	0.9046579
26	0xbefaadf6	-0.48960847
27	0x3b8a4775	0.004219944
28	0xbd1f8d92	-0.03895337
29	0x3d51235c	0.051059112
30	0x3f87a6e7	1.059781
31	0xbe43818c	-0.19092387
32	0x3fa403ce	1.2813661
33	0x3eb9e4c4	0.36307347
34	0x3ecba66f	0.39775416
35	0xbfb200b8	-1.3906469
36	0xbf48c383	-0.7842333
37	0x3fa82675	1.3136736
38	0x3e173454	0.14766055
39	0x3dd11e6d	0.102108814
40	0x3f33c7b2	0.70226586
41	0x3f08a1d0	0.53371906
42	0xbf081a39	-0.5316501
43	0xbeadfddd	-0.33982745
44	0xbf22849e	-0.6348361
45	0xbf22fc9f	-0.6366672
46	0x3df7df79	0.12103171
47	0x3edcc381	0.43117908
48	0x3dc9a6c9	0.09846265
49	0x3f847807	1.034913
50	0x3e5255cf	0.20540546
51	0xbebd44d6	-0.3696658
52	0xbfa98cd2	-1.32461
53	0x3d84da0b	0.06486901
54	0xbf565b61	-0.83733183
55	0x3e8e645a	0.27810937
56	0xbe7949d1	-0.24344565
57	0xbf053320	-0.52031136
58	0xbf416f53	-0.7556049
59	0xbed16fc2	-0.40905577

decoder.0.bias f4 [10]
0	0xbe38ef46	-0.18060026
1	0xbe1ca0bd	-0.15295692
2	0xbf5f78fa	-0.8729397
3	0xbd8620fc	-0.0654926
4	0xc022319c	-2.534278
5	0x3c295bbd	0.0103368135
6	0xbf94b870	-1.1618786
7	0xbe0b2ea7	-0.13592015
8	0x3eb2638d	0.34841576
9	0xbe7b37e0	-0.24533033

decoder.3.weight f4 [10, 10]
0	0xbe587bae	-0.2114093
1	0xbd695a14	-0.05697067
2	0x3e7402d6	0.23829207
3	0x3f8342a0	1.0254707
4	0xbff042d3	-1.8770393
5	0xbea5c370	-0.3237567
6	0xbf108f11	-0.564683
7	0x3ec43a54	0.3832575
8	0x3a9d9409	0.0012022267
9	0xbf369b84	-0.7133105
10	0xc0335bd3	-2.8024795
11	0xc058ce7f	-3.3876035
12	0x3f92e608	1.147645
13	0x3f17bdab	0.59273785
14	0xbf438b50	-0.7638445
15	0xbf27d382	-0.6555711
16	0xbc5090ca	-0.012729833
17	0xbfb3a606	-1.4035041
18	0xbf176140	-0.59132767
19	0xc038f319	-2.8898375
20	0xbebfe469	-0.3747895
21	0xbe37b331	-0.1793945
22	0xbf2ba52d	-0.67048913
23	0x3e104f3d	0.14092727
24	0x3f745995	0.9544919
25	0xbf6de723	-0.9293081
26	0x3f203d86	0.6259388
27	0x3f46b06f	0.77612966
28	0x3f370884	0.7149737
29	0x3e7f47b4	0.24929696
30	0x3eb00e3a	0.34385854
31	0x3e0c1244	0.13678843
32	0xbf16ace4	-0.5885756
33	0xbfd9d075	-1.7016741
34	0x3ea4e76c	0.3220781
35	0xbe88552d	-0.26627484
36	0x3f219f5c	0.6313379
37	0x3e6e5623	0.23275046
38	0xbe244447	-0.1604167
39	0x3e8b0ddc	0.2715901
40	0xbe8cd6c5	-0.27507606
41	0xbf64b0b0	-0.89332104
42	0x3f9d4f88	1.2289896
43	0xbeb0e27a	-0.34547788
44	0x3df20db2	0.118190184
45	0x3f497bb9	0.7870441
46	0x3ddac397	0.10681837
47	0xbea05156	-0.31312054
48	0xbeb4ee12	-0.35337883
49	0xbe774a50	-0.24149442
50	0x3f3dafb1	0.7409621
51	0xbf98e882	-1.1945956
52	0x3f5fcb7f	0.87419885
53	0x3eb153fc	0.34634387
54	0xbfab5934	-1.3386598
55	0xbdcfacf7	-0.10140412
56	0xbfa9476a	-1.3224919
57	0xbe8aab64	-0.27083886
58	0xbb932894	-0.0044909213
59	0xbf6b2461	-0.91852385
60	0x3f580adc	0.8439157
61	0x3eaa4c51	0.3326135
62	0xbe22c6b2	-0.15896109
63	0xbf1f6404	-0.62261987
64	0x3f00a88e	0.50257194
65	0xbfaf3e8b	-1.3690962
66	0x3f5b267b	0.8560559
67	0x3f10d73f	0.5657844
68	0xbe937a56	-0.28804272
69	0xbd0f7471	-0.035023157
70	0xbe05df40	-0.13073444
71	0x3eeb55b7	0.45963833
72	0x3e5084b0	0.20363116
73	0xbff4265d	-1.9074208
74	0x3fe3f43f	1.7808913
75	0xbecc6861	-0.39923385
76	0x3f034c60	0.51288414
77	0xbf4288d6	-0.75990045
78	0xbd829ffa	-0.06378169
79	0x3eab3ab9	0.3344324
80	0xbe904587	-0.28178045
81	0xbe8e5e70	-0.27806425
82	0xbd242670	-0.04007572
83	0xbbc9d4df	-0.0061594094
84	0xbe776b8b	-0.24162118
85	0xbdc85458	-0.09781712
86	0xbd501e8d	-0.050810385
87	0xbde0ef90	-0.10983193
88	0xbc893085	-0.016746769
89	0xbce7c45b	-0.028291872
90	0xbe62a4c6	-0.22133169
91	0xbef1ef4f	-0.4725289
92	0x3f80a418	1.0050077
93	0x3ed20cca	0.41025382
94	0xbeaf9ec8	-0.34300828
95	0x3f9c10cb	1.2192625
96	0xbe0d239a	-0.13783112
97	0xbe4f5764	-0.2024818
98	0xc03e1107	-2.9697893
99	0x3e83627d	0.25661078

decoder.3.bias f4 [10]
0	0x3e8b2e06	0.2718355
1	0x3e7aee15	0.24504884
2	0xbc673224	-0.014111076
3	0x3ef0e202	0.4704743
4	0x3f2051af	0.6262464
5	0x3eeff5e3	0.46867284
6	0x3e326856	0.17422614
7	0x3f32276c	0.69591403
8	0xbf00943f	-0.50226206
9	0x3e119c43	0.14219765

decoder.6.weight f4 [12, 10]
0	0xbe8c34ab	-0.27383932
1	0xbe88ae40	-0.26695442
2	0x3eb10f64	0.34582055
3	0xbecba539	-0.39774492
4	0xbe8eee9c	-0.2791642
5	0x3dfdea49	0.12398202
6	0xbf8c78c9	-1.0974361
7	0xbe77117a	-0.2412776
8	0x3e25207a	0.1612567
9	0x3f91cffc	1.1391597
10	0x3f035b84	0.51311517
11	0xbebc4998	-0.36774898
12	0xbd399c3d	-0.045315016
13	0xbe0c86ab	-0.13723247
14	0xbb87c67d	-0.0041435347
15	0x3eb8a425	0.36062732
16	0xbdcfe957	-0.10151928
17	0x3f056fbd	0.52123624
18	0xbe4d6372	-0.20057467
19	0xbed65d39	-0.41867998
20	0xbe0eef67	-0.13958512
21	0xbf4acebe	-0.79221714
22	0xbf0a4420	-0.540102
23	0x3ef78653	0.4834467
24	0xbe044bb4	-0.12919503
25	0xbf904fad	-1.1274315
26	0xbebca50a	-0.36844665
27	0xbe95990c	-0.29218328
28	0x3e10bbbb	0.14134113
29	0x3f009eaa	0.502421
30	0x3eb84f3e	0.35997957
31	0x3f88c0ef	1.0683879
32	0x3d7b0df5	0.061292607
33	0x3e811091	0.25207952
34	0x3ee31352	0.44350678
35	0x3dfb1b71	0.122610934
36	0xbe90bc32	-0.28268582
37	0x3ed78178	0.42090964
38	0xbf20df7b	-0.62841004
39	0x3e20b48a	0.1569387
40	0x3e17b224	0.14814049
41	0xbf354106	-0.7080234
42	0x3f1ab1e2	0.6042768
43	0x3f6e8e5b	0.9318597
44	0x3d824486	0.06360726
45	0xbeba8b65	-0.36434475
46	0x3f6a7078	0.91577864
47	0x3e520fff	0.20513915
48	0xbebcbf32	-0.3686462
49	0xbfe719c9	-1.8054744
50	0xbf6b8c49	-0.92010933
51	0xbe68d188	-0.2273618
52	0x3ef00f8b	0.46886858
53	0x3cfbc186	0.030731928
54	0xbb4b97b0	-0.0031065755
55	0x3e7ffe47	0.24999343
56	0x3f03e062	0.51514256
57	0x3f56dd90	0.8393183
58	0x3e03e7e7	0.12881432
59	0xbe3db6b7	-0.18526731
60	0x3eedb595	0.464276
61	0x3ec825bb	0.39091286
62	0x3d6036b7	0.05473968
63	0xbeac9f5e	-0.33715338
64	0x3f27dca8	0.6557107
65	0x3e7c927f	0.24665259
66	0x3e267fe4	0.16259724
67	0xbf5e5eca	-0.86863387
68	0x3da262e9	0.07929022
69	0xbf6e5aad	-0.9310711
70	0xbe4c25b9	-0.19936265
71	0xbfd63b8c	-1.6736922
72	0x3f972479	1.1808006
73	0x3ec3271e	0.38115782
74	0xbdc3f68d	-0.0956851
75	0xbea0d637	-0.31413433
76	0x3ef4ae05	0.47789016
77	0xbef55e47	-0.4792349
78	0xbe84dcbc	-0.25949657
79	0xbf9199df	-1.1375083
80	0x3d9076c6	0.07053904
81	0xbfeb11c2	-1.8364794
82	0xba28867b	-0.00064287306
83	0x3e235fca	0.1595451
84	0xbf1f3cc4	-0.62202096
85	0xbddce127	-0.10785132
86	0x3f1ec8c5	0.620251
87	0x3f3e163f	0.74252695
88	0xbe0e17d3	-0.13876276
89	0xbf90f79b	-1.1325563
90	0x3f28a8ef	0.6588277
91	0xbecce84d	-0.4002098
92	0x3df19eb7	0.117978506
93	0xbe3ac9a8	-0.18240988
94	0x3ec8d9a0	0.39228535
95	0x3ee64ffe	0.44982904
96	0xbdba6066	-0.09100418
97	0x3f13e55e	0.5777186
98	0xbeae6922	-0.34064585
99	0xbf8249e2	-1.0178797
100	0x3ef55d9c	0.4792298
101	0x3f60d1c8	0.878201
102	0xbf335119	-0.7004562
103	0xbf47386a	-0.77820456
104	0x3f27dec0	0.65574265
105	0x3f36d90c	0.7142494
106	0x3b10fadb	0.0022122178
107	0xbd76d56d	-0.060262132
108	0x3d4878e0	0.0489434
109	0x3d6aa63e	0.057287447
110	0x3ec4ffa3	0.38476285
111	0x3ebefa70	0.37300444
112	0xbf219113	-0.6311199
113	0xbf36cfb5	-0.71410686
114	0x3f731a23	0.94961756
115	0x3e49a591	0.19692065
116	0xbe1d3137	-0.15350805
117	0xbf1c35ff	-0.6101989
118	0x3eb622fc	0.35573566
119	0xbf0d1fd8	-0.55126715

decoder.6.bias f4 [12]
0	0x3f3915b1	0.72298723
1	0xbf3e2cc9	-0.74287087
2	0x3e137670	0.14400649
3	0x3dc3f59d	0.095683314
4	0xbf7f46c1	-0.99717337
5	0xbe52f44b	-0.20601003
6	0xbf03d36d	-0.51494485
7	0xbe30200d	-0.17199726
8	0xbf2ddc5d	-0.6791437
9	0xbfad725b	-1.3550524
10	0xbdf0353d	-0.117289044
11	0xbed2edb0	-0.41196966

mlp.0.weight f4 [10, 12]
0	0xbebfd141	-0.37464336
1	0x3f19d1aa	0.60085547
2	0xbdd97431	-0.10617865
3	0xbf1c2d4c	-0.6100662
4	0x3dbcac0c	0.09212503
5	0x3dc6f513	0.09714713
6	0xbf74eb10	-0.95671177
7	0xbf03764b	-0.51352376
8	0x40017aec	2.0231276
9	0x3eb00e01	0.34385684
10	0xbe11d9a2	-0.14243177
11	0xbf06a3c4	-0.52593637
12	0x3eab984c	0.3351463
13	0xbd59f71a	-0.05321417
14	0xbf69b628	-0.91293573
15	0x3e5824d2	0.21107796
16	0xbf0c0101	-0.5468903
17	0xbe8197e0	-0.25311184
18	0x3dcf4d50	0.10122168
19	0xbebab016	-0.36462468
20	0xbf17c58d	-0.59285814
21	0xbe90aed1	-0.28258374
22	0x3f1a3344	0.60234475
23	0x3e901c0c	0.28146398
24	0xbe19a8e6	-0.15005836
25	0x3e2c28ee	0.16812488
26	0xba620be4	-0.00086229877
27	0x3f2973fe	0.66192615
28	0x3e54160b	0.20711534
29	0x3ed29759	0.41131094
30	0xbf50bbe5	-0.81536704
31	0xbec616e6	-0.38689345
32	0x3f01a1b7	0.5063738
33	0x3d4bc2eb	0.049746435
34	0xbe95e8a8	-0.29279065
35	0xbeb9cd84	-0.36289608
36	0x3f7fa8e5	0.9986709
37	0xbe8e57c2	-0.2780133
38	0x3f383f4d	0.7197159
39	0x3d34831c	0.04407035
40	0xbf526308	-0.8218236
41	0xbe8132a4	-0.25233948
42	0xbf71778b	-0.94323033
43	0xbf0b39e0	-0.54385185
44	0xbf1e4092	-0.61817276
45	0xbf89b0b6	-1.0757053
46	0xbe99fa57	-0.30073807
47	0xbf537ca5	-0.8261207
48	0x3e2b6ec6	0.16741475
49	0x3e751bed	0.23936434
50	0xbee5a5d0	-0.44853067
51	0x3eceabdd	0.40365496
52	0xbef6d779	-0.48211268
53	0x3e9aab24	0.30208695
54	0xbe83761c	-0.25676048
55	0xbeb13f62	-0.3461867
56	0xbe5f5a21	-0.21811725
57	0x3f3cceb0	0.7375288
58	0x3f24447a	0.64166987
59	0xbe766d5d	-0.24065156
60	0x3e92dda6	0.2868473
61	0xbedd3b49	-0.43209293
62	0x3f905702	1.1276553
63	0xbe27ac06	-0.16374215
64	0xbebf5e05	-0.3737642
65	0xbe88253b	-0.26590905
66	0xbed499b7	-0.41523525
67	0xbe7a9617	-0.24471317
68	0x3df4ec33	0.11959114
69	0xbed4bd27	-0.41550562
70	0xbe775f58	-0.24157465
71	0x3ed0a94a	0.40754157
72	0x3eec10fb	0.46106705
73	0xbed90ba0	-0.42391682
74	0x3edca944	0.4309789
75	0xbf2e421b	-0.6806962
76	0x3e6312b4	0.22175103
77	0x3f337612	0.70102036
78	0xbdf8b8f6	-0.121446535
79	0x3f85e954	1.0461831
80	0x3ef4ebd4	0.47836173
81	0xbeeb819e	-0.45997328
82	0xbf7ba6c4	-0.9830134
83	0xbe8eb1bd	-0.2786998
84	0xbf0a53a9	-0.54033905
85	0x3cc055a2	0.023478333
86	0x3ec0c385	0.3764917
87	0x3d823302	0.06357385
88	0x3f873f01	1.0566102
89	0x3e0605ec	0.13088197
90	0xbdf07e3f	-0.117428295
91	0x3f26f409	0.6521612
92	0x3e906065	0.28198543
93	0x3d587bca	0.05285243
94	0xbf1d086e	-0.6134099
95	0xbf02c778	-0.51085615
96	0x3f1e18c1	0.6175652
97	0x3ee3edb2	0.44517285
98	0xbf10b539	-0.56526524
99	0xbe3c700b	-0.18402116
100	0x3eaf1416	0.34195012
101	0x3ea72418	0.32644725
102	0xbef0c1a4	-0.47022736
103	0x3f53e746	0.8277477
104	0x3f7e087e	0.9923171
105	0x3f079d56	0.5297445
106	0xbf3d9f66	-0.7407135
107	0xbf2fa868	-0.6861634
108	0x3e6664db	0.22499411
109	0xbeb2c5e4	-0.34916604
110	0x3df92fbb	0.12167307
111	0x3da49588	0.08036333
112	0xbf0e0bdc	-0.55486846
113	0x3ea242e5	0.3169166
114	0xbf26a0fd	-0.650894
115	0xbe135475	-0.14387687
116	0xbeb07c44	-0.34469807
117	0xbf7dcd10	-0.99141026
118	0x3d0a2dbc	0.033735022
119	0xbf1d026d	-0.61331826

mlp.0.bias f4 [10]
0	0xbf50e059	-0.8159233
1	0x3f28e0ff	0.65968317
2	0x3df55dd9	0.11980791
3	0x3f4cedb7	0.80050224
4	0xbeb2b5c9	-0.34904316
5	0xbe3f6c20	-0.1869359
6	0x3ea8d65d	0.32976046
7	0xbedde105	-0.4333574
8	0x3eacc090	0.33740664
9	0x3fbf7325	1.4957014

mlp.3.weight f4 [8, 10]
0	0xbe2b77de	-0.16744944
1	0xbf95d6b5	-1.1706148
2	0xbbcd9140	-0.0062734187
3	0x3f92c633	1.1466736
4	0x3e00f294	0.12592536
5	0xbf6df8ef	-0.9295797
6	0xbdb5be58	-0.08874196
7	0xbe4993b3	-0.19685249
8	0xbdf18d9d	-0.11794589
9	0x3f150522	0.5821096
10	0xbebe41a7	-0.37159464
11	0x3dedb7d2	0.116073266
12	0x3f9522be	1.1651227
13	0xbf71bd7e	-0.9442977
14	0xbee1c88d	-0.4409832
15	0xbec8906e	-0.3917269
16	0x3f6c0131	0.9218932
17	0x3f0d4784	0.5518725
18	0x3fb59e64	1.4188962
19	0x3cdf6cc3	0.027273541
20	0x3f10c727	0.5655388
21	0xbfb3ae26	-1.4037521
22	0x3d182c71	0.037151758
23	0xbf141ff0	-0.5786123
24	0xbe5690e3	-0.20953707
25	0x3e0b15ba	0.13582507
26	0x3f987c31	1.19129
27	0x3f7d6906	0.9898838
28	0x3f47ee75	0.7809823
29	0x3d582328	0.052767903
30	0x3f96eade	1.1790426
31	0xbf027702	-0.5096284
32	0x3f080917	0.5313887
33	0xbf80eac4	-1.0071645
34	0xbf494b7b	-0.786308
35	0xbec3a25f	-0.38209817
36	0x3eed6019	0.4636238
37	0x3eecddc2	0.46262938
38	0x3e2a9980	0.16660118
39	0x3c9a838f	0.01886156
40	0x3eff1827	0.49823114
41	0xbf704d78	-0.9386821
42	0x3eebfa69	0.46089485
43	0xbefb6692	-0.49101692
44	0xbec5ce85	-0.38634124
45	0x3f608118	0.8769698
46	0x3ed02ef7	0.4066083
47	0x3e6b3f91	0.22973467
48	0x3e94c81d	0.29058924
49	0xbf460b5e	-0.77361095
50	0x3f4f10c4	0.8088496
51	0xbee652d3	-0.44985065
52	0xbed23bae	-0.41061157
53	0xbe174dea	-0.14775816
54	0xbd58b54e	-0.05290728
55	0xbe9c4762	-0.3052321
56	0x3eee28ff	0.46515653
57	0x3e88e476	0.26736802
58	0x3f85584f	1.0417575
59	0xbf5218cd	-0.82069093
60	0xbf6c191f	-0.9222583
61	0x3da333d9	0.079688735
62	0xbf85c7a3	-1.0451549
63	0x3ef2d5c8	0.47428727
64	0x3edd225f	0.43190286
65	0x3c73f0ee	0.014888985
66	0xbc12ffb0	-0.008972093
67	0xc0186d7d	-2.3816826
68	0x3a4655fc	0.0007565913
69	0xbf42caf9	-0.7609096
70	0xc0202c9f	-2.5027235
71	0x3d8c46e0	0.06849456
72	0x3d5fd074	0.054642156
73	0x3e475e0c	0.1946947
74	0x3efc7e13	0.49314937
75	0x3e19a8c6	0.15005788
76	0xbf3dc4bb	-0.7412831
77	0xbff552e9	-1.9165927
78	0xbf005ba9	-0.5013986
79	0x3e9c4248	0.3051932

mlp.3.bias f4 [8]
0	0xbfff4d98	-1.9945555
1	0xc026ca0f	-2.6060827
2	0xbfa84044	-1.3144612
3	0x3e948b56	0.29012555
4	0xc003964a	-2.056048
5	0x3de971c0	0.11398649
6	0xbfa2c943	-1.271767
7	0xc01b3697	-2.425207

mlp.6.weight f4 [5, 8]
0	0xbf841a85	-1.0320593
1	0xc0bc9fd0	-5.8945084
2	0xc0a85abf	-5.2610774
3	0xc102d74e	-8.177565
4	0xc0aa6611	-5.3249593
5	0xc0e1c3f4	-7.05517
6	0x3e4114d4	0.18855602
7	0x3ed0a02e	0.40747207
8	0xc09ae6e1	-4.8406835
9	0xbfa87948	-1.3162012
10	0xbf1f8fbe	-0.6232871
11	0xbfcf6a84	-1.6204381
12	0xbf5eff0c	-0.8710792
13	0xbf8656ed	-1.0495278
14	0x3f014293	0.5049221
15	0x3efd67d0	0.49493265
16	0x3fb1254b	1.3839506
17	0x3f0e346c	0.5554874
18	0xbfb853aa	-1.4400532
19	0xc01e7491	-2.4758646
20	0xc004b96b	-2.073817
21	0xc062b369	-3.5422003
22	0x3f28f77f	0.6600265
23	0x3e88e80e	0.26739544
24	0xbf15459d	-0.58309346
25	0x3ebac19e	0.36475843
26	0x3d257d94	0.040402964
27	0x3e981767	0.29705355
28	0x3ef721a2	0.48267847
29	0x3e8e6718	0.2781303
30	0xbfe6f8ad	-1.804464
31	0xbf9e3234	-1.2359071
32	0x3f7b404e	0.98144996
33	0x3eb5fc20	0.3554392
34	0x3ce19879	0.027538525
35	0x3e8fe31e	0.28102964
36	0x3edf2c68	0.43588567
37	0x3e866535	0.2624909
38	0xc0a8ceb8	-5.275234
39	0xc09933f0	-4.78759

mlp.6.bias f4 [5]
0	0x4102f703	8.185306
1	0x40c278fe	6.0772696
2	0xc0e4c940	-7.1495667
3	0xc0e0f625	-7.030047
4	0x3fb1d4ad	1.3893028

exp_avg f4 [10, 12]
0	0x38ef6a1b	0.00011416172
1	0xba1f90d4	-0.000608695
2	0x392e036c	0.00016595208
3	0x3a27c748	0.00064002397
4	0xbaeb07ed	-0.0017931439
5	0xba1981cc	-0.0005855828
6	0x3971d755	0.00023063768
7	0xbabd441d	-0.0014439855
8	0xba256ea5	-0.0006310738
9	0x39d7b45b	0.0004114237
10	0xbab23d4b	-0.0013598589
11	0xba055cf0	-0.0005087396
12	0xba9c3c61	-0.001191985
13	0x3aad63b4	0.0013228566
14	0x395b1988	0.00020894979
15	0xb9e2da14	-0.0004326856
16	0xb96d28be	-0.00022617259
17	0x398647ef	0.00025612066
18	0x3986518e	0.00025619235
19	0x3a78efc8	0.00094961794
20	0x3a3852a0	0.0007031355
21	0x383b8698	4.4709624e-05
22	0x349e8d00	2.9532384e-07
23	0xba690294	-0.0008888629
24	0x398a1737	0.00026338708
25	0x38ed7dc9	0.0001132447
26	0xb9ecb199	-0.00045145748
27	0x3996d163	0.00028766235
28	0x3a18075d	0.0005799437
29	0xb8f59cc8	-0.00011711713
30	0xb8332699	-4.2712873e-05
31	0x379dc2bd	1.880654e-05
32	0x39087e30	0.00013016979
33	0x381fbbaf	3.8083348e-05
34	0x39bddfac	0.00036215538
35	0xb9905996	-0.00027532567
36	0x325ec340	1.2966495e-08
37	0x3717eabd	9.054956e-06
38	0xb62c974c	-2.5718064e-06
39	0xb5b5f56a	-1.3556976e-06
40	0x35ade269	1.2955398e-06
41	0xb6113a0f	-2.1640478e-06
42	0xb60c6e33	-2.092577e-06
43	0xb72b685b	-1.0216691e-05
44	0xb745806f	-1.1772018e-05
45	0xb6680e11	-3.4578882e-06
46	0xb603b8ba	-1.9628046e-06
47	0xb619f466	-2.2941035e-06
48	0xbaa313c2	-0.0012441801
49	0x3993e19e	0.00028206123
50	0x397211e4	0.00023085583
51	0xbaa3f45d	-0.0012508739
52	0xba620d3a	-0.0008623187
53	0x3abc6d7c	0.0014375891
54	0xb9845263	-0.00025238385
55	0xb8ccddf8	-9.768823e-05
56	0xba8712ab	-0.0010305246
57	0xb98944aa	-0.00026181835
58	0xba2bb584	-0.000655018
59	0xba566616	-0.0008178664
60	0x39ad12a8	0.0003301103
61	0xbaa27d84	-0.0012397026
62	0xbaa2563a	-0.0012385317
63	0x39a730a4	0.00031888962
64	0xba4cfa2e	-0.0007819262
65	0x3a96114b	0.0011449246
66	0x39849668	0.00025289063
67	0xb9e09454	-0.00042835122
68	0x3985a0f8	0.00025487668
69	0xb9858f55	-0.00025474528
70	0xb8e2a8e0	-0.00010807975
71	0xba08bf28	-0.0005216473
72	0x3983c1a6	0.00025130546
73	0xba10077c	-0.00054942793
74	0xba23db92	-0.0006250675
75	0x3a131c82	0.0005611853
76	0xbae0bd1e	-0.0017146205
77	0xbaae8378	-0.0013314327
78	0xba7b02cf	-0.00095753086
79	0xb9d97640	-0.00041477568
80	0x39de1c6a	0.0004236431
81	0x397684d0	0.00023509865
82	0x3a143e83	0.0005655067
83	0xba96a78e	-0.0011494027
84	0x3a27fcfd	0.00064082426
85	0x39e0a53a	0.00042847713
86	0xb9affd3d	-0.00033567278
87	0xb920844e	-0.00015308076
88	0xb980e661	-0.00024585708
89	0x39dc97da	0.00042074808
90	0x383aaae7	4.450502e-05
91	0x3a87b996	0.0010354992
92	0x3845acd8	4.7129433e-05
93	0xb9df0a27	-0.0004254144
94	0xba412978	-0.0007368545
95	0xba0c3d12	-0.00053496764
96	0x39346388	0.00017203216
97	0xba92d9cc	-0.0011203825
98	0x3ac235b9	0.0014817036
99	0xbac553dc	-0.0015054899
100	0xbb345677	-0.0027517357
101	0x3a0141bd	0.0004930755
102	0x39ca7472	0.000386152
103	0x3a3dbfde	0.0007238368
104	0x3a956810	0.0011398811
105	0xb924a81b	-0.00015702883
106	0x3a14d169	0.00056769565
107	0x3ad1e83c	0.0016014646
108	0x39809b48	0.00024529756
109	0x387be548	6.0056598e-05
110	0xb9d3e082	-0.00040412328
111	0xba08cea0	-0.0005218778
112	0xb9e1f993	-0.00043101292
113	0x38139e54	3.5194986e-05
114	0x3876ac06	5.881118e-05
115	0x3a4bbce2	0.0007771981
116	0xb9c6b3e2	-0.00037899526
117	0x386da1f2	5.6656027e-05
118	0xb9d1e8e5	-0.00040037106
119	0xb8a4a16c	-7.8501966e-05

exp_avg_sq f4 [10, 12]
0	0x394490f0	0.0001874601
1	0x39bb4cb9	0.00035724582
2	0x39ded0a9	0.00042498604
3	0x392e09a6	0.00016597527
4	0x3931feda	0.00016974975
5	0x395f1347	0.00021274119
6	0x38274f0a	3.9889514e-05
7	0x39a6abc4	0.00031789963
8	0x3a5464bc	0.0008102169
9	0x3816e7aa	3.597854e-05
10	0x390adb92	0.00013242502
11	0x3a0cbfcb	0.00053691556
12	0x39277f0f	0.00015973694
13	0x3989691d	0.00026208992
14	0x391e681e	0.00015106841
15	0x38a11ba7	7.682229e-05
16	0x39061b3a	0.00012789379
17	0x391a74db	0.00014730117
18	0x3794e221	1.7748274e-05
19	0x392bae13	0.00016372679
20	0x39d754c1	0.00041071142
21	0x3762eac2	1.35253085e-05
22	0x38d38fbc	0.00010088037
23	0x38b1506e	8.454999e-05
24	0x38ab951a	8.181688e-05
25	0x3900be5a	0.00012277943
26	0x3986e39d	0.00025728057
27	0x392a961f	0.00016268388
28	0x38847218	6.315502e-05
29	0x38f4c9ed	0.00011672438
30	0x378a761a	1.6505877e-05
31	0x38148617	3.541083e-05
32	0x394a48d1	0.00019291347
33	0x381481bc	3.5406774e-05
34	0x39a6ee8a	0.00031839713
35	0x392c00f2	0.0001640355
36	0x375c18ab	1.3118765e-05
37	0x38a73603	7.973241e-05
38	0x381f44a1	3.797247e-05
39	0x3857ae2e	5.1422212e-05
40	0x3708809c	8.136176e-06
41	0x389e9901	7.562526e-05
42	0x3535a734	6.7671067e-07
43	0x36bd5e64	5.6436274e-06
44	0x3801520b	3.0832405e-05
45	0x36da2240	6.5008935e-06
46	0x3803d92a	3.1435084e-05
47	0x377d3e85	1.5094532e-05
48	0x39f8f3b2	0.00047483813
49	0x3a0b8225	0.0005321822
50	0x3b124138	0.0022316705
51	0x3a4fb725	0.0007923714
52	0x39942b93	0.00028261225
53	0x39dc745f	0.00042048373
54	0x39055027	0.00012713727
55	0x3a1a48bf	0.0005885474
56	0x3a2c39e0	0.00065699033
57	0x39046d71	0.00012629271
58	0x3a566be6	0.000817953
59	0x3b3c4a99	0.0028730987
60	0x39ee3af2	0.00045438815
61	0x3943e864	0.00018683221
62	0x394dd1ef	0.0001962853
63	0x384c81fb	4.8758444e-05
64	0x3901ca6a	0.00012377804
65	0x38dc18ad	0.00010495014
66	0x37a09373	1.9142148e-05
67	0x38b31609	8.5394895e-05
68	0x3981c11d	0.00024748678
69	0x36c37cac	5.8259666e-06
70	0x38ca72b1	9.6534735e-05
71	0x398d098f	0.00026900737
72	0x3a0a18c9	0.00052679755
73	0x3a20997e	0.0006126388
74	0x3a797927	0.00095166493
75	0x3a26ee3d	0.0006367898
76	0x3b325069	0.0027208573
77	0x39e8e04a	0.00044417597
78	0x38ed6d1f	0.00011321366
79	0x3a942dc4	0.0011305143
80	0x3ab0cc9b	0.0013488712
81	0x39226271	0.00015486196
82	0x399cd463	0.0002991288
83	0x3a8da364	0.001080614
84	0x3971b582	0.00023051168
85	0x3976e033	0.00023543909
86	0x3a5dc55f	0.00084598915
87	0x3932557b	0.00017007247
88	0x389a42ca	7.355733e-05
89	0x397902eb	0.00023747578
90	0x3813037d	3.505078e-05
91	0x39910ffb	0.00027668462
92	0x39ac7def	0.00032900224
93	0x38c78a67	9.514839e-05
94	0x39554030	0.00020337175
95	0x3a93b6a0	0.0011269636
96	0x39970693	0.00028805863
97	0x391f9335	0.0001521826
98	0x392c61ac	0.00016439584
99	0x38d34b10	0.000100752455
100	0x38bb4b9f	8.9309404e-05
101	0x3921b58a	0.00015421785
102	0x37360359	1.0848825e-05
103	0x3890e3cc	6.9088856e-05
104	0x38af7889	8.367102e-05
105	0x37ab06f1	2.038802e-05
106	0x3976da2f	0.00023541668
107	0x395078e8	0.00019881467
108	0x39aa91f4	0.0003253367
109	0x39efbcf7	0.00045726422
110	0x3af07317	0.0018344846
111	0x3a5d4f16	0.00084422657
112	0x39a367e7	0.00031167196
113	0x3982a77b	0.00024920315
114	0x38d4dd96	0.00010150221
115	0x39b91ba9	0.00035306558
116	0x3a014475	0.00049311604
117	0x397b8c1f	0.00023989425
118	0x3b0ffa5b	0.0021969292
119	0x3ad44fef	0.0016198138

exp_avg f4 [10]
0	0xba435268	-0.0007450939
1	0xba06021a	-0.00051120075
2	0x3992ad9a	0.00027976633
3	0x369e5bf3	4.7194712e-06
4	0x3a905c8f	0.0011013913
5	0xbaa6e85b	-0.0012734042
6	0xba49a474	-0.0007692047
7	0xb9f02637	-0.0004580484
8	0x3a50a2c6	0.00079588254
9	0xba0a2463	-0.0005269704

exp_avg_sq f4 [10]
0	0x39f715a9	0.0004712765
1	0x398b2f1d	0.00026547248
2	0x3900b7a5	0.00012275444
3	0x38680ae0	5.532324e-05
4	0x3a483dbf	0.00076385954
5	0x3953502b	0.00020152393
6	0x3a49b92d	0.0007695135
7	0x39910d35	0.00027666395
8	0x390795cf	0.00012930411
9	0x3a1956bb	0.00058494107

exp_avg f4 [10, 10]
0	0xb9f41a7c	-0.0004655904
1	0x3a3c6d64	0.00071879313
2	0x331912bc	3.5640127e-08
3	0xaed19925	-9.5314236e-11
4	0x390d2a27	0.00013462511
5	0x3966ed80	0.00022022985
6	0xb7ca585b	-2.412142e-05
7	0x38a278b6	7.747246e-05
8	0x331c07c6	3.632865e-08
9	0xb6a6ede8	-4.9748814e-06
10	0xb78e17be	-1.6938775e-05
11	0xb9cc3790	-0.0003895131
12	0xb7a55e1e	-1.971336e-05
13	0xb51309b5	-5.4775893e-07
14	0xb7672a93	-1.37785855e-05
15	0x39686671	0.00022163407
16	0xb94f4a84	-0.00019768818
17	0xb9c82f5f	-0.00038182267
18	0xb884dfad	-6.335913e-05
19	0xb9dde499	-0.00042322723
20	0xb90059bf	-0.00012240464
21	0x38b1ff07	8.48752e-05
22	0xb88aa10c	-6.61035e-05
23	0x35f93ea4	1.8570177e-06
24	0xb8993ce8	-7.306953e-05
25	0x3963d092	0.00021726105
26	0xb8109ccc	-3.4478304e-05
27	0x3a7e0a74	0.00096908887
28	0x37a594cc	1.9738822e-05
29	0xb887da12	-6.4779204e-05
30	0x398482a2	0.0002527433
31	0xb8c26bc9	-9.2707174e-05
32	0xb7d4817a	-2.5332662e-05
33	0x3510bd91	5.3920036e-07
34	0x39b159fb	0.00033827111
35	0xb8b69bf5	-8.7074855e-05
36	0xba27577a	-0.00063835795
37	0xb7572d8a	-1.28256015e-05
38	0xb81dce55	-3.762388e-05
39	0x391aad06	0.0001475104
40	0x36d970e3	6.4802457e-06
41	0xb8f91f59	-0.00011879084
42	0x3891b57f	6.947945e-05
43	0x3614c048	2.216564e-06
44	0x38160b78	3.5773468e-05
45	0xb816fc81	-3.599795e-05
46	0x38956433	7.123537e-05
47	0x3937fc95	0.00017546334
48	0x38bf0d12	9.110024e-05
49	0xb882ef8b	-6.2435014e-05
50	0xb92d5015	-0.00016528399
51	0xb9cf414f	-0.00039530775
52	0xb7edbb59	-2.8339842e-05
53	0xb62766af	-2.494471e-06
54	0xb991a379	-0.00027778352
55	0xb6b2ecae	-5.3323665e-06
56	0xba0ff1f5	-0.00054910715
57	0xb90def46	-0.00013535944
58	0xb700b25b	-7.670921e-06
59	0x3978aab8	0.00023714721
60	0xb1afdda5	-5.1183684e-09
61	0xb9e8302c	-0.0004428638
62	0x38c01c6e	9.160569e-05
63	0xb362091a	-5.2628003e-08
64	0xb88d9dbe	-6.752786e-05
65	0xb87185dc	-5.7583544e-05
66	0xba36f770	-0.000697962
67	0xb842bdf1	-4.64301e-05
68	0x37cb7a22	2.4256358e-05
69	0xb9061ad8	-0.00012789236
70	0xba677744	-0.00088297226
71	0x39811d1f	0.00024626494
72	0x38c5b67b	9.427682e-05
73	0x3180bbb7	3.746631e-09
74	0xb709a38e	-8.203917e-06
75	0x399774c4	0.00028887962
76	0xb512dce9	-5.4710705e-07
77	0x30f69418	1.7940947e-09
78	0x32361c67	1.0600252e-08
79	0x37c98d5f	2.4026898e-05
80	0xb9c5ae42	-0.000377046
81	0xba0ad25c	-0.0005295628
82	0x383a9c61	4.4491495e-05
83	0x311ecbb0	2.310781e-09
84	0x38ba09ff	8.871033e-05
85	0x37a8d2b2	2.0125273e-05
86	0x3921b55d	0.0001542172
87	0xb90cd327	-0.00013430101
88	0xb87b5d2f	-5.9929847e-05
89	0xb9051a4a	-0.00012693662
90	0xb83362fe	-4.276912e-05
91	0xb9ac2d9f	-0.00032840387
92	0x344b9a17	1.8961906e-07
93	0xa735ce7a	-2.5230727e-15
94	0xb29fba6f	-1.8594816e-08
95	0xb8aa628c	-8.1245875e-05
96	0xb50f0add	-5.328746e-07
97	0x3446f40e	1.8528974e-07
98	0x344d2633	1.910601e-07
99	0xb773f158	-1.4540121e-05

exp_avg_sq f4 [10, 10]
0	0x396af216	0.00022406163
1	0x39bcfcdd	0.00036046552
2	0x34d42b9a	3.9519801e-07
3	0x352d9259	6.4660486e-07
4	0x34ce5df9	3.8438864e-07
5	0x373eb29f	1.1366471e-05
6	0x35f3f40f	1.8175941e-06
7	0x3681ffda	3.8742846e-06
8	0x346b66d7	2.1923493e-07
9	0x342b4e7f	1.5954173e-07
10	0x36189b3f	2.274013e-06
11	0x3ac8eab3	0.0015328735
12	0x36fc9adc	7.5282132e-06
13	0x368b85f7	4.1581184e-06
14	0x373c3d7e	1.12199905e-05
15	0x35aa2f07	1.2679674e-06
16	0x38962cdc	7.160913e-05
17	0x39776607	0.00023593764
18	0x35852c3e	9.922148e-07
19	0x37947e3d	1.770176e-05
20	0x381360c4	3.513765e-05
21	0x375ae386	1.3046787e-05
22	0x3714c695	8.867723e-06
23	0x3405436b	1.2411117e-07
24	0x37207cec	9.565829e-06
25	0x3934d7bd	0.00017246506
26	0x3797a76b	1.8078563e-05
27	0x380d699c	3.3715376e-05
28	0x34626f01	2.1088273e-07
29	0x36b95110	5.5228666e-06
30	0x38bee7e2	9.1030975e-05
31	0x384a21c6	4.8192007e-05
32	0x3654a9ca	3.1689292e-06
33	0x34a45a48	3.061307e-07
34	0x374e39a9	1.2291982e-05
35	0x37f9b5b0	2.9767718e-05
36	0x37f02e5c	2.8631817e-05
37	0x37e0f489	2.6816751e-05
38	0x34b76c98	3.416542e-07
39	0x36a826f5	5.0113254e-06
40	0x38f4df83	0.00011676459
41	0x372059fb	9.557693e-06
42	0x37a80bd1	2.0032663e-05
43	0x34f5eaad	4.5805555e-07
44	0x37c23adb	2.3154009e-05
45	0x3a272a51	0.000637685
46	0x37accad1	2.0598442e-05
47	0x36a3c391	4.8805455e-06
48	0x363aa5e2	2.7812716e-06
49	0x3725c117	9.879724e-06
50	0x3930fe46	0.00016879392
51	0x394a169a	0.00019272641
52	0x35650356	8.5314e-07
53	0x33410a19	4.4945498e-08
54	0x371f3ca7	9.49126e-06
55	0x35f5e30d	1.8320003e-06
56	0x37f7a500	2.9521529e-05
57	0x38c7036d	9.4896975e-05
58	0x348785e5	2.524313e-07
59	0x371da5c3	9.396524e-06
60	0x339b1b8c	7.222761e-08
61	0x388a8750	6.605557e-05
62	0x36993326	4.56571e-06
63	0x3483f6ca	2.4580214e-07
64	0x36e415c9	6.7974656e-06
65	0x394dd0b0	0.00019628066
66	0x3899c241	7.331791e-05
67	0x36365454	2.7169199e-06
68	0x348f272b	2.6664324e-07
69	0x370fb3bb	8.565311e-06
70	0x3adeb536	0.0016991261
71	0x380a3f07	3.2960463e-05
72	0x372a7107	1.0159106e-05
73	0x31fb9e80	7.323081e-09
74	0x32ae12b1	2.0264766e-08
75	0x38df1b15	0.00010638513
76	0x33c6aea5	9.251861e-08
77	0x358aa71f	1.033044e-06
78	0x32d6b10f	2.4993396e-08
79	0x346043e9	2.0886331e-07
80	0x3915a069	0.00014269505
81	0x38355c37	4.3239645e-05
82	0x3601074f	1.9226752e-06
83	0x313c4575	2.7397082e-09
84	0x36d680dd	6.3926987e-06
85	0x37877cb9	1.6151333e-05
86	0x35609129	8.365774e-07
87	0x37fd68b1	3.0208701e-05
88	0x33a68218	7.753641e-08
89	0x36b8ebcd	5.511078e-06
90	0x37f5dbe5	2.9308672e-05
91	0x38468e7e	4.7339585e-05
92	0x342ad6a4	1.591057e-07
93	0x32a11b32	1.8755234e-08
94	0x3687dbc2	4.0488967e-06
95	0x382c4d76	4.1080137e-05
96	0x35700b2d	8.942323e-07
97	0x36891f2d	4.0865475e-06
98	0x36735f71	3.6265376e-06
99	0x343cc979	1.758216e-07

exp_avg f4 [10]
0	0xbbff2ae2	-0.0077870945
1	0xb942aef5	-0.00018566458
2	0x3c572248	0.013130732
3	0xba6ce446	-0.0009036701
4	0x373dc760	1.13116985e-05
5	0xb85fe76e	-5.338288e-05
6	0x392b9a28	0.00016365258
7	0xb974bec4	-0.00023340719
8	0xbc73255d	-0.014840451
9	0xb9c86332	-0.0003822088

exp_avg_sq f4 [10]
0	0x3c18740d	0.009305012
1	0x39707702	0.00022932517
2	0x3b8630e6	0.0040951846
3	0x39ce29d4	0.00039322546
4	0x38bb4678	8.929981e-05
5	0x38ebdbe8	0.00011246634
6	0x38dcddb2	0.000105317115
7	0x3a50f114	0.0007970494
8	0x3afb45e7	0.0019170613
9	0x3814e9f1	3.5503825e-05

exp_avg f4 [6, 10]
0	0xb9e6c64a	-0.00044016755
1	0x391c77fb	0.00014922016
2	0xbad87211	-0.0016513487
3	0xb78dd084	-1.6905607e-05
4	0x383e6c51	4.5400408e-05
5	0x38558fbe	5.0917028e-05
6	0x390582b5	0.0001273256
7	0xba67d411	-0.0008843551
8	0xba2dcaa7	-0.0006629624
9	0xb6f96da4	-7.433542e-06
10	0xba74ef24	-0.0009343496
11	0xb98af4ed	-0.00026503895
12	0xb806fc50	-3.2183074e-05
13	0xb985dfb0	-0.00025534397
14	0x388814d0	6.488862e-05
15	0xb9a0a71f	-0.00030642093
16	0xb9904683	-0.00027518356
17	0x390d47e8	0.00013473595
18	0x3a08ed38	0.00052233366
19	0x374e081d	1.2280446e-05
20	0xba60e8aa	-0.00085795915
21	0x38a42bbe	7.828277e-05
22	0xbad74486	-0.001642362
23	0xb93a4fef	-0.0001776812
24	0x38b1e35c	8.482367e-05
25	0x3851cea1	5.002192e-05
26	0x382cfe5a	4.124488e-05
27	0xbabbf8e3	-0.0014341142
28	0xba284451	-0.00064188713
29	0xb723559e	-9.735491e-06
30	0x3ad9a390	0.0016604532
31	0xb7e20beb	-2.694685e-05
32	0xbaf258f1	-0.0018489641
33	0xb96aaffd	-0.0002238154
34	0xb75a85a9	-1.3024933e-05
35	0xb802848c	-3.111786e-05
36	0x398265d6	0.00024871406
37	0x3a590f34	0.00082801585
38	0xba599a42	-0.0008300879
39	0xb7c6fbde	-2.3720724e-05
40	0xb99e8268	-0.0003023327
41	0x3912a92b	0.00013986665
42	0xb99064c7	-0.00027540905
43	0x3a02cf12	0.00049899623
44	0xb8febab4	-0.0001214644
45	0xb82798c7	-3.9958188e-05
46	0x39a9e58f	0.00032405226
47	0xb98347fd	-0.00025039903
48	0xba15c42d	-0.00057131314
49	0xb6815488	-3.8543403e-06
50	0x3ae66e72	0.0017580523
51	0xb8cfddb8	-9.9118275e-05
52	0x3abd7022	0.0014452974
53	0x39ac6a77	0.0003288572
54	0xb91c4912	-0.0001490454
55	0x393bca89	0.0001790916
56	0xb8e95da5	-0.000111277484
57	0x3ad9cfc2	0.0016617703
58	0x3a2aa781	0.00065099454
59	0xb44218b0	-1.8076639e-07

exp_avg_sq f4 [6, 10]
0	0x3705adc1	7.967873e-06
1	0x35ef2135	1.7816552e-06
2	0x3828abab	4.02142e-05
3	0x37325670	1.0629752e-05
4	0x36ec6891	7.045521e-06
5	0x36933be7	4.387915e-06
6	0x3684ffa5	3.9636675e-06
7	0x38a43b84	7.831215e-05
8	0x390de1b7	0.00013530893
9	0x3396974f	7.012442e-08
10	0x37fc4a13	3.0075234e-05
11	0x369af635	4.61822e-06
12	0x3843aad5	4.6650723e-05
13	0x37711eab	1.437186e-05
14	0x369bf1bc	4.6475016e-06
15	0x36c995ae	6.007692e-06
16	0x367dac83	3.7800353e-06
17	0x38324832	4.2505744e-05
18	0x3986fbc2	0.00025746046
19	0x347d7e0b	2.3608315e-07
20	0x36e1fbc7	6.7348333e-06
21	0x353b4893	6.976854e-07
22	0x3892d927	7.00227e-05
23	0x3767e6f0	1.3822442e-05
24	0x3696af73	4.4907733e-06
25	0x3607d57a	2.0240827e-06
26	0x3605100d	1.9827887e-06
27	0x3881de73	6.192634e-05
28	0x38c2ed12	9.294799e-05
29	0x32e35bd7	2.6468042e-08
30	0x37c7c899	2.381606e-05
31	0x35d0a9d1	1.5546631e-06
32	0x388bc707	6.665108e-05
33	0x377c3bdb	1.5034307e-05
34	0x37481501	1.1925819e-05
35	0x366e7122	3.5530616e-06
36	0x36618492	3.3604779e-06
37	0x3951f1b8	0.0002002184
38	0x395ae6e0	0.00020876108
39	0x34ab7b0d	3.1940763e-07
40	0x3781bb1e	1.5465132e-05
41	0x35a313f2	1.2150251e-06
42	0x386b8146	5.614876e-05
43	0x37760c81	1.4665654e-05
44	0x36150bcd	2.22096e-06
45	0x3609923b	2.0499708e-06
46	0x35c3e452	1.4595082e-06
47	0x3844f936	4.6962137e-05
48	0x3985e63a	0.0002553927
49	0x33e1640e	1.0495579e-07
50	0x371e2323	9.425715e-06
51	0x3558025d	8.046971e-07
52	0x3809948e	3.2801698e-05
53	0x371ecf26	9.465764e-06
54	0x367ed852	3.7974864e-06
55	0x35ce37aa	1.5364396e-06
56	0x35bd225e	1.40916e-06
57	0x388d8638	6.748404e-05
58	0x38dfb306	0.00010666814
59	0x33ad0679	8.0571176e-08

exp_avg f4 [6]
0	0xbb5fd2aa	-0.0034152665
1	0xb7e1eb90	-2.6931782e-05
2	0xbb849020	-0.0040455014
3	0xbb8cbb69	-0.004294802
4	0xbb032737	-0.0020012388
5	0x3b892c14	0.0041861627

exp_avg_sq f4 [6]
0	0x3a4980a0	0.0007686708
1	0x3a3cc6b5	0.00072012405
2	0x3a95f427	0.0011440561
3	0x3a7e231b	0.0009694562
4	0x3a8da2d2	0.001080597
5	0x3a52a1bf	0.00080349663

exp_avg f4 [10, 6]
0	0x3a8fb965	0.0010965286
1	0xb9f38f90	-0.00046455534
2	0x3aa339ac	0.0012453101
3	0x3aefdc7e	0.0018299965
4	0xba28ee0b	-0.00064441626
5	0x39b8297a	0.00035126117
6	0xb8642033	-5.4389424e-05
7	0x385cc87a	5.2638796e-05
8	0xb7d89382	-2.5817895e-05
9	0x393335bf	0.00017090792
10	0x373d788e	1.1293347e-05
11	0xb78fe0c9	-1.7151602e-05
12	0x3a907cce	0.0011023523
13	0xba7a550e	-0.00095494173
14	0x399017af	0.00027483466
15	0x3a3cff7f	0.0007209703
16	0x3b05c819	0.0020413457
17	0xb8f32e9c	-0.000115958246
18	0x3782f934	1.5613252e-05
19	0xb99123f4	-0.00027683342
20	0xb9857ee7	-0.00025462286
21	0x395d07d6	0.00021079122
22	0x3a8f9fc7	0.0010957652
23	0x3861cb28	5.3833384e-05
24	0xb544c89c	-7.3307615e-07
25	0xb986981c	-0.00025671802
26	0x38107f5b	3.4450884e-05
27	0x389a05df	7.344386e-05
28	0x37a73449	1.9932299e-05
29	0xb91bbfca	-0.00014853399
30	0xbabd3cc3	-0.0014437664
31	0x3a8f6793	0.0010940902
32	0xba16d976	-0.000575445
33	0xba5c9a0a	-0.00084152876
34	0xba8439cd	-0.0010088027
35	0x38775a02	5.8973215e-05
36	0x37b91c62	2.2066935e-05
37	0xb8ec2c5e	-0.00011261621
38	0xb8a519e1	-7.8726334e-05
39	0x385cd060	5.264615e-05
40	0xb8dc1e40	-0.00010496052
41	0xb8081740	-3.244658e-05
42	0x3a2da48c	0.00066239457
43	0xbb061e2c	-0.0020464761
44	0xba2a0ef0	-0.0006487211
45	0xbac23fb8	-0.0014820015
46	0xb9894cb9	-0.0002618784
47	0xb73e3670	-1.1337557e-05
48	0xb8ffe658	-0.000122022524
49	0xb9daec91	-0.00041756456
50	0xb9616b7b	-0.00021497712
51	0xbacd66b7	-0.001567087
52	0xb6fe0ca0	-7.5712596e-06
53	0xba61cdf7	-0.000861376
54	0x379d2b58	1.8736042e-05
55	0x3960374e	0.00021382907
56	0x38a0cf7b	7.668041e-05
57	0x398d52cb	0.000269553
58	0x39a031de	0.00030554732
59	0x37a9c25d	2.0236877e-05

exp_avg_sq f4 [10, 6]
0	0x3802524e	3.1071067e-05
1	0x36cdae94	6.1297997e-06
2	0x3831449f	4.2263997e-05
3	0x38219038	3.8519705e-05
4	0x386e5455	5.6822162e-05
5	0x36fd9ef3	7.5584917e-06
6	0x3667f912	3.456666e-06
7	0x37848300	1.5796628e-05
8	0x37724c00	1.4442019e-05
9	0x38230409	3.8865986e-05
10	0x37867574	1.6028738e-05
11	0x36122ccc	2.178177e-06
12	0x37e361d8	2.710607e-05
13	0x37148cc9	8.8542665e-06
14	0x37a45759	1.9590998e-05
15	0x372d752d	1.0338886e-05
16	0x385f596f	5.3250635e-05
17	0x3721ddf9	9.64803e-06
18	0x378c5e26	1.6733142e-05
19	0x375c90a1	1.3146696e-05
20	0x373e6a45	1.1349625e-05
21	0x37260516	9.895555e-06
22	0x37f1ba16	2.8816092e-05
23	0x38147b4d	3.5400783e-05
24	0x376e1abd	1.4192131e-05
25	0x37481915	1.1926769e-05
26	0x380dbc2e	3.3792276e-05
27	0x38087e24	3.2542404e-05
28	0x38431e05	4.651958e-05
29	0x372331a1	9.727112e-06
30	0x37e92f18	2.7797694e-05
31	0x3801e72d	3.0971296e-05
32	0x37bd7d37	2.2588863e-05
33	0x3830ed63	4.2182754e-05
34	0x3824c272	3.928174e-05
35	0x36a7781c	4.9909704e-06
36	0x36248b7d	2.4519097e-06
37	0x3645e0de	2.9486177e-06
38	0x3643a642	2.915404e-06
39	0x36b96a17	5.52578e-06
40	0x3723c9c3	9.762533e-06
41	0x3680212f	3.8185603e-06
42	0x3733096d	1.0671426e-05
43	0x38370328	4.363354e-05
44	0x372b456f	1.02085605e-05
45	0x38ae523c	8.312284e-05
46	0x378dbc78	1.6896272e-05
47	0x36c620a2	5.904659e-06
48	0x38ac3479	8.211373e-05
49	0x38678fd5	5.5208646e-05
50	0x38852dcf	6.350467e-05
51	0x38e41ee3	0.0001087764
52	0x38b72e9d	8.7348024e-05
53	0x372f7300	1.0457588e-05
54	0x36a181ec	4.813299e-06
55	0x36e160e0	6.7168003e-06
56	0x36ebb7c6	7.02494e-06
57	0x37850d13	1.5860924e-05
58	0x3786694f	1.6023083e-05
59	0x364bee80	3.0388182e-06

exp_avg f4 [10]
0	0xb897337e	-7.209832e-05
1	0xb9fc754d	-0.0004815258
2	0x391ffe8f	0.00015258252
3	0xba368466	-0.0006962478
4	0xb7cc6828	-2.4367197e-05
5	0xba932726	-0.0011226877
6	0x37f74550	2.947697e-05
7	0x3ba7ec52	0.005124607
8	0x3b0ca076	0.0021457947
9	0xba79f0c2	-0.0009534472

exp_avg_sq f4 [10]
0	0x37958512	1.782415e-05
1	0x3947e2b8	0.00019062578
2	0x37598d14	1.2967055e-05
3	0x388baefd	6.6606306e-05
4	0x36ba6e9a	5.5561077e-06
5	0x39bfa66b	0.0003655435
6	0x3676cf0a	3.677737e-06
7	0x3a02cb50	0.00049894024
8	0x3a02e4e6	0.0004993215
9	0x3892945b	6.989456e-05

exp_avg f4 [10, 10]
0	0xb9ff6e92	-0.0004871977
1	0xb759d940	-1.298479e-05
2	0xb94e63de	-0.00019682894
3	0x3a7f5708	0.00097404467
4	0x31c8ec3f	5.847624e-09
5	0x3aeff4a4	0.0018307162
6	0xb547efc6	-7.4482193e-07
7	0xb9900404	-0.00027468812
8	0xbabbd678	-0.0014330884
9	0xb8722b8e	-5.773786e-05
10	0xb6ac70f6	-5.13915e-06
11	0xb3016c06	-3.01334e-08
12	0x3b30b723	0.0026964627
13	0xba28065d	-0.00064096396
14	0xa4a8816b	-7.307763e-17
15	0x3b738c9e	0.0037162672
16	0x2bd63df8	1.5222814e-12
17	0x3400ebe1	1.2006741e-07
18	0xb8858c5b	-6.3680774e-05
19	0xb102260c	-1.8939117e-09
20	0xbaa12f5f	-0.0012297443
21	0xb99c96e6	-0.00029867067
22	0xb856093d	-5.103018e-05
23	0xbb64f15c	-0.00349339
24	0xb759c3df	-1.2979813e-05
25	0xb8552952	-5.082164e-05
26	0x371f7c3f	9.506067e-06
27	0x3a0cf1e2	0.00053766195
28	0x39de2769	0.00042372503
29	0x3987740e	0.00025835674
30	0xb9bb04b2	-0.00035670918
31	0xb948b8fb	-0.00019142397
32	0xb6b7ee36	-5.4815564e-06
33	0x377793b9	1.4756742e-05
34	0x38418e5f	4.614738e-05
35	0xba1e961b	-0.0006049589
36	0xb8a05829	-7.645816e-05
37	0x39bd14bd	0.0003606434
38	0xba5abfac	-0.00083446014
39	0xb8af5cba	-8.361922e-05
40	0xb9982c75	-0.00029024822
41	0x35e0554d	1.6714126e-06
42	0xb90a2750	-0.0001317535
43	0xb96a2def	-0.0002233309
44	0x39c04efa	0.00036679936
45	0x385857fe	5.1580362e-05
46	0xb39bc86f	-7.2542086e-08
47	0x3a353d2f	0.0006913719
48	0x39828212	0.00024892442
49	0xb6ad357d	-5.1620286e-06
50	0x39d7658c	0.00041083654
51	0x386b2979	5.606699e-05
52	0xba29b8d9	-0.0006474383
53	0x3a45951c	0.00075371726
54	0xb250ff19	-1.2165196e-08
55	0xba9830c2	-0.0011611211
56	0xb3ca74d5	-9.4276096e-08
57	0x39236afc	0.00015584746
58	0x3af1821c	0.0018425616
59	0xb4a1d590	-3.0143974e-07
60	0x370f8e00	8.556526e-06
61	0xb8e8d129	-0.00011101581
62	0x369f6f5b	4.7515327e-06
63	0x347944a4	2.3214903e-07
64	0xb6a0b31d	-4.789223e-06
65	0x38fe11d2	0.00012114983
66	0xb92730d0	-0.00015944545
67	0x3a8c84ff	0.0010720788
68	0xba101471	-0.000549621
69	0x3813ea80	3.5265926e-05
70	0xb9c855c7	-0.00038210882
71	0x391751e2	0.00014430986
72	0x3a588f04	0.0008261057
73	0x37111089	8.646523e-06
74	0xb90b6c48	-0.00013296411
75	0xba2bc266	-0.00065521
76	0xb957e027	-0.00020587501
77	0x39c4e011	0.00037550976
78	0x3b0243ed	0.0019876913
79	0xb9b2d23a	-0.00034107437
80	0x00000004	6e-45
81	0x00000004	6e-45
82	0x00000000	0.0
83	0x00000004	6e-45
84	0x00000004	6e-45
85	0x00000004	6e-45
86	0x00000004	6e-45
87	0x00000004	6e-45
88	0x00000004	6e-45
89	0x00000004	6e-45
90	0xb6ed5880	-7.073453e-06
91	0xb3a30a87	-7.592194e-08
92	0xb97b3a5b	-0.00023958964
93	0xba86657a	-0.0010253631
94	0x35982e9c	1.1338448e-06
95	0xba267861	-0.00063503353
96	0x38d8fe2e	0.00010347027
97	0xbb1df423	-0.0024101816
98	0xb8deef58	-0.00010630366
99	0xb9b5062b	-0.00034527606

exp_avg_sq f4 [10, 10]
0	0x3710c56b	8.629034e-06
1	0x36eb8eaf	7.0201563e-06
2	0x37932f67	1.7545839e-05
3	0x380ea219	3.4006403e-05
4	0x3411867c	1.3553102e-07
5	0x381ca02a	3.7342463e-05
6	0x33c94fb3	9.374289e-08
7	0x3709ac51	8.205957e-06
8	0x388a2d95	6.588843e-05
9	0x3594ab62	1.1076738e-06
10	0x3229de96	9.887705e-09
11	0x315be212	3.19972e-09
12	0x37f1d294	2.8827497e-05
13	0x3860b2bc	5.357222e-05
14	0x329e1f0b	1.8407738e-08
15	0x380b4cfd	3.3211883e-05
16	0x348fcc65	2.6784542e-07
17	0x335f477e	5.1986255e-08
18	0x36e4d68b	6.8199056e-06
19	0x3004d953	4.8330157e-10
20	0x38f100f8	0.00011491956
21	0x37d1210c	2.493013e-05
22	0x3545baf5	7.366028e-07
23	0x3a25103a	0.00062966684
24	0x34c7a0ca	3.7183628e-07
25	0x385b978d	5.235481e-05
26	0x3609e71f	2.054912e-06
27	0x3734325a	1.0740559e-05
28	0x39b84fd3	0.00035154689
29	0x367a8877	3.7332336e-06
30	0x3835b1fa	4.3319516e-05
31	0x36ff8c24	7.6159067e-06
32	0x36e5e28a	6.8511044e-06
33	0x342577c0	1.5410387e-07
34	0x35a2ec6b	1.2138747e-06
35	0x376db2c7	1.4167926e-05
36	0x348934c7	2.555664e-07
37	0x376a9d0a	1.398405e-05
38	0x39199f6f	0.0001465061
39	0x37ac8bef	2.056916e-05
40	0x37916191	1.733078e-05
41	0x35cd4584	1.5293922e-06
42	0x36d6f576	6.4062724e-06
43	0x38dd4562	0.00010551025
44	0x361dd161	2.3516698e-06
45	0x38ea244f	0.000111647525
46	0x35dc5e5e	1.6418742e-06
47	0x36a4cf82	4.911738e-06
48	0x38c19d73	9.232284e-05
49	0x36dfa9ca	6.665684e-06
50	0x37983cd4	1.8148137e-05
51	0x362d7654	2.5847885e-06
52	0x37b1fcd2	2.1217773e-05
53	0x38f7c39e	0.00011814314
54	0x36a63add	4.954038e-06
55	0x3927523d	0.00015956997
56	0x31e0b211	6.539502e-09
57	0x36dc473d	6.564804e-06
58	0x38d27030	0.00010034477
59	0x349f7e71	2.9708056e-07
60	0x3736cfd1	1.0896431e-05
61	0x36df64e4	6.657663e-06
62	0x37579936	1.2850671e-05
63	0x3655d2f0	3.1862255e-06
64	0x35eb2c7b	1.752181e-06
65	0x351f5983	5.936237e-07
66	0x3497d687	2.828203e-07
67	0x371a1f38	9.186384e-06
68	0x3844e030	4.6938832e-05
69	0x37052a77	7.937305e-06
70	0x37be7fdf	2.270931e-05
71	0x37bd276b	2.2548911e-05
72	0x379d7476	1.877009e-05
73	0x338f29fa	6.666592e-08
74	0x358024f8	9.547502e-07
75	0x37965641	1.7921559e-05
76	0x3686163c	3.9960996e-06
77	0x36ff7288	7.6129254e-06
78	0x395c14ef	0.00020988633
79	0x37b6f2df	2.1809186e-05
80	0x2ba461ee	1.1680082e-12
81	0x2a92049a	2.5938003e-13
82	0x00000000	0.0
83	0x2eb507c9	8.23231e-11
84	0x27dad1d7	6.0734664e-15
85	0x2c6abbe8	3.335771e-12
86	0x2a43ba79	1.7384175e-13
87	0x28393396	1.0280749e-14
88	0x2d6ca6fd	1.3452126e-11
89	0x2c4d5bc6	2.9183197e-12
90	0x372dea20	1.0366115e-05
91	0x36150ac5	2.2209e-06
92	0x37b58aad	2.1641457e-05
93	0x3904f835	0.00012680965
94	0x354e79ba	7.6918116e-07
95	0x37fc02f2	3.0042112e-05
96	0x34d937fd	4.0460137e-07
97	0x377ad1dc	1.4950023e-05
98	0x35eba991	1.7558215e-06
99	0x382b2692	4.08055e-05

exp_avg f4 [10]
0	0x3abb66b6	0.0014297578
1	0x3ae38844	0.0017359336
2	0x3b33d477	0.0027439871
3	0xbaa93fe0	-0.0012912713
4	0x3a8db1b7	0.001081041
5	0xba2c19ec	-0.0006565142
6	0x3b0bf64f	0.0021356528
7	0xba6f8132	-0.0009136378
8	0x00000004	6e-45
9	0xbb953b84	-0.004554214

exp_avg_sq f4 [10]
0	0x38b29ac2	8.516527e-05
1	0x38d416f9	0.00010113227
2	0x3959008d	0.00020694938
3	0x39b454d5	0.0003439548
4	0x38fb9fa1	0.00011998346
5	0x393e4e88	0.00018149067
6	0x38cc35a8	9.737472e-05
7	0x399a839a	0.0002947122
8	0x2d4b92e7	1.1571833e-11
9	0x39168ac9	0.00014356816
