checkpoint/MLP_ckpt_train_model1.pt (torch, 9882 bytes, 18 tensors)

linear.0.weight f4 [10, 12]
0.24836162 0.40658107 -0.019190531 0.7745803 0.67893296 -2.1309338 -0.12516844 -0.21726584
0.25636366 -0.4268423 -1.0197067 -0.3082706 -1.4429044 0.036845483 0.8285626 -0.9850029
-0.6518073 -0.7290722 -0.3222487 0.52086854 1.0768577 -0.69367975 0.12756348 -0.41460615
-0.09734161 -0.1314767 -1.0272177 0.34279576 0.2619301 0.054432895 0.55731535 -1.1734153
-0.4295753 0.36299378 0.48034683 0.62165725 0.11473339 0.2816164 0.10397185 1.050933
0.4724715 -2.1049352 -0.21575363 -0.21751903 0.26989728 -0.57461023 -1.0786235 -0.41457245
-1.340232 -0.0378348 1.0856112 -1.2132621 -0.3994629 -1.5716401 -0.20947841 0.64212155
1.091565 -0.8849869 0.8150721 -0.6474535 -0.47428977 1.0842601 -1.6553587 0.20291753
1.2168667 0.30648646 -0.49666902 0.77118236 0.37765297 -0.16797078 0.06415318 -1.6942416
-1.3094085 0.071667165 0.33924687 -0.8961936 -0.3964505 -0.8962947 -0.1448771 0.7862483
1.0854238 -0.5726362 -0.0087979175 -0.14723913 -0.6088256 1.1968571 -1.6260537 0.54048574
1.0089613 -0.02975752 -0.887291 1.0050443 0.18282391 -0.2815978 -0.07702756 -1.3883946
-0.4363146 1.0718602 -1.503555 0.22514935 1.1586267 0.15923382 -0.5718363 0.76841
0.5268929 -0.16743761 0.18111669 -1.6279165 -0.16746794 0.4612004 -0.44944215 0.6722639
0.5473687 -1.2687961 -3.0725372 0.06870174 0.24056943 -0.49018928 -0.43632004 -0.5223331
00000000: 8252 7e3e 652b d03e 7635 9dbc e54a 463f
00000010: 8dce 2d3f 3861 08c0 282c 00be f07a 5ebe
00000020: 1942 833e 138b dabe c085 82bf a5d5 9dbe
00000030: 17b1 b8bf 4aeb 163d ae1c 543f 2629 7cbf
00000040: d8dc 26bf 7aa4 3abf c8fd a4be a457 053f
00000050: 79d6 893f ff94 31bf 00a0 023e 4247 d4be
00000060: 0a5b c7bd d4a1 06be df7b 83bf ed82 af3e
00000070: b41b 863e 07f5 5e3d 38ac 0e3f 7932 96bf
00000080: 4bf1 dbbe 52da b93e 05f0 f53e ee24 1f3f
00000090: 57f9 ea3d 0630 903e 31ef d43d f984 863f
000000a0: c9e7 f13e 42b7 06c0 85ee 5cbe 4fbd 5ebe
000000b0: fa2f 8a3e a819 13bf 5610 8abf d742 d4be
000000c0: b98c abbf aaf8 1abd 4ff5 8a3f 2c4c 9bbf
000000d0: 6786 ccbe 812b c9bf 8281 56be 1462 243f
000000e0: 67b8 8b3f 808e 62bf 91a8 503f 83bf 25bf
000000f0: 1cd6 f2be 09c9 8a3f cbe2 d3bf 9dc9 4f3e
00000100: 4ac2 9b3f cbeb 9c3e 674b febe 356c 453f
00000110: bb5b c13e 8800 2cbe be62 833d e9dc d8bf
00000120: b39a a7bf 3cc6 923d c4b1 ad3e f26c 65bf
00000130: 8ffb cabe 9273 65bf aa5a 14be 9247 493f
00000140: 2bef 8a3f 4998 12bf 2425 10bc dbc5 16be
00000150: ffdb 1bbf 9d32 993f 8722 d0bf 465d 0a3f
00000160: a525 813f 0bc6 f3bc 8125 63bf 4ba5 803f
00000170: 3136 3b3e 962d 90be a0c0 9dbd eab6 b1bf
00000180: a164 dfbe b732 893f 7e74 c0bf 8d8d 663e
00000190: e14d 943f 310e 233e dd63 12bf 85b6 443f
000001a0: 74e2 063f c474 2bbe a776 393e 915f d0bf
000001b0: b77c 2bbe 7522 ec3e 481d e6be 7d19 2c3f
000001c0: 5b20 0c3f e967 a2bf 73a4 44c0 7fb3 8c3d
000001d0: d557 763e 17fa fabe 5765 dfbe 9fb7 05bf

linear.0.bias f4 [10]
-0.93360865 0.86744106 -0.6013599 -1.0366416 0.41639605 -2.2042906 1.0909787 -1.6850544
-2.1117542 -0.8396643
00000000: fa00 6fbf 9e10 5e3f b9f2 19bf acb0 84bf
00000010: dd31 d53e 1913 0dc0 31a5 8b3f ddaf d7bf
00000020: fb26 07c0 3df4 56bf

linear.3.weight f4 [8, 10]
0.94562733 -0.06438987 -1.0291716 1.1625543 -0.07395369 2.9618824 -0.06676117 2.8199072
3.155807 1.4140177 -0.25081348 -1.1079745 0.09828282 -0.20303705 -1.1127694 0.87577134
-0.14544028 0.7493756 0.9752187 0.7503752 -5.171549 -1.861521 0.17645754 -2.630638
-2.1827166 -0.9394171 -2.2833886 -3.0757008 -0.046758376 -1.1657426 -0.11006393 0.9447121
-0.046072517 0.5552987 2.0024743 -0.61826324 1.1056193 -0.5961672 -0.7827155 -0.50889647
1.5223919 0.10755252 -2.8177865 2.510101 0.011996039 -0.75347275 -0.004496797 -0.56585544
-0.88726044 2.782171 -0.1573769 -1.0199918 0.1009548 -0.14972663 -1.3579943 0.8600627
-0.19882129 0.79725873 0.82041806 0.7180881 -0.25841337 -0.8594598 0.072091736 -0.22542804
-1.3555152 0.9322884 -0.2835997 0.8610454 1.0021253 0.8840445 -3.4954827 -0.41054687
0.3302095 -2.663467 -0.57180494 -0.2479208 -0.42263284 -1.2560703 -0.2707177 -1.8551688
00000000: a214 723f d6de 83bd e5bb 83bf 94ce 943f
00000010: 0875 97bd 7b8f 3d40 15ba 88bd 5c79 3440
00000020: bef8 4940 88fe b43f a06a 80be 1cd2 8dbf
00000030: 8148 c93d f2e8 4fbe 3a6f 8ebf 8d32 603f
00000040: 4cee 14be 14d7 3f3f efa7 793f 9718 403f
00000050: 547d a5c0 5246 eebf 49b1 343e 5f5c 28c0
00000060: a1b1 0bc0 a47d 70bf 0a23 12c0 48d8 44c0
00000070: b685 3fbd 0e37 95bf 3369 e1bd a7d8 713f
00000080: 89b6 3cbd 0e28 0e3f 8a28 0040 8046 1ebf
00000090: ef84 8d3f 6a9e 18bf 0b60 48bf 0a47 02bf
000000a0: bddd c23f 7f44 dc3d 9d56 34c0 7fa5 2040
000000b0: 098b 443c 97e3 40bf de59 93bb e7db 10bf
000000c0: 8023 63bf 170f 3240 6927 21be 178f 82bf
000000d0: 64c1 ce3d f051 19be c2d2 adbf 122d 5c3f
000000e0: cf97 4bbe 2619 4c3f eb06 523f 9fd4 373f
000000f0: c24e 84be 8f05 5cbf d5a4 933d 9cd6 66be
00000100: 8681 adbf 74aa 6e3f fb33 91be 796d 5c3f
00000110: a445 803f be50 623f fdb5 5fc0 3333 d2be
00000120: 3811 a93e 3e76 2ac0 cf61 12bf f3de 7dbe
00000130: 5563 d8be e9c6 a0bf 839b 8abe 2c76 edbf

linear.3.bias f4 [8]
0.6408016 -1.6415076 1.4694068 -0.022097727 -0.5431562 -2.0976655 -2.177981 2.7878606
00000000: 930b 243f ec1c d2bf 8615 bc3f 4b06 b5bc
00000010: 490c 0bbf 2740 06c0 0a64 0bc0 4f6c 3240

linear.6.weight f4 [5, 8]
0.8589289 -0.41041678 -1.730179 0.5978141 0.80999696 -1.3306603 -0.6150169 -2.0123541
-6.1957827 -1.7736607 -2.2265909 0.6375931 -0.66577774 -2.8950498 -1.5216416 -3.3737679
-1.0893794 -1.8027079 -0.77320176 0.5640574 -5.4661536 -2.7464106 -1.5597783 0.52689284
-1.194761 -0.997834 3.482494 -3.1087608 -1.7014768 -1.1007187 -0.6614339 2.3532727
0.98654324 1.4491682 -0.5414257 -1.2887986 0.7318964 2.5896277 1.7246006 -1.0527059
00000000: c4e2 5b3f 2622 d2be 8176 ddbf 580a 193f
00000010: f65b 4f3f 1453 aabf bf71 1dbf 69ca 00c0
00000020: da43 c6c0 5007 e3bf 7780 0ec0 4d39 233f
00000030: 6970 2abf 7f48 39c0 27c5 c2bf d0eb 57c0
00000040: c970 8bbf 22bf e6bf 8df0 45bf 1166 103f
00000050: bbea aec0 31c5 2fc0 d1a6 c7bf 73e2 063f
00000060: eeed 98bf 0d72 7fbf 2fe1 5e40 f0f5 46c0
00000070: fec9 d9bf 5ae4 8cbf bb53 29bf 059c 1640
00000080: 198e 7c3f 587e b93f e09a 0abf 5af7 a4bf
00000090: 905d 3b3f 76bc 2540 b6bf dc3f 11bf 86bf

linear.6.bias f4 [5]
0.31606522 5.3811197 5.1374526 -3.4402623 -4.1990466
00000000: 4dd3 a13e 2232 ac40 0366 a440 422d 5cc0
00000010: 975e 86c0

exp_avg f4 [10, 12]
-0.008887094 0.0009863107 0.00030006166 -0.002463782 -0.013227453 -0.0017207884 0.000533342 -0.0013691478
0.0013565411 0.00025719067 -0.0005197953 -0.0066023315 0.0006482898 -0.00089673605 0.00030045514 0.00057827437
0.0014682533 -0.00050324755 -0.00032538292 -0.0005957668 0.000100381716 -0.00040223252 0.0002755071 0.00052108173
-7.187239e-05 0.00014069377 6.5401946e-06 -1.5338275e-05 -0.0003937538 -1.2867429e-05 -3.9317158e-05 0.00019274953
0.0001860964 -5.795e-06 0.00010054996 -0.000111857495 -0.0022623288 0.00092767354 0.001448153 -0.0016970113
0.0009630976 9.982975e-05 -0.00023504009 1.8675637e-05 0.0005287897 -0.00063359924 -0.0014094391 0.0002997734
0.00100326 0.0024390821 -0.00022277364 0.00011979187 5.255758e-05 0.0007897997 -0.00019075749 0.0006361566
0.00057289144 -7.564624e-05 -0.00031311944 -0.0013554299 -9.016521e-05 -0.00023103724 3.970549e-05 -0.000121683195
-0.00029916663 -6.418518e-05 6.689387e-05 -6.2263905e-05 -4.800646e-05 1.3397814e-05 -5.2476455e-05 0.000118884665
0.00059013057 0.0004981794 -0.0010023152 0.00022111143 -0.0016452095 -0.0019019827 3.008885e-06 -0.0002510214
0.00070037635 5.025888e-05 -0.0007112125 -0.0011080684 -0.0012420727 5.2233663e-05 -0.00027769292 -0.00080599217
-0.0014479943 9.464618e-05 -0.0002627551 -0.00012187948 -0.00050997804 -0.00034988596 0.00028943896 -0.00072052766
0.00035443492 -0.00016214162 0.00010804601 5.006784e-06 0.0003947852 7.281468e-05 4.0383256e-05 0.00011020224
-0.00020794297 4.6215595e-05 -1.7579066e-05 0.00038906984 0.0022090364 0.001095189 8.1044374e-05 5.6814977e-05
0.0025904411 2.1240267e-05 -0.00041141052 0.00067247584 -0.0019994185 -0.00029764854 -0.0010100811 0.00079380587
00000000: 2d9b 11bc 1847 813a 9851 9d39 6777 21bb
00000010: f6b7 58bc 148c e1ba facf 0b3a fa74 b3ba
00000020: f7cd b13a 8cd7 8639 df42 08ba 5f58 d8bb
00000030: fef1 293a f012 6bba 6886 9d39 5697 173a
00000040: 6872 c03a 5fec 03ba 2898 aab9 3c2d 1cba
00000050: 0684 d238 bce2 d2b9 f071 9039 3499 083a
00000060: 32ba 96b8 3287 1339 d873 db36 b2aa 80b7
00000070: be70 ceb9 30e1 57b7 7ae8 24b8 cf1c 4a39
00000080: df22 4339 ac72 c2b6 59de d238 0995 eab8
00000090: 9443 14bb 1e2f 733a f4cf bd3a 406e deba
000000a0: 6378 7c3a b05b d138 1875 76b9 a0a9 9c37
000000b0: 7a9e 0a3a 2018 26ba eebc b8ba e82a 9d39
000000c0: d27f 833a 02d9 1f3b 5898 69b9 c538 fb38
000000d0: 4671 5c38 900a 4f3a 1306 48b9 bfc3 263a
000000e0: 182e 163a 44a4 9eb8 2e2a a4b9 aea8 b1ba
000000f0: 1417 bdb8 9642 72b9 7289 2638 2b30 ffb8
00000100: 77d9 9cb9 289b 86b8 5f49 8c38 ae93 82b8
00000110: 8b5a 49b8 2cc7 6037 2a1a 5cb8 b851 f938
00000120: feb2 1a3a 4198 023a 1e60 83ba 26da 6739
00000130: 12a4 d7ba f34b f9ba 40ec 4936 869b 83b9
00000140: 7699 373a 10cd 5238 aa70 3aba 9b3c 91ba
00000150: 0bcd a2ba 7815 5b38 5097 91b9 3849 53ba
00000160: a0ca bdba c87c c638 64c2 89b9 8c99 ffb8
00000170: 0cb0 05ba e670 b7b9 d7bf 9739 cbe1 3cba
00000180: 73d3 b939 8f04 2ab9 c396 e238 f2ff a736
00000190: 2cfb ce39 15b4 9838 3161 2938 611c e738
000001a0: 440b 5ab9 9ed7 4138 c276 93b7 12fc cb39
000001b0: 7bc5 103b 728c 8f3a 5ef6 a938 9e4c 6e38
000001c0: 64c4 293b 202d b237 96b2 d7b9 1749 303a
000001d0: ad08 03bb b60d 9cb9 b364 84ba 6917 503a

exp_avg_sq f4 [10, 12]
0.000102957696 8.689374e-05 2.4751002e-05 1.398814e-05 0.00016955781 2.0171978e-05 3.1923644e-06 2.8653983e-05
1.7416001e-05 1.5898104e-05 1.1523517e-05 7.227115e-05 6.0657185e-06 1.2102926e-05 3.4724667e-06 3.6147458e-06
1.1149903e-05 9.140085e-06 1.0249461e-06 4.234358e-06 5.6173267e-06 9.959862e-07 2.12479e-06 6.6831276e-06
1.8689846e-06 2.6731423e-06 4.319949e-07 3.447835e-07 4.5438615e-06 1.0880287e-06 8.968114e-07 1.4016466e-06
4.4371924e-07 5.229267e-07 1.5347202e-06 1.0431326e-06 2.1820268e-05 2.7989065e-05 1.1064469e-05 2.0144924e-05
2.2731216e-05 1.144058e-05 1.9357192e-06 6.9938683e-06 7.962081e-06 9.750233e-06 1.2483941e-05 1.4549286e-05
1.0530935e-05 1.4237224e-05 5.3230347e-06 5.661922e-06 9.732362e-06 9.520094e-06 3.3764934e-06 3.587271e-06
4.40847e-06 1.1527371e-06 3.4800246e-06 8.220256e-06 1.3940281e-06 7.5528607e-07 6.9724695e-07 1.2560095e-06
1.6111225e-06 4.9756835e-07 1.1852299e-07 8.140205e-07 8.999383e-07 2.9339773e-07 7.849737e-07 1.001519e-06
4.806328e-06 8.426006e-06 2.8884317e-06 2.8766015e-06 1.0801671e-05 8.679413e-06 9.0088605e-07 3.1932625e-06
4.1463845e-06 8.7139523e-07 2.6565294e-06 5.42577e-06 1.0074563e-05 3.3773479e-06 1.6435276e-06 1.8185914e-06
8.609078e-06 1.5607054e-06 4.0117433e-07 6.0681905e-06 2.0048785e-06 5.0921756e-07 1.6466026e-06 2.376853e-06
1.6651669e-06 9.973659e-07 8.5539523e-07 9.758179e-07 1.2941861e-06 5.954664e-07 1.6706562e-07 1.0270195e-06
2.957546e-06 2.4932964e-07 7.653511e-07 1.2894881e-06 2.920812e-05 2.5015777e-05 1.2230113e-05 9.06049e-06
3.9890798e-05 1.1646254e-05 1.8866504e-06 2.0127341e-05 1.3225524e-05 4.008034e-06 9.853702e-06 1.0178503e-05
00000000: feea d738 b93a b638 5fa0 cf37 9bae 6a37
00000010: 54cb 3139 fe36 a937 673c 5636 f65d f037
00000020: 9418 9237 eb5c 8537 2155 4137 4790 9738
00000030: 2088 cb36 ac0d 4b37 8608 6936 dc94 7236
00000040: 7810 3b37 5e58 1937 e190 8935 dc14 8e36
00000050: 787c bc36 d3ad 8535 9d97 0e36 a13f e036
00000060: d2d9 fa35 3c64 3336 edec e734 af1a b934
00000070: 7977 9836 6208 9235 69bc 7035 3620 bc35
00000080: 4f38 ee34 405f 0c35 96fc cd35 c301 8c35
00000090: ab0a b737 0fca ea37 88a1 3937 e5fc a837
000000a0: eaae be37 ebf0 3f37 67e7 0136 dfac ea36
000000b0: e194 0537 ef94 2337 1e72 5137 b518 7437
000000c0: 05ae 3037 69dc 6e37 859c b236 8afb bd36
000000d0: 2d48 2337 7eb8 1f37 b797 6236 d9bc 7036
000000e0: 78ec 9336 bfb7 9a35 5e8a 6936 bbe9 0937
000000f0: 711a bb35 ddbe 4a35 722a 3b35 2894 a835
00000100: bf3d d835 a390 0535 b486 fe33 1083 5a35
00000110: 4a93 7135 4784 9d34 fbb6 5235 ee6b 8635
00000120: 0b46 a136 6c5d 0d37 e1d6 4136 a30b 4136
00000130: d338 3537 cc9d 1137 6bd4 7135 d54b 5636
00000140: 2c21 8b36 d3e9 6935 d446 3236 020f b636
00000150: eb05 2937 65a6 6236 2e97 dc35 5316 f435
00000160: b56f 1037 6e79 d135 fb60 d734 5c9d cb36
00000170: 8d8b 0636 2ab1 0835 d600 dd35 0682 1f36
00000180: b37e df35 3bdd 8535 509e 6535 d9f8 8235
00000190: e5b3 ad35 24d8 1f35 a662 3334 1fd8 8935
000001a0: 417a 4636 9bdb 8534 8772 4d35 7912 ad35
000001b0: f603 f537 f9d8 d137 ef2f 4d37 8202 1837
000001c0: 6b50 2738 4864 4337 d038 fd35 23d7 a837
000001d0: 31e3 5d37 c07c 8636 5451 2537 56c4 2a37

exp_avg f4 [10]
-0.0045617884 0.00063615234 -9.846923e-05 0.00062122487 0.0006478403 -3.998563e-05 -0.0011393109 0.0006271322
0.00017722133 0.0030281837
00000000: 0e7b 95bb 76c3 263a 4481 ceb8 b2d9 223a
00000010: d4d3 293a 3eb6 27b8 ee54 95ba 2166 243a
00000020: 7dd4 3939 7e74 463b

exp_avg_sq f4 [10]
9.042618e-05 9.702573e-06 2.3326863e-06 2.331895e-05 1.3031746e-05 1.0204144e-06 8.923232e-06 4.9876676e-06
1.277458e-06 2.4199519e-05
00000000: 30a3 bd38 3cc8 2237 3f8b 1c36 109d c337
00000010: eca2 5a37 2cf5 8835 fdb4 1537 bd5b a736
00000020: 1f75 ab35 1200 cb37

exp_avg f4 [8, 10]
0.0001989564 0.0058381394 0.00019143621 0.00041538762 0.004775609 -0.00014228882 -0.014988114 -7.324771e-05
-0.00015254147 9.173207e-05 0.0006272932 -3.4007462e-05 1.7464368e-05 0.00047754098 -1.5086019e-05 -1.1642312e-05
0.0009112203 4.179176e-05 -0.0001373647 0.0018033141 0.00018080288 9.041937e-05 -0.00024028786 1.6493232e-05
0.0001241857 7.664874e-06 0.0001780453 6.5868016e-07 -0.0001719049 -4.515218e-05 0.00022425562 4.4463755e-05
0.00016716614 -5.1313087e-05 -0.00014037637 1.0539041e-05 0.00015443745 0.00041895313 0.0001215711 0.00015808968
0.00016781865 -0.0011932224 1.627396e-05 -0.00012317268 0.00041455356 3.196446e-05 0.002358765 6.357319e-05
6.4379645e-05 -0.00015370938 -0.0007037767 -5.2960564e-05 1.748561e-05 -0.0001265526 -9.01649e-06 1.4625856e-05
-0.00072312506 6.440973e-05 3.3425335e-05 -0.0017061583 -0.0003063703 -7.2481045e-05 -1.4075723e-05 -0.0005073674
-7.1041873e-06 -0.00041806552 -0.00033794972 -4.7321893e-05 -0.00033649633 0.0005318363 0.00012063505 0.0013677275
-0.0003740444 1.9595022e-05 8.094692e-05 2.5562093e-05 0.0018402188 6.4975625e-06 -3.5023455e-05 2.4056475e-05
00000000: f49e 5039 dd4d bf3b 44bc 4839 62c8 d939
00000010: b67c 9c3b 5d33 15b9 b590 75bc 919c 99b8
00000020: 8af3 1fb9 4860 c038 ef70 243a 3ca3 0eb8
00000030: 7280 9237 775e fa39 f519 7db7 5953 43b7
00000040: f6de 6e3a 9049 2f38 8e09 10b9 2e5d ec3a
00000050: e795 3d39 889f bd38 c8f5 7bb9 f25a 8a37
00000060: d837 0239 6298 0037 acb1 3a39 28d0 3035
00000070: 5f41 34b9 c961 3db8 2926 6b39 987e 3a38
00000080: 5249 2f39 0239 57b8 ff31 13b9 d6d0 3037
00000090: 7df0 2139 f0a6 db39 fdf3 fe38 e0c4 2539
000000a0: 7af8 2f39 e665 9cba 1084 8837 ea27 01b9
000000b0: 7058 d939 9411 0638 8395 1a3b 9952 8538
000000c0: 8f03 8738 0c2d 21b9 a87d 38ba f921 5eb8
000000d0: 10ae 9237 34b3 04b9 8845 17b7 9361 7537
000000e0: 1a90 3dba b613 8738 2e32 0c38 2ca1 dfba
000000f0: 53a0 a0b9 f700 98b8 c526 6cb7 da00 05ba
00000100: 8160 eeb6 ce2f dbb9 d82e b1b9 7f7b 46b8
00000110: c66b b0b9 ee6a 0b3a 73fd fc38 5245 b33a
00000120: 641b c4b9 fd5f a437 0cc2 a938 2d6e d637
00000130: 7f33 f13a a305 da36 26e6 12b8 e3cc c937

exp_avg_sq f4 [8, 10]
1.8206094e-06 0.0006602545 3.5628855e-07 1.469365e-06 0.00027523664 6.608879e-07 0.0005396743 3.9934204e-07
4.2977692e-07 7.723625e-07 1.5748205e-06 4.921999e-08 2.4234367e-07 2.2732218e-06 1.5037077e-07 1.4900903e-06
6.352168e-07 6.324389e-07 1.1447439e-06 3.969632e-06 6.2228565e-08 9.760789e-07 1.1053161e-06 4.0124437e-08
7.608057e-07 2.5124004e-08 4.1399284e-07 6.6447665e-09 1.6643426e-07 1.4692071e-07 5.2526553e-07 1.987271e-06
1.6952434e-06 8.8851334e-07 1.0184425e-06 2.2239249e-07 1.9701242e-06 3.300494e-07 1.6189188e-07 9.84835e-07
1.0617217e-06 0.0003695838 1.1223374e-07 9.264086e-07 0.00012735298 5.2419824e-07 0.00018323761 3.431412e-07
4.3234036e-07 3.7346345e-07 2.5624854e-06 2.5963226e-08 1.3463314e-07 2.3965847e-06 2.8512817e-08 6.1094875e-07
8.1122687e-07 9.919593e-07 3.9002904e-07 8.6242035e-06 1.5576288e-06 2.991704e-07 6.8210255e-08 1.7016755e-06
4.9715652e-08 9.0852944e-07 3.913619e-07 6.1866876e-07 8.1784486e-07 4.706436e-06 1.13325285e-07 4.279996e-05
1.8914465e-06 7.111383e-08 1.7434597e-05 2.5171536e-07 5.177206e-05 3.6134505e-08 2.5403102e-07 2.4834586e-07
00000000: aa5b f435 ee14 2d3a ed47 bf34 ff36 c535
00000010: a34d 9039 df67 3135 ee78 0d3a 2765 d634
00000020: 17bc e634 5954 4f35 6c5e d335 f465 5333
00000030: 761b 8234 a78d 1836 9a75 2134 1dff c735
00000040: c483 2a35 dfc4 2935 1aa5 9935 e132 8536
00000050: 84a2 8533 d101 8335 5f5a 9435 4955 2c33
00000060: 2b3a 4c35 45d0 d732 be42 de34 fc4f e431
00000070: 1ab5 3234 42c1 1d34 f9ff 0c35 0e5d 0536
00000080: 1f88 e335 2c82 6e35 6bb1 8835 c8ca 6e34
00000090: 7a36 0436 a531 b134 80d4 2d34 ac2e 8435
000000a0: 7b80 8e35 b3c4 c139 2705 f133 50ae 7835
000000b0: 0e8a 0539 a1b6 0c35 7923 4039 f838 b834
000000c0: 681c e834 6d80 c834 2af7 2b36 bd05 df32
000000d0: ad8f 1034 03d5 2036 59ec f432 1400 2435
000000e0: 16c3 5935 7623 8535 2f65 d134 acb0 1037
000000f0: b80f d135 ab9d a034 fc7a 9233 2065 e435
00000100: f086 5533 abe1 7335 5f1c d234 9812 2635
00000110: df89 5b35 faeb 9d36 3c5d f333 1b84 3338
00000120: 9bdd fd35 3eb7 9833 8340 9237 7f23 8734
00000130: d325 5938 4f32 1b33 c261 8834 6554 8534

exp_avg f4 [8]
-0.0013457539 0.00052497373 0.00064770866 -7.937583e-05 -0.00032608095 -0.00012719554 0.00021037222 0.00048696078
00000000: 0264 b0ba 649e 093a feca 293a 9376 a6b8
00000010: d8f5 aab9 cb5f 05b9 5d97 5c39 c54e ff39

exp_avg_sq f4 [8]
2.6966625e-05 7.9994487e-07 2.651238e-06 4.560533e-06 9.712861e-06 6.5830056e-07 4.7791224e-07 1.0869223e-05
00000000: 6336 e237 cbbb 5635 eceb 3136 ae06 9936
00000010: 6cf4 2237 12b6 3035 e149 0035 f55a 3637

exp_avg f4 [5, 8]
-0.003191458 -0.00019862464 2.1333482e-05 0.0018492452 -0.0020330814 1.21965295e-05 -9.795036e-06 -2.1392292e-05
0.00024242068 5.30205e-05 9.883589e-05 -0.00517218 -0.00046157432 2.5042433e-05 6.614525e-05 0.000108264234
-0.00028183678 1.1733724e-05 3.8749436e-05 0.0032810415 0.00015546678 4.2370695e-05 4.046295e-05 1.6156468e-05
-0.00015318811 -7.315729e-07 -0.00015907404 9.747825e-05 2.3201517e-05 3.4117814e-08 3.8154124e-07 -0.00012821992
0.0033840542 0.00013460215 1.5559093e-07 -5.5579374e-05 0.0023159892 -7.9643745e-05 -9.719452e-05 2.5196467e-05
00000000: c827 51bb e545 50b9 4ef5 b237 5f62 f23a
00000010: 723d 05bb b29f 4c37 5c55 24b7 9973 b3b7
00000020: 4e32 7e39 5462 5e38 1d46 cf38 647b a9bb
00000030: 75ff f1b9 3712 d237 76b7 8a38 eb0b e338
00000040: 7ec3 93b9 f6db 4437 e486 2238 be06 573b
00000050: cc04 2339 30b7 3138 c3b6 2938 c087 8737
00000060: 1fa1 20b9 4f61 44b5 1dcd 26b9 3d6d cc38
00000070: e1a0 c237 ef88 1233 a1d6 cc34 c672 06b9
00000080: 02c7 5d3b fd23 0d39 8210 2734 e61d 69b8
00000090: dac7 173b 6906 a7b8 e9d4 cbb8 005d d337

exp_avg_sq f4 [5, 8]
0.00012197045 5.083141e-07 9.610218e-08 9.4424366e-05 3.7042522e-05 3.1380452e-08 1.938427e-07 2.5102625e-07
2.4847145e-07 2.0557584e-07 5.958616e-07 0.00034551736 8.173761e-07 7.546296e-09 2.2290182e-07 5.777112e-07
5.0613005e-07 4.8312923e-08 4.3551336e-07 0.00024813684 1.4851196e-07 7.339747e-09 7.227303e-08 1.0750325e-05
1.6784603e-07 4.262992e-08 1.5520636e-06 3.809504e-07 4.0271324e-08 7.381305e-09 8.354181e-08 1.2357843e-05
0.00012238829 1.8312859e-06 4.5373446e-07 3.413414e-07 3.623499e-05 9.307183e-08 1.6434445e-06 2.2665581e-07
00000000: 63ca ff38 1473 0835 bb60 ce33 b205 c638
00000010: 1b5e 1b38 2cc7 0633 1323 5034 c9c4 8634
00000020: a865 8534 42bc 5c34 4cf3 1f35 8e26 b539
00000030: a869 5b35 f6a4 0132 c956 6f34 0314 1b35
00000040: fedc 0735 9f80 4f33 80d0 e934 5d18 8239
00000050: a876 1f34 1931 fc31 8534 9b33 4b5c 3437
00000060: 2a39 3434 1818 3733 8050 d035 6d85 cc34
00000070: caf6 2c33 a59e fd31 9967 b333 8854 4f37
00000080: 5b55 0039 81ca f535 ca98 f334 9b41 b734
00000090: 06fb 1738 c8de c733 5394 dc35 ad5e 7334

exp_avg f4 [5]
0.0001515741 -0.00052351854 -0.00083119754 0.00036474326 0.0008384
00000000: ddef 1e39 bc3c 09ba b9e4 59ba 033b bf39
00000010: 12c8 5b3a

exp_avg_sq f4 [5]
1.2556239e-06 2.655831e-06 3.1389377e-06 1.250607e-06 5.6071576e-06
00000000: e986 a835 d43a 3236 8aa6 5236 88da a735
00000010: 1e25 bc36
