checkpoint/MLP_ckpt_train_model.pt (torch, 9882 bytes, 18 tensors)

linear.0.weight f4 [10, 12]
-0.90135825 0.28435832 1.5609716 -0.010265494 0.29047036 -1.1785791 0.44214612 -0.38390148
0.30274156 0.52696115 -1.4583576 -0.6357554 -0.8122081 0.41733336 -2.525834 1.0487415
0.62993985 0.7861557 1.1107494 -0.15924412 0.20464836 -0.7239337 -0.056079254 -0.30505192
-0.12422927 -0.15220761 -0.29977193 -0.9018003 0.2897694 -0.022818072 2.6983113 -0.06903402
-0.15412636 -1.5563537 0.92984617 0.33856973 -0.9595805 0.073597796 -3.0023532 1.6729869
0.4595423 1.0127723 0.7826396 -0.33049288 0.20860942 0.77626425 -0.031016175 0.020019943
-1.0204854 0.29104605 1.313048 -0.34660107 -0.3996772 -1.0640603 -0.8631423 0.29927668
0.89787847 0.5033692 -0.48953903 -1.0458426 -0.6940733 -0.17513753 0.3742654 -2.8386993
-0.38310656 -0.77222776 1.1981494 0.4870413 0.52398753 -0.8629803 1.2284985 -0.55109036
0.24194026 -0.39145577 -0.89386874 1.5707393 -0.48795912 1.0472764 2.447832 -1.5764285
-1.4500722 0.5784273 -0.5324752 0.7085202 -0.57304823 0.3353161 1.0008911 0.09305075
0.01488197 -1.3631164 -2.1029036 0.20632331 0.18504885 0.34203598 -1.3045273 -0.22325782
-0.30497026 0.6239516 -0.9300514 0.5860782 0.5445214 -0.99556994 -2.7079885 0.06264227
0.25612217 -0.6080263 -0.3218503 -0.40492558 -0.19797036 -0.11439423 -0.40817413 -0.82641166
0.19211562 -0.31366095 3.6120722 -0.06890918 -0.31311065 -1.2215204 0.9228205 0.31038088
00000000: 6abf 66bf 6a97 913e ebcd c73f 9a30 28bc
00000010: 88b8 943e aedb 96bf fa60 e23e bc8e c4be
00000020: f100 9b3e ede6 063f 76ab babf dec0 22bf
00000030: dfec 4fbf b8ac d53e 44a7 21c0 293d 863f
00000040: bd43 213f 8041 493f 092d 8e3f e410 23be
00000050: 578f 513e b853 39bf 5cb3 65bd c42f 9cbe
00000060: ea6b febd 50dc 1bbe b57b 99be 62dc 66bf
00000070: a85c 943e f7ec babc 22b1 2c40 b561 8dbd
00000080: 4dd3 1dbe 9936 c7bf 660a 6e3f 0359 ad3e
00000090: 11a7 75bf 71ba 963d 8e26 40c0 6f24 d63f
000000a0: 2149 eb3e 86a2 813f 125b 483f 5d36 a9be
000000b0: b59d 553e 41b9 463f a215 febc dd00 a43c
000000c0: 449f 82bf fd03 953e f511 a83f b275 b1be
000000d0: 7da2 ccbe 2133 88bf e5f6 5cbf cb3a 993e
000000e0: 5ddb 653f cedc 003f dca4 fabe 2cde 85bf
000000f0: caae 31bf 4157 33be b79f bf3e 40ad 35c0
00000100: 8b26 c4be b8b0 45bf f65c 993f 7a5d f93e
00000110: 0c24 063f 47ec 5cbf 703f 9d3f 4214 0dbf
00000120: 30bf 773e e46c c8be 95d4 64bf fc0d c93f
00000130: c7d5 f9be 270d 863f 48a9 1c40 69c8 c9bf
00000140: f79b b9bf d013 143f 4b50 08bf 9461 353f
00000150: 4ab3 12bf 8dae ab3e 331d 803f 6491 be3d
00000160: 82d3 733c 997a aebf f995 06c0 6b46 533e
00000170: 727d 3d3e 571f af3e c0fa a6bf b39d 64be
00000180: 1025 9cbe 4bbb 1f3f d917 6ebf 3909 163f
00000190: c165 0b3f acdd 7ebf af4f 2dc0 974a 803d
000001a0: 7222 833e 9da7 1bbf 90c9 a4be 6852 cfbe
000001b0: beb8 4abe 8647 eabd 33fc d0be b78f 53bf
000001c0: f5b9 443e 2b98 a0be 312c 6740 4220 8dbd
000001d0: 0a50 a0be c85a 9cbf f73d 6c3f 3eea 9e3e

linear.0.bias f4 [10]
-0.703689 -0.11925393 0.6199629 -0.05314353 -0.783567 -1.9928247 -0.93189245 -1.4851935
-0.76576835 0.67194617
00000000: f624 34bf 683b f4bd e3b5 1e3f 08ad 59bd
00000010: d997 48bf e114 ffbf 8190 6ebf d21a bebf
00000020: 6509 44bf aa04 2c3f

linear.3.weight f4 [8, 10]
-0.11215089 -0.03861848 2.095529 -0.04436322 -0.06351743 1.0656086 1.2920504 -0.10035632
-2.6823056 2.517833 0.1684644 2.303905 -0.009253274 2.3721738 0.13263844 0.22241122
2.492591 0.18012847 1.1178536 -0.013037212 -0.86037344 1.5371398 -0.029459706 1.7855767
-1.3808122 -0.4663327 2.8234184 -1.5098755 0.3705798 0.24986856 2.6053803 -0.0029657248
0.022220567 0.04684103 2.8513691 1.9358984 0.39622545 2.3192933 -0.103872344 0.37582254
-0.008471925 0.004818341 0.94610023 -0.0060130153 0.029699542 4.7466574 0.3050138 -0.004758739
-1.5669992 1.1635716 -1.0849215 1.559289 -0.042205803 1.8918351 -1.917203 -0.9657128
3.459788 -2.2328792 0.36557573 0.39749393 1.7465428 -0.4035244 -0.04207007 -0.973825
2.0955951 1.2713705 -1.0483404 1.9875729 0.022407286 -0.095976666 -0.09946086 -0.058405746
1.7980989 -0.05269455 -0.013968038 0.80277157 1.4201318 -0.12242146 -2.368446 1.9963416
00000000: 5eaf e5bd 692e 1ebd 261d 0640 35b6 35bd
00000010: 6d15 82bd dd65 883f e861 a53f 9d87 cdbd
00000020: e5aa 2bc0 2d24 2140 ef81 2c3e 2e73 1340
00000030: 0b9b 17bc b2d1 1740 5fd2 073e c4bf 633e
00000040: 9c86 1f40 9973 383e d415 8f3f 089a 55bc
00000050: 6f41 5cbf ffc0 c43f 7b55 f1bc c78d e43f
00000060: 74be b0bf 29c3 eebe e3b2 3440 9a43 c1bf
00000070: a3bc bd3e 8bdd 7f3e 8dbe 2640 9b5c 42bb
00000080: e807 b63c 61dc 3f3d d57c 3640 85cb f73f
00000090: 10de ca3e 4d6f 1440 06bb d4bd d06b c03e
000000a0: d4cd 0abc 2de3 9d3b a033 723f d408 c5bb
000000b0: 744c f33c 9ee4 9740 c52a 9c3e 32ef 9bbb
000000c0: 6e93 c8bf eaef 943f b5de 8abf c896 c73f
000000d0: fedf 2cbd a727 f23f e866 f5bf f438 77bf
000000e0: 2b6d 5d40 7ee7 0ec0 be2c bb3e 5384 cb3e
000000f0: b78e df3f c09a cebe aa51 2cbd 984c 79bf
00000100: 3b1e 0640 45bc a23f 0530 86bf ca68 fe3f
00000110: 7c8f b73c 6a8f c4bd 23b2 cbbd dd3a 6fbd
00000120: 1b28 e63f 3ed6 57bd 33da 64bc 7082 4d3f
00000130: e1c6 b53f 1ab8 fabd 9f94 17c0 1f88 ff3f

linear.3.bias f4 [8]
0.27514035 -0.013144391 -0.44634506 -0.88852537 -0.12588751 -0.7249797 -0.24194969 0.20004794
00000000: 32df 8c3e 925b 57bc 5787 e4be 6676 63bf
00000010: a8e8 00be 4598 39bf a9c1 77be 5ed9 4c3e

linear.6.weight f4 [5, 8]
-3.138885 0.38067347 -1.1135405 0.9575951 -3.2763908 -2.3308277 0.9317224 -4.49995
0.53022885 0.36064467 -2.0859103 0.95700604 1.1705227 -3.5656712 0.9454713 0.4950259
0.49933606 -4.6018143 -4.028154 -3.1336894 0.8364804 -2.5871835 -2.6805453 0.45184833
0.6868624 0.6730464 0.8174199 0.76997036 1.0434766 0.9352049 -1.0295055 0.66819537
-0.26232955 0.75387806 0.8965379 -2.654106 -2.2574844 0.9676689 -0.9373023 -0.3112826
00000000: 7ee3 48c0 a2e7 c23e 7f88 8ebf f424 753f
00000010: 63b0 51c0 482c 15c0 5c85 6e3f 97ff 8fc0
00000020: 14bd 073f 6ba6 b83e 8e7f 05c0 59fe 743f
00000030: b0d3 953f f533 64c0 680a 723f 0974 fd3e
00000040: faa8 ff3e 1042 93c0 a3e6 80c0 5e8e 48c0
00000050: 9423 563f 6a94 25c0 0e8e 2bc0 aa58 e73e
00000060: 37d6 2f3f c54c 2c3f 6e42 513f c71c 453f
00000070: a490 853f 9769 6f3f d6c6 83bf da0e 2b3f
00000080: 0f50 86be 27fe 403f 8283 653f dfdc 29c0
00000090: a07a 10c0 26b9 773f 0bf3 6fbf 6f60 9fbe

linear.6.bias f4 [5]
3.5954866 -1.7205546 3.7669091 -5.3323574 -0.6446729
00000000: 741c 6640 223b dcbf 0a15 7140 aca2 aac0
00000010: 4809 25bf

exp_avg f4 [10, 12]
-3.4839337e-05 -0.0026506542 -0.000379897 -0.0012287375 -0.001756398 -0.00093144557 0.00033734943 -0.000564432
0.0014401611 -0.0009436274 -0.0008178711 0.0008726045 0.0024482813 -0.000161781 1.776142e-05 0.00018118296
0.0009965247 0.0012767517 2.0991982e-05 0.0002331916 0.00093541795 -6.605878e-05 0.0011989689 0.00044010044
0.00025037327 -0.0002435763 -0.00055680296 5.940313e-05 -0.00015227096 0.00027329772 0.00019568163 0.0013937164
0.0005969462 0.00024232297 0.00014324707 -0.0007004087 -0.0007201582 0.00090744905 7.8342666e-05 0.00025340397
-0.00045393367 -0.0015206645 -0.00026647333 0.0002736099 -1.4226476e-05 0.00010161771 -0.00019920815 -0.00042604707
0.00086335087 -0.0018530497 -0.0010606261 -0.00032951043 -0.0010565855 -0.00073301524 0.0008156799 -0.00039985287
0.00083296624 -0.0005509127 -0.0008086724 0.00051147776 0.0006264435 0.00054034055 -0.0005309774 0.0013531474
0.0007249536 -0.00023448575 9.1092035e-05 -0.00031481788 -0.0008846226 2.1529704e-05 -0.0009145094 -0.0012283034
-0.0022710718 -0.002072846 0.0026893853 -0.0018971083 -0.00012020886 0.0014272403 -0.00024401212 -0.001228559
0.0010049796 -0.0004574264 -0.0001324063 0.000854468 -0.00015911489 -0.0015884709 0.00063493726 0.00035815866
0.0001284615 -0.00018994175 -0.000113309514 0.0003514322 0.00033436564 0.00016124694 -0.00024353812 0.00057788333
0.0023402637 0.0033438343 -0.0003177091 0.0010700661 -0.0010199295 0.0015668764 0.0009944078 0.00054444367
0.0022196895 -1.25187e-05 0.0018344854 -0.0012185364 0.0014268279 -0.00036267017 0.0015846083 -0.0007733167
0.00065550394 0.0008990093 -0.00028809905 -0.0023785054 -0.0022368976 -3.9102742e-06 -0.0007560885 0.0019224925
00000000: 7420 12b8 99b6 2dbb ea2c c7b9 970d a1ba
00000010: f036 e6ba 412c 74ba 46de b039 64f6 13ba
00000020: cac3 bc3a c35d 77ba 6766 56ba 7fbf 643a
00000030: 5873 203b c2a3 29b9 5cfe 9437 eefb 3d39
00000040: d29d 823a ae58 a73a f017 b037 e584 7439
00000050: d636 753a 0a89 8ab8 b826 9d3a 48bd e639
00000060: 8844 8339 8468 7fb9 6af6 11ba a027 7938
00000070: edaa 1fb9 6649 8f39 e32f 4d39 5dad b63a
00000080: 627c 1c3a 1418 7e39 9834 1639 a29b 37ba
00000090: 00c9 3cba e0e1 6d3a e64b a438 4edb 8439
000000a0: f2fd edb9 0951 c7ba 72b5 8bb9 4d73 8f39
000000b0: 40ae 6eb7 981b d538 88e2 50b9 125f dfb9
000000c0: 7f52 623a 08e2 f2ba b504 8bba 24c2 acb9
000000d0: 207d 8aba d227 40ba 5ad3 553a 58a3 d1b9
000000e0: 6b5b 5a3a 206b 10ba 16fd 53ba b114 063a
000000f0: e937 243a a4a5 0d3a 4a31 0bba 185c b13a
00000100: d00a 3e3a 4ae0 75b9 aa08 bf38 240e a5b9
00000110: 05e6 67ba b09a b437 b0bb 6fba 06ff a0ba
00000120: 43d6 14bb 96d8 07bb 6640 303b 64a8 f8ba
00000130: a418 fcb8 3d12 bb3a 81dd 7fb9 9907 a1ba
00000140: 85b9 833a bbd2 efb9 8cd6 0ab9 60fe 5f3a
00000150: 14d8 26b9 3d34 d0ba eb71 263a 3ec7 bb39
00000160: 9fb3 0639 1a2b 47b9 95a0 edb8 6e40 b839
00000170: cc4d af39 6514 2939 445e 7fb9 187d 173a
00000180: 1c5f 193b 3b24 5b3b 3292 a6b9 7641 8c3a
00000190: 28af 85ba a65f cd3a ca56 823a ffb8 0e3a
000001a0: 3678 113b 6807 52b7 1e73 f03a 4cb7 9fba
000001b0: 6604 bb3a c424 beb9 a2b2 cf3a 68b8 4aba
000001c0: 20d6 2b3a 7eab 6b3a 000c 97b9 b3e0 1bbb
000001d0: ea98 12bb 0035 83b6 3e34 46ba 25fc fb3a

exp_avg_sq f4 [10, 12]
1.03929915e-05 2.4150691e-05 1.1658932e-05 6.950943e-06 1.3296184e-05 6.2575273e-06 1.1292002e-05 9.72222e-06
1.37435045e-05 4.858295e-06 6.2194513e-06 2.4816083e-05 1.205744e-05 1.0393454e-05 1.5517902e-06 1.1973005e-06
2.5435282e-05 6.84371e-06 8.657454e-07 3.3966849e-06 4.235085e-06 6.887618e-07 3.1365867e-06 1.9115919e-06
2.1891261e-05 1.9095649e-05 1.2913533e-05 8.590167e-06 6.976979e-06 1.096369e-05 1.8215737e-06 7.837062e-06
7.671079e-06 1.2815316e-06 9.7586035e-06 1.1187745e-05 1.590717e-05 1.5568025e-05 1.8855379e-06 2.614852e-06
3.3998884e-05 1.9488729e-05 1.3369131e-06 6.5376335e-06 6.818196e-06 3.2476516e-06 5.0480835e-06 4.8404627e-06
9.491839e-06 2.325248e-05 1.0108121e-05 9.477576e-06 1.1875433e-05 9.818179e-06 1.2037572e-06 7.583758e-06
1.2701266e-05 8.819738e-06 7.401208e-06 1.9864405e-05 2.4712635e-05 4.4460347e-05 2.1612075e-05 2.2905871e-05
1.1061572e-05 2.0377316e-05 1.6713297e-05 1.4792546e-05 2.1863765e-05 2.5405893e-06 1.4898446e-05 1.4503999e-05
1.6493359e-05 1.925371e-05 4.4025583e-05 1.0550771e-05 1.3696368e-05 1.383275e-05 2.7527155e-06 1.3864145e-05
1.5667869e-05 6.5256136e-06 1.2966673e-05 5.230715e-05 8.498269e-06 1.8038727e-05 8.938411e-06 5.8913897e-06
1.0387819e-05 6.1107544e-06 8.2891614e-07 7.5006665e-06 1.56551e-05 1.0020671e-05 5.2332607e-06 2.1479796e-05
1.90325e-05 1.5638256e-05 5.640308e-06 8.32467e-06 1.878867e-05 7.941451e-06 1.3755255e-06 6.5933714e-06
9.3759e-06 9.289281e-07 8.830576e-06 4.5653683e-06 4.059556e-05 3.1764364e-05 2.4311332e-05 1.8681429e-05
1.38434725e-05 2.2483104e-05 2.538568e-06 1.88178e-05 1.6492237e-05 2.2858953e-06 1.9239134e-05 2.0676263e-05
00000000: 8f5d 2e37 3797 ca37 bb9a 4337 253c e936
00000010: ad12 5f37 c0f7 d136 c772 3d37 9e1c 2337
00000020: e793 6637 7004 a336 aeb0 d036 222c d037
00000030: 4f4a 4a37 8c5f 2e37 1b47 d035 efb2 a035
00000040: da5d d537 05a3 e536 9265 6835 9af2 6336
00000050: 1a1b 8e36 5ae3 3835 267e 5236 e648 0036
00000060: 20a3 b737 982f a037 34a7 5837 7d1e 1037
00000070: cb1b ea36 b1f0 3737 cc7c f435 ed7b 0337
00000080: 09b3 0037 1701 ac35 e2b8 2337 00b3 3b37
00000090: 6370 8537 1498 8237 9712 fd35 d17a 2f36
000000a0: 069a 0e38 ba7b a337 fc6f b335 d85d db36
000000b0: dcc7 e436 3bf2 5936 b562 a936 426b a236
000000c0: 233f 1f37 520e c337 0d96 2937 e101 1f37
000000d0: 993c 4737 c2b8 2437 c890 a135 fc77 fe36
000000e0: 8617 5537 7cf8 1337 e557 f836 7ca2 a637
000000f0: fb4d cf37 ef7a 3a38 944b b537 fc25 c037
00000100: 1795 3937 f4ef aa37 8833 8c37 802d 7837
00000110: 1468 b737 fe7e 2a36 57f4 7937 3456 7337
00000120: 385b 8a37 0783 a137 1ca8 3838 3703 3137
00000130: 74c9 6537 3513 6837 4bbb 3836 0d9a 6837
00000140: 7e6e 8337 98f6 da36 708b 5937 6064 5b38
00000150: ca93 0e37 df51 9737 2ff6 1537 a7ae c536
00000160: 5847 2e37 fb0a cd36 af82 5e35 3cae fb36
00000170: 1253 8337 741e 2837 5e99 af36 832f b437
00000180: fca7 9f37 e62e 8337 e041 bd36 2faa 0b37
00000190: 5d9c 9d37 463c 0537 b29e b835 a13c dd36
000001a0: 2f4d 1d37 745b 7935 0927 1437 3730 9936
000001b0: 2745 2a38 ba3a 0538 30f0 cb37 10b6 9c37
000001c0: 4341 6837 199a bc37 445c 2a36 ebda 9d37
000001d0: cf58 8a37 6267 1936 ba63 a137 f071 ad37

exp_avg f4 [10]
0.0013293395 0.0006293808 -0.0008633451 -0.0002671822 -0.0012330541 -0.0013896781 0.0010912968 0.0006827877
-0.001267329 0.0026272857
00000000: 3b3d ae3a 08fd 243a 1c52 62ba 9614 8cb9
00000010: 6e9e a1ba dc25 b6ba d809 8f3a 1bfd 323a
00000020: 811c a6ba 8a2e 2c3b

exp_avg_sq f4 [10]
1.7264807e-05 8.107314e-06 1.8653198e-05 1.2508606e-05 1.756841e-05 4.557364e-05 1.8793417e-05 1.36638955e-05
1.6053616e-05 3.0866046e-05
00000000: e4d3 9037 a604 0837 7079 9c37 0edc 5137
00000010: e05f 9337 5326 3f38 8ea6 9d37 fc3d 6537
00000020: e1aa 8637 2a76 0138

exp_avg f4 [8, 10]
0.0016009369 -0.0005988774 -6.3847634e-05 -0.00016867738 -0.0010319762 0.00022093265 -0.00068174774 -0.0014352145
0.00020176411 0.00018174085 6.251914e-05 -0.0002005041 -0.00074477243 -0.0002569979 0.00045193304 -0.00024208009
-0.00021716843 0.0007777439 0.00043859798 0.001720693 0.00010826805 6.718923e-05 -0.00072134734 -0.0004538407
-3.352118e-05 -0.00010929323 -0.00023906467 -0.00011150623 0.00053929805 0.000595368 -5.190919e-05 0.00014009458
-0.00076655054 0.00361286 -0.00017231565 -0.00019159162 -0.00035916877 -4.8964597e-05 -0.00040053524 0.0013327237
-0.0033774842 -0.00012599767 -0.00016607047 -0.0008975867 -0.0018902223 -0.00036280073 -0.0003547885 -0.0027210598
7.29928e-05 -0.00024134523 0.00010639779 -4.1881452e-05 0.00021731203 4.132766e-05 3.299374e-05 0.00014988391
-0.00026662403 -9.467364e-06 -0.0009093287 0.0013607197 -4.640476e-05 -0.00012623133 -0.0005486117 -1.0598277e-06
-0.00018670526 -0.00027692257 4.6899986e-05 -0.00010867901 -0.00017387902 0.00035767385 -0.0004895186 -0.000606616
-0.000113950846 -0.00031575814 0.00070475845 6.732139e-05 -0.00053523586 -0.0011948252 0.00011138661 0.00017347524
00000000: 87d6 d13a fbfd 1cba f0e5 85b8 fdde 30b9
00000010: 6043 87ba 28aa 6739 51b7 32ba cf1d bcba
00000020: a490 5339 b091 3e39 b51c 8338 693e 52b9
00000030: d53c 43ba adbd 86b9 6df1 ec39 e1d6 7db9
00000040: b5b7 63b9 82e1 4b3a a0f3 e539 e088 e13a
00000050: f70d e338 f1e7 8c38 cd18 3dba 78f1 edb9
00000060: 1899 0cb8 5b34 e5b8 6fad 7ab9 74d8 e9b8
00000070: ae5f 0d3a 7812 1c3a 11b9 59b8 5ae6 1239
00000080: 56f2 48ba bcc5 6c3b a1af 34b9 fce5 48b9
00000090: d14e bcb9 565f 4db8 eefe d1b9 c9ae ae3a
000000a0: c858 5dbb 3e1e 04b9 3423 2eb9 064c 6bba
000000b0: 56c1 f7ba 4a36 beb9 e802 bab9 cf53 32bb
000000c0: b613 9938 9e11 7db9 e121 df38 dea9 2fb8
000000d0: 41de 6339 3d57 2d38 c262 0a38 282a 1d39
000000e0: acc9 8bb9 05d6 1eb7 0460 6eba 2d5a b23a
000000f0: bba2 42b8 f75c 04b9 b5d0 0fba 673f 8eb5
00000100: 50c6 43b9 eb2f 91b9 7ab6 4438 99ea e3b8
00000110: 4b53 36b9 2c86 bb39 0a53 00ba 5005 1fba
00000120: e5f8 eeb8 578c a5b9 8abf 383a e52e 8d38
00000130: 124f 0cba ae9b 9cba 3b98 e938 e8e6 3539

exp_avg_sq f4 [8, 10]
1.0945629e-05 2.3816247e-06 6.362777e-07 4.7295043e-06 1.47631845e-05 1.2231351e-06 1.9206168e-06 7.946345e-06
1.0759686e-07 7.6732016e-07 4.8773277e-06 5.383556e-07 2.1471105e-05 5.0565933e-07 7.0590204e-06 1.0561448e-06
8.608039e-07 3.2931482e-06 1.113931e-06 1.4898684e-05 5.887506e-07 1.0993913e-06 2.71685e-05 2.0988725e-06
1.5663062e-07 1.85353e-07 8.0324463e-07 1.2857735e-07 3.7094821e-06 4.7154717e-05 5.43607e-07 1.8581759e-05
1.8448158e-05 5.5611355e-05 2.7304702e-07 1.0263593e-06 3.4189109e-06 4.7454455e-07 1.4404615e-06 2.1820171e-05
4.8971986e-05 6.716626e-06 2.6162124e-06 1.1032386e-05 6.49749e-05 1.3343866e-06 4.596575e-06 3.281819e-05
2.749272e-07 1.9931103e-06 4.389051e-07 8.165515e-07 1.7448934e-05 1.4601977e-06 7.854157e-08 2.9165827e-07
4.3055078e-07 4.126857e-08 7.2316566e-06 3.369987e-05 6.2331014e-07 2.4551184e-07 1.1742998e-05 4.931543e-07
5.963695e-07 1.4726979e-06 5.549281e-07 5.526329e-07 1.549849e-06 1.1315355e-05 1.8216086e-05 3.4490556e-06
6.419799e-07 5.305728e-06 2.1685486e-05 1.4297757e-06 2.4206358e-06 1.2093712e-05 1.0507722e-07 1.0582231e-06
00000000: 1ea3 3737 00d4 1f36 accc 2a35 22b2 9e36
00000010: 65af 7737 9a2a a435 f2e3 0036 4b51 0537
00000020: 0010 e733 d7f9 4d35 eda7 a336 8483 1035
00000030: d91c b437 a5bc 0735 86dc ec36 dcc0 8d35
00000040: fe11 6735 dbff 5c36 6182 9535 5cf5 7937
00000050: a20a 1e35 cc8e 9335 e9e7 e337 5bda 0c36
00000060: 4c2e 2834 7205 4734 8d9e 5735 130f 0a34
00000070: 6bf0 7836 fec7 4538 63ec 1135 06e0 9b37
00000080: 1ec1 9a37 3d40 6938 4c97 9234 70c1 8935
00000090: 7170 6536 e8c4 fe34 e155 c135 760a b737
000000a0: 4567 4d38 615f e136 3092 2f36 bd17 3937
000000b0: 2243 8838 2d19 b335 473c 9a36 43a6 0938
000000c0: b599 9334 60c1 0536 a8a2 eb34 fe30 5b35
000000d0: 4d5f 9237 03fc c335 afaa a833 3595 9c34
000000e0: 7326 e734 463f 3133 75a7 f236 f658 0d38
000000f0: 8c51 2735 e4ce 8334 cb03 4537 4e61 0435
00000100: 3316 2035 84a9 c535 5ef6 1435 a558 1435
00000110: 6804 d035 14d7 3d37 bfce 9837 5376 6736
00000120: 8654 2c35 db07 b236 3ae9 b537 b8e6 bf35
00000130: 3572 2236 19e6 4a37 d0a6 e133 4508 8e35

exp_avg f4 [8]
-0.00044876683 0.0012573269 -0.00013928897 0.00096905685 0.00016783833 0.00024126834 -0.0007589792 -0.00076051586
00000000: 7748 ebb9 e4cc a43a 190e 12b9 4e08 7e3a
00000010: c2fd 2f39 fafc 7c39 3bf6 46ba 5b5d 47ba

exp_avg_sq f4 [8]
5.90497e-06 1.293014e-05 4.235763e-06 3.8263647e-06 4.866043e-06 2.557646e-06 2.5036925e-06 8.506005e-06
00000000: 4e23 c636 87ee 5837 ed20 8e36 3964 8036
00000010: fe46 a336 06a4 2b36 1c05 2836 03b5 0e37

exp_avg f4 [5, 8]
0.00028033662 -0.0021827165 -9.4690404e-05 0.0007418426 0.00029136328 0.00011517306 0.0020846673 0.00016225176
0.00042706908 0.00054420356 0.00012681342 -0.00085718045 -0.0016371529 4.5579156e-05 -0.0023761422 -0.00016726414
-0.001428643 0.00033634194 0.00017489385 2.475456e-05 -3.9503968e-05 0.00021476479 0.0001554906 -0.0005325049
0.0006633261 0.0009805224 0.0040424955 -0.00018109195 0.0011621944 -0.0018500742 3.0186322e-05 0.0005512794
5.7898895e-05 0.00032165356 -0.0042495104 0.0002716886 0.00022310307 0.0014745528 0.00010580134 -1.3760466e-05
00000000: 25fa 9239 e80b 0fbb 8694 c6b8 3778 423a
00000010: 1ec2 9839 1189 f138 ea9e 083b 2022 2a39
00000020: 3ee8 df39 e2a8 0e3a 38f9 0439 68b4 60ba
00000030: bc95 d6ba 3f2c 3f38 0db9 1bbb a063 2fb9
00000040: 4e41 bbba 0d57 b039 b663 3739 03a8 cf37
00000050: 10b1 25b8 7c32 6139 310b 2339 cd97 0bba
00000060: 10e3 2d3a df84 803a e976 843b 80e3 3db9
00000070: c654 983a 307e f2ba a238 fd37 bc83 103a
00000080: 77d8 7238 9ca3 a839 7a3f 8bbb 6d71 8e39
00000090: c6f0 6939 c845 c13a a9e1 dd38 c0dc 66b7

exp_avg_sq f4 [5, 8]
1.1073579e-06 8.29697e-06 4.290138e-07 0.00013766046 9.804231e-07 1.2964107e-07 8.781997e-05 2.14703e-07
0.00010558097 8.9970257e-07 4.1984308e-07 0.00014651689 5.423775e-05 7.76675e-08 8.8601875e-05 7.9962665e-05
0.0001225195 3.274126e-07 2.6059604e-07 1.5961929e-07 3.356456e-05 1.0044224e-06 5.18999e-07 0.00010162752
0.00015489766 5.324397e-05 3.8996128e-05 6.607818e-06 3.3583816e-05 4.2455213e-05 3.0620996e-07 0.00012493528
1.4240562e-06 5.6755543e-05 4.117159e-05 1.1401164e-06 1.4198272e-06 4.2315067e-05 9.850751e-07 5.91672e-07
00000000: 87a0 9435 3733 0b37 3553 e634 f358 1039
00000010: 1597 8335 7733 0b34 fd2b b838 1c89 6634
00000020: 5a6b dd38 1783 7135 cb66 e134 54a2 1939
00000030: 577d 6338 29ca a633 c5cf b938 a1b1 a738
00000040: 9478 0039 3fc7 af34 0ce8 8b34 d163 2b34
00000050: acc7 0c38 b1cf 8635 5751 0b35 dc20 d538
00000060: 066c 2239 4752 5f38 c68f 2338 b9b8 dd36
00000070: 59dc 0c38 f011 3238 2d65 a434 0f01 0339
00000080: 3322 bf35 cd0c 6e38 a8af 2c38 1a06 9935
00000090: e490 be35 757b 3138 ec36 8435 64d3 1e35

exp_avg f4 [5]
-0.00011873248 -0.0002443904 -0.00067431206 0.0006578573 0.000379578
00000000: 0400 f9b8 8621 80b9 51c4 30ba 0e74 2c3a
00000010: 1902 c739

exp_avg_sq f4 [5]
3.720192e-06 2.6870503e-06 1.7110334e-06 1.4128073e-06 8.8685414e-07
00000000: 69a8 7936 2c53 3436 a9a6 e535 b09f bd35
00000010: 2710 6e35
