checkpoint/MLP_ckpt_train_model2.pt (torch, 9882 bytes, 18 tensors)

linear.0.weight f4 [10, 12]
00000000: c127 913e 2a01 8e3f df0f d6bf f4db b93f
00000010: 4b23 8c3f c5b3 b3bd cb98 9bbf ddec 353f
00000020: 8fcd 293f b2b2 9bbf f20a e23e ff0d 24c0
00000030: bb36 403f 1dcc c2be bf11 f93d d5d1 dbbf
00000040: 7fa7 8f3e d80d 473f 3d5b e0be 4d37 b43f
00000050: d395 0abe eebb 1fbf 255d cb3f 282d 3d3f
00000060: 75e6 e1bf 5a51 333f 3209 433f 5e11 97bf
00000070: bee7 99bf 4fa1 3ebf f3e2 0e3f 8a2a 973f
00000080: 5428 a33f 3308 863e ef79 8ebe 7256 5dbf
00000090: 90e1 643f dbbb 0bbf f2d2 71bf 1135 a0be
000000a0: 1abe c03d 639b 773f dcd2 1c40 ddd5 1ebf
000000b0: d296 31bf e4dd a93e 99e1 783f 2a3e 513f
000000c0: ce3f 63bf 1556 b83f f7c6 ecbf 9c27 0b40
000000d0: c1bc 5e3f dc8c 6abf 46d8 f6bf f391 a1bc
000000e0: e3b2 273f c7c4 8ebf f09e aabe 1558 d1bf
000000f0: d259 07c0 3079 fabd d799 8ebf 86e4 cdbf
00000100: 1053 80bf 148d 69bf 67ea 0a40 cdf4 7f3f
00000110: fac6 b73f 961b ddbf 778e 993f 8d38 11be
00000120: 46df e8be 1ee3 c5be 86d0 d1bf 93dd e83e
00000130: 5874 cb3d f191 023f 2de9 e03f c4ca b9bf
00000140: df5b 4cbf 316c 533e 819e aa3f 96f8 d33f
00000150: bb6a a5bf 2606 863e 7b20 263e c792 2cc0
00000160: 4d38 14bf a73c 68be 9e0b 86bf e36d 933f
00000170: b63b 9f3e d135 cd3e 63dc ca3f 14f8 3e3f
00000180: ab3b bb3e 38a8 c8be 105c 6cbe 2d5b e2bf
00000190: cf78 9a3e 2ef8 c33c 6475 be3e e825 7d3f
000001a0: 7914 e7be 3228 a4bf 40e1 c23f 20d7 933f
000001b0: 2e50 043e 755b 43be ca4c 53be 1ad1 8f3f
000001c0: 3a06 1cbf 35a9 433f b0f3 cd3f aba8 24c0
000001d0: 151f 1cbe ae8e 383f 2d92 833f 9ef9 363f
0.28350642 1.1094105 -1.6723593 1.4520249 1.094827 -0.08774523 -1.2156004 0.7106455
0.6632928 -1.2163908 0.44148976 -2.5633543 0.7508351 -0.3804635 0.12161588 -1.7173411
0.28057477 0.777555 -0.4381961 1.4079376 -0.13533716 -0.6239613 1.58878 0.7389703
-1.7648455 0.7004601 0.76185906 -1.1802175 -1.2023847 -0.7446489 0.5581505 1.1809857
1.2746682 0.2617813 -0.27827403 -0.8646003 0.8940668 -0.5458352 -0.944625 -0.31290486
0.09411259 0.96721476 2.4503698 -0.6204508 -0.6937076 0.33177102 0.97219235 0.8173548
-0.88769233 1.440127 -1.8498219 2.1742926 0.87006766 -0.91621184 -1.9284751 -0.019722914
0.65507334 -1.1153802 -0.33324385 -1.6355006 -2.1148572 -0.12230146 -1.1140698 -1.6085365
-1.0025349 -0.91230893 2.1705568 0.9998291 1.4357598 -1.7274044 1.1996602 -0.14181729
-0.45482844 -0.3864984 -1.6391761 0.45481548 0.099343 0.5100394 1.757116 -1.4515004
-0.79827684 0.2064674 1.3329622 1.6560237 -1.2923197 0.26176566 0.16223328 -2.6964586
-0.5789841 -0.22679387 -1.0472295 1.151791 0.31100243 0.4008012 1.5848507 0.7459729
0.3656896 -0.3919084 -0.23081994 -1.7684075 0.30170295 0.023922052 0.37198937 0.98885965
-0.45132807 -1.2824767 1.5224991 1.1550026 0.12921211 -0.19077857 -0.20634761 1.1235688
-0.60947 0.76430064 1.6089993 -2.5727947 -0.15246232 0.7209271 1.0278984 0.71474636

linear.0.bias f4 [10]
00000000: f7c2 01c0 d402 27bf 94fc 2ebf 26e2 723f
00000010: 58db 903e dde4 42be 13cd 85bf 56f8 0cc0
00000020: 036a a7be d2f1 37bf
-2.0275247 -0.6523869 -0.68354154 0.94876325 0.28292346 -0.19032617 -1.0453209 -2.2026572
-0.32698068 -0.71853364

linear.3.weight f4 [8, 10]
00000000: 96b5 2440 6f4b 22bf b2e6 e53d c781 30c0
00000010: 33a8 0c40 d501 24be ede6 81bf 8b96 6ec0
00000020: faf6 64bf 3412 2dbf add1 dfbd 24b2 c93d
00000030: 6d90 963f 330f adbd f842 cdbe 9273 2e40
00000040: b23c 31c0 662b d83f 8295 053f abb9 02c0
00000050: d247 373f 087c ac3f 9e71 17c0 204c 5bbf
00000060: 42c8 ec3e f746 39c0 20db e63d ce92 16c0
00000070: 7170 28be c8e1 07be 8fe2 5dbf 2f0e 1abf
00000080: b042 f8be 412e 433f a848 e9be ef23 9d3e
00000090: c8e7 703f 65af 76bf e08e 51be 350c 883f
000000a0: 8d38 cebd 865e 8fbf e282 6e3f 9bef f4bf
000000b0: 22ca 94bd d73a 5a40 29de acbf f4d5 0340
000000c0: e1a1 aabf 6ab1 c7be 3a76 73bd 37fb 73bf
000000d0: b1d3 b6bf 70c5 a33f 58ef a0bf 8633 853e
000000e0: fa10 1a40 605d 06c0 1d4b 31bf a795 203f
000000f0: 5686 cdbf 61cd 2b40 5aaa dbbe 2c77 023f
00000100: e4ec 52c0 0feb fdbf 5928 27c0 8f89 9cbe
00000110: a6c9 e53f 57e7 80c0 1588 4b40 0e31 a8bf
00000120: eb88 16bd 4de9 dfbf 85ce e93f c328 23be
00000130: c405 cbbf e2a4 01c0 3447 99bf ef0b 88bf
2.5735831 -0.6339635 0.11225642 -2.757921 2.197766 -0.16016324 -1.0148598 -3.7279384
-0.89439356 -0.676059 -0.10928664 0.09848431 1.1762825 -0.08450165 -0.40090156 2.7258039
-2.7693295 1.6888244 0.52181256 -2.0425823 0.71593964 1.3475351 -2.3663096 -0.8566303
0.46246535 -2.8949564 0.112722635 -2.3527102 -0.16449143 -0.13269722 -0.86673826 -0.6017789
-0.4848838 0.7624245 -0.45563245 0.30691478 0.9410367 -0.9636138 -0.20464659 1.0628725
-0.1006938 -1.1200721 0.9316846 -1.9135622 -0.07265116 3.4098413 -1.3505298 2.0599337
-1.3330652 -0.39002544 -0.05943892 -0.953052 -1.4283353 1.2794628 -1.2573042 0.26015872
2.4072862 -2.0994492 -0.6925524 0.6272835 -1.6056621 2.6844103 -0.42903405 0.5096309
-3.2957087 -1.9837359 -2.6118376 -0.305737 1.7952163 -4.0282397 3.1801808 -1.313997
-0.03675167 -1.7493073 1.826615 -0.15933518 -1.5861135 -2.0256886 -1.1974854 -1.0628642

linear.3.bias f4 [8]
00000000: 1027 f43f 3ef3 443f c40b 35c0 da1f 10c0
00000010: 48eb 983f 1beb c5bf 43b2 063f 4785 2240
1.9074421 0.7693366 -2.828843 -2.251944 1.1946802 -1.5462373 0.52615756 2.5393846

linear.6.weight f4 [5, 8]
00000000: 07f3 e13f 25aa 823e 73c7 88be 98a8 2cc0
00000010: cae3 e93f 192e f8bf d21e a2c0 4801 0440
00000020: c1cd e8bf f336 e53f fb64 8fbf 3e1a ebbe
00000030: 3115 1b40 eeed 17c0 33a9 46bf 0dd3 4fc0
00000040: b610 a9bf ae26 383f f842 07bf 7d77 36c0
00000050: 93c0 35c0 e47c 2ebf c943 3a40 26bd 8dc0
00000060: 8bcd 96c0 b0f7 66c0 f124 9fc0 6d05 c73f
00000070: 4ce9 7bc0 93e7 f43f a0d0 85be e7ac fc3c
00000080: 074c fa3f 2bd0 92bf e563 f23f d39b 953e
00000090: 22c0 a4bf 115d 4fbf 3f88 4ebf 505f 0e40
1.7652291 0.25520435 -0.26714668 -2.6977901 1.8272641 -1.9389068 -5.0662622 2.0625782
-1.8187791 1.7907394 -1.1202692 -0.4591846 2.4231684 -2.373897 -0.7760193 -3.2472565
-1.3208225 0.7193402 -0.5283656 -2.851043 -2.8398788 -0.6815932 2.9103873 -4.4293394
-4.7125907 -3.6088676 -4.9732594 1.5548531 -3.9361143 1.9133171 -0.2613573 0.030844165
1.9554452 -1.1469778 1.8936735 0.29220447 -1.2871134 -0.81001383 -0.80676645 2.2245674

linear.6.bias f4 [5]
00000000: 1e82 ef3f 90ae f4c0 d376 b940 f64c d640
00000010: 5d7a c8c0
1.8711584 -7.646309 5.795755 6.6968946 -6.264937

exp_avg f4 [10, 12]
00000000: 91d0 c2b8 7072 a7b8 7660 ba38 fc0d a536
00000010: 7a97 57b8 0e7f 57b7 5c38 7537 0325 f337
00000020: ec9c 62b7 ef75 8e37 343a 6db7 4d3c c038
00000030: 6a20 d337 5001 01b9 23e6 f037 a4ac be37
00000040: 3df6 0db9 58cf 76b9 b538 8d37 d0d9 a9b8
00000050: e6d0 32b8 46d8 e238 f89f 16b9 d026 5db8
00000060: d5ce 0cb8 540a 9338 1c7d 0639 e635 a6b8
00000070: 0c81 4c37 d57f ce38 f013 d1b7 c610 dd38
00000080: 0286 cfb8 acf0 f5b8 207d 0439 7607 3139
00000090: 82eb d138 8181 6439 c880 2c38 0a57 cbb8
000000a0: 1744 9db8 3af7 3d38 14a5 87b7 9a5e 8238
000000b0: e9c0 cb38 ad93 8338 d26d 12b9 8d65 18b9
000000c0: 3e58 d0b9 919b 8fb9 1e36 8738 cafc 92b7
000000d0: 6e42 60ba b70a 94b9 90fe 90b8 5815 1bb9
000000e0: c314 5339 2718 9c38 a7a2 3739 ca3f 73b9
000000f0: 7174 ac38 db90 0038 f461 72b8 5c3c a539
00000100: c490 1cb8 b852 0fb8 5b40 34b7 9ee9 3d38
00000110: 01fd 5fb8 1c00 9136 3ca2 cc38 7d92 5bb8
00000120: be32 b7b8 2f64 3739 b63c 5c36 9dbd 10b9
00000130: 8a66 8739 b5c1 bb39 c08f 6cb8 b91b aeb8
00000140: aa2a cbb8 e727 fab7 4829 62b8 8173 2c39
00000150: 3466 bcb8 af2f eab7 d4e2 c8b8 5d9f b938
00000160: daab d6b7 20e6 95b9 8004 45b5 a299 c6b7
00000170: e6ff cf37 c0e1 eab6 e844 6fb7 fcfe a137
00000180: c405 1db8 3967 4bb8 f841 54b6 e665 b3b8
00000190: 9c7b 00b9 8c8a 34b9 c6db deb8 f060 1e39
000001a0: ed87 1c38 e4f7 7337 e83a 1fb9 d2a2 17b9
000001b0: fcc2 9db8 6ca3 4c38 b6fe 6fb8 28be 0637
000001c0: 0eb3 5839 8c1d 0bb8 9b4a 7337 80d3 a6b5
000001d0: 57a7 b938 db0b 6838 36cb 0f39 b0d0 d937
-9.2894894e-05 -7.984496e-05 8.8871384e-05 4.919011e-06 -5.1401068e-05 -1.2844581e-05 1.461626e-05 2.8985092e-05
-1.3507186e-05 1.6982636e-05 -1.4139852e-05 9.166505e-05 2.5168254e-05 -0.00012302888 2.8717395e-05 2.2730157e-05
-0.00013538539 -0.0002353763 1.6834916e-05 -8.099119e-05 -4.263306e-05 0.00010816804 -0.00014364708 -5.2726653e-05
-3.357123e-05 7.01143e-05 0.00012825843 -7.925536e-05 1.2189394e-05 9.846656e-05 -2.4924026e-05 0.000105412255
-9.89549e-05 -0.00011727339 0.00012635114 0.00016882815 0.00010009763 0.00021792018 4.1127932e-05 -9.6960066e-05
-7.499026e-05 4.529136e-05 -1.6170125e-05 6.216504e-05 9.7157266e-05 6.2740735e-05 -0.00013964556 -0.0001453368
-0.00039738597 -0.0002739099 6.447382e-05 -1.752227e-05 -0.00085548207 -0.00028236743 -6.913871e-05 -0.00014789903
0.00020130262 7.4431584e-05 0.00017512833 -0.00023198049 8.223288e-05 3.0652485e-05 -5.7788522e-05 0.00031516224
-3.7328122e-05 -3.4170895e-05 -1.074382e-05 4.5278684e-05 -5.340297e-05 4.3213495e-06 9.7576965e-05 -5.2350097e-05
-8.7355715e-05 0.00017489561 3.2817893e-06 -0.00013803547 0.00025825604 0.00035811742 -5.6400662e-05 -8.30213e-05
-9.687741e-05 -2.9820903e-05 -5.3921045e-05 0.00016446227 -8.9835754e-05 -2.7917178e-05 -9.578993e-05 8.851171e-05
-2.5590813e-05 -0.0002859095 -7.339477e-07 -2.367498e-05 2.4795485e-05 -7.000024e-06 -1.4261554e-05 1.9311432e-05
-3.7437087e-05 -4.8495105e-05 -3.162886e-06 -8.554365e-05 -0.0001225308 -0.0001721775 -0.00010626721 0.00015104166
3.731989e-05 1.4541645e-05 -0.00015185366 -0.00014461137 -7.522662e-05 4.878959e-05 -5.721926e-05 8.031297e-06
0.00020666068 -3.31677e-05 1.4501299e-05 -1.2429518e-06 8.852657e-05 5.532415e-05 0.00013713245 2.5965594e-05

exp_avg_sq f4 [10, 12]
00000000: 5fd0 6334 60fd 3334 9b48 3635 cfd3 e734
00000010: 0849 af34 5cb3 b633 5ca8 a633 1eaf 2a34
00000020: f4dd 1d34 488f c232 7586 6334 db53 9035
00000030: c29a a135 dff1 0036 1c54 c135 f8e5 4735
00000040: a748 9035 ec23 2836 1f79 ac33 ee42 c535
00000050: 232c a435 11ef 3c34 3d40 3636 b938 5c35
00000060: 378c f834 c33c a234 4c5b 1f34 eca1 4b34
00000070: 2e71 3534 3539 b734 54a1 1234 7ca7 7c34
00000080: 288a 7c34 24eb cc34 8ce8 5c34 0b99 0835
00000090: 105a 3235 b506 8435 7432 3a35 a724 9c35
000000a0: ca56 3735 607b 9835 b3c0 3835 6b34 5a35
000000b0: 1e2f 9d34 8f51 b835 b4ee 4935 135b 9335
000000c0: 1d89 1237 c9b8 0d37 0e81 8a36 cd8d 6136
000000d0: 08b8 1638 05b4 c435 0c11 9b34 f7ac 1a37
000000e0: 7619 ae35 2aab 1b35 a08d 2b36 6e52 2f37
000000f0: ee07 9635 cf56 ce35 1118 c335 e97e f136
00000100: 4774 e834 712c b535 7e2f 6336 9c7b ad35
00000110: d071 1535 e123 da33 8182 a736 5fd7 5435
00000120: 70ad 8935 bba6 ed35 38e2 d134 2b72 3c36
00000130: baab 4636 56f6 a135 8290 0835 23ea 8835
00000140: 3896 5e35 6bb7 4234 97f1 8736 455f ac35
00000150: 9bda 9135 35ca 0a35 3391 0d35 b376 1935
00000160: 1f63 4234 7862 6535 72a5 6133 69e2 b134
00000170: 2518 6b34 8ca6 1535 eed5 f734 3fb7 c034
00000180: ecf1 3436 9037 1136 f7af 7635 3685 6f35
00000190: 24e6 9836 0aa6 4d36 ded7 8936 d501 d136
000001a0: 14a9 0435 aae9 6235 c230 4835 ff95 9035
000001b0: dc07 1335 dd98 8f35 61e0 e834 e3e0 a534
000001c0: 8374 d535 a405 0136 152a f233 103e c234
000001d0: f4b6 8d34 c572 8833 a125 0435 eaa6 4535
2.1216827e-07 1.6762851e-07 6.790594e-07 4.3181214e-07 3.2649427e-07 8.507661e-08 7.760602e-08 1.5896191e-07
1.470251e-07 2.264973e-08 2.1189938e-07 1.0753241e-06 1.2040475e-06 1.9214274e-06 1.44041e-06 7.4467926e-07
1.0749981e-06 2.505486e-06 8.031406e-08 1.4697123e-06 1.2231798e-06 1.7595836e-07 2.7157505e-06 8.203893e-07
4.629562e-07 3.021906e-07 1.4841243e-07 1.8964755e-07 1.6898113e-07 3.412803e-07 1.3656e-07 2.353026e-07
2.351959e-07 3.8169048e-07 2.0573697e-07 5.0886655e-07 6.6441225e-07 9.836718e-07 6.936382e-07 1.1633573e-06
6.829911e-07 1.1360789e-06 6.8825756e-07 8.1287607e-07 2.927781e-07 1.3732805e-06 7.5225694e-07 1.097886e-06
8.734202e-06 8.447279e-06 4.1277444e-06 3.3610152e-06 3.593418e-05 1.465553e-06 2.8883403e-07 9.219387e-06
1.297142e-06 5.7991076e-07 2.5563422e-06 1.0450005e-05 1.1178179e-06 1.5373461e-06 1.4535636e-06 7.197134e-06
4.329797e-07 1.3498485e-06 3.385328e-06 1.292548e-06 5.5672444e-07 1.01579424e-07 4.9921805e-06 7.928956e-07
1.0257772e-06 1.7706401e-06 3.909388e-07 2.8080638e-06 2.9604257e-06 1.2067128e-06 5.0874235e-07 1.0200932e-06
8.292004e-07 1.8134385e-07 4.0514383e-06 1.2842726e-06 1.0866964e-06 5.1703256e-07 5.2737886e-07 5.716967e-07
1.8103718e-07 8.545244e-07 5.2537366e-08 3.3133554e-07 2.1894864e-07 5.5749183e-07 4.616299e-07 3.5896116e-07
2.6962907e-06 2.1639025e-06 9.1898204e-07 8.9228286e-07 4.556745e-06 3.0644028e-06 4.1080484e-06 6.2288987e-06
4.9419873e-07 8.4531587e-07 7.457676e-07 1.0772491e-06 5.4773204e-07 1.0698819e-06 4.3376625e-07 3.0897272e-07
1.5903646e-06 1.9225781e-06 1.1276658e-07 3.6180472e-07 2.6396413e-07 6.35387e-08 4.922859e-07 7.363111e-07

exp_avg f4 [10]
00000000: 9628 b3b8 de43 54b9 d2e4 2339 2e86 1d39
00000010: 8be2 5ab9 9824 4a37 d760 9639 3861 5b38
00000020: 0a96 3ab8 9457 8438
-8.542945e-05 -0.00020243178 0.00015630134 0.00015022673 -0.00020874494 1.2048658e-05 0.0002868238 5.230421e-05
-4.448559e-05 6.310563e-05

exp_avg_sq f4 [10]
00000000: 36a6 6a34 7db2 e035 47a7 0435 ae11 8b35
00000010: 7eab 4837 0d97 f035 6ce9 dc35 daca 7435
00000020: baa5 0236 6e10 6235
2.1853415e-07 1.6741247e-06 4.941725e-07 1.0361452e-06 1.1960858e-05 1.7925355e-06 1.6459212e-06 9.119227e-07
1.9467975e-06 8.421547e-07

exp_avg f4 [8, 10]
00000000: 5bec 4eb8 ddfb a138 7d40 4938 566e 1f37
00000010: b92e 9ab8 ccd1 9938 5e9c 3cb8 51f4 d737
00000020: c9e4 4038 089e 9ab8 7ffc 2ab7 c579 48b9
00000030: 08c9 09b8 545f 2b3a eed1 91b9 256b 70b8
00000040: 6457 80b7 fb1e 01b7 7219 a8b8 1812 c836
00000050: 9e67 f735 d078 3538 2eb3 3e36 7859 d138
00000060: 7d59 d738 6766 9a37 5ff3 45b9 4672 7f37
00000070: 4138 1738 489d 2ab9 d14a 162d b69d a6b7
00000080: 1e8f 72b6 8ba5 6139 d41d 9238 28f6 7d36
00000090: 7dec 0b39 fddd 9138 4048 2f39 95a4 6538
000000a0: e14b 1d38 ecf6 2639 4264 93b8 7e2d a438
000000b0: 869b 4f39 067e a2b8 e8f4 a5b8 b625 cb38
000000c0: 8b18 13b7 bbe5 9d37 6955 5bb7 5623 88b7
000000d0: 9770 2e36 66f3 34b7 7b32 f5b7 0b2e 2bb8
000000e0: e749 24b8 4a7e 1838 d075 3c37 228f 7837
000000f0: 377a 3238 9a1d adb8 ec3a d1b6 37d8 3fb9
00000100: 1cfd ac36 40a5 2c35 8443 7c36 e0c7 d835
00000110: 6b1e 24b8 9db3 8a36 9210 89b8 0668 c138
00000120: 081b ce38 bf14 77b7 09b9 b9b8 5513 a5b8
00000130: 61d0 3b38 189e 6d38 4494 63b6 6a0c 9238
-4.933435e-05 7.7239914e-05 4.7982194e-05 9.502828e-06 -7.351995e-05 7.334686e-05 -4.496832e-05 2.5743766e-05
4.598944e-05 -7.372728e-05 -1.0191578e-05 -0.00019118849 -3.285057e-05 0.00065373373 -0.00027812965 -5.7320245e-05
-1.5299483e-05 -7.696212e-06 -8.015604e-05 5.962571e-06 1.8433091e-06 4.326628e-05 2.8416503e-06 9.9825615e-05
0.000102686674 1.8405915e-05 -0.00018878047 1.5225791e-05 3.6053596e-05 -0.00016271055 8.543125e-12 -1.9862182e-05
-3.6144115e-06 0.00021519342 6.9673784e-05 3.784322e-06 0.00013344172 6.955487e-05 0.00016716216 5.4751134e-05
3.7502385e-05 0.00015922979 -7.028181e-05 7.828603e-05 0.00019798995 -7.748236e-05 -7.9134305e-05 9.6868185e-05
-8.767597e-06 1.8822835e-05 -1.3073303e-05 -1.6228918e-05 2.5993556e-06 -1.0785507e-05 -2.9229783e-05 -4.0812458e-05
-3.9169474e-05 3.635724e-05 1.1233104e-05 1.4815278e-05 4.255233e-05 -8.2547966e-05 -6.235545e-06 -0.00018295726
5.1554653e-06 6.4315464e-07 3.7590225e-06 1.6151425e-06 -3.9128976e-05 4.1336302e-06 -6.5357555e-05 9.222333e-05
9.8278804e-05 -1.4727178e-05 -8.855953e-05 -7.871414e-05 4.4778342e-05 5.665244e-05 -3.3911938e-06 6.964135e-05

exp_avg_sq f4 [8, 10]
00000000: fa01 7035 901e 5634 98e2 2935 48c0 b833
00000010: 94ea f835 c269 1334 5971 0933 fa7f 2f32
00000020: 77fe 0b34 237e df33 585a c633 0278 a935
00000030: c438 4035 01ab 8336 7446 1035 334a a934
00000040: 5f8c 3832 4cdc 6235 5535 0b35 c6f0 c933
00000050: ec16 2d35 7038 ab34 42e2 bc33 6a82 1e34
00000060: 5517 9836 13b4 c832 748d ed36 7d9d da31
00000070: 4c69 3b34 1003 1f37 3640 da32 aa57 3e34
00000080: c5d2 ba33 5d5c 6536 81b2 0635 2895 ef34
00000090: 9c9a 4b35 ce2c f333 e650 4835 7265 ab34
000000a0: 3b49 9134 08b8 1a34 0812 2d35 2826 2335
000000b0: ad46 4f36 480b 0e35 20c5 9a34 0582 1a35
000000c0: 5c6c 5b34 6a0c 6b32 a563 5d33 1d03 9734
000000d0: ed55 5132 aa8a 9a35 0556 4434 2046 b434
000000e0: eb9b 9334 dcdb 9333 9ed6 2c34 5678 0435
000000f0: 6723 4434 18e7 bc34 26db 8734 4d39 c035
00000100: 5a39 b633 ee27 ef33 51d7 d634 b078 ac34
00000110: 98ba 9434 54fb fd32 de6f a734 2970 7c33
00000120: 2449 2b35 d13a 4533 164c 6536 9ce8 7c34
00000130: 78e4 1f36 cf08 a534 2660 3134 5289 2f34
8.9409843e-07 1.9941422e-07 6.3287143e-07 8.6031434e-08 1.8545711e-06 1.3728916e-07 3.2000887e-08 1.0215439e-08
1.3037958e-07 1.0407191e-07 9.236527e-08 1.2626408e-06 7.160818e-07 3.9240117e-06 5.3746703e-07 3.153269e-07
1.0742126e-08 8.4512135e-07 5.1859143e-07 9.403588e-08 6.448088e-07 3.1892296e-07 8.795588e-08 1.4762341e-07
4.532669e-06 2.3364953e-08 7.0796177e-06 6.3625394e-09 1.7454039e-07 9.477852e-06 2.540774e-08 1.7727021e-07
8.699639e-08 3.4177422e-06 5.017865e-07 4.4625745e-07 7.584838e-07 1.1323719e-07 7.462353e-07 3.1925043e-07
2.7061637e-07 1.4409318e-07 6.447376e-07 6.0777757e-07 3.0886542e-06 5.291554e-07 2.8828163e-07 5.7558674e-07
2.0435385e-07 1.3681623e-08 5.15462e-08 2.8128207e-07 1.2184938e-08 1.1514251e-06 1.8285216e-07 3.3578635e-07
2.749433e-07 6.885213e-08 1.6096826e-07 4.9348944e-07 1.8266802e-07 3.5185872e-07 2.530516e-07 1.4321791e-06
8.4854676e-08 1.1136568e-07 4.001727e-07 3.2125308e-07 2.7702913e-07 2.9567367e-08 3.1187568e-07 5.877533e-08
6.38089e-07 4.592113e-08 3.4167947e-06 2.3553952e-07 2.3825833e-06 3.0740054e-07 1.6519388e-07 1.6348102e-07

exp_avg f4 [8]
00000000: 403e ceb8 f47e a3b7 d919 0d38 068f 4439
00000010: f7e2 52b8 cb04 bd35 96d6 c338 c40b 8137
-9.8344404e-05 -1.9490231e-05 3.3641092e-05 0.00018745297 -5.027928e-05 1.4082992e-06 9.338294e-05 1.5383477e-05

exp_avg_sq f4 [8]
00000000: 17d9 5e34 a17a 1635 34d1 2c34 a37d 3935
00000010: 3d8c 7834 1ee9 9034 8cff ff34 d584 9434
2.0754338e-07 5.6057803e-07 1.6094856e-07 6.9100696e-07 2.3147818e-07 2.6991705e-07 4.7683386e-07 2.7663796e-07

exp_avg f4 [5, 8]
00000000: 9a3d 85b8 1a90 07b7 588d 3c35 145b 4f37
00000010: e02a 64b8 5354 3b37 ece7 4638 b268 c0b8
00000020: 0716 05b8 a6df d237 13b5 fe35 4a97 9737
00000030: 0803 40b7 5571 8737 5bf9 e7b6 3fb5 f435
00000040: ea06 00b7 c581 83b8 42c8 eb36 60fb b437
00000050: 5b6f 47b6 667a 1737 a6f9 87b8 975f d438
00000060: 8655 ed38 2ad8 6038 2d7b b137 fba9 58b8
00000070: d74d a838 fcad 24b8 108e b5b4 7d17 0db5
00000080: 942c 2cb7 dd6b 05b7 fb1d 01b8 9add bab4
00000090: d9da 3fb7 ed21 4436 9ceb ce37 2c45 35b7
-6.3534084e-05 -8.080178e-06 7.024114e-07 1.2359367e-05 -5.4399366e-05 1.1165702e-05 4.7422873e-05 -9.1747745e-05
-3.1730186e-05 2.5138095e-05 1.8977174e-06 1.8071052e-05 -1.1444798e-05 1.6146028e-05 -6.9133653e-06 1.8232166e-06
-7.631004e-06 -6.270738e-05 7.026859e-06 2.1574728e-05 -2.9718128e-06 9.0287995e-06 -6.483802e-05 0.00010126753
0.000113169706 5.360708e-05 2.1157402e-05 -5.165672e-05 8.025363e-05 -3.9262683e-05 -3.381724e-07 -5.2560773e-07
-1.0262378e-05 -7.952532e-06 -3.078392e-05 -3.4806436e-07 -1.1435442e-05 2.9226023e-06 2.4666828e-05 -1.0804546e-05

exp_avg_sq f4 [5, 8]
00000000: e613 fd34 9eab e433 b196 e932 d0a6 2633
00000010: 0ffb 1935 66d5 0934 dcb5 de33 88b5 0335
00000020: 95ff 9134 e954 1b35 5d07 cc33 4177 c433
00000030: fb3e c334 5086 3134 1518 4833 7b09 1f34
00000040: 2c84 c334 c697 1434 6898 e933 c746 9333
00000050: f76d 5c33 bf08 8833 d06a 1c35 c81a f633
00000060: eb26 ff33 767c 3434 a99c f332 5518 5635
00000070: 12c8 d633 16f4 5535 979a 9533 8aa6 f734
00000080: 3ce1 3b36 85cd 5134 682d 0535 614b b933
00000090: c2c8 8b34 8fec 7b33 1b87 6a33 6cc0 9e35
4.71394e-07 1.0648294e-07 2.7193297e-08 3.8801602e-08 5.736228e-07 1.2836753e-07 1.03707606e-07 4.9065466e-07
2.7194315e-07 5.786556e-07 9.5008296e-08 9.1486534e-08 3.6367405e-07 1.6533272e-07 4.658803e-08 1.4811478e-07
3.6417748e-07 1.3838789e-07 1.08776305e-07 6.858095e-08 5.1322754e-08 6.3345844e-08 5.826996e-07 1.1460139e-07
1.1881442e-07 1.6809085e-07 2.8360164e-08 7.975662e-07 1.0001544e-07 7.9703875e-07 6.966473e-08 4.6128508e-07
2.7996275e-06 1.953941e-07 4.9612436e-07 8.628445e-08 2.6036838e-07 5.865564e-08 5.460525e-08 1.182792e-06

exp_avg f4 [5]
00000000: 2a4a e1b7 3464 2139 ce79 43b9 4a4d 4db9
00000010: 3ec6 8539
-2.6856625e-05 0.00015391485 -0.00018642025 -0.00019579116 0.0002551544

exp_avg_sq f4 [5]
00000000: bc75 6834 4235 8b34 a018 ed34 b8b2 d034
00000010: 8ead 6535
2.1649515e-07 2.5929518e-07 4.4162607e-07 3.8873054e-07 8.5561703e-07
