save_models/IDAE_ckpt_06-27_10-30-35.pt (torch, 30218 bytes, 54 tensors)

linear1.weight f4 [10, 12]
000000 3a 29 c1 3e 30 41 27 be 83 dc cc bd 5b 88 02 bf
       0.37726766 -0.16333461 -0.10002997 -0.5098931
000010 a7 6f b7 3e 44 b4 02 bf 25 d4 02 3f 81 a7 04 3e
       0.3582737 -0.51056314 0.51104957 0.12954523
000020 5a 5d 24 be 97 b1 4c 3e b2 7b 66 bc 4c 11 1c 3f
       -0.16051236 0.1998962 -0.014067577 0.6096389
000030 26 19 27 3f 12 64 28 be f1 ee 70 be 3f c2 bf 3d
       0.6527275 -0.16444424 -0.23528649 0.093632214
000040 cc 8a 9e 3b 70 52 7f 3e b3 e8 00 3f a3 dc 15 3e
       0.004838323 0.24933791 0.5035507 0.14634947
000050 a0 e9 e0 be f5 ab 4d bf bf e8 17 be ea b2 54 3e
       -0.43928242 -0.8034051 -0.1483488 0.20771375
000060 87 a6 0f bf 98 5d 6f 3e e9 e1 1e 3f d9 46 72 3e
       -0.56113476 0.23375547 0.6206346 0.23659839
000070 8c cc cd 3d b7 be 9d bf e2 81 55 be 0d b4 39 3e
       0.1004878 -1.2323827 -0.20850328 0.1813509
000080 1f 0b 28 3e c0 10 b2 3e b9 b7 70 bf f2 78 31 bf
       0.16410492 0.34778404 -0.9403034 -0.6932517
000090 cc fc e7 be 9b 72 35 3f 03 f8 90 bf 1f 83 91 3e
       -0.45310056 0.70878 -1.1325687 0.2842035
0000a0 c3 63 4c 3f 1b d2 20 be 95 80 51 bd 1c b0 1f 3f
       0.79839724 -0.15705149 -0.051148016 0.62378097
0000b0 02 cb c2 3d cc 63 b5 be 9e 81 ca 3b df c4 a1 bf
       0.09511377 -0.354277 0.0061800024 -1.2638205
0000c0 5d cb 25 bf 7c 62 07 be a4 b9 6d bf 57 1c bf 3d
       -0.6476343 -0.13221163 -0.9286139 0.09331577
0000d0 8b 51 fe 3d 22 cb f8 3e 47 18 93 be 7d b5 a1 bf
       0.12417897 0.48592478 -0.2872946 -1.2633511
0000e0 09 bd 6f bf f2 47 9f 3c 3b fa b3 3e b7 49 13 be
       -0.9364782 0.019443486 0.35151848 -0.14383589
0000f0 28 97 30 bf 01 57 22 3d 8d 0d 32 be e6 2b 0f bf
       -0.68980646 0.039633755 -0.17387982 -0.5592636
000100 cf bb 64 3e 79 5b f4 bd 98 9e ff 3e 99 49 b1 bf
       0.22337268 -0.119315095 0.49925685 -1.3850585
000110 89 d1 2a 3f ca b1 52 3f 3f ee 36 3f 36 cc 18 3e
       0.66725975 0.82302535 0.71457285 0.1492165
000120 f2 13 8c 3d 10 7f 4c 3e 5c e0 b8 be 87 0f a7 be
       0.06839742 0.19970345 -0.36108673 -0.32629034
000130 14 5e 8d 3e 7e 88 73 be f4 4e 89 bd 80 4e e7 3e
       0.27610838 -0.23782536 -0.06704512 0.45177078
000140 dc 15 b6 3d 87 4f 5a be f6 37 0f 3e b2 e3 21 bf
       0.08890888 -0.213194 0.13986191 -0.6323806
000150 e0 80 31 bf d7 40 a7 be 4d b5 01 be 5e 4d 57 be
       -0.6933727 -0.32666656 -0.12666817 -0.21025607
000160 5e 58 3f be 82 44 dd 3e 6c ed f3 3d 36 4f 3e be
       -0.18686053 0.4321633 0.11910519 -0.18584904
000170 7a 99 12 be 23 ad ef be c4 69 c3 bc f1 6e a7 3e
       -0.14316359 -0.4681178 -0.023854144 0.3270183
000180 b5 61 41 3e f4 6c 1b be fc ee 83 bf 14 38 05 3f
       0.18884929 -0.15178281 -1.0307307 0.52038693
000190 93 d2 18 bd e9 2e 8f be 70 65 01 bf 7b 13 a8 3f
       -0.037310194 -0.27965477 -0.50545406 1.3130945
0001a0 1e 09 2a 3c c6 21 48 be cc 11 5e bb 62 61 8f be
       0.01037815 -0.19544134 -0.003388512 -0.28003985
0001b0 fc 94 c5 be 74 f1 33 3c 15 42 b6 3e 79 7d 42 bf
       -0.3859023 0.01098286 0.35597292 -0.75972706
0001c0 14 12 28 bf 7a eb 0b 3f 80 d6 77 be f9 ef 45 3c
       -0.65652585 0.54656184 -0.24202919 0.01208114
0001d0 92 fe 0b 3e a9 a9 16 bf 4f 89 2e 3f 41 62 56 bf
       0.1367133 -0.5885263 0.68178266 -0.83743674

linear1.bias f4 [10]
000000 b4 49 15 bf 86 7b a6 3e 99 3f 23 3e bd de 9e bf
       -0.5831559 0.32516116 0.1594223 -1.2411724
000010 ed 70 09 3f f6 2b 2c 3e 6d 57 1c bf 30 bc 05 bf
       0.53687936 0.16813645 -0.610709 -0.52240276
000020 55 44 bf 3b 52 5b 00 3f
       0.0058370032 0.50139344

linear2.weight f4 [8, 10]
000000 da d6 c8 be fa 1c 63 be f6 d3 d5 be ab 26 59 bd
       -0.3922642 -0.22179022 -0.41763276 -0.053015392
000010 c3 1b ac 3d 50 7c da bc ca af 2a 3e c7 a2 34 be
       0.08403733 -0.026670605 0.1666862 -0.1764022
000020 10 c9 81 be 19 ed b1 bd a6 e3 ef bd f0 62 6c bd
       -0.2534871 -0.08687801 -0.11713342 -0.05771154
000030 08 2e 6d bd c2 19 99 be 15 e9 30 be 32 cc 19 be
       -0.057905227 -0.29902464 -0.17276414 -0.150193
000040 53 af 7c be 9a d7 79 3e 9f 95 22 be f0 e7 74 be
       -0.24676256 0.24398652 -0.15877388 -0.23916602
000050 cc 07 25 3f 16 a6 8d 3d 6f 7f 40 bf 0e 4a 94 3d
       0.6446502 0.06916444 -0.7519445 0.07240687
000060 c1 7c cd be 9a f6 a7 bf a8 29 75 3d 42 06 fd 3e
       -0.40134242 -1.3122132 0.05985418 0.49418837
000070 79 b9 13 bf df 92 9a 3e 58 cc cf 3e 42 a9 77 bf
       -0.57704884 0.3019018 0.4058559 -0.9674264
000080 ae 7b 61 bf c8 68 17 40 a3 b2 be b9 fe 4d 7e be
       -0.88079345 2.3657703 -0.0003637272 -0.24834439
000090 76 8f 2f 3f a1 e1 89 3e 5f 37 f5 3e 69 14 6e bf
       0.6857828 0.26929954 0.47893807 -0.92999893
0000a0 20 a0 70 3f 2f 57 44 3e e1 bc 1c bf 1b 43 bc 3d
       0.9399433 0.19173883 -0.61225706 0.09192487
0000b0 03 49 54 bf 13 f4 c9 bf 39 39 a1 3e a0 1a 7d 3e
       -0.8292391 -1.577761 0.3148897 0.24717188
0000c0 2e 60 48 bf fb 0f f7 3c 55 9c 22 3d ee 95 18 be
       -0.7827176 0.030158987 0.03969987 -0.14900944
0000d0 d4 a5 d0 be da 21 a6 be 9b 8a 94 3d e6 3b ac be
       -0.40751517 -0.32447702 0.072529994 -0.3363945
0000e0 6c 5f 28 3e b8 b3 17 3d 5f 21 c3 bd ce 08 9b be
       0.1644265 0.037036628 -0.095278494 -0.30280155
0000f0 e8 f1 b1 bd 88 75 98 3d 8e da 19 bf 5a bd 99 bd
       -0.08688718 0.07444292 -0.60099113 -0.07506819
000100 1e 81 37 be c7 ca 6e bf 7d 7d 85 3e 97 f7 c5 3e
       -0.17920348 -0.93278164 0.26072302 0.3866546
000110 bf cc e9 be f2 5f 3f 3c fc 1b 2a 3f f9 50 04 3d
       -0.4566402 0.01168059 0.6644895 0.032303784
000120 84 a4 3f bf 25 b9 80 be f0 38 00 bf ee 3d a4 bf
       -0.74860406 -0.25141254 -0.5008688 -1.28314
000130 49 6c d5 3e a6 c6 ab 3e 22 d3 6f bf 68 21 d7 3e
       0.41684178 0.33549994 -0.9368154 0.42017674

linear2.bias f4 [8]
000000 d8 e3 95 be 56 b8 9c be c2 f7 99 3e a3 11 dc be
       -0.29275393 -0.30609387 0.30071837 -0.42982206
000010 d9 1c 9c 3e da 86 33 be 9a f1 83 3e d9 3a 8e 3e
       0.3049076 -0.1753191 0.25770265 0.27779272

linear3.weight f4 [6, 8]
000000 3b 05 2e 3e 52 45 33 3e c3 c9 b9 3f d0 9f 25 3f
       0.16994183 0.17506912 1.4514698 0.6469698
000010 5e 5d 2e 40 8a cb cd be 8f ea 32 3d b7 90 0f 40
       2.7244487 -0.4019435 0.043680724 2.2432077
000020 a3 2f a8 3e 66 1e 08 be 08 be 0c be 89 b6 60 be
       0.32848844 -0.13292846 -0.13744366 -0.21944632
000030 9f 3d b3 bf d9 63 b1 be 26 af 4f bd b1 bb 63 bf
       -1.400318 -0.3464649 -0.050704144 -0.8895827
000040 57 ec 78 be 1f 82 81 3e ef cb 33 be 7a 35 39 be
       -0.24308906 0.25294587 -0.17558263 -0.18086806
000050 4c 5d 81 be cb 71 54 be fa c1 39 3e 09 b7 90 be
       -0.25266492 -0.20746534 0.18140402 -0.28264645
000060 c8 02 28 be 9d 8e a2 3e 78 da 88 3e 5c 6f 0b 40
       -0.16407311 0.3174943 0.26729178 2.1786718
000070 93 cb 0c bf bc 5e 8e bc a5 05 9f bf 77 84 4f bf
       -0.5499813 -0.017379157 -1.2423598 -0.810615
000080 c4 34 c4 3e 40 45 59 bc 79 80 a6 be 4e 3a cc 3f
       0.38321507 -0.013261139 -0.32519892 1.5955293
000090 5f d9 3a bf bc 25 7b 3e da 65 58 bc a5 27 a9 be
       -0.7298793 0.24526113 -0.013207877 -0.3303806
0000a0 db 34 82 bd 62 aa 13 be 69 f5 bb 3f 4e bc 6b be
       -0.06357738 -0.14420465 1.4684268 -0.23021051
0000b0 9b 5f 20 40 02 0c 7d be 28 80 bc 3e 30 02 14 40
       2.5058353 -0.24711612 0.36816525 2.3126335

linear3.bias f4 [6]
000000 d1 1b 81 be 57 bf 83 3f 7d d4 58 be bb 56 9c 3e
       -0.25216535 1.0292767 -0.21174808 0.3053492
000010 e3 af 42 bf 28 4d 7e be
       -0.7604963 -0.2483412

linear4.weight f4 [8, 6]
000000 81 16 b6 3f b5 d4 bc bf 38 0c 92 3d dc 94 04 bf
       1.4225618 -1.4752413 0.07131237 -0.5178964
000010 e3 b8 13 bf 5a 10 06 40 2a e6 5b 3f 33 1d 9f be
       -0.5770399 2.094748 0.8589808 -0.31076965
000020 6c 72 21 3e d5 85 ed 3f 9f 64 20 40 73 6e 82 bf
       0.15766305 1.8556467 2.5061414 -1.0189956
000030 0c 73 93 3f d7 be e2 bf 15 a5 2f be ca 9d d7 bd
       1.1519485 -1.771449 -0.17152818 -0.10528143
000040 97 0b 38 3f 3c 0a dc 3f fd 11 bc bd 73 e3 6d 3f
       0.71892685 1.7190623 -0.091831185 0.92925185
000050 37 c0 26 be fc 78 bf 3f 75 80 84 3f a3 35 c3 be
       -0.16284262 1.4958797 1.0351702 -0.3812686
000060 62 cf 6c 3f 62 79 f8 bf 06 0f a2 3e 6d 33 bd 3e
       0.9250394 -1.9412043 0.31652087 0.36953297
000070 d5 f5 35 3e a3 4a e6 3f 79 b8 96 bd 19 1b d7 3e
       0.17769559 1.7991527 -0.07359404 0.4201286
000080 f8 0d 9f 3e 53 46 05 3f 53 6e 86 bf 42 2f da be
       0.31065345 0.5206043 -1.0502418 -0.4261418
000090 ec c7 af 3f f4 54 e3 bf e8 c9 4c 3e 66 5f 80 bf
       1.3732886 -1.7760301 0.19998896 -1.0029113
0000a0 bb c8 24 3d 0e 53 00 40 c8 c8 94 be 16 e6 8c be
       0.040230494 2.0050693 -0.29059434 -0.27519292
0000b0 d8 ab 23 3e 89 1b 09 3e 81 10 b4 be 30 18 84 be
       0.15983522 0.1338941 -0.3516884 -0.25799704

linear4.bias f4 [8]
000000 ae 0e 19 bd 8c c1 29 bf 11 84 aa be 80 b2 7d 3f
       -0.037367515 -0.66310954 -0.33303884 0.99100494
000010 98 fb 81 be cb d2 28 3f 8c e6 b7 be d2 f8 56 3d
       -0.25387263 0.65946645 -0.3591808 0.052483387

linear5.weight f4 [10, 8]
000000 a0 f1 12 40 da 5c 55 bf a1 aa d4 3f 5b f7 ab bf
       2.2959976 -0.83344805 1.6614572 -1.3434862
000010 e9 77 d0 3f 7d f8 49 bf e3 e4 49 40 b4 71 a0 3f
       1.6286594 -0.7889479 3.1545951 1.25347
000020 fa 97 19 be c8 64 5b 3d d8 45 48 bd 5f 25 9b be
       -0.1499938 0.05356291 -0.048894733 -0.3030195
000030 34 89 af bd 06 ef 1e be b4 76 e8 3d 16 99 e4 bd
       -0.08571091 -0.15520868 0.11350766 -0.11162011
000040 72 ec b5 3a 0c ce 8b be 0e bf 5b 3e 78 c0 3f bd
       0.001387967 -0.2730564 0.214596 -0.046814412
000050 d8 83 9d bd 5d 70 c7 be 42 24 80 be c0 ff bf 3b
       -0.07691163 -0.38952914 -0.25027663 0.005859345
000060 20 8a 31 be 3a 46 4c 3e c6 b6 de be e5 18 60 be
       -0.17337847 0.19948664 -0.4349882 -0.21884497
000070 6f 3b f1 3d 9f dd b0 be b7 96 ca bd 37 79 35 be
       0.11778914 -0.34544083 -0.09892028 -0.17722021
000080 5c f8 c8 3d 9e 7e 9f bc 1b 60 d6 bd 7d 66 2e be
       0.09812996 -0.019469555 -0.104675494 -0.17031284
000090 d1 52 09 be e4 e8 12 3e d5 cb e3 3d 1e ff 93 be
       -0.13410498 0.14346653 0.11122862 -0.28905576
0000a0 00 35 5d be c0 af 98 be 1f 90 9c be 5b 16 32 be
       -0.21602249 -0.29821587 -0.30578706 -0.1739134
0000b0 3e 0c 83 be ea 48 e8 bd fa cc 59 3e 4b ef b0 be
       -0.25595278 -0.11342032 0.21269599 -0.34557566
0000c0 46 28 11 bf 78 14 1d 40 1f ef 8d 3f 39 f7 b3 3e
       -0.5670208 2.4543743 1.1088599 0.35149553
0000d0 cd 3f 9a 3f c7 77 ca be 96 9d e7 3e a4 d3 cc bd
       1.205072 -0.39544508 0.45237416 -0.10001305
0000e0 d6 fe 03 bf 0e ec a3 be d2 16 f4 be ec ff bb bc
       -0.51560724 -0.32016033 -0.4767366 -0.022949181
0000f0 4f 01 ec be a9 16 2d bc 0f 54 5c 3d cf d7 c2 be
       -0.46094748 -0.010564485 0.053791102 -0.38055274
000100 26 c0 ad be 91 82 25 be d6 af 47 3d e6 c7 06 bf
       -0.3393566 -0.16163088 0.048751675 -0.5264877
000110 48 b7 e9 3d 71 45 87 bd 2d 4e 79 bb ee 36 de be
       0.11411911 -0.06605042 -0.003804098 -0.43401283
000120 86 0f af be 50 a4 02 3e bd 9a 6a be 2f 55 4a bd
       -0.3419153 0.12757993 -0.2291059 -0.049397644
000130 6d ce d8 be 3b a5 db bd 94 83 f1 3d 3f 30 cd bd
       -0.4234499 -0.107248746 0.11792675 -0.10018968

linear5.bias f4 [10]
000000 c7 46 9f be e6 65 98 be 82 6e ac be 00 14 fd 3d
       -0.31108686 -0.29765242 -0.3367806 0.1235733
000010 a0 72 d6 be be d8 f6 bd 82 e6 92 bc 1e a7 22 be
       -0.41884327 -0.12053059 -0.01793218 -0.15884063
000020 1d 45 e0 bc 19 cb 8b be
       -0.027376706 -0.2730339

linear6.weight f4 [12, 10]
000000 b0 8e bd bf c4 86 88 bd 69 8c a3 be 67 6f 69 3f
       -1.480917 -0.066663295 -0.31943062 0.9118561
000010 c2 d1 72 3c f4 09 0a be 43 16 52 3d 23 bc 4c 3d
       0.014820518 -0.1348036 0.05129076 0.04998411
000020 5a 00 8e 3e d7 7f 67 be ad f7 a7 bc a0 c5 b1 3e
       0.27734643 -0.22607361 -0.020503843 0.34721088
000030 78 0e 86 3f c9 cf 33 3d db 01 84 3f 0c dc f1 3e
       1.0473166 0.04389933 1.0313066 0.47238195
000040 ef 46 58 bf a1 e0 85 bf 1b 76 52 3e dd 01 42 bf
       -0.84483236 -1.0459176 0.20552866 -0.75784093
000050 27 e6 b0 bf 82 5f 63 3f f7 0e 91 be 57 7a 5c 3f
       -1.3820237 0.8881761 -0.2833173 0.86124176
000060 f4 58 21 3f 36 c0 e8 3e b5 b6 ec 3e ce 77 26 bf
       0.63026357 0.45459145 0.46233144 -0.6502656
000070 be d0 9b 3e 33 79 87 be 3f a3 cd bf 34 71 b7 be
       0.30432695 -0.26459655 -1.6065444 -0.35828555
000080 ab 3e 1e 3f 67 0b 0c 3f 08 1a 06 bf ba 61 98 3e
       0.61814374 0.547049 -0.5238347 0.2976206
000090 0d 0f 25 3e 3f fc 20 be 11 99 16 3e de 8a 89 be
       0.16119023 -0.15721224 0.14706828 -0.2686376
0000a0 6f 0d 7c bf 24 fd 4b 3f b1 39 7b be 60 ec bf 3f
       -0.98458 0.79683137 -0.24533726 1.4994011
0000b0 04 2a 8c 3f fa 1e b3 3d 82 09 36 be 9a 15 62 bf
       1.0950322 0.08746143 -0.17777064 -0.8831421
0000c0 b6 c4 97 3e f4 10 14 bf ef 27 4f 3f f9 2f 5b bd
       0.29642266 -0.5783837 0.8092031 -0.053512547
0000d0 da b8 09 bd dd 83 bc bf 23 60 6c bf 90 7c 0b bf
       -0.033623554 -1.4727741 -0.92334193 -0.5448694
0000e0 14 f9 95 bf a8 b8 13 3f b4 12 ff 3d b0 cc 87 3f
       -1.1716638 0.5770364 0.12454739 1.0609341
0000f0 60 22 8c 3e b3 16 86 bc 27 0f f4 be 9e 07 c0 3e
       0.27369976 -0.016368246 -0.4766781 0.3750581
000100 0b 91 4b 3e 14 bd 92 bd 5e 59 2c 3f 52 58 0a 3e
       0.19879548 -0.0716497 0.67323864 0.13510254
000110 a1 c7 56 3e c3 d4 25 bf 3f b0 01 bf aa b6 ae 3e
       0.2097459 -0.64777774 -0.50659555 0.34123737
000120 4e 11 5c 3f f2 aa 98 be 42 33 5a bd a7 92 a2 be
       0.85963905 -0.2981792 -0.05327154 -0.31752512
000130 d8 92 45 bf 4e b6 37 3e 37 f5 6d 3e ff 86 4a 3e
       -0.7717719 0.17940637 0.23238073 0.1977806
000140 a5 40 db 3f 52 80 a7 be 1c 85 99 be c0 da ac bf
       1.7129103 -0.32715088 -0.29984367 -1.3504257
000150 f5 9d 32 bf a2 46 cc be 23 c6 26 3c a7 5c 9d 3e
       -0.69772273 -0.3989764 0.010179075 0.3073475
000160 db 8f 80 be 55 3c 34 3f a4 5b da bd 3c 32 b0 be
       -0.25109753 0.7040456 -0.1066201 -0.34413326
000170 02 f2 60 3e 41 83 8d bf 42 f2 45 bf 46 86 1f bf
       0.21967319 -1.105568 -0.7732278 -0.6231426
000180 64 80 58 bf 3f af c1 3f 25 54 e4 be 77 10 99 3f
       -0.8457091 1.5131606 -0.44595447 1.195815
000190 78 bf ab bf 53 f3 43 3f be 2a b9 3e ff 88 c9 3f
       -1.3417807 0.7654316 0.36165422 1.5744933
0001a0 e0 c1 0d 3f 87 75 57 3e 27 5c 80 3d 73 ae 4a bf
       0.55373955 0.21040927 0.06267577 -0.7917244
0001b0 e3 95 22 3f ff 35 37 bf 59 5e 24 3f bc 7f fa 3e
       0.6350996 -0.71566767 0.64206463 0.4892558
0001c0 31 e4 5f 3f ff 79 1a bf 18 1c 8d 3f 7c c9 1c 3e
       0.8745757 -0.603424 1.1024199 0.15311235
0001d0 f1 f1 75 bf ad 99 5c bf af 14 53 3e ed da 31 bf
       -0.960723 -0.8617199 0.20613359 -0.6947468

linear6.bias f4 [12]
000000 e7 f8 db 3e 36 e6 f8 3e 8e e1 e8 3a a7 25 ea 3e
       0.42963335 0.48613137 0.0017767416 0.4573185
000010 ba 92 34 3c 7f 72 4b 3e 1f 00 d6 bd 22 2f 71 3e
       0.01102131 0.19867896 -0.10449242 0.23553136
000020 80 9c ee bd 88 d6 ac 3d 1f 49 a7 3e 2d e9 5a 3e
       -0.11650944 0.08439356 0.32672974 0.21378012

mlp.0.weight f4 [10, 24]
000000 39 fd 6a bf bf 81 36 be 98 40 8c bf 1d c8 26 bf
       -0.9179264 -0.17822932 -1.0957212 -0.651491
000010 17 01 89 bf 69 34 48 3f 16 ab 97 bd ce e0 78 be
       -1.0703458 0.7820497 -0.07405679 -0.24304506
000020 85 6a 82 3f b7 39 cf 3e f2 e8 a3 bf c1 43 29 3e
       1.0188757 0.4047372 -1.2805464 0.16529752
000030 ca 85 36 3e 6b 41 f2 be 27 03 54 be 34 8a c2 3d
       0.17824474 -0.47315535 -0.20704328 0.094990164
000040 85 ea 42 3e cc ae 10 3f 9b 2b e7 be 77 eb 36 bf
       0.19034775 0.5651672 -0.45150456 -0.7145304
000050 4e 27 cd 3e d5 4c 80 bf 31 8c 28 3f 18 df a9 be
       0.4006905 -1.0023447 0.65838915 -0.3317802
000060 08 d6 03 bf a3 ce 95 be 93 1b 88 bf b9 5a 25 be
       -0.5149846 -0.29259214 -1.0633415 -0.16147889
000070 5a 50 78 bf 03 cc 76 3f 0e 4d 10 3e aa 5e c8 be
       -0.96997607 0.9640505 0.14091894 -0.39134723
000080 81 3e 80 3f 9a 37 c1 bd ce 53 2e bf 23 6f 50 be
       1.0019075 -0.09434433 -0.68096626 -0.20354895
000090 f5 5a 1e be a4 2d b6 3e de f9 08 3f 95 bf 27 bb
       -0.15464385 0.35581696 0.5350627 -0.002559637
0000a0 4c 5c f7 3e fc de 96 3e 1b ae e8 be ef da 15 3f
       0.48312604 0.29467 -0.45445332 0.5853719
0000b0 89 9b 1d be 81 b1 c3 bf c0 a3 d0 3e b8 c7 47 3f
       -0.15391363 -1.5288545 0.4074993 0.7803912
0000c0 07 78 81 be 6d 33 17 bf dd 4c 09 3f 8c 8b 44 bd
       -0.25286886 -0.59062845 0.5363291 -0.047984645
0000d0 01 16 98 bd 40 e0 32 bf a6 f4 ce 3e 5c e8 d6 be
       -0.07426072 -0.6987343 0.40421027 -0.4197415
0000e0 c9 ef 05 3e 5f ff 2d bf 49 98 8e 3e 69 11 3a bf
       0.13079752 -0.6796779 0.2785056 -0.72682816
0000f0 a9 0f 91 be 2d 68 8c bf 61 27 cb be 07 ef ca 3e
       -0.2833226 -1.0969292 -0.3967848 0.39635488
000100 46 8f 02 3f 8f f3 ac 3e b5 88 9a be 4a e3 b1 3e
       0.5099987 0.3377957 -0.30182424 0.3474372
000110 55 9e 02 bf d4 17 27 3f 2b 8a 41 3e 91 fe 98 be
       -0.51022846 0.65270734 0.18900363 -0.2988172
000120 28 39 13 bf dc dd 8f 3e be 91 64 be c7 b0 9e bf
       -0.5750909 0.28098953 -0.22321221 -1.2397698
000130 5b 49 1f 3e 66 d8 0f 3f a7 42 02 3e 50 bf 60 be
       0.15555327 0.5618957 0.12720738 -0.2194798
000140 1b 2e cb 3e d8 c9 64 be 9a e4 b5 be 19 06 7c 3f
       0.39683613 -0.22342622 -0.35525972 0.98446804
000150 77 34 e1 3d d7 b1 3c be d4 de 1c bf 4a f4 87 3e
       0.10996335 -0.18427216 -0.6127751 0.26553565
000160 52 2e b7 3f 96 bf de 3f 48 22 2f 3e 85 d8 bd bd
       1.4311011 1.7402217 0.17102921 -0.092698134
000170 7f bd 9b be c7 cf 8e 3f 05 a8 b5 3e a6 76 48 3f
       -0.30418012 1.1157159 0.3547975 0.78306043
000180 a1 23 6a 3e 40 0d 66 bf 55 8d ca be 5d 06 d2 3a
       0.22865154 -0.8986397 -0.39560953 0.0016023625
000190 0d cb d6 be 9d 88 c6 3f 9a b5 b5 be 75 0a 75 3e
       -0.4195179 1.5510441 -0.35490113 0.2392977
0001a0 e4 64 b7 3e 8c ff be 3f 88 25 2c bf 81 44 95 bf
       0.3581916 1.4921737 -0.6724477 -1.1661531
0001b0 8c 0e 13 bf 86 3a 42 3f f3 bb 2b 3f aa b4 8b bf
       -0.5744407 0.7587055 0.6708366 -1.0914509
0001c0 72 88 b3 be 0d 0c 66 3f d6 49 35 3f bc 8f 3f 3f
       -0.35065037 0.8986214 0.7081579 0.74828696
0001d0 07 3e be be a5 b5 75 3d 96 1c da 3e f4 c7 f9 3e
       -0.37156698 0.059987683 0.42599934 0.48785365
0001e0 b1 d2 04 bf 6f b5 0c bd 2a 81 3d bc ca 67 89 bf
       -0.5188399 -0.034352716 -0.01156644 -1.0734799
0001f0 ba b9 f7 3c 70 af 87 be b6 d6 ce 3e 94 a8 da be
       0.030239929 -0.26501036 0.40398186 -0.4270674
000200 6e a7 ba 3e 10 44 e8 be be c8 9c be 64 50 53 3e
       0.36455864 -0.45364428 -0.30621904 0.20636135
000210 dc 0c 68 3e 2d 77 d1 be d8 5b f7 bd 30 08 8e 3e
       0.22661155 -0.40911236 -0.12078065 0.27740622
000220 be 00 12 3f d1 c8 13 3f fb 3d 04 bf b5 12 d9 be
       0.5703238 0.57728297 -0.51657075 -0.42397085
000230 47 45 a6 bf 1e 46 23 3f eb 4c fb 3e f2 16 e1 bc
       -1.2989892 0.63778865 0.4908212 -0.027476761
000240 ee 20 98 bd 18 63 6e bf ff e9 3d 3f 43 48 19 bd
       -0.07428156 -0.93119955 0.74185175 -0.03742243
000250 63 60 81 3e ee 8d 62 bf 62 41 ce 3e f7 aa 51 bf
       0.2526885 -0.8849782 0.40284258 -0.81901497
000260 09 95 94 bc 58 48 ff be 9a aa fc 3c 8e ca 8e bf
       -0.018137472 -0.4985988 0.030843068 -1.1155565
000270 b3 ea 74 bd 5e 6f 81 be 9b b9 7e be e5 1d 1f bf
       -0.05979414 -0.2528028 -0.2487549 -0.6215499
000280 f4 ce a1 3e 9d 55 02 3f a5 e0 48 be e0 b1 c0 bd
       0.31603205 0.50911885 -0.19616945 -0.09408927
000290 aa 88 23 bf e0 df a9 be e4 94 bb be 77 2b 1b bf
       -0.6388041 -0.33178616 -0.36637032 -0.606132
0002a0 5c fb 67 3e 2a 3c 68 bf 97 7d 0b 3f 6a 5d ca be
       0.2265448 -0.90716803 0.5448851 -0.39524394
0002b0 93 cb bc 3d f6 da 1e bf cd 5d f4 3e 82 18 3b bf
       0.09218516 -0.6205286 0.47727814 -0.7308427
0002c0 08 64 a9 3c 28 8a 1e bf ae 5c a8 3d f7 b0 62 bf
       0.020677581 -0.6192956 0.08220802 -0.88551277
0002d0 ac 26 bf 3e 72 a5 06 bf 28 fb 5c 3d d8 d2 2b be
       0.37334192 -0.525962 0.05395046 -0.1677965
0002e0 7e fe 06 3f 27 84 07 3f c8 b9 1c 3e 56 96 08 3e
       0.52732074 0.52936023 0.15305245 0.13338599
0002f0 cb 66 36 bf 54 a0 82 3e b3 84 04 be 56 3c 33 be
       -0.712506 0.25512946 -0.12941246 -0.17503485
000300 7a e4 1b 3f 94 b2 a4 bf ef 1b 31 3e f7 28 78 3e
       0.608955 -1.2866998 0.17295812 0.24234377
000310 94 2d ab 3d a6 79 58 bf 06 47 3e 3f 44 e3 82 bf
       0.08358303 -0.8456062 0.74327123 -1.0225606
000320 78 dd d1 be 67 98 fe be 6a 50 df bc e6 d3 c7 bf
       -0.4098928 -0.4972565 -0.027260024 -1.5611541
000330 f1 22 aa be c2 73 c5 3e b5 ec 8d 3a be 2e e3 3e
       -0.33229783 0.3856488 0.001082799 0.443716
000340 64 67 b1 3e 15 ae 63 be 7c 2f 1c be 9f a6 46 3e
       0.34649193 -0.22234376 -0.15252489 0.19399498
000350 da ad 8e bd 76 b0 a5 be ef 32 3b bf ca 09 5a be
       -0.06966753 -0.32361192 -0.73124593 -0.21292797
000360 df 46 72 bf 16 ba a4 be 9f ae c6 bf 3d df 11 bf
       -0.9463939 -0.32173222 -1.552204 -0.5698126
000370 a7 7e 81 bf e5 b6 2d 3f e8 4a 86 bd fc 31 3a bd
       -1.0116776 0.678572 -0.06557256 -0.045457825
000380 3c 14 5e 3f 22 8a b7 3e a8 90 b2 bf 96 46 8d 3e
       0.86749625 0.35847574 -1.3950396 0.27592915
000390 f5 fe d2 3d 50 00 54 be 66 ae 1d bf 06 73 a8 be
       0.103025354 -0.20703244 -0.61594236 -0.32900256
0003a0 7d 58 1c 3e f6 1e 03 3e 99 94 3f be 70 0e 90 be
       0.1526813 0.1280478 -0.1870903 -0.28136015
0003b0 d5 fe 7b 3e e7 ca 5c bf 1d dd 6e be b1 2e e4 be
       0.2460893 -0.86247104 -0.23326536 -0.44566873

mlp.0.bias f4 [10]
000000 e3 1a ee bd 2e cc c7 bd 10 15 e0 be 1e cb c5 be
       -0.11626222 -0.09755741 -0.4376607 -0.3863153
000010 29 f2 77 3e 10 d9 5c 3d 18 a3 05 3d e3 4c 5e 3e
       0.2421347 0.053917944 0.03262624 0.21709017
000020 e8 fc 24 bf 76 27 0e bf
       -0.64448404 -0.5552896

mlp.3.weight f4 [8, 10]
000000 da 96 79 be e2 f8 d6 be a2 cd 05 3f 47 fa f5 3d
       -0.24373952 -0.41986758 0.52266896 0.12010627
000010 80 54 97 be 25 e0 f8 3e 0f 6e 24 3f be cf f0 3e
       -0.29556656 0.4860851 0.64230436 0.47033495
000020 7b 55 92 3f 68 a8 83 be 28 87 3d 3f ac 3d a5 3f
       1.1432337 -0.2571442 0.7403436 1.2909446
000030 60 1f 76 bf 38 09 ad 3d ca 85 46 3f 76 0a 44 be
       -0.96141624 0.08449024 0.77547896 -0.19144616
000040 f2 40 e0 bd db a0 67 3e 3b cb d9 be 14 04 8d 3f
       -0.10949887 0.22619955 -0.42537865 1.101687
000050 2a 84 18 bf c2 f3 04 3c eb ec 23 bf d8 c5 91 bf
       -0.59576666 0.008114757 -0.64033383 -1.1388502
000060 48 87 98 3f d2 d6 70 bf 95 f7 47 bf ba 60 b4 bf
       1.1916285 -0.9407779 -0.78112155 -1.4092019
000070 23 46 9c be c3 f6 21 bf 70 76 73 3d f2 24 0d 3e
       -0.3052226 -0.63267154 0.059439123 0.13783625
000080 19 ba 0c be e7 09 7d 3f a0 1e 17 3d 94 2d aa 3e
       -0.13742866 0.98843235 0.03689444 0.33237898
000090 b1 e1 e3 be fb a1 8f be a2 b0 9a bf eb e7 63 3d
       -0.44508126 -0.2805327 -1.2085154 0.055641096
0000a0 5e d2 81 be 6b 9f 35 be 04 40 0c 3f 65 d5 0f 3e
       -0.2535581 -0.17736594 0.5478518 0.14046247
0000b0 59 58 48 bf fa a0 d0 3e 98 5c 37 3f 0f 7c 21 3f
       -0.7825981 0.40747815 0.7162566 0.63079923
0000c0 e7 20 dd 3e 6d e9 7d be 94 e6 25 3f 09 a8 0b 3f
       0.43189165 -0.24796076 0.6480496 0.54553276
0000d0 c3 f1 e9 3d b1 1d e8 3c b5 16 7d 3f 75 5b 01 bd
       0.114230655 0.02833447 0.98862773 -0.03158136
0000e0 5a 88 8c 3d 7d c5 86 3d db 72 bb 3d 5a 47 eb 3e
       0.068619445 0.06580637 0.09152766 0.45952874
0000f0 02 31 3b 3f 61 ec 90 3f ee 9c 14 bf b5 39 9d be
       0.73121655 1.1322137 -0.58051956 -0.3070809
000100 45 1c 86 3f ba 92 52 bd eb 9f 8b bf aa ea 34 bf
       1.0477377 -0.05140946 -1.0908178 -0.7067057
000110 83 26 dc be f5 92 c4 3e 7d 96 93 be 84 42 96 be
       -0.42998132 0.3839337 -0.2882575 -0.29347622
000120 cc e4 8d 3e df 7a c7 3d f7 9b 42 bf 86 93 13 3e
       0.2771362 0.09740233 -0.76019233 0.14411744
000130 b8 27 c5 3e 4b 4e c6 3e fc 80 61 3f f7 12 21 be
       0.38506866 0.38731608 0.8808744 -0.15729891

mlp.3.bias f4 [8]
000000 f8 f1 31 bc 9b b1 fb bc d3 ae 2e 3f 9b fc bf bb
       -0.0108609125 -0.030724337 0.6823551 -0.0058589703
000010 a0 3e 08 bd 11 e8 83 bf 83 61 9e bd f5 44 8d bc
       -0.03326285 -1.0305196 -0.07733443 -0.017244795

mlp.6.weight f4 [5, 8]
000000 00 bf c2 bf ef 98 b1 c0 a9 0f 07 3f b3 64 86 c0
       -1.5214539 -5.5499187 0.5275827 -4.1997924
000010 67 c0 28 c0 75 3d 3c c0 4e a2 13 c0 4a 6c 1f c0
       -2.6367433 -2.941251 -2.3067813 -2.4909844
000020 18 87 6b bf cf ad f8 3e 2a 7a 7f 3f f7 da 1f 3f
       -0.9200301 0.48570105 0.9979578 0.6244349
000030 fc d6 9d bf a4 39 1e 3f 6c 27 1b 3f e2 e9 41 bf
       -1.2331233 0.618067 0.6060703 -0.757475
000040 31 7d 97 3e b9 53 fc 3e 07 c8 7a be c2 07 4b 3f
       0.295877 0.49282625 -0.24490367 0.7930871
000050 34 3f 6e 3e 98 84 20 3f ff 5d 1d 3f 30 e0 a0 bc
       0.23266298 0.6270232 0.6147155 -0.01963815
000060 8a 9d 07 3f 6c 09 c8 3d 0a 99 1e c0 11 cd 3f 3f
       0.5297476 0.09767422 -2.4780908 0.7492228
000070 ff 0b c7 3e e7 bf 20 bf 2e 77 08 c0 ca bd eb 3e
       0.3887634 -0.6279282 -2.1322742 0.46043235
000080 7f 6f 0d 3f 6c 73 4a 3d 42 47 86 bf 28 6c 89 bf
       0.55248255 0.04942648 -1.0490496 -1.0736132
000090 28 ec cb 3e 27 2c a1 3e ca dc 3d bf 25 70 13 3f
       0.3982861 0.31478998 -0.7416502 0.57592994

mlp.6.bias f4 [5]
000000 41 10 bd 40 15 f9 c0 3e 9d cc 9b c0 9c cc fb 3f
       5.908234 0.37690035 -4.868727 1.9671817
000010 34 0e 84 c0
       -4.126734

exp_avg f4 [10, 12]
000000 b7 1e 60 bb a9 fb ad 3b 13 02 cb b8 fa 70 98 3a
       -0.0034197995 0.0053095412 -9.680181e-05 0.0011630349
000010 c1 d8 38 bb 18 74 a0 bb a5 92 45 3a bb f5 5e ba
       -0.0028205367 -0.004896652 0.00075368054 -0.00085052446
000020 93 1c 5b 3a 96 5b 99 3a f1 51 71 bb 10 89 59 bb
       0.0008358445 0.0011700268 -0.0036822523 -0.0033193268
000030 58 f0 b7 b9 ff 4f 09 3a 58 27 23 b8 bb 7a 62 38
       -0.0003508355 0.00052380556 -3.889887e-05 5.39969e-05
000040 9a 29 2f b9 d4 56 c3 b9 c7 39 90 38 a6 cc aa b8
       -0.00016704798 -0.0003725799 6.877217e-05 -8.1443504e-05
000050 d8 15 a3 38 6a 29 c0 38 a5 73 bd b9 53 08 92 b9
       7.7765144e-05 9.1629874e-05 -0.0003613505 -0.00027853492
000060 ed 05 f6 38 00 33 ee b4 b0 55 e7 37 a6 7d f7 37
       0.00011731298 -4.4368062e-07 2.7577247e-05 2.9503204e-05
000070 44 6f cc b8 57 58 90 38 d0 24 8a 38 0d cf 1f 39
       -9.748203e-05 6.88291e-05 6.58721e-05 0.00015240554
000080 26 ba f1 36 dc 2d d7 b7 bb 57 3f b8 a4 ca 6f b8
       7.20403e-06 -2.5651352e-05 -4.5619654e-05 -5.7170764e-05
000090 37 02 ec b5 92 cd b9 38 41 96 cf 38 d2 41 a5 b8
       -1.7584015e-06 8.859778e-05 9.898516e-05 -7.880073e-05
0000a0 9b 79 80 b8 b6 e8 27 b8 bf 96 85 b6 a3 4b f7 38
       -6.1261664e-05 -4.003263e-05 -3.981258e-06 0.00011791966
0000b0 4e fc ee 37 23 83 63 38 e5 b8 e4 38 3a 1b 34 39
       2.84893e-05 5.4243148e-05 0.000109063265 0.0001717628
0000c0 77 f6 2d 3b f3 31 83 bb 38 50 84 39 cb bf 80 ba
       0.002654461 -0.004003757 0.0002523677 -0.0009822784
0000d0 b7 b7 00 3b 34 fd 71 3b 23 21 26 ba cc b1 29 3a
       0.0019640753 0.0036924602 -0.0006337335 0.0006473332
0000e0 08 18 11 ba b4 5e 65 ba 25 87 44 3b 9d 4d 30 3b
       -0.0005534892 -0.00087497686 0.002998778 0.002690173
0000f0 5a de 9d b8 09 40 09 39 06 1f f4 38 b4 7d 2f b8
       -7.5277596e-05 0.00013089193 0.00011640605 -4.184032e-05
000100 5f d1 1f b9 f9 6b a3 39 3e 21 d9 37 1f 96 0a b8
       -0.00015241418 0.0003117023 2.5883895e-05 -3.3041575e-05
000110 eb f0 46 b9 52 0f e4 36 c9 96 51 39 67 51 fb 38
       -0.000189725 6.796713e-06 0.00019987965 0.00011983775
000120 44 5f ff b7 3c 35 ea 37 2c 44 3e 38 2b d2 3c b8
       -3.044273e-05 2.7919763e-05 4.536302e-05 -4.5018427e-05
000130 78 85 68 b8 69 ed a3 b7 bb 85 3e 37 f3 27 49 38
       -5.5437413e-05 -1.9541667e-05 1.1356019e-05 4.795934e-05
000140 aa 93 67 b7 85 63 c8 37 ec 20 91 36 2d c9 86 38
       -1.3803054e-05 2.38882e-05 4.3251694e-06 6.42709e-05
000150 8e 2f 21 bb b7 15 6d 3b dc a3 0e b9 d2 b0 77 3a
       -0.0024594995 0.0036176273 -0.00013603218 0.00094486505
000160 42 35 06 bb 00 2f 62 bb 7b 10 08 3a 87 fd 09 ba
       -0.0020478521 -0.0034512877 0.0005190444 -0.0005263914
000170 a7 e5 14 3a b8 2c 54 3a 6f ee 25 bb af 39 1f bb
       0.0005679973 0.0008093822 -0.002531912 -0.0024295857
000180 f5 90 9c 3b 8c 80 f8 bb e0 6d bc 38 24 a6 dc ba
       0.0047780224 -0.0075836834 8.9850044e-05 -0.0016834182
000190 7e 4f 73 3b b4 cf d9 3b 9d 0d 8c ba 91 4d 97 3a
       0.0037126238 0.0066470746 -0.0010685209 0.0011543502
0001a0 28 6c 92 ba 5c db d5 ba ea 8f 9f 3b 0b d4 9a 3b
       -0.0011171149 -0.0016315985 0.004869451 0.0047249845
0001b0 bf 58 fc ba aa a8 4c 3b 5d d4 92 b9 27 df 38 3a
       -0.0019252523 0.0031228461 -0.00028005513 0.0007052295
0001c0 4b eb cb ba c6 92 3d bb e5 cb f8 39 6c e6 21 ba
       -0.0015557794 -0.0028926595 0.0004745416 -0.0006175998
0001d0 b8 fe de 39 9f 91 38 3a 84 20 0b bb 84 d2 04 bb
       0.0004253292 0.0007040742 -0.0021229098 -0.0020267079

exp_avg_sq f4 [10, 12]
000000 86 7b 22 3a 30 ec d1 3a 69 fb 30 3a bf 8f 12 39
       0.0006198216 0.0016015824 0.000675133 0.00013977195
000010 6d a2 80 3b b2 cc ff 39 34 78 c6 38 71 cf 87 39
       0.0039256127 0.000487899 9.463765e-05 0.00025903762
000020 9c 3c 10 3a 48 56 ca 38 7c 8e 3c 3a e0 52 73 3a
       0.00055021956 9.648182e-05 0.00071928627 0.00092820637
000030 da 42 47 38 73 13 cf 38 f4 dc 3c 38 1b 6c b6 37
       4.7507558e-05 9.874152e-05 4.502847e-05 2.1746431e-05
000040 dd 03 43 39 6b e9 52 38 6e 28 cf 36 96 e1 9b 37
       0.00018598088 5.028529e-05 6.1737874e-06 1.8582487e-05
000050 db 45 00 38 11 18 ea 36 9c 02 45 38 5e b8 62 38
       3.0582636e-05 6.976545e-06 4.697089e-05 5.4054304e-05
000060 a8 33 8b 39 96 c3 2a 3a e1 e0 91 39 db af d8 38
       0.00026550633 0.000651413 0.00027824103 0.00010332438
000070 d0 ea cd 39 c7 b5 c0 38 c3 59 0c 38 5b 83 da 38
       0.00039275596 9.189132e-05 3.34622e-05 0.00010419517
000080 25 96 6c 39 2b 4a e3 37 ac 22 26 39 ed 89 93 39
       0.00022562647 2.7095046e-05 0.0001584391 0.00028140788
000090 49 0c 55 37 94 6a fc 36 cc 6b b0 36 00 b5 a1 35
       1.269865e-05 7.5225926e-06 5.257758e-06 1.2048113e-06
0000a0 39 8d a3 37 f1 83 1c 36 92 2f 9a 36 72 2d de 36
       1.9496876e-05 2.3322611e-06 4.5950956e-06 6.621406e-06
0000b0 71 80 f0 36 ca be 7a 35 b8 fa 96 36 ea 7a 1f 37
       7.16751e-06 9.340989e-07 4.499536e-06 9.505757e-06
0000c0 3a 81 cf 39 f2 32 34 3a 1d 00 30 39 16 a8 52 39
       0.00039578398 0.00068740465 0.0001678471 0.00020089778
0000d0 7c 9a c4 3a 61 c0 1d 3a 0d 9f ee 37 b9 c3 99 38
       0.0014999653 0.00060177414 2.8445875e-05 7.332065e-05
0000e0 16 fa 32 39 a1 ae 35 38 38 f1 a3 39 ed 0a 66 39
       0.00017068567 4.33164e-05 0.00031269505 0.0002193858
0000f0 4f a0 a0 3a 09 95 e1 3a 0b cd 24 3a dd b7 20 3a
       0.0012254807 0.0017210554 0.00062866573 0.00061309134
000100 fb 98 c7 3b d5 d0 08 3b ca cc a4 38 eb 8c 68 39
       0.0060912347 0.0020876427 7.858274e-05 0.0002217774
000110 81 2e 19 3a 9f 03 f9 38 15 ed 8c 3a c4 91 4b 3a
       0.00058434164 0.0001187392 0.0010751808 0.0007765556
000120 97 53 f1 38 2f 06 11 38 b5 0f 0a 38 ed e6 14 38
       0.00011507345 3.4576453e-05 3.2916392e-05 3.5501016e-05
000130 16 d9 5b 37 f2 64 cd 38 8c b4 23 36 68 26 8f 37
       1.31039615e-05 9.793964e-05 2.4393985e-06 1.7064813e-05
000140 4d cb 40 38 da 37 5d 35 4b 9b ff 37 59 ca 1a 37
       4.5965706e-05 8.241019e-07 3.0470683e-05 9.226228e-06
000150 6f 4c 4c 39 57 ea 6a 39 81 9f a9 38 90 f4 e6 38
       0.0001948343 0.00022403277 8.088258e-05 0.00011012808
000160 88 fd b0 39 15 17 97 39 bf 48 24 37 20 12 d5 37
       0.0003375823 0.00028818162 9.792099e-06 2.5400019e-05
000170 19 bd 91 38 27 fc 51 37 3a a5 92 38 d3 c3 91 38
       6.949361e-05 1.251608e-05 6.992598e-05 6.950614e-05
000180 8a 34 8a 39 25 e0 30 39 a0 89 f9 37 84 0b ec 36
       0.00026360556 0.00016868168 2.97472e-05 7.0346887e-06
000190 bf ee 2b 39 8a 93 b0 38 1f 7d 08 37 ea f5 78 38
       0.0001639677 8.419815e-05 8.135364e-06 5.9356833e-05
0001a0 6c 28 c6 38 66 16 02 37 96 04 8e 38 d9 9e 10 38
       9.448905e-05 7.753819e-06 6.771942e-05 3.4480214e-05
0001b0 ca 1b 83 38 f1 8a 8d 38 a4 be f0 37 3c c6 e8 37
       6.251743e-05 6.749284e-05 2.8699003e-05 2.7748865e-05
0001c0 c1 6f 91 37 6e 4c a7 38 d6 19 a6 36 5b f2 78 37
       1.7337386e-05 7.977417e-05 4.950193e-06 1.483838e-05
0001d0 f0 cc e1 37 00 6a 69 36 07 c3 f0 37 29 0f 9a 37
       2.6917522e-05 3.4781406e-06 2.8701046e-05 1.836529e-05

exp_avg f4 [10]
000000 19 12 8c bb 44 c8 dd b9 ae 88 2a 38 df bb 9c b6
       -0.0042746183 -0.00042301614 4.065845e-05 -4.6710334e-06
000010 fc be 67 3b 81 70 f2 38 91 bc d6 b7 64 d3 49 bb
       0.0035361638 0.00011560415 -2.5598596e-05 -0.0030796165
000020 5c 06 c7 3b 77 82 33 bb
       0.006073756 -0.0027390996

exp_avg_sq f4 [10]
000000 de 6e b4 3a 0b 81 b8 38 eb 1a 01 3a 24 dc ff 36
       0.0013765951 8.79784e-05 0.00049249706 7.62522e-06
000010 b2 5f 12 3a d7 88 d3 3a 6c f0 5f 38 fa 45 45 39
       0.0005583718 0.0016138804 5.3391253e-05 0.00018813452
000020 55 48 21 39 4f bf 4c 38
       0.00015381102 4.881556e-05

exp_avg f4 [8, 10]
000000 04 00 00 00 04 00 00 00 04 00 00 00 04 00 00 00
       6e-45 6e-45 6e-45 6e-45
000010 04 00 00 00 04 00 00 00 04 00 00 00 04 00 00 00
       6e-45 6e-45 6e-45 6e-45
000020 04 00 00 00 04 00 00 00 00 00 00 00 00 00 00 00
       6e-45 6e-45 0.0 0.0
000030 00 00 00 00 00 00 00 00 00 00 00 00 00 00 00 00
       0.0 0.0 0.0 0.0
000040 00 00 00 00 00 00 00 00 00 00 00 00 00 00 00 00
       0.0 0.0 0.0 0.0
000050 07 25 40 b9 90 d8 5e bb bc 13 fe 37 1c 0b 10 b5
       -0.0001832434 -0.0034003593 3.0288349e-05 -5.3660347e-07
000060 f8 7e 00 bb 97 c5 98 b7 d2 75 a2 b4 0c d2 2c b9
       -0.001960693 -1.8211822e-05 -3.0260577e-07 -0.00016481447
000070 ac 94 e6 b8 9e 3f cb ba 59 3f 08 2c 31 a0 3a 38
       -0.00010994947 -0.001550663 1.9361927e-12 4.4495046e-05
000080 72 43 25 b8 71 21 d1 b8 58 35 13 b8 fc f3 ac 36
       -3.940188e-05 -9.9721256e-05 -3.509721e-05 5.154403e-06
000090 22 15 1d b7 11 e9 0d 95 6c d7 01 38 b6 89 30 b7
       -9.36285e-06 -2.865858e-26 3.0956624e-05 -1.0522481e-05
0000a0 68 87 35 b8 72 81 50 b9 96 14 74 b6 a4 df d1 99
       -4.327987e-05 -0.00019884648 -3.6370816e-06 -2.1700421e-23
0000b0 9c 9f 84 b8 1f 04 60 b4 70 59 e3 2b e0 24 21 b8
       -6.32398e-05 -2.0863125e-07 1.6154144e-12 -3.8419734e-05
0000c0 41 36 41 36 21 f8 5c b9 04 00 00 00 04 00 00 00
       2.879082e-06 -0.0002107327 6e-45 6e-45
0000d0 04 00 00 00 04 00 00 00 04 00 00 00 04 00 00 00
       6e-45 6e-45 6e-45 6e-45
0000e0 00 00 00 00 04 00 00 00 04 00 00 00 04 00 00 00
       0.0 6e-45 6e-45 6e-45
0000f0 16 ec cf b8 8c 14 f1 ba 59 6d bd 37 a3 37 a4 98
       -9.9145036e-05 -0.0018392964 2.2581475e-05 -4.2449185e-24
000100 90 c4 89 ba 6c 7f 13 b7 28 e7 2f 2a ff 30 9e b8
       -0.0010510851 -8.7915505e-06 1.5623321e-13 -7.543153e-05
000110 e1 15 88 b8 73 04 51 ba 9b bf ce b9 5c ea e7 bb
       -6.4890606e-05 -0.000797338 -0.0003943414 -0.0070774984
000120 a1 ad db 38 c5 7b 83 b5 fe 49 8a bb fd c9 29 b8
       0.00010475075 -9.796282e-07 -0.0042202463 -4.0480856e-05
000130 dd c2 a5 b4 e2 c4 cc b9 2f bd 84 b9 36 72 4e bb
       -3.0875427e-07 -0.000390566 -0.00025317955 -0.003150118

exp_avg_sq f4 [8, 10]
000000 57 f2 05 29 2f c0 00 2c 9e eb 16 27 d3 9c 48 2d
       2.974213e-14 1.8296577e-12 2.094441e-15 1.1403506e-11
000010 07 68 f3 2c 51 4e 22 27 6a 1f b1 2b 8b de 57 27
       6.9180247e-12 2.2524472e-15 1.2585326e-12 2.9957885e-15
000020 d1 06 15 2d 04 85 09 2b 00 00 00 00 00 00 00 00
       8.471183e-12 4.8856774e-13 0.0 0.0
000030 00 00 00 00 00 00 00 00 00 00 00 00 00 00 00 00
       0.0 0.0 0.0 0.0
000040 00 00 00 00 00 00 00 00 00 00 00 00 00 00 00 00
       0.0 0.0 0.0 0.0
000050 59 85 38 38 00 c6 14 39 0d c8 44 38 08 5b 99 34
       4.399321e-05 0.0001418814 4.6916353e-05 2.8564705e-07
000060 0e 6b 81 38 7d 77 e1 37 b6 74 12 36 c3 33 e4 37
       6.17114e-05 2.6877731e-05 2.182363e-06 2.7203821e-05
000070 b8 ba 0d 37 92 54 ac 38 3b 94 62 37 d4 5b 9c 36
       8.447729e-06 8.2173516e-05 1.3505162e-05 4.6598525e-06
000080 d1 94 a6 35 e0 69 b8 35 7a 2b f0 37 79 01 31 37
       1.2411275e-06 1.3739882e-06 2.8630475e-05 1.0550365e-05
000090 84 07 d5 34 1c fb 14 33 66 65 38 36 59 e7 e6 34
       3.967981e-07 3.4687318e-08 2.7477158e-06 4.3009166e-07
0000a0 3d ce 4b 39 8e 82 09 3a eb 14 4c 39 01 82 06 36
       0.00019436418 0.00052455894 0.00019462749 2.0043228e-06
0000b0 f8 44 51 3a be eb 89 38 f5 48 6f 37 69 2f 2c 3a
       0.00079829944 6.5765795e-05 1.4262497e-05 0.0006568344
0000c0 64 86 d1 37 1f 30 d3 3a 43 1f f7 27 e7 16 2d 28
       2.4977322e-05 0.0016112364 6.8590166e-15 9.608395e-15
0000d0 80 d5 e6 24 1f 14 ba 22 a6 9e 4e 28 85 14 52 25
       1.0010828e-16 5.0436705e-18 1.14696985e-14 1.8221549e-16
0000e0 00 00 00 00 7d ef 1f 25 2c bb f8 24 91 7d 4e 26
       0.0 1.3872193e-16 1.0786994e-16 7.164078e-16
0000f0 36 0b 9a 33 2e b1 19 37 4b 14 d3 35 b6 0b a9 32
       7.173223e-08 9.1607635e-06 1.5726631e-06 1.9679515e-08
000100 ef 51 b8 37 d2 70 d3 35 39 96 6e 35 51 d9 dc 37
       2.1972663e-05 1.575356e-06 8.888051e-07 2.632724e-05
000110 44 f1 59 33 46 db 83 38 9a d3 6f 39 3f 58 11 3a
       5.074368e-08 6.2874096e-05 0.00022871644 0.0005544461
000120 9b 36 8f 39 74 32 e8 35 be 89 7b 39 df 7d e8 38
       0.0002731577 1.7300031e-06 0.00023988538 0.000110860674
000130 d6 8b 88 36 66 86 89 38 58 c0 1b 37 eb f0 15 39
       4.069395e-06 6.557703e-05 9.2835035e-06 0.00014299496

exp_avg f4 [8]
000000 04 00 00 00 00 00 00 00 07 06 14 bb 98 54 4a 37
       6e-45 0.0 -0.00225866 1.2059834e-05
000010 60 32 72 b9 04 00 00 00 6c 6e 9f ba 97 7a 98 bb
       -0.00023097685 6e-45 -0.0012163646 -0.0046532857

exp_avg_sq f4 [8]
000000 37 d3 c8 2c 00 00 00 00 23 cc 0b 39 a9 4e 05 37
       5.7077914e-12 0.0 0.0001333212 7.945732e-06
000010 b0 5b 2f 3a ce cd 01 29 de 42 76 37 21 9e 13 3a
       0.0006689383 2.882226e-14 1.4678311e-05 0.0005631168

exp_avg f4 [6, 8]
000000 04 00 00 00 00 00 00 00 da ae 43 b9 d3 91 22 b8
       6e-45 0.0 -0.00018661786 -3.875962e-05
000010 e8 e4 91 b7 04 00 00 00 98 e4 02 b9 29 09 f1 b8
       -1.739194e-05 6e-45 -0.00012482924 -0.00011493482
000020 04 00 00 80 00 00 00 00 a5 32 76 39 5f cd bb 34
       -6e-45 0.0 0.00023479255 3.4980891e-07
000030 78 58 3e 34 04 00 00 00 e7 e7 2e 39 33 6d 10 39
       1.7727314e-07 6e-45 0.00016680323 0.0001377359
000040 00 00 00 00 00 00 00 00 00 00 00 00 00 00 00 00
       0.0 0.0 0.0 0.0
000050 00 00 00 00 00 00 00 00 00 00 00 00 00 00 00 00
       0.0 0.0 0.0 0.0
000060 04 00 00 00 00 00 00 00 54 04 17 39 e5 0d 41 b8
       6e-45 0.0 0.00014402095 -4.6027726e-05
000070 1c 2a a0 34 04 00 00 00 f4 fe d8 38 78 29 a7 38
       2.983296e-07 6e-45 0.00010347171 7.970905e-05
000080 04 00 00 80 00 00 00 00 8d 81 15 06 33 af 88 b8
       -6e-45 0.0 2.8118964e-35 -6.517619e-05
000090 9d 18 86 05 04 00 00 00 04 00 00 80 d1 ee 02 05
       1.2610341e-35 6e-45 -6e-45 6.156434e-36
0000a0 04 00 00 00 00 00 00 00 0e 61 96 b9 b9 54 2f 09
       6e-45 0.0 -0.0002868254 2.1104695e-33
0000b0 0d f4 db b7 04 00 00 00 26 5e 49 b9 a7 5a 39 b9
       -2.622048e-05 6e-45 -0.00019203927 -0.00017676745

exp_avg_sq f4 [6, 8]
000000 45 ed 1b 27 00 00 00 00 4e b3 a8 35 f4 9a 7c 38
       2.1639195e-15 0.0 1.256916e-06 6.0225793e-05
000010 a4 1a e1 34 8f 6e dc 26 bb 59 02 36 92 9a 1e 35
       4.19289e-07 1.5295534e-15 1.942374e-06 5.9084516e-07
000020 37 d3 85 27 00 00 00 00 4f 7a 27 36 a7 92 a0 34
       3.7143915e-15 0.0 2.4956132e-06 2.9909026e-07
000030 27 b6 69 35 51 43 f0 1c 31 06 87 36 98 5b 99 35
       8.706433e-07 1.5899269e-21 4.0240343e-06 1.1426046e-06
000040 00 00 00 00 00 00 00 00 00 00 00 00 00 00 00 00
       0.0 0.0 0.0 0.0
000050 00 00 00 00 00 00 00 00 00 00 00 00 00 00 00 00
       0.0 0.0 0.0 0.0
000060 ff 43 67 23 00 00 00 00 c1 05 f9 34 53 b7 2c 37
       1.2536934e-17 0.0 4.638405e-07 1.0294682e-05
000070 75 9a 89 33 0f 55 8f 25 8b 85 1f 32 e4 64 48 34
       6.407655e-08 2.4864184e-16 9.285382e-09 1.8663155e-07
000080 86 c4 c4 22 00 00 00 00 92 d4 75 33 87 5a a0 35
       5.3333984e-18 0.0 5.723684e-08 1.1947276e-06
000090 a3 e9 53 32 de 72 8d 1a 5a 1b f9 28 2a e0 5c 31
       1.2334939e-08 5.850181e-23 2.7656415e-14 3.2141636e-09
0000a0 b1 10 83 28 00 00 00 00 3b 33 26 36 66 80 d4 34
       1.455116e-14 0.0 2.4765748e-06 3.95815e-07
0000b0 fd af 5a 35 ba 3b 3e 28 6e f4 81 36 ab b7 95 35
       8.1467425e-07 1.056007e-14 3.872955e-06 1.115482e-06

exp_avg f4 [6]
000000 20 af 1d ba 73 3f 4c 3a 00 00 00 00 a6 32 fa 39
       -0.00060151704 0.0007791437 0.0 0.00047721452
000010 72 76 35 b7 d6 a1 6f ba
       -1.0816018e-05 -0.0009141242

exp_avg_sq f4 [6]
000000 2b d7 cd 37 72 d9 49 38 00 00 00 00 b5 9e 2b 37
       2.45381e-05 4.8124646e-05 0.0 1.0229346e-05
000010 90 d8 c8 33 8b 5b 39 38
       9.352618e-08 4.4192693e-05

exp_avg f4 [8, 6]
000000 b4 0e 07 b9 df 55 1c b9 00 00 00 00 81 90 cb 35
       -0.0001288008 -0.00014909309 0.0 1.5166735e-06
000010 9b 0e 56 85 e7 c3 17 b9 6f a1 57 b7 b6 a2 5b 34
       -1.0064914e-35 -0.00014473461 -1.2852585e-05 2.0455158e-07
000020 00 00 00 00 58 2c 46 b8 33 85 02 b8 ee 93 6b 2a
       0.0 -4.7248177e-05 -3.1118467e-05 2.0923516e-13
000030 f4 f2 a6 b7 d5 ae 9f 35 00 00 00 00 64 42 af b7
       -1.9901876e-05 1.1897306e-06 0.0 -2.0892541e-05
000040 ea f2 6c b7 54 eb 6e b7 9f 04 82 38 4f ff c9 38
       -1.4123254e-05 -1.4240697e-05 6.199744e-05 9.631982e-05
000050 00 00 00 00 34 13 13 b7 99 dc 95 b6 a3 ca 99 38
       0.0 -8.766354e-06 -4.466227e-06 7.3333526e-05
000060 8d 6b a2 b7 4e 98 a5 35 00 00 00 00 ae e7 be b7
       -1.9361987e-05 1.2337784e-06 0.0 -2.275765e-05
000070 46 c0 80 b7 ce 91 5d b7 7b 3d ce 37 1a f4 04 38
       -1.5348323e-05 -1.3206574e-05 2.4585743e-05 3.169859e-05
000080 00 00 00 00 7a a7 ea 35 be 67 8c a8 e7 ec f0 37
       0.0 1.7483101e-06 -1.5588113e-14 2.8720546e-05
000090 a3 7f 21 b9 1a 72 3d b9 00 00 00 00 7f 44 4b 35
       -0.00015401705 -0.0001806695 0.0 7.572307e-07
0000a0 d4 bc 0f 2b ae 33 35 b9 04 00 00 00 04 00 00 00
       5.1065857e-13 -0.00017280757 6e-45 6e-45
0000b0 00 00 00 00 04 00 00 00 04 00 00 80 04 00 00 00
       0.0 6e-45 -6e-45 6e-45

exp_avg_sq f4 [8, 6]
000000 2a 32 80 35 3a c0 37 35 00 00 00 00 09 ab ec 33
       9.551343e-07 6.845254e-07 0.0 1.10207175e-07
000010 a6 b1 18 31 e3 49 47 35 86 3e 56 35 cb 40 7a 35
       2.2219893e-09 7.4240796e-07 7.9812196e-07 9.3226544e-07
000020 00 00 00 00 2a 9a ed 35 5a 4e 58 35 8a 9c c2 34
       0.0 1.7702744e-06 8.0580287e-07 3.6249213e-07
000030 08 ce 4f 36 54 36 db 34 00 00 00 00 f1 88 41 37
       3.096533e-06 4.0831458e-07 0.0 1.1535581e-05
000040 3c fc dc 36 1b 00 f5 34 8f 4a b4 35 53 a7 43 36
       6.585875e-06 4.5634883e-07 1.3432744e-06 2.915466e-06
000050 00 00 00 00 c4 9a a0 36 5b 61 2f 36 79 19 93 34
       0.0 4.7863887e-06 2.61337e-06 2.7399417e-07
000060 ec 0c 46 36 4f 57 9a 34 00 00 00 00 24 4e 3b 37
       2.951182e-06 2.874826e-07 0.0 1.1164262e-05
000070 d6 ff d5 36 b9 24 e9 34 df b6 8e 33 f3 d7 98 36
       6.377678e-06 4.342635e-07 6.645654e-08 4.555093e-06
000080 00 00 00 00 f3 38 c9 34 c3 ae 8f 30 51 af 69 33
       0.0 3.7480604e-07 1.045429e-09 5.440899e-08
000090 7b b7 c7 36 9e ee 9a 35 00 00 00 00 23 7d dc 37
       5.952022e-06 1.1543341e-06 0.0 2.6284315e-05
0000a0 08 10 81 37 e9 81 6a 35 0b 9c 07 2d da 61 ba 2a
       1.5385463e-05 8.7360837e-07 7.70851e-12 3.3108135e-13
0000b0 00 00 00 00 6b 65 89 2a 9b 2f 5a 25 a4 7c f8 2b
       0.0 2.4406462e-13 1.8924615e-16 1.7656055e-12

exp_avg f4 [8]
000000 c1 8e 43 b9 b2 08 5f b6 33 fc 93 b6 26 2c f2 38
       -0.00018649829 -3.323465e-06 -4.4103012e-06 0.000115476825
000010 b9 e3 8d b6 ab 74 23 38 f6 93 6d b9 04 00 00 00
       -4.228638e-06 3.8970884e-05 -0.00022657201 6e-45

exp_avg_sq f4 [8]
000000 12 b7 c9 35 b7 f3 d7 35 c9 58 98 35 5d e2 5f 36
       1.5028947e-06 1.6089679e-06 1.1350722e-06 3.336135e-06
000010 1c dc 7b 35 c6 e7 95 36 34 80 41 36 ce 7d 01 2e
       9.382509e-07 4.467528e-06 2.8833865e-06 2.944294e-11

exp_avg f4 [10, 8]
000000 01 7e d8 b8 8f f0 69 2b 56 0c 7a b8 14 47 e0 b8
       -0.00010323153 8.311207e-13 -5.9616134e-05 -0.00010694392
000010 e0 9f 19 b8 93 76 53 b8 ce 72 8f b8 66 6c 6c b7
       -3.6626938e-05 -5.041675e-05 -6.8401554e-05 -1.4091935e-05
000020 00 00 00 00 00 00 00 00 00 00 00 00 00 00 00 00
       0.0 0.0 0.0 0.0
000030 00 00 00 00 00 00 00 00 00 00 00 00 00 00 00 00
       0.0 0.0 0.0 0.0
000040 04 00 00 00 04 00 00 00 04 00 00 00 04 00 00 00
       6e-45 6e-45 6e-45 6e-45
000050 04 00 00 00 04 00 00 00 04 00 00 00 00 00 00 00
       6e-45 6e-45 6e-45 0.0
000060 04 00 00 00 00 00 00 00 04 00 00 00 04 00 00 00
       6e-45 0.0 6e-45 6e-45
000070 04 00 00 00 04 00 00 00 04 00 00 00 04 00 00 00
       6e-45 6e-45 6e-45 6e-45
000080 04 00 00 00 04 00 00 00 04 00 00 00 00 00 00 00
       6e-45 6e-45 6e-45 0.0
000090 04 00 00 00 00 00 00 00 04 00 00 00 04 00 00 00
       6e-45 0.0 6e-45 6e-45
0000a0 00 00 00 00 00 00 00 00 00 00 00 00 00 00 00 00
       0.0 0.0 0.0 0.0
0000b0 00 00 00 00 00 00 00 00 00 00 00 00 00 00 00 00
       0.0 0.0 0.0 0.0
0000c0 4e 72 27 38 ab 8f 95 b8 38 40 6e 37 c0 3a 9e 37
       3.9922357e-05 -7.131634e-05 1.4200858e-05 1.8862425e-05
0000d0 be a0 c3 36 77 77 13 38 75 7c 37 38 d8 76 35 36
       5.8301657e-06 3.515879e-05 4.374651e-05 2.7040278e-06
0000e0 04 00 00 00 04 00 00 00 04 00 00 00 56 43 20 04
       6e-45 6e-45 6e-45 1.8838829e-36
0000f0 04 00 00 00 0c fc 9f 03 ce 7c e5 03 04 00 00 00
       6e-45 9.403047e-37 1.3488064e-36 6e-45
000100 04 00 00 00 00 00 00 00 04 00 00 00 04 00 00 00
       6e-45 0.0 6e-45 6e-45
000110 04 00 00 00 04 00 00 00 04 00 00 00 04 00 00 00
       6e-45 6e-45 6e-45 6e-45
000120 04 00 00 00 84 6f 7a 29 8d 2b 49 25 1a 88 85 29
       6e-45 5.5607876e-14 1.7448727e-16 5.9299963e-14
000130 cd a6 48 26 7e 57 1a 28 04 00 00 00 04 00 00 00
       6.9614996e-16 8.567689e-15 6e-45 6e-45

exp_avg_sq f4 [10, 8]
000000 b2 03 31 35 b8 b0 38 38 41 18 f6 36 c1 7b ba 37
       6.5943016e-07 4.40336e-05 7.334195e-06 2.2230555e-05
000010 53 80 e3 36 69 1e 89 34 a5 68 1f 35 2f e8 b2 32
       6.780066e-06 2.5540365e-07 5.9384394e-07 2.0827512e-08
000020 00 00 00 00 00 00 00 00 00 00 00 00 00 00 00 00
       0.0 0.0 0.0 0.0
000030 00 00 00 00 00 00 00 00 00 00 00 00 00 00 00 00
       0.0 0.0 0.0 0.0
000040 41 2b 23 26 a2 00 dc 25 c0 07 f4 26 c6 da 99 28
       5.6610605e-16 3.8164345e-16 1.6933002e-15 1.708129e-14
000050 77 fc 7a 25 e5 40 bc 22 c8 1b 57 25 00 00 00 00
       2.1769582e-16 5.102621e-18 1.865769e-16 0.0
000060 22 52 af 2b 00 00 00 00 7c e2 39 28 43 66 d6 2b
       1.2457294e-12 0.0 1.0318674e-14 1.5233998e-12
000070 40 9a 9e 2b 5b d5 61 2b d4 b3 9c 29 9f a1 95 2a
       1.1269388e-12 8.023215e-13 6.958987e-14 2.6579864e-13
000080 12 75 8e 25 ef 51 43 22 93 0f 82 26 00 00 00 00
       2.4712403e-16 2.6470803e-18 9.024783e-16 0.0
000090 b7 80 38 26 00 00 00 00 fc 14 72 26 a8 d8 ad 24
       6.4012265e-16 0.0 8.3989055e-16 7.539382e-17
0000a0 00 00 00 00 00 00 00 00 00 00 00 00 00 00 00 00
       0.0 0.0 0.0 0.0
0000b0 00 00 00 00 00 00 00 00 00 00 00 00 00 00 00 00
       0.0 0.0 0.0 0.0
0000c0 59 70 31 36 ef b5 ce 34 9c a9 36 36 f4 8b 08 39
       2.644045e-06 3.8502864e-07 2.721884e-06 0.00013022107
0000d0 d2 72 18 36 4b de 27 38 4b 98 44 36 38 70 fb 32
       2.27166e-06 4.002293e-05 2.9294922e-06 2.9271277e-08
0000e0 da 18 ec 2b e7 7d ae 2a 46 ea dc 2a 1f 2d e1 2d
       1.6775706e-12 3.099597e-13 3.924241e-13 2.5599576e-11
0000f0 3c dd 7e 2b 6a ea 02 2c 85 7d 59 2a e9 ba 7a 2a
       9.054595e-13 1.8604237e-12 1.931702e-13 2.2269308e-13
000100 12 ba ad 2e 00 00 00 00 99 7b 50 2e 4f cf 62 2e
       7.900182e-11 0.0 4.74035e-11 5.1570578e-11
000110 d3 dd 86 2f 18 b7 33 2e 84 db a5 2d cb 41 e5 2d
       2.4532074e-10 4.0862508e-11 1.8855813e-11 2.6063504e-11
000120 55 25 00 2e b3 ae b0 2d 8a 87 b8 2e 8f 66 36 30
       2.9136988e-11 2.0086465e-11 8.391428e-11 6.635696e-10
000130 5f 74 3a 2d 6f 2e 88 2c bd 80 23 2d 6b 9f d0 2c
       1.05987155e-11 3.8705076e-12 9.294063e-12 5.9294145e-12

exp_avg f4 [10]
000000 48 fe 9f b8 00 00 00 00 04 00 00 00 04 00 00 00
       -7.6290744e-05 0.0 6e-45 6e-45
000010 04 00 00 00 00 00 00 00 09 a3 49 38 2f 56 ee 03
       6e-45 0.0 4.8073973e-05 1.400817e-36
000020 04 00 00 00 74 e6 f6 27
       6e-45 6.8528574e-15

exp_avg_sq f4 [10]
000000 79 59 7b 35 00 00 00 00 77 fd 61 26 9d 4e 16 2d
       9.3634986e-07 0.0 7.8406065e-16 8.5439685e-12
000010 4b f7 1c 25 00 00 00 00 fa f3 cc 37 f2 e1 9b 2d
       1.3614629e-16 0.0 2.4432306e-05 1.77218e-11
000020 31 fb b3 2f e7 16 b8 2e
       3.2738393e-10 8.3714195e-11
