save_models/MLP_ckpt_06-27_10-34-37.pt (torch, 9882 bytes, 18 tensors)

linear.0.weight f4 [10, 12]
0	0xbe681efd	-0.22668071
1	0x3f003c59	0.50092083
2	0xc00a16df	-2.157646
3	0x3f9d735a	1.2300828
4	0x3f92340d	1.1422135
5	0x3e78f5cc	0.24312514
6	0xbfefcc54	-1.8734231
7	0x3fbcd336	1.4751956
8	0x3cae88b6	0.021305423
9	0xbfc81908	-1.5632639
10	0x3eaad2a1	0.33363822
11	0xc00e8092	-2.2265973
12	0x3e4fdd98	0.20299375
13	0x3f0705ac	0.5274303
14	0xbf8927ea	-1.0715306
15	0x3fe54abc	1.7913432
16	0x3f8773a6	1.0582168
17	0xc052fef7	-3.2968118
18	0xbf8baad1	-1.0911504
19	0x3e05aad3	0.13053446
20	0x39855824	0.00025433407
21	0xbef3b69b	-0.47600254
22	0xbfa2273c	-1.2668223
23	0xbf89dffe	-1.0771482
24	0xbff86dea	-1.9408543
25	0xbe607d26	-0.2192274
26	0x406302fa	3.5470567
27	0xbfbb3e55	-1.4628397
28	0x3e7ef602	0.24898532
29	0xc00c84eb	-2.1956127
30	0xbf3088ce	-0.6895875
31	0xbf711ea8	-0.941874
32	0x3fdc8e0b	1.7230848
33	0x3f246b13	0.6422588
34	0x3e3dbd78	0.18529308
35	0xc00a8e81	-2.1649477
36	0x3f156cbd	0.58369046
37	0x3f6904aa	0.9102274
38	0x3d75efd6	0.06004318
39	0x401bd3c9	2.4348013
40	0x3e5d12d4	0.21589214
41	0xc014a0ce	-2.3223147
42	0xbf86519e	-1.0493658
43	0xbef67ee4	-0.48143685
44	0x3edf4a0e	0.43611187
45	0xbee1d1c1	-0.44105342
46	0xc01e8a2f	-2.477184
47	0xbf382065	-0.7192443
48	0x3f961119	1.1723968
49	0x3dfeade7	0.12435513
50	0xbffc7f77	-1.9726399
51	0x3fd55c75	1.6668841
52	0x3fca444c	1.5802093
53	0x3fa787f5	1.3088366
54	0x3e9f3de9	0.3110192
55	0xc018130c	-2.3761625
56	0xbec7861d	-0.38969508
57	0x4020a256	2.5099082
58	0x3e0b468b	0.13601129
59	0x3cd21b01	0.025647642
60	0xbde61a9d	-0.11235545
61	0x3ff62e2f	1.9232844
62	0xbf63f1e6	-0.8904098
63	0x40442840	3.0649567
64	0x3f19abfa	0.6002804
65	0xc010aead	-2.2606614
66	0xc095ac8b	-4.6773124
67	0xbdef81e8	-0.116946995
68	0x3f009572	0.50228035
69	0xbf06dbda	-0.52679217
70	0xbf98a712	-1.1925986
71	0xbfeb0304	-1.8360295
72	0x3f3d661f	0.7398395
73	0xbdca5139	-0.09878773
74	0xbfed0db8	-1.8519812
75	0x3fabf3e8	1.3433809
76	0xbf0a26cd	-0.53965455
77	0x3f9aae53	1.208445
78	0x4000698f	2.0064428
79	0xc01991b4	-2.399518
80	0xc002a523	-2.0413291
81	0x3fe7d946	1.8113182
82	0xbe826cb4	-0.2547356
83	0x3f5ed056	0.87036645
84	0x3f9ddb95	1.2332636
85	0xbdeb37eb	-0.11485275
86	0xbf59e05b	-0.85107964
87	0xbf032c14	-0.5123913
88	0x3f52d3aa	0.82354224
89	0x3f0b6d0e	0.5446328
90	0x401e5162	2.4737172
91	0xbf06fb2e	-0.5272702
92	0xbf96fb0e	-1.1795366
93	0xc00a7a61	-2.1637194
94	0x3ea0f0ac	0.31433618
95	0x3faeb7c6	1.3649833
96	0xbf0c07c7	-0.5469937
97	0x3fd26b7d	1.6439053
98	0xc039ae6e	-2.9012713
99	0x3fbf18b7	1.4929417
100	0x3fdbb71b	1.7165254
101	0x3f46a77a	0.775993
102	0xc00d7a54	-2.2105913
103	0x3f8944b6	1.0724094
104	0xbf4890ff	-0.78346246
105	0xbf553b39	-0.8329349
106	0x3e80851c	0.25101554
107	0xc008d25d	-2.1378396
108	0x3f94d56e	1.1627634
109	0xbf156516	-0.5835737
110	0xbe516c13	-0.20451383
111	0x3f32b4f5	0.6980737
112	0xbdbc955e	-0.09208177
113	0x3f4d3295	0.8015531
114	0x3fad50de	1.3540304
115	0xbfa9f9af	-1.3279322
116	0xbfa9db01	-1.326996
117	0x3ef788dd	0.48346606
118	0x3f1f69c9	0.6227079
119	0x3f957dbe	1.1678998

linear.0.bias f4 [10]
0	0xbf9c0e40	-1.2191849
1	0xbe83ede2	-0.25767428
2	0xbfb956e7	-1.4479645
3	0xbf21f2f3	-0.63261336
4	0xbea43a53	-0.32075748
5	0xbf3f7605	-0.7478946
6	0x3a3bc90e	0.00071634434
7	0x3dc190cd	0.09451447
8	0xc001746b	-2.0227306
9	0x3f4a2e4c	0.78976893

linear.3.weight f4 [8, 10]
0	0x3f9ceda5	1.2260023
1	0x404d8d07	3.2117326
2	0xbeee7000	-0.46569824
3	0x3f02902b	0.5100123
4	0x3caaae79	0.020835148
5	0x403a613d	2.912185
6	0xbd57fbdb	-0.052730422
7	0xc001ddaa	-2.0291543
8	0x3faad50e	1.3346269
9	0xbf1a3829	-0.60241944
10	0xbf3d42a2	-0.739298
11	0x3ede68f0	0.43439436
12	0x40528108	3.2891254
13	0x3f88fe54	1.0702615
14	0xc05141bf	-3.2696378
15	0x3f007120	0.50172615
16	0xc05c4334	-3.4416018
17	0xbe737096	-0.23773417
18	0xbf1c3f66	-0.6103424
19	0xbe3b4aef	-0.18290304
20	0x407542ce	3.8322024
21	0x3ff50d92	1.9144766
22	0xbe7b635b	-0.2454962
23	0x3fd96bf1	1.6986066
24	0x3f0e1444	0.5549967
25	0x407d46d9	3.9574492
26	0x3f086333	0.53276366
27	0xbdfa1177	-0.122103624
28	0x402f3d4b	2.738116
29	0x3ec600ce	0.3867249
30	0xbfc79bde	-1.5594442
31	0xbfe6b487	-1.8023843
32	0xbf17745e	-0.5916194
33	0xbfe19a72	-1.7625258
34	0x3fa9712a	1.323766
35	0xbfdd5eb3	-1.7294525
36	0x3fda8d83	1.7074436
37	0x3ff76158	1.9326582
38	0xbfdac9c8	-1.7092829
39	0x3fb0d45b	1.3814806
40	0xc0049d2c	-2.072093
41	0x4044a258	3.0724087
42	0xbe214958	-0.15750635
43	0x406de04a	3.7168145
44	0xc0461735	-3.0951664
45	0x3f231b1e	0.6371325
46	0xbfa2360b	-1.2672743
47	0x3ed3aa20	0.41340733
48	0xc03ab154	-2.9170732
49	0x3ab85a84	0.0014065062
50	0x40805800	4.010742
51	0x40184838	2.379408
52	0xbe3694e2	-0.17830232
53	0x406801b5	3.6251042
54	0x3ebbad4c	0.36655653
55	0x3f846050	1.0341892
56	0x3de85321	0.113439806
57	0xbe8a9983	-0.27070245
58	0x4021dd1d	2.5291207
59	0xbfd9805a	-1.6992295
60	0xbf11746e	-0.5681828
61	0x3d225d15	0.03963955
62	0x40474690	3.1136818
63	0x3f99c794	1.2014031
64	0xc048143f	-3.1262357
65	0x3e481181	0.19537927
66	0xc01ec613	-2.4808395
67	0xbe7e0a97	-0.24808727
68	0xbf678092	-0.9043056
69	0xbe9befc5	-0.30456367
70	0xc07ca4c5	-3.9475567
71	0xbf40f57e	-0.7537459
72	0xbf1841f6	-0.5947565
73	0xbcc58fad	-0.024116362
74	0x3ed3c348	0.41359925
75	0xbfd81640	-1.688179
76	0x3fca73c6	1.5816581
77	0x40239d65	2.5564816
78	0xbd7974e1	-0.06090248
79	0x3fe3cf72	1.7797682

linear.3.bias f4 [8]
0	0xbebb4fbd	-0.36584273
1	0x3ff57040	1.9174881
2	0xb9c79e80	-0.0003807433
3	0xbc14edb2	-0.009089874
4	0xba362ac8	-0.0006949124
5	0xbc24e729	-0.0100648785
6	0x3ff0c040	1.880867
7	0xbbe72892	-0.007054397

linear.6.weight f4 [5, 8]
0	0x3fe91681	1.8209993
1	0x3feb122c	1.8364921
2	0x3f8f29e8	1.1184664
3	0xc009626a	-2.1466317
4	0x400efa9d	2.2340462
5	0x3edd601c	0.43237388
6	0x3fdb0ecd	1.7113892
7	0xbfe3378b	-1.7751325
8	0xc0572a5e	-3.361961
9	0x3ff7f476	1.9371479
10	0xc0cee8ea	-6.465932
11	0xc0311bd1	-2.7673228
12	0xc0a07174	-5.0138493
13	0xc0816771	-4.043877
14	0x3fd5b820	1.6696815
15	0xc08b20c7	-4.347751
16	0xbf5089c1	-0.81460196
17	0x3fe13530	1.7594357
18	0x3e75c4b8	0.24000823
19	0x3fca19a1	1.5789071
20	0x3fbb7c26	1.4647262
21	0xbf5b3f20	-0.85643196
22	0x3fc494c3	1.5357898
23	0x3f81d883	1.0144199
24	0x3f9b47e4	1.2131314
25	0xc04d9ea6	-3.2128081
26	0x3faaed73	1.3353714
27	0x3fe10047	1.757821
28	0xc0780f98	-3.8759518
29	0x3f4ff0cb	0.81226796
30	0xc0434a7b	-3.051421
31	0x3f9890c1	1.1919175
32	0x400438cc	2.0659666
33	0xc02a3a67	-2.6598146
34	0x3fb36ee0	1.4018211
35	0x3f210dac	0.62911487
36	0x3fa22dea	1.2670262
37	0x3f7c03b6	0.9844316
38	0xc01e1ad3	-2.4703872
39	0x3f26dc9c	0.65180373

linear.6.bias f4 [5]
0	0xc084b9d7	-4.1476855
1	0x40f15718	7.5418816
2	0x40a76326	5.230853
3	0xbf0c06ee	-0.54698074
4	0xc0e225ef	-7.0671306

exp_avg f4 [10, 12]
0	0x399ee50a	0.00030306756
1	0xb89b12e4	-7.3944946e-05
2	0x39336c04	0.00017111009
3	0x3989be6f	0.0002627256
4	0x37aaa7f0	2.0343781e-05
5	0x3952bc45	0.00020097297
6	0x3854d852	5.0746203e-05
7	0x390bb4cb	0.00013323424
8	0x3819175d	3.64998e-05
9	0xb7e4eeb3	-2.7290871e-05
10	0x3a0ea3dc	0.0005441287
11	0x3945ef6a	0.00018876573
12	0x3925663a	0.00015773709
13	0xb8010e6a	-3.076942e-05
14	0xb91fc554	-0.00015236932
15	0x38eefbd1	0.00011395629
16	0x380ff53a	3.4322242e-05
17	0x392a0031	0.00016212535
18	0x3841a652	4.6169684e-05
19	0xb6125200	-2.1803426e-06
20	0x38cb249a	9.686612e-05
21	0x38022724	3.1030868e-05
22	0x3913e24d	0.00014103316
23	0x38cf307e	9.8795615e-05
24	0x36bcc294	5.6254885e-06
25	0xb6d048c6	-6.207355e-06
26	0xb886c9e2	-6.4272215e-05
27	0x380c642d	3.3471897e-05
28	0xb58f4b4f	-1.0676248e-06
29	0x3677b80c	3.6912998e-06
30	0x3683508f	3.9134825e-06
31	0xb49f5d60	-2.9683997e-07
32	0xb7afbff0	-2.0951004e-05
33	0xb4dd5e60	-4.1233125e-07
34	0x364042fa	2.8649215e-06
35	0x37787e06	1.4811294e-05
36	0x373beee0	1.1201686e-05
37	0x3755f2c0	1.2752309e-05
38	0xb8cd47f7	-9.788566e-05
39	0xb8011114	-3.0771902e-05
40	0xb927cf9f	-0.00016003706
41	0x38eb3dba	0.00011217171
42	0x382fc62b	4.190781e-05
43	0xb97b4482	-0.00023962746
44	0xb907336e	-0.00012893762
45	0x398f3b76	0.00027319387
46	0x38407f6a	4.589503e-05
47	0xb8cf3cd0	-9.8818564e-05
48	0xb891afd9	-6.946893e-05
49	0x37e26182	2.6986705e-05
50	0xb81ac990	-3.690418e-05
51	0xb8cf395c	-9.881213e-05
52	0xb9784e1c	-0.00023680221
53	0xb8512956	-4.986798e-05
54	0x37f5376e	2.9232087e-05
55	0xb8a7c4f8	-7.999869e-05
56	0xb92809df	-0.00016025406
57	0xb83f8ca9	-4.566895e-05
58	0xb7c87306	-2.389542e-05
59	0xb8bc04ae	-8.96541e-05
60	0x376d0fd2	1.4129984e-05
61	0xb8f5b69d	-0.00011716525
62	0x389539ef	7.1156646e-05
63	0x365ba5c0	3.2730022e-06
64	0x389a425b	7.355652e-05
65	0x3847f82c	4.7676425e-05
66	0x385192ac	4.9966082e-05
67	0x35701ae0	8.9446075e-07
68	0x3632e0ac	2.6654843e-06
69	0xb8632539	-5.4155684e-05
70	0x3867ed4a	5.5295684e-05
71	0x38b176b0	8.462125e-05
72	0x38bea1dd	9.0900554e-05
73	0xb7f0a5bb	-2.8687404e-05
74	0xb74b536c	-1.2119166e-05
75	0x36bd997c	5.650507e-06
76	0x37db2888	2.6125708e-05
77	0xb8155715	-3.560547e-05
78	0xb7b8d513	-2.203373e-05
79	0x3879ed26	5.9587088e-05
80	0x37df48a6	2.6617501e-05
81	0xb75f1420	-1.32965215e-05
82	0xb6b8d232	-5.5080973e-06
83	0xb74d0214	-1.2219436e-05
84	0x373faddc	1.1424967e-05
85	0x3868833a	5.5435325e-05
86	0x38444f22	4.680374e-05
87	0x39342986	0.00017181606
88	0x3618a520	2.274588e-06
89	0x384f5930	4.943571e-05
90	0x356a72e0	8.733896e-07
91	0xb524e720	-6.143109e-07
92	0x38486d20	4.7785346e-05
93	0xb7fdaa42	-3.0239233e-05
94	0x38f93ea6	0.000118849144
95	0xb8878c61	-6.463449e-05
96	0xb88bf02a	-6.6727705e-05
97	0x384bb07c	4.8563335e-05
98	0x38aab54f	8.140003e-05
99	0xb8cbda61	-9.7204706e-05
100	0xb7d0e3b4	-2.4901565e-05
101	0xb8213411	-3.8433882e-05
102	0x372a097c	1.0134998e-05
103	0x3800cf65	3.071073e-05
104	0x38273e24	3.9873776e-05
105	0x381cf512	3.7421538e-05
106	0xb87cc42f	-6.0264192e-05
107	0x38a58b52	7.8937635e-05
108	0xb889dd9d	-6.573948e-05
109	0x39404e5a	0.00018339735
110	0xb9023ced	-0.00012420463
111	0x37db8139	2.6167008e-05
112	0x387aa12a	5.975474e-05
113	0x3910b9f9	0.0001380219
114	0x380017fc	3.0539915e-05
115	0xb8809cbb	-6.132709e-05
116	0xb8229434	-3.8761835e-05
117	0x37ba5cf7	2.2216218e-05
118	0x373e29a8	1.1334581e-05
119	0xb8eee8d6	-0.000113920934

exp_avg_sq f4 [10, 12]
0	0x358a84bf	1.0320435e-06
1	0x3529559b	6.308198e-07
2	0x355f3568	8.315169e-07
3	0x35523980	7.831477e-07
4	0x36023400	1.9401778e-06
5	0x34dc2346	4.1003858e-07
6	0x33af8377	8.172986e-08
7	0x35817783	9.646031e-07
8	0x33bbd6db	8.746948e-08
9	0x33741b46	5.6835482e-08
10	0x35b5acf3	1.3535886e-06
11	0x3593a859	1.1001349e-06
12	0x35328db6	6.6516384e-07
13	0x35a7b024	1.2493733e-06
14	0x360878d3	2.0335908e-06
15	0x35727000	9.0315007e-07
16	0x364def4d	3.0686672e-06
17	0x358a0890	1.0284293e-06
18	0x34bdcade	3.53516e-07
19	0x35a10f13	1.1999822e-06
20	0x35209236	5.981741e-07
21	0x344a46fc	1.883854e-07
22	0x351fc60b	5.9520306e-07
23	0x360c1e8e	2.087941e-06
24	0x346923f7	2.17129e-07
25	0x340c61d6	1.3074109e-07
26	0x34151c5d	1.3887025e-07
27	0x33a3cfbc	7.628066e-08
28	0x33ed1dc7	1.1041589e-07
29	0x3472d476	2.2615299e-07
30	0x32dead61	2.5923045e-08
31	0x32cef769	2.4094065e-08
32	0x338a644a	6.444368e-08
33	0x32802413	1.4917566e-08
34	0x340bdef6	1.3026497e-07
35	0x33e37c76	1.05931505e-07
36	0x35e71c11	1.721901e-06
37	0x36341446	2.683389e-06
38	0x35f8e94c	1.8545338e-06
39	0x35bcb08c	1.4058473e-06
40	0x357e6fc6	9.4785025e-07
41	0x35fa2e1d	1.8639872e-06
42	0x343383da	1.6718641e-07
43	0x360e1f66	2.1177925e-06
44	0x35c095ba	1.4348691e-06
45	0x36236183	2.4345652e-06
46	0x35ba4f45	1.388115e-06
47	0x35cdbcc2	1.5328626e-06
48	0x34824758	2.4266296e-07
49	0x350e666a	5.3048154e-07
50	0x353e3a3c	7.086526e-07
51	0x34d69eb9	3.9976092e-07
52	0x36814d2f	3.853485e-06
53	0x351f91d7	5.944434e-07
54	0x33a184dd	7.5213144e-08
55	0x35b1ccd0	1.3247136e-06
56	0x35eb6856	1.753923e-06
57	0x33fbe4cf	1.1729718e-07
58	0x358481f8	9.872592e-07
59	0x3506e709	5.025509e-07
60	0x349aa05a	2.8801406e-07
61	0x35017165	4.8221256e-07
62	0x350b9276	5.1994664e-07
63	0x3494c83f	2.7712846e-07
64	0x3510fa35	5.400828e-07
65	0x3437a8c6	1.7104603e-07
66	0x33883a1c	6.3435635e-08
67	0x354d04a7	7.637522e-07
68	0x34231fe5	1.5192161e-07
69	0x3457c418	2.0094774e-07
70	0x346cef08	2.2066172e-07
71	0x35118ef2	5.422472e-07
72	0x35276025	6.2352257e-07
73	0x34aacd91	3.1814537e-07
74	0x3483e74a	2.4568936e-07
75	0x341696b5	1.4024666e-07
76	0x342bc9e5	1.5999065e-07
77	0x34f7d059	4.6158928e-07
78	0x339b2b64	7.225643e-08
79	0x34841289	2.4600402e-07
80	0x34674fdc	2.1542604e-07
81	0x339f0297	7.4044856e-08
82	0x34771b5f	2.3013625e-07
83	0x34617025	2.0995556e-07
84	0x3567005d	8.6054735e-07
85	0x3642cbf6	2.9026974e-06
86	0x354c76ae	7.6168624e-07
87	0x360bfeb9	2.0860882e-06
88	0x357a536b	9.3253647e-07
89	0x35458fa9	7.359727e-07
90	0x346f73b8	2.2300708e-07
91	0x34e5e97f	4.2824465e-07
92	0x35b70c9c	1.3638232e-06
93	0x344cd6a2	1.9077063e-07
94	0x35a743c6	1.2462194e-06
95	0x36119b80	2.1697197e-06
96	0x34a71941	3.112455e-07
97	0x34a41d98	3.0568913e-07
98	0x34c8d34c	3.7406642e-07
99	0x34b4afd9	3.365556e-07
100	0x346bece1	2.1972257e-07
101	0x34356a71	1.6895662e-07
102	0x3382d7cc	6.09285e-08
103	0x34c66227	3.695179e-07
104	0x34253f4a	1.5389847e-07
105	0x33eddeb4	1.1076682e-07
106	0x348b3023	2.5925792e-07
107	0x35205a27	5.9735834e-07
108	0x35e6498c	1.715774e-06
109	0x3603f483	1.9662846e-06
110	0x35a190e7	1.2037607e-06
111	0x35a4efb4	1.2288715e-06
112	0x352c9dde	6.430472e-07
113	0x35b22894	1.3273843e-06
114	0x34735323	2.2661384e-07
115	0x358e7302	1.0613296e-06
116	0x3503a217	4.9037175e-07
117	0x34829c80	2.4328256e-07
118	0x3527ebda	6.255556e-07
119	0x352879b6	6.276199e-07

exp_avg f4 [10]
0	0x39c87122	0.00038231263
1	0xb8b13024	-8.4489846e-05
2	0x37360f3c	1.0851592e-05
3	0x38b2aef0	8.520286e-05
4	0xb8356389	-4.3246462e-05
5	0x38fe3522	0.000121215606
6	0x36bc4b42	5.6115978e-06
7	0xb9437aa2	-0.00018642333
8	0x38912cdd	6.922495e-05
9	0xb955b14a	-0.00020379308

exp_avg_sq f4 [10]
0	0x35512aa4	7.792062e-07
1	0x35fff839	1.9071223e-06
2	0x3499e5b2	2.8665596e-07
3	0x362b83e0	2.5557747e-06
4	0x353320e1	6.673054e-07
5	0x34a7cb4b	3.125409e-07
6	0x349bedd1	2.9044034e-07
7	0x3607ffec	2.0265534e-06
8	0x34ab38dc	3.1892603e-07
9	0x35f5ff66	1.8328253e-06

exp_avg f4 [8, 10]
0	0x3670a486	3.5858552e-06
1	0xb8b2c402	-8.524211e-05
2	0x36088606	2.034359e-06
3	0xb7e4bab4	-2.7266658e-05
4	0xb90ae448	-0.00013245747
5	0xb8428272	-4.637469e-05
6	0xb849bb49	-4.8096557e-05
7	0x36f45860	7.282055e-06
8	0xb84eab62	-4.927384e-05
9	0x37c2daf7	2.3228566e-05
10	0x380e5f93	3.394445e-05
11	0x3792cd6b	1.7500211e-05
12	0xb87c20c9	-6.0112015e-05
13	0xb7964155	-1.7911816e-05
14	0x38958cfb	7.131133e-05
15	0x38f08038	0.000114679744
16	0x375d33f5	1.3184724e-05
17	0x3852c4ce	5.025119e-05
18	0x384207d8	4.626051e-05
19	0xb78797b0	-1.6163889e-05
20	0xb8accc58	-8.239661e-05
21	0xb864942a	-5.4497425e-05
22	0xb82c3f6a	-4.1067055e-05
23	0x36a1c137	4.820667e-06
24	0xb7e163dc	-2.686859e-05
25	0xb92f9d2e	-0.00016747855
26	0xb757faf5	-1.2873429e-05
27	0x3832ab41	4.2598e-05
28	0xb92bb97d	-0.0001637693
29	0xb70980b2	-8.195801e-06
30	0x38248e6c	3.9233288e-05
31	0xb88b8a62	-6.653812e-05
32	0x34e85291	4.3273442e-07
33	0xb6e27db5	-6.749959e-06
34	0xb8ac5dd2	-8.2190745e-05
35	0x38458d2e	4.7099944e-05
36	0xb8bae709	-8.912205e-05
37	0x358ce820	1.049837e-06
38	0x37bcb42e	2.249525e-05
39	0x36a28508	4.843463e-06
40	0xb85f017c	-5.3168726e-05
41	0xb791249a	-1.7302391e-05
42	0x38810436	6.151984e-05
43	0xb8c90e2a	-9.587065e-05
44	0x37a9b7e1	2.0231995e-05
45	0xb8097fc5	-3.278234e-05
46	0x37510ec4	1.2460809e-05
47	0xb9331a4e	-0.0001708057
48	0x37de755a	2.6519108e-05
49	0xba85b7a5	-0.0010201825
50	0xb8229a7e	-3.8767692e-05
51	0xb856969c	-5.1161842e-05
52	0x38003276	3.0564574e-05
53	0xb82650e0	-3.9652805e-05
54	0x36723618	3.6092297e-06
55	0x3691b9a7	4.3429495e-06
56	0x389720a4	7.206321e-05
57	0x37ae4606	2.0775024e-05
58	0xb7a3649d	-1.9477966e-05
59	0x368c7eb5	4.187076e-06
60	0x35c5e49c	1.4744178e-06
61	0xb7010d20	-7.692055e-06
62	0xb879d19b	-5.9561437e-05
63	0xb802baa0	-3.1168223e-05
64	0x36e40e80	6.7966175e-06
65	0xb6ffc653	-7.62268e-06
66	0x36c0eed8	5.749851e-06
67	0x390171cf	0.00012344796
68	0x36ad01a9	5.155995e-06
69	0xb83ea37a	-4.545178e-05
70	0x383a6516	4.444e-05
71	0x37902d1a	1.718714e-05
72	0xb777f270	-1.4778794e-05
73	0xb7878a8d	-1.6157772e-05
74	0x3734bdf6	1.0773065e-05
75	0x375066c6	1.2421695e-05
76	0xb6b1ffb8	-5.3047806e-06
77	0xb689f596	-4.111508e-06
78	0xb76afccd	-1.4006347e-05
79	0xb8a3f2db	-7.817681e-05

exp_avg_sq f4 [8, 10]
0	0x332187c2	3.7609205e-08
1	0x34a87346	3.137631e-07
2	0x34bd499b	3.5257548e-07
3	0x33e8bd77	1.0837805e-07
4	0x35e032e5	1.6704113e-06
5	0x34f03cb0	4.474764e-07
6	0x34aff1ab	3.2772127e-07
7	0x3393bd72	6.879681e-08
8	0x352a2cab	6.3394936e-07
9	0x3382edd5	6.096858e-08
10	0x336ea9e7	5.556822e-08
11	0x3490b392	2.6952745e-07
12	0x347f2e2e	2.3765526e-07
13	0x356d9ff5	8.852215e-07
14	0x3496f68d	2.8119067e-07
15	0x3522e953	6.0689234e-07
16	0x33544260	4.9420464e-08
17	0x35703f27	8.9498866e-07
18	0x3390d256	6.7437824e-08
19	0x3627a71f	2.4982216e-06
20	0x344b3004	1.8923316e-07
21	0x34fff728	4.767728e-07
22	0x350cef76	5.2502526e-07
23	0x342605e5	1.5462099e-07
24	0x35422d38	7.2336434e-07
25	0x34c739cd	3.7108694e-07
26	0x33b4a0eb	8.411174e-08
27	0x35a97ee2	1.2628409e-06
28	0x3587d6b8	1.0120775e-06
29	0x35e44b86	1.7009304e-06
30	0x338b5c52	6.489485e-08
31	0x34a6feb6	3.1105236e-07
32	0x34e99848	4.351043e-07
33	0x3426785c	1.5503741e-07
34	0x35447200	7.318158e-07
35	0x339335c4	6.855001e-08
36	0x34f9e01d	4.6542928e-07
37	0x33f3d91a	1.135506e-07
38	0x33965322	7.000041e-08
39	0x34caf8a7	3.780635e-07
40	0x32d8cc6f	2.5238675e-08
41	0x340c9f67	1.3096506e-07
42	0x352f8478	6.538535e-07
43	0x34ac9773	3.214769e-07
44	0x332a8f97	3.9711804e-08
45	0x350e9119	5.3110267e-07
46	0x34fdb166	4.7253997e-07
47	0x353a8c90	6.9494945e-07
48	0x34750e40	2.2822587e-07
49	0x3781bc26	1.5465612e-05
50	0x33854581	6.205938e-08
51	0x348d1fd9	2.628647e-07
52	0x3559b2ef	8.109918e-07
53	0x33ab2327	7.969202e-08
54	0x34838640	2.449833e-07
55	0x33f6d7d8	1.14945294e-07
56	0x3402ec31	1.219312e-07
57	0x3459e2b0	2.0292168e-07
58	0x3490a073	2.6938832e-07
59	0x33f69d2b	1.1483856e-07
60	0x33b34034	8.3470155e-08
61	0x343f9862	1.7843698e-07
62	0x34d38c34	3.9403824e-07
63	0x350abdff	5.1685487e-07
64	0x321d721c	9.164548e-09
65	0x3399cd8a	7.162005e-08
66	0x3197a606	4.413553e-09
67	0x34a403ec	3.0550234e-07
68	0x32a57357	1.9260979e-08
69	0x3441126c	1.7981228e-07
70	0x32def773	2.5956728e-08
71	0x343e35cc	1.77147e-07
72	0x34c92cb6	3.74717e-07
73	0x33590e3f	5.0537206e-08
74	0x34b3df9e	3.350405e-07
75	0x331051c7	3.360199e-08
76	0x3560b3f1	8.370835e-07
77	0x3495566f	2.7816301e-07
78	0x330ddc2d	3.302937e-08
79	0x35234e45	6.083613e-07

exp_avg f4 [8]
0	0x38fd1fdf	0.000120699166
1	0x36e2e59b	6.7620545e-06
2	0xb977cb47	-0.00023631482
3	0xb895b958	-7.1393966e-05
4	0x39a6f643	0.00031845467
5	0x378c6ed4	1.6740909e-05
6	0xb7c47ba4	-2.3422595e-05
7	0xb7e000a8	-2.6703186e-05

exp_avg_sq f4 [8]
0	0x35e3a0ac	1.695958e-06
1	0x3577e6c3	9.2350473e-07
2	0x36ea7cb9	6.988263e-06
3	0x359d8e27	1.1738783e-06
4	0x36a16faa	4.8111733e-06
5	0x352d323c	6.452062e-07
6	0x3517852a	5.644566e-07
7	0x35d90fb7	1.6172334e-06

exp_avg f4 [5, 8]
0	0xb902f5ee	-0.00012489382
1	0x38312546	4.2234802e-05
2	0xb8aedfea	-8.338674e-05
3	0x38420165	4.6254503e-05
4	0xb89cc228	-7.474824e-05
5	0x37b6328b	2.1719627e-05
6	0xb728f25c	-1.0070009e-05
7	0x37f428e8	2.9106115e-05
8	0x38abd120	8.192868e-05
9	0xb7c17fd5	-2.306692e-05
10	0x3950165f	0.0001984476
11	0x3869f753	5.5781868e-05
12	0x385a4e4f	5.204818e-05
13	0x38c3851a	9.323117e-05
14	0xb7f248f8	-2.8882627e-05
15	0x3857e728	5.1475276e-05
16	0x38631b34	5.4146352e-05
17	0xb8fae8f2	-0.000119643184
18	0xb7667141	-1.3735437e-05
19	0x364697c0	2.959263e-06
20	0xb7a6de64	-1.98923e-05
21	0xb6847bd3	-3.9483216e-06
22	0xb80ba9ff	-3.3298504e-05
23	0xb7968188	-1.7941711e-05
24	0xb777cf8c	-1.47706705e-05
25	0x38759e52	5.856e-05
26	0x3999c27d	0.0002932734
27	0x374737a8	1.1874283e-05
28	0x37e5cc88	2.739417e-05
29	0xb6ccb1b0	-6.1003593e-06
30	0x385e8ca8	5.305992e-05
31	0xb7fd99a6	-3.0231498e-05
32	0x367148f0	3.5954254e-06
33	0x382feb06	4.1942134e-05
34	0xb9cedfe8	-0.00039458205
35	0xb8f51875	-0.00011687066
36	0x377f00a0	1.519933e-05
37	0xb8dbfcea	-0.00010489843
38	0x37a1177e	1.9203635e-05
39	0xb807ed40	-3.2407464e-05

exp_avg_sq f4 [5, 8]
0	0x35709a9d	8.963196e-07
1	0x353d9702	7.062773e-07
2	0x353c9375	7.0250036e-07
3	0x34c163ca	3.6021657e-07
4	0x34ba9d86	3.4759813e-07
5	0x35c35bd0	1.4555353e-06
6	0x34fd40b8	4.717201e-07
7	0x348aecb1	2.587672e-07
8	0x34f2073f	4.5081285e-07
9	0x358b4e00	1.0379008e-06
10	0x34b83245	3.4309247e-07
11	0x345defa6	2.0669412e-07
12	0x33bdc7b8	8.837327e-08
13	0x350e1707	5.293263e-07
14	0x354e58e0	7.687031e-07
15	0x341037c5	1.3431334e-07
16	0x34497d63	1.8765199e-07
17	0x34057f4d	1.2432902e-07
18	0x3414f5fe	1.3873066e-07
19	0x354f281c	7.7171876e-07
20	0x345d3e89	2.0604979e-07
21	0x34d59e90	3.978971e-07
22	0x33b8c99a	8.604839e-08
23	0x358ee5bd	1.0646687e-06
24	0x333d9df9	4.4148667e-08
25	0x34c8158e	3.7268586e-07
26	0x36a57cba	4.9319033e-06
27	0x356509d6	8.532346e-07
28	0x33a58ee5	7.7094036e-08
29	0x3502108f	4.845287e-07
30	0x343c1ea4	1.7520011e-07
31	0x360b5bd2	2.076606e-06
32	0x35e36877	1.6943221e-06
33	0x34c93433	3.7477147e-07
34	0x36e0e975	6.702898e-06
35	0x341e461e	1.4740405e-07
36	0x34ae0b38	3.2418188e-07
37	0x369f887b	4.7544577e-06
38	0x3469c7fa	2.1772567e-07
39	0x340af3f8	1.2941007e-07

exp_avg f4 [5]
0	0x38ea77ae	0.000111802816
1	0xb9cce16e	-0.0003907787
2	0xb913720e	-0.00014061501
3	0x37f65882	2.93667e-05
4	0x39cc9741	0.00039022605

exp_avg_sq f4 [5]
0	0x34d73db6	4.009177e-07
1	0x35a06db4	1.1952857e-06
2	0x3473b572	2.2697148e-07
3	0x3447f68c	1.8623012e-07
4	0x359d0c45	1.1700982e-06
